hosp_models/deploy_week_49_25/fnp_enc.pt (torch, 762335 bytes, 64 tensors)

cond_trans.0.weight f4 [100, 60]
0.17377374 -0.09455826 0.16576381 -0.08300746 -0.06981177 -0.072362676 -0.116063185 -0.044962056
-0.0638631 -0.1866314 0.12236781 0.07424349 -0.04119563 0.23026265 0.023092465 0.15573552
-0.09086431 -0.009731763 0.08152355 -0.18729618 0.07875378 -0.050088838 0.057348162 -0.04246518
-0.10796941 0.09559527 0.00011097908 0.07980771 -0.0315425 0.049804844 -0.02469225 0.104354784
0.007359322 -0.1580069 4.9924092e-05 -0.0053407433 -0.059185807 -0.012098826 0.030387972 -0.05509243
0.010518966 0.03583135 0.08918431 -0.008762762 -0.06013238 -0.06457104 0.018151889 -0.21648417
0.097151026 -0.08208391 0.086941876 -0.108070835 0.028647644 0.051295567 -0.101868555 0.035100073
0.062199123 -0.097783804 0.15579341 0.12400725 -0.09167514 0.07244619 0.0742483 -0.01920183
-0.021494083 -0.0334525 0.03221385 -0.084868185 0.12953237 0.017410142 3.1384894e-05 -0.1137783
-0.08920163 -0.08988733 0.1954406 0.07701033 -0.077403404 -0.06475005 -0.11767149 -0.054702513
-0.08479331 -0.0491414 0.07056436 -0.075770386 0.05997533 -0.02478834 0.110922694 0.122659065
0.00017472725 0.05479476 -0.034355797 0.14028029 0.17667472 -0.16518953 0.08531648 0.02113759
0.13915938 -0.06671279 0.02465583 0.10878073 0.16439587 0.023967292 0.056255687 -0.074355125
0.15633923 0.07331463 -0.19132656 0.03434852 -0.03454144 0.11609126 -0.10689709 -0.07252717
-0.059345182 0.032398116 -0.07974508 0.3010955 0.10128936 0.05269009 0.010278122 -0.14754495
0.0025240409 0.09290495 0.053352416 0.023616433 -0.13236262 0.07678425 -0.0041688173 -0.06861902
0.033143815 -0.11729996 -0.009362058 -0.058115352 -0.1326125 0.07791106 -0.05081461 -0.056175105
0.08624777 -0.15048885 0.025619539 0.18224293 -0.08057934 0.02898196 -0.1529814 -0.0112724295
-0.06939291 0.067907505 -0.10244139 0.1086302 0.04616338 0.047491517 -0.025330976 0.083096765
0.049150936 0.013411316 -0.006976606 0.040311858 -0.09632872 -0.107173294 -0.0016280469 0.07878706
-0.0963448 0.123204105 0.15455924 -0.16107146 -0.08915513 0.026980756 -0.090665415 -0.0102793565
0.13460459 0.19357033 -0.14829274 0.04408149 -0.035807926 0.06095834 -0.0060444274 -0.09923241
-0.09470196 -0.13546601 -0.023454603 -0.05573248 0.025887644 0.08059819 -0.036159065 -0.08156015
-0.027149335 0.1544994 0.26518002 0.05241733 -0.03247618 0.05547749 -0.07491746 0.09388172
-0.05696096 -0.114968956 0.16284072 -0.011629054 0.08341177 0.020939473 0.026471771 -0.06791036
-0.074532636 -0.2471464 1.4508168e-05 0.00096676656 -0.0025058803 0.079529054 -0.059322853 -0.019867795
-0.07619166 0.03921346 0.10498191 0.052922327 0.18439375 -0.12183918 0.15516752 -0.087374605
0.07107784 -0.054763965 -0.041293867 0.14709127 0.016671875 -0.0058922167 -0.020717539 -0.025117395
0.22887339 -0.06781451 0.10867249 0.023912273 -0.056670275 -0.14403449 0.041812655 -0.19710983
0.059100397 0.053094674 -0.0660347 0.008144189 0.080952376 -0.004302209 0.10054329 -0.08383925
0.053596627 0.18125995 0.04756955 -0.10829513 -0.10954829 -0.0054262867 -0.07249386 -0.040489454
0.07116545 0.111079186 -0.081908606 0.10178492 -0.016292669 0.02029367 0.06929991 0.05447073
00000000: bef1 313e c3a7 c1bd fdbd 293e d1ff a9bd
00000010: 79f9 8ebd e232 94bd 89b2 edbd 222a 38bd
00000020: a8ca 82bd 4d1c 3fbe f99b fa3d f90c 983d
00000030: c0bc 28bd f9c9 6b3e 692c bd3c 2279 1f3e
00000040: 1117 babd f971 1fbc d2f5 a63d 92ca 3fbe
00000050: a949 a13d f429 4dbd e8e5 6a3d f8ef 2dbd
00000060: 111f ddbd 74c7 c33d 71bd e838 3a72 a33d
00000070: b532 01bd 2a00 4c3d 6747 cabc f6b7 d53d
00000080: 7826 f13b 90cc 21be 9665 5138 6701 afbb
00000090: d16c 72bd 273a 46bc 32f0 f83c 9aa8 61bd
000000a0: be57 2c3c e5c3 123d 43a6 b63d b091 0fbc
000000b0: 5f4d 76bd d23d 84bd 45b3 943c 07ae 5dbe
000000c0: 1ef7 c63d 9c1b a8bd 950e b23d 3e54 ddbd
000000d0: 77ae ea3c 4d1b 523d 76a0 d0bd 18c5 0f3d
000000e0: 82c4 7e3d e042 c8bd 4f88 1f3e 83f7 fd3d
000000f0: 2dc0 bbbd ab5e 943d 7e0f 983d 284d 9dbc
00000100: 5c14 b0bc 7d05 09bd acf2 033d 5fcf adbd
00000110: 22a4 043e b79f 8e3c 46a3 0338 9904 e9bd
00000120: 58af b6bd d916 b8bd 9521 483e 98b7 9d3d
00000130: ad85 9ebd ad9b 84bd c0fd f0bd be0f 60bd
00000140: 1da8 adbd 7e48 49bd 0c84 903d 812d 9bbd
00000150: b1a8 753d eb10 cbbc 702b e33d ad34 fb3d
00000160: fd36 3739 7870 603d aab8 0cbd a3a5 0f3e
00000170: 38ea 343e 7227 29be 68ba ae3d bd28 ad3c
00000180: cc7f 0e3e b7a0 88bd 06fb c93c 6ec8 de3d
00000190: 6457 283e 0e57 c43c 5d6c 663d 8047 98bd
000001a0: 6417 203e fb25 963d 1ceb 43be 09b1 0c3d
000001b0: 537b 0dbd 41c1 ed3d ddec dabd 2089 94bd
000001c0: ef13 73bd e3b3 043d 6351 a3bd 3029 9a3e
000001d0: cc70 cf3d 90d1 573d 9165 283c 0616 17be
000001e0: 616a 253b f344 be3d 1088 5a3d 4077 c13c
000001f0: 118a 07be 1041 9d3d 939a 88bb 2188 8cbd
00000200: cfc1 073d f63a f0bd 5163 19bc 5d0a 6ebd
00000210: 92cb 07be d58f 9f3d fb22 50bd de17 66bd
00000220: aca2 b03d c019 1abe 11e0 d13c e49d 3a3e
00000230: c806 a5bd 936b ed3c 28a7 1cbe ffaf 38bc
00000240: df1d 8ebd 1713 8b3d cbcc d1bd 8379 de3d
00000250: d015 3d3d 7786 423d e882 cfbc a32e aa3d
00000260: 7e52 493d 23bb 5b3c 039c e4bb 0c1e 253d
00000270: fe47 c5bd ac7d dbbd 3064 d5ba 1c5b a13d
00000280: 6c50 c5bd 6f52 fc3d c744 1e3e ebef 24be
00000290: f796 b6bd bf06 dd3c caae b9bd bf6a 28bc
000002a0: c9d5 093e 4d37 463e 0dda 17be cb8e 343d
000002b0: 55ab 12bd 74af 793d 5510 c6bb 5d3a cbbd
000002c0: 1af3 c1bd 9ab7 0abe de23 c0bc be47 64bd
000002d0: 5312 d43c aa10 a53d 871b 14bd 0209 a7bd
000002e0: 4868 debc 1735 1e3e adc5 873e 8eb3 563d
000002f0: be05 05bd 5d3c 633d 536e 99bd 0f45 c03d
00000300: e54f 69bd d874 ebbd b8bf 263e ca87 3ebc
00000310: cad3 aa3d 4289 ab3c 54db d83c 9614 8bbd
00000320: 91a4 98bd f213 7dbe 1b68 7337 9b6e 7d3a
00000330: b239 24bb 21e0 a23d 85fc 72bd c9c1 a2bc
00000340: 5f0a 9cbd 4b9e 203d c100 d73d 15c5 583d
00000350: b7d1 3c3e d286 f9bd 3ce4 1e3e 75f1 b2bd
00000360: 4291 913d 2e50 60bd c223 29bd 189f 163e
00000370: 7593 883c 7f13 c1bb d4b7 a9bc ffc2 cdbc
00000380: c95d 6a3e 55e2 8abd af8f de3d ace3 c33c
00000390: 171f 68bd c77d 13be bf43 2b3d 29d7 49be
000003a0: 4213 723d cd79 593d 333d 87bd 346f 053c
000003b0: 5cca a53d 8bf9 8cbb a4e9 cd3d eab3 abbd
000003c0: 2388 5b3d 359c 393e 4ad8 423d d6c9 ddbd
000003d0: db5a e0bd fece b1bb a977 94bd 45d8 25bd
000003e0: 31bf 913d 7c7d e33d b3bf a7bd 9d74 d03d
000003f0: 3478 85bc e93e a63c 1ced 8d3d b31c 5f3d

cond_trans.0.bias f4 [100]
0.055008415 -0.20721641 -0.07616475 -0.17510413 -0.038939405 0.052756935 -0.06752568 0.15028876
-0.05514002 0.124481715 0.16236974 0.048154686 0.056485873 -0.026504368 -0.15563875 -0.0066991397
-0.20917895 -0.067421615 -0.06929114 -0.04031963 -0.21250227 0.027676526 -0.1217378 -0.1045517
-0.0042178542 0.0023503187 -0.16011728 -0.013850555 0.047558736 -0.07654585 -0.093408346 0.08644007
0.11917393 -0.09155693 -0.16081531 0.13061203 0.14314051 0.018835677 0.13107352 -0.12359612
-0.14470871 -0.15744694 -0.13511525 -0.030499315 -0.17531812 0.058933146 -0.10841876 -0.24790645
-0.044853725 -0.11175358 0.15871224 -0.12914272 -0.10536774 -0.06106489 0.049499128 -0.028401623
0.121902674 -0.035831295 -0.066446155 0.065761 -0.124790184 -0.149447 -0.019595241 -0.07207607
-0.002426056 0.011001092 -0.08804759 -0.04713982 -0.05654527 0.06818823 -0.06959487 0.07084647
0.12779306 -0.01366684 -0.1496897 -0.115794405 0.00014843325 0.0019410397 0.057667725 -0.22590007
-0.19857956 -0.08297059 0.097613126 -0.15516092 -0.07002232 -0.017847711 -0.03264337 -0.07890752
0.013301304 -0.044009797 -0.1470383 -0.099277854 -0.15867916 0.003976176 -0.10768479 -0.10631938
-0.008664173 0.011120214 -0.16120943 -0.25323355
00000000: 8150 613d 8a30 54be 44fc 9bbd 7f4e 33be
00000010: ed7e 1fbd a817 583d e74a 8abd 4ce5 193e
00000020: 80da 61bd 45f0 fe3d 4144 263e d93d 453d
00000030: bb5d 673d b01f d9bc c45f 1fbe 7584 dbbb
00000040: 0233 56be 5814 8abd 83e8 8dbd 3226 25bd
00000050: 329a 59be e2b9 e23c ab51 f9bd 341f d6bd
00000060: ed35 8abb ce07 1a3b c9f5 23be 70ed 62bc
00000070: f3cc 423d 12c4 9cbd e04c bfbd 7e07 b13d
00000080: 7611 f43d 3382 bbbd c5ac 24be 29bf 053e
00000090: 6d93 123e 474d 9a3c 2338 063e f61f fdbd
000000a0: 852e 14be c539 21be a75b 0abe b3d9 f9bc
000000b0: 9886 33be e263 713d a80a debd 30db 7dbe
000000c0: 8ab8 37bd 10df e4bd 7685 223e fd3d 04be
000000d0: 0bcb d7bd 2e1f 7abd 99bf 4a3d 85aa e8bc
000000e0: 1ca8 f93d d6c3 12bd ec14 88bd b4ad 863d
000000f0: ff91 ffbd a208 19be 3386 a0bc 9e9c 93bd
00000100: 77fe 1ebb ed3d 343c 4b52 b4bd af15 41bd
00000110: 039c 67bd 45a6 8b3d c187 8ebd f417 913d
00000120: 2fdc 023e e2ea 5fbc 4248 19be 9e25 edbd
00000130: bfa4 1b39 7c6a fe3a fe34 6c3d 5952 67be
00000140: 7158 4bbe 7cec a9bd 64e9 c73d 81e2 1ebe
00000150: dd67 8fbd 5d35 92bc 0eb5 05bd 449a a1bd
00000160: b6ed 593c 9e43 34bd 3591 16be 3052 cbbd
00000170: ca7c 22be 954a 823b d889 dcbd fabd d9bd
00000180: 2df4 0dbc 8f31 363c 1614 25be d4a7 81be

cond_trans.2.weight f4 [100, 100]
0.065141395 -0.042306125 0.01811538 -0.04543859 0.04858427 -0.09635404 0.09765078 0.0036340815
-0.15592043 -0.058149613 -0.06414375 -0.019826198 -0.13406917 -0.017047886 0.088843055 -0.008917739
0.042439453 0.07089759 -0.031000078 -0.028518671 0.024865005 0.07923546 -0.08987358 -0.022020005
-0.022672243 -0.12506862 -0.0804065 -0.08215114 -0.032920882 0.06730588 0.028449079 -0.0043051
-0.122957416 0.032395687 0.041962214 -0.08207733 0.026648799 0.023232589 -0.02430802 0.006779678
0.031147651 0.02967307 -0.019675381 0.008882153 -0.058599193 -0.09234676 -0.08909362 -0.033072412
0.04833047 0.1133514 -0.05975636 -0.018789595 0.029820032 -0.061014544 -0.01764758 -0.010856505
-0.033020426 0.044157933 -0.10174067 0.05306869 0.073705584 -0.08533395 -0.027656045 -0.0036964598
0.009081231 -0.08142317 -0.009567088 -0.07281925 -0.16382837 0.045419663 -0.018563729 -0.028311267
-0.05013428 -0.08811233 -0.07213995 -0.0632903 -0.037315246 -0.038946573 -0.078215376 0.060470916
0.045603354 -0.12706392 -0.008892899 -0.013650698 -0.10168418 0.030663379 0.08473111 0.08650628
0.055331666 -0.058927637 0.01217748 0.07864311 0.044578046 -0.070684366 -0.04651553 -0.031796698
0.0120895915 0.028113956 -0.084755465 -0.0044534705 0.059134465 0.035326406 -0.03275928 0.016972056
-0.06680315 0.023070829 -0.026321946 -0.038128804 -0.06449027 -0.11483003 -0.050697368 0.051836606
-0.13330057 -0.045715764 -0.08244634 -0.03516584 -0.07076714 0.080069825 0.010045987 -0.0076159816
0.073532976 -0.0023941908 -0.07311795 -0.0005834712 -0.022226626 -0.024711182 -0.096122526 0.01121368
-0.018966489 0.0877133 -0.093835115 -0.10508235 -0.017563106 -0.0057716738 -0.035600655 -0.079533696
-0.0005342349 -0.019560218 -0.05109757 0.013112247 -0.059771653 -0.078707784 -0.08207314 0.008393092
-0.09273979 -0.09076996 -0.023773614 0.034044374 0.054450348 0.026097408 -0.0736885 -0.060984533
0.05542584 0.05172606 -0.015628869 -0.11783847 0.06265004 0.056306932 0.030481536 0.006825144
0.032424413 -0.01827722 0.037946057 0.019415572 -0.090097606 -0.07839879 -0.042403284 -0.033755686
-0.017536689 0.031975992 -0.017955502 -0.05911747 -0.036109813 0.058411088 0.070502356 -0.030687863
-0.009172564 0.06654748 -0.08422665 -0.06680447 0.05148017 0.113225944 -0.016354393 -0.055105332
0.029151594 0.04237329 0.016365785 0.059628375 -0.07330907 -0.001288675 0.039808713 -0.011480028
-0.09172395 -0.0042476244 0.03067467 0.05666269 -0.0018663076 -0.10142122 -0.07452067 -0.006373459
0.04417129 0.04677049 0.047650646 0.0073651196 0.062507056 0.031675808 0.050415028 -0.033759426
-0.011097646 -0.09991246 -0.117153645 -0.030340075 0.027210629 -0.040532283 -0.048490595 0.018464869
0.0930198 -0.08507889 -0.006757057 0.056716863 -0.013529169 -0.07859581 0.03833982 0.054201104
-0.069181785 -0.08497291 0.033985578 -0.13816036 0.019308945 0.0845223 0.035426848 -0.03875507
-0.040898193 0.0011436644 -0.072818734 -0.104210466 -0.052439146 -0.07977311 0.034579445 0.062260155
-0.002469578 -0.07042795 0.024664557 0.059524216 0.05051383 -0.039549798 -0.010946119 -0.084262125
0.014505816 -0.0015572285 -0.014182698 0.01764181 0.025890922 -0.008772019 -0.037074648 -0.061294824
00000000: da68 853d 3049 2dbd b566 943c d11d 3abd
00000010: 4d00 473d 4455 c5bd 22fd c73d c529 6e3b
00000020: 9ba9 1fbe 4a2e 6ebd cc5d 83bd 8d6a a2bc
00000030: 6e49 09be 02a8 8bbc 59f3 b53d b51b 12bc
00000040: fed4 2d3d c132 913d e0f3 fdbc fd9f e9bc
00000050: b2b1 cb3c 3346 a23d a40f b8bd 4c63 b4bc
00000060: 24bb b9bc fd11 00be 2aac a4bd db3e a8bd
00000070: 0cd8 06bd aad7 893d 0b0e e93c cc11 8dbb
00000080: 19d1 fbbd 57b1 043d 92e0 2b3d 2918 a8bd
00000090: 954e da3c 4552 be3c 9d21 c7bc 1028 de3b
000000a0: 5c29 ff3c f014 f33c 442e a1bc 7386 113c
000000b0: b505 70bd 4c20 bdbd b776 b6bd f076 07bd
000000c0: 2cf6 453d c724 e83d 16c3 74bd a3ec 99bc
000000d0: 2449 f43c 63ea 79bd a891 90bc 7bdf 31bc
000000e0: 6d40 07bd f3de 343d 6a5d d0bd 8e5e 593d
000000f0: f4f2 963d 91c3 aebd ee8e e2bc 4e40 72bb
00000100: 72c9 143c 31c1 a6bd 47bf 1cbc 4222 95bd
00000110: a0c2 27be f809 3a3d f612 98bc 08ed e7bc
00000120: 9a59 4dbd 3d74 b4bd 1cbe 93bd 589e 81bd
00000130: dfd7 18bd 7186 1fbd 622f a0bd 5ab0 773d
00000140: 95ca 3a3d 0b1d 02be 86b3 11bc 2da7 5fbc
00000150: cc3f d0bd c431 fb3c 8187 ad3d 342a b13d
00000160: 75a3 623d 1b5e 71bd 0e84 473c a40f a13d
00000170: 7897 363d f7c2 90bd 1287 3ebd 413d 02bd
00000180: 6c13 463c 3d4f e63c 4694 adbd 6bee 91bb
00000190: fb36 723d 6cb2 103d 982e 06bd fb08 8b3c
000001a0: 17d0 88bd 09ff bc3c 1fa1 d7bc f32c 1cbd
000001b0: 7a13 84bd 022c ebbd 0ba8 4fbd 9f52 543d
000001c0: f27f 08be 7440 3bbd a0d9 a8bd 0e0a 10bd
000001d0: 5dee 90bd a6fb a33d ec97 243c 7c8f f9bb
000001e0: 7598 963d dbe7 1cbb ddbe 95bd 17f4 18ba
000001f0: 9d14 b6bc 1b6f cabc e3db c4bd 95b9 373c
00000200: 9c5f 9bbc 08a3 b33d a02c c0bd 6a35 d7bd
00000210: 81e0 8fbc 4f20 bdbb fed1 11bd 90e2 a2bd
00000220: e60b 0cba c03c a0bc b04b 51bd c0d4 563c
00000230: 1fd3 74bd 8c31 a1bd f615 a8bd 2e83 093c
00000240: 5cee bdbd 9ae5 b9bd e2c0 c2bc 1d72 0b3d
00000250: 5407 5f3d 3bca d53c ffe9 96bd ebca 79bd
00000260: 3506 633d b5de 533d 1d08 80bc 4c55 f1bd
00000270: aa4e 803d 19a2 663d 6ab4 f93c 75a5 df3b
00000280: 76cf 043d 1cba 95bc 536d 1b3d 680d 9f3c
00000290: 1885 b8bd 8b8f a0bd 11af 2dbd 6743 0abd
000002a0: 1aa9 8fbc 42f9 023d 6b17 93bc 2925 72bd
000002b0: e2e7 13bd 7740 6f3d 8a63 903d 1d65 fbbc
000002c0: 8648 16bc 0c4a 883d 067f acbd c8d0 88bd
000002d0: dfdc 523d 01e3 e73d a6f9 85bc 21b6 61bd
000002e0: 53cf ee3c 9d8f 2d3d 8a11 863c e23c 743d
000002f0: 1123 96bd c2e8 a8ba 760e 233d ba16 3cbc
00000300: c4d9 bbbd a82f 8bbb 7249 fb3c 2317 683d
00000310: e49e f4ba eeb5 cfbd 4b9e 98bd 73d8 d0bb
00000320: f4ec 343d 6a92 3f3d 532d 433d 1a57 f13b
00000330: b303 803d 7ebe 013d fd7f 4e3d 5347 0abd
00000340: e7d2 35bc e79e ccbd 40ee efbd c08b f8bc
00000350: d3e8 de3c 2e05 26bd 139e 46bd a343 973c
00000360: 2a81 be3d d73d aebd 4d6a ddbb f14f 683d
00000370: 73a9 5dbc d7f6 a0bd 370a 1d3d fa01 5e3d
00000380: 2eaf 8dbd 4706 aebd 7634 0b3d e979 0dbe
00000390: cb2d 9e3c 071a ad3d be1b 113d a3bd 1ebd
000003a0: dd84 27bd 02e7 953a fd21 95bd 4c6c d5bd
000003b0: 6eca 56bd 1660 a3bd 2da3 0d3d 8104 7f3d
000003c0: a5d8 21bb 873c 90bd 530d ca3c aacf 733d
000003d0: 97e7 4e3d f8fe 21bd 5a57 33bc 9f91 acbd
000003e0: cda9 6d3c eb1b ccba 8c5e 68bc 8f85 903c
000003f0: 3319 d43c 84b8 0fbc 96db 17bd 4810 7bbd

cond_trans.2.bias f4 [100]
-0.028973274 -0.032965627 -0.116802715 -0.095516 -0.037134387 -0.00025887994 -0.040161256 0.045394346
-0.09437149 0.085405216 -0.06197645 0.07011171 -0.12238777 0.03625581 0.0038989098 0.0044689593
-0.11955249 -0.051929742 0.13774697 -0.021132832 -0.08055902 -0.062663145 -0.052127566 -0.08263747
0.007872753 0.26650953 -0.05304021 0.043769427 0.061944988 -0.09395084 0.015060388 0.10099459
-0.00096086407 -0.05020654 0.014354207 0.032397166 -0.0047936644 -0.075877525 0.27526575 0.08652526
-0.1483323 -0.10309191 -0.102559544 -0.038357385 0.044181548 0.1413959 -0.14693373 -0.03363493
-0.05129712 0.040233202 -0.09110859 0.08077462 -0.07163679 -0.10446704 -0.08461826 0.07070816
0.11861081 -0.0833803 -0.0943134 0.00027191653 0.088657275 -0.05411378 0.1532315 -0.05969724
-0.119383 -0.11274642 -0.116347 -0.12086485 0.034085132 -0.14447556 0.042403597 0.065479755
0.010628507 -0.06711259 -0.036642846 -0.047875173 -0.0861469 -0.07989762 0.053400114 -0.012455363
-0.11199465 0.045236405 0.17180651 -0.028905274 0.06957977 0.029384317 0.04324194 -0.014899695
-0.09739904 -0.07735674 -0.031068709 0.0032453893 -0.08784743 -0.05782749 -0.13630022 0.033402722
-0.004282424 -0.06975396 0.01135623 0.100531556
00000000: 5c59 edbc f706 07bd 4336 efbd e59d c3bd
00000010: 3a1a 18bd 47ba 87b9 2180 24bd 6cef 393d
00000020: d745 c1bd eee8 ae3d 05db 7dbd ba96 8f3d
00000030: 70a6 fabd f980 143d da84 7f3b 5970 923b
00000040: f0d7 f4bd 48b4 54bd 8b0d 0d3e c31e adbc
00000050: 21fc a4bd 8955 80bd b783 55bd d53d a9bd
00000060: b8fc 003c f073 883e b140 59bd 9247 333d
00000070: 07ba 7d3d 4c69 c0bd d8bf 763c 40d6 ce3d
00000080: 7fe2 7bba 5fa5 4dbd e82d 6b3c e4b2 043d
00000090: 2c14 9dbb ad65 9bbd a2ef 8c3e 2834 b13d
000000a0: 6ce4 17be da21 d3bd bd0a d2bd a21c 1dbd
000000b0: b6f7 343d 16ca 103e cc75 16be c8c4 09bd
000000c0: ee1c 52bd 92cb 243d 2497 babd 2a6d a53d
000000d0: 4fb6 92bd d1f2 d5bd 574c adbd 71cf 903d
000000e0: 39ea f23d 4ac3 aabd 6227 c1bd 0590 8e39
000000f0: f291 b53d 69a6 5dbd b8e8 1c3e 1885 74bd
00000100: 137f f4bd 98e7 e6bd 5647 eebd fe87 f7bd
00000110: da9c 0b3d 67f1 13be 65af 2d3d 401a 863d
00000120: 3023 2e3c 5372 89bd cf16 16bd c218 44bd
00000130: c96d b0bd 5da1 a3bd 14ba 5a3d 9411 4cbc
00000140: 735d e5bd cf49 393d 0cee 2f3e c1ca ecbc
00000150: d77f 8e3d 61b7 f03c 761e 313d da1d 74bc
00000160: 2679 c7bd 366d 9ebd ce83 febc 99b0 543b
00000170: 5ae9 b3bd 85dc 6cbd 4992 0bbe 4bd1 083d
00000180: 9453 8cbb 2adb 8ebd 7b0f 3a3c 7de3 cd3d

cond_trans.4.weight f4 [100, 100]
0.049063154 0.00026913141 -0.01054838 -0.06996317 -0.021188911 -0.014373924 0.11716204 -0.064064175
0.1236143 0.009150548 0.054981064 -0.0148956 0.01310335 0.16109882 0.06413124 -0.20115781
-0.045010775 0.085681595 -0.07743446 -0.039765347 -0.06369976 -0.041530475 -0.055682156 0.034419276
0.017835291 0.11994391 0.09314965 0.042890064 0.097313136 -0.0092893485 0.08233381 0.07902538
-0.1583587 0.06903795 0.014650154 0.019553108 0.08038944 0.04019549 0.028493479 -0.06260462
0.077797264 -0.018118564 0.0020266373 -0.06088692 0.008187173 -0.0566727 0.03755442 0.0523736
-0.01619384 -0.13591495 -0.10435831 0.019153396 -0.056887273 0.07462019 0.053139012 -0.107316606
-0.026778206 -0.08697411 0.06795374 -0.011914682 0.106361344 -0.06453726 0.0051654875 0.06530743
-0.04689384 -0.122590296 -0.04487239 0.033662178 0.14294581 0.026144134 -0.016865566 0.04335826
0.006584108 -0.04482168 -0.12285855 -0.05085993 -0.04084401 0.06201483 0.0432754 -0.014162199
0.028582735 -0.03290191 0.106486596 -0.05478586 0.02168149 0.044477455 -0.0658531 0.085366644
-0.0054794094 0.047850233 -0.0010812142 -0.036443137 0.03222251 -0.019921515 -0.09504672 0.026982212
-0.05160682 -0.023149312 -0.019972816 0.06339088 -0.022317005 -0.008361272 -0.07809038 -0.053911537
-0.018510235 -0.025022224 0.035157576 0.008454696 -0.0134691475 -0.001312412 -0.036809567 -0.04567278
0.06689642 -0.028471375 0.0062148697 -0.12018508 -0.014268594 0.06951906 -0.034484282 -0.052116305
-0.020447675 0.026293743 -0.02799836 0.031620715 -0.021543466 0.010244064 -0.042159595 0.083191946
0.037538677 0.056515295 0.043886073 0.059721876 -0.097871184 0.079166114 0.032679826 0.021671752
-0.032803316 0.093533546 0.010028087 -0.13355516 0.024774559 0.052706636 0.040078647 0.06045753
0.014819469 -0.047584526 -0.04999926 0.065925285 -0.08535189 0.0551161 0.048521247 0.07745784
-0.044812407 0.023104694 0.07249386 -0.017859565 0.030526424 -0.07073441 0.063559 -0.004078363
0.079969764 0.0058162985 0.089298606 0.026920497 0.06472556 0.019400468 -0.07102087 0.013954985
-0.019265192 0.012641607 -0.065185934 -0.008322812 0.0038731222 0.029329868 -0.06699183 -0.029604161
0.1376445 -0.0047697816 -0.06298741 0.07455675 0.051972095 -0.08439998 0.012692577 -0.1157754
0.07648196 0.009597124 0.050684236 0.04544189 0.04483808 0.03546669 0.09395156 0.020393018
0.016278578 0.017717855 -0.07354316 0.06429377 -0.058502488 -0.08531059 -0.04731499 0.04783271
0.038424194 -0.031753067 0.031986915 0.09483468 0.022615664 0.08991156 -0.08797739 0.013686404
-0.07412663 0.03266151 0.0787887 -0.10197041 -0.053254094 -0.020715863 0.05537272 -0.073481664
-0.052222226 -0.04311982 -0.01655279 0.010873051 0.01988064 0.019360058 -0.044020575 -0.029980147
-0.06731276 -0.045013092 -0.092223085 -0.03862987 0.0872601 0.090496436 -0.08347167 0.032287624
-0.099846184 0.097345784 0.06055987 -0.024106897 -0.038627826 0.035099223 -0.075661235 0.074971825
0.016043222 0.013944474 -0.09912661 -0.07479418 -0.028985579 0.012591421 0.06650601 0.06423915
0.091442175 0.022447111 0.046850685 0.052979067 0.028964244 -0.07561691 0.032539446 0.0042431774
00000000: 72f6 483d 351a 8d39 1dd3 2cbc da48 8fbd
00000010: 5e94 adbc 9b80 6bbc a7f2 ef3d 1434 83bd
00000020: 7e29 fd3d 2eec 153c d333 613d ad0c 74bc
00000030: 6faf 563c 17f7 243e 3d57 833d 50fc 4dbe
00000040: 385d 38bd d579 af3d f595 9ebd fde0 22bd
00000050: 0575 82bd dc1b 2abd f912 64bd 3afb 0c3d
00000060: 511b 923c 27a5 f53d 3ec5 be3d 7ead 2f3d
00000070: 1c4c c73d 5a32 18bc a19e a83d 0fd8 a13d
00000080: c828 22be c563 8d3d 3307 703c d72d a03c
00000090: 38a3 a43d 07a4 243d 286b e93c da36 80bd
000000a0: 2c54 9f3d 626d 94bc 55d1 043b 9064 79bd
000000b0: 7e23 063c a221 68bd aad2 193d b385 563d
000000c0: f2a8 84bc 4a2d 0bbe cfb9 d5bd 95e7 9c3c
000000d0: a102 69bd 78d2 983d 4ba8 593d cfc8 dbbd
000000e0: f85d dbbc 7b1f b2bd 552b 8b3d cc35 43bc
000000f0: fad3 d93d 1c2c 84bd 4043 a93b e7bf 853d
00000100: c113 40bd 9f10 fbbd 1ccc 37bd 5ae1 093d
00000110: 6360 123e 392c d63c a829 8abc 6e98 313d
00000120: 80bf d73b f096 37bd 439d fbbd 8152 50bd
00000130: 0c4c 27bd 4303 7e3d 8c41 313d 9108 68bc
00000140: 5726 ea3c 27c4 06bd a515 da3d 2367 60bd
00000150: 619d b13c fe2d 363d fddd 86bd b5d4 ae3d
00000160: 9e8c b3bb 9bfe 433d 87b7 8dba 6645 15bd
00000170: c0fb 033d 7232 a3bc dba7 c2bd cd09 dd3c
00000180: ac61 53bd a0a3 bdbc 089e a3bc 14d3 813d
00000190: 27d2 b6bc b7fd 08bc d9ed 9fbd 58d2 5cbd
000001a0: c7a2 97bc 68fb ccbc 6401 103d 9185 0a3c
000001b0: b3ad 5cbc 3d05 acba a1c5 16bd 6213 3bbd
000001c0: fe00 893d cd3c e9bc 1ba6 cb3b 9823 f6bd
000001d0: d2c6 69bc 0260 8e3d 643f 0dbd e877 55bd
000001e0: e281 a7bc fa65 d73c d15c e5bc b984 013d
000001f0: ec7b b0bc b8d6 273c 8aaf 2cbd 8a60 aa3d
00000200: 28c2 193d 957c 673d e2c1 333d ed9e 743d
00000210: b070 c8bd d821 a23d 48db 053d f588 b13c
00000220: c55c 06bd 848e bf3d d84c 243c afc2 08be
00000230: 04f4 ca3c eae2 573d 8229 243d 51a2 773d
00000240: 5ccd 723c fee7 42bd 06cc 4cbd d603 873d
00000250: f9cc aebd 6bc1 613d 37be 463d 37a2 9e3d
00000260: 378d 37bd 0e46 bd3c a977 943d 394e 92bc
00000270: 8d12 fa3c 34dd 90bd 392b 823d caa3 85bb
00000280: 30c7 a33d a696 be3b 30e2 b63d 6088 dc3c
00000290: d68e 843d bbed 9e3c 6473 91bd 73a3 643c
000002a0: 09d2 9dbc be1e 4f3c 3480 85bd 675c 08bc
000002b0: 35d4 7d3b 3145 f03c 0333 89bd 6d84 f2bc
000002c0: aef2 0c3e d44b 9cbb 8bff 80bd 36b1 983d
000002d0: b1e0 543d e6d9 acbd 87f4 4f3c a71b edbd
000002e0: 93a2 9c3d 413d 1d3c 469a 4f3d 4621 3a3d
000002f0: 22a8 373d 8545 113d ad69 c03d 420f a73c
00000300: a75a 853c 0925 913c cc9d 96bd 74ac 833d
00000310: 4ea0 6fbd 52b7 aebd 5dcd 41bd 3bec 433d
00000320: b062 1d3d 810f 02bd b604 033d af38 c23d
00000330: 7c44 b93c 8d23 b83d 7d2d b4bd f03c 603c
00000340: b4cf 97bd 13c8 053d f85b a13d ddd5 d0bd
00000350: f720 5abd 50b4 a9bc 81ce 623d 8e7d 96bd
00000360: f9e6 55bd 699e 30bd b799 87bc e224 323c
00000370: b9dc a23c fc98 9e3c eb4e 34bd ed98 f5bc
00000380: 46db 89bd a65f 38bd 75df bcbd 5b3a 1ebd
00000390: 6cb5 b23d 3256 b93d 32f3 aabd 0740 043d
000003a0: 287c ccbd 3a5d c73d a00d 783d d47b c5bc
000003b0: 3638 1ebd 34c4 0f3d 47f4 9abd d48a 993d
000003c0: 136d 833c 5d77 643c e402 cbbd b12d 99bd
000003d0: 2a73 edbc 3f4c 4e3c 4e34 883d d18f 833d
000003e0: 0946 bb3d 01e3 b73c 81e6 3f3d 9400 593d
000003f0: 6c46 ed3c 0add 9abd 1548 053d 5a0a 8b3b

cond_trans.4.bias f4 [100]
0.102905236 0.10920077 -0.052660923 0.18235484 0.05169278 0.13921243 -0.08288353 0.10350337
-0.1086258 0.31379572 0.18245806 0.033905886 0.04790581 0.0427472 -0.039677046 0.030906782
0.2582001 0.12799692 0.241297 -0.037089106 -0.09001601 0.108608805 0.15093401 -0.08340585
0.17701088 -0.107874654 -0.024464104 -0.061346598 0.10954898 0.096982464 -0.027480876 0.13658622
-0.052266665 0.40455166 0.12825425 -0.027051203 0.014615478 0.18497482 0.058369916 0.11717934
0.039371796 0.11406734 0.1023221 -0.09334879 -0.12225002 -0.018211458 -0.05250257 -0.09205397
0.3094813 0.1406964 0.1282237 -0.027489996 -0.03735527 -0.068780236 0.16623522 0.40948147
-0.09218638 0.12837604 0.045526672 0.08179279 -0.037016563 0.08147189 -0.11537709 0.228255
0.26055717 0.1328551 0.1792689 -0.00917532 0.15393737 -0.096456446 -0.05354244 0.13221082
-0.099913724 -0.032162365 0.15100373 -0.007914627 -0.064318776 -0.028045975 -0.09380619 0.12788676
-0.09366749 -0.09319487 0.10540207 0.051663592 -0.07737102 -0.032602116 -0.099531434 -0.058322404
0.12067684 0.28130978 -0.0828145 -0.11427587 -0.07448962 -0.05280971 0.11966834 0.10760106
0.2332623 0.23221715 0.21839465 0.118385494
00000000: fbbf d23d a7a4 df3d fbb2 57bd 3abb 3a3e
00000010: cfbb 533d b48d 0e3e d7be a9bd 93f9 d33d
00000020: 3477 debd d5a9 a03e 49d6 3a3e e6e0 0a3d
00000030: e238 443d b017 2f3d 6684 22bd 3830 fd3c
00000040: ce32 843e a011 033e 9016 773e bfea 17bd
00000050: 505a b8bd 4b6e de3d 728e 1a3e b0d0 aabd
00000060: 5742 353e 63ed dcbd f268 c8bc 9246 7bbd
00000070: 375b e03d be9e c63d 931f e1bc 42dd 0b3e
00000080: 9215 56bd 6521 cf3e 1555 033e 7c9a ddbc
00000090: c275 6f3c 0a6a 3d3e 4b15 6f3d b9fb ef3d
000000a0: 5244 213d 239c e93d 408e d13d a72d bfbd
000000b0: 385e fabd 3230 95bc ef0c 57bd cb86 bcbd
000000c0: 5574 9e3e b812 103e 134d 033e b332 e1bc
000000d0: d701 19bd a7dc 8cbd 9139 2a3e 8ea7 d13e
000000e0: 36cc bcbd 0275 033e 2d7a 3a3d fa82 a73d
000000f0: ae9e 17bd bcda a63d d34a ecbd aebb 693e
00000100: c067 853e 2b0b 083e 4492 373e 1554 16bc
00000110: c2a1 1d3e f58a c5bd 514f 5bbd 4662 073e
00000120: 919f ccbd afbc 03bd b9a0 1a3e 5aac 01bc
00000130: 90b9 83bd acc0 e5bc 761d c0bd bff4 023e
00000140: bed4 bfbd f4dc bebd 0add d73d 349d 533d
00000150: b374 9ebd cc89 05bd 23d7 cbbd 79e3 6ebd
00000160: 6b25 f73d d607 903e a69a a9bd 7809 eabd
00000170: 048e 98bd ff4e 58bd ad14 f53d f25d dc3d
00000180: 50dc 6e3e 55ca 6d3e d9a2 5f3e 1874 f23d

p_u.weight f4 [120, 100]
-0.15890631 0.027361257 -0.0062073274 -0.06003419 0.4445454 -0.16768427 -0.010936387 0.24232395
0.033249546 -0.008178795 0.14935629 -0.037000634 -0.08502109 -0.37586898 -0.10144658 -0.06768975
0.109242566 0.055904094 0.039737403 -0.13890181 0.07634084 -0.11674527 0.40026718 -0.047358915
0.05365453 0.001311154 0.019484902 0.08251489 -0.23017588 0.18532556 0.039345115 0.028311266
-0.055445973 0.006933215 0.41092506 -0.040225707 -0.11471616 0.033060834 0.21666 0.106158994
0.28447613 -0.17829199 0.057295866 0.03964856 0.029145572 -0.16407618 -0.27892956 -0.027384138
0.044030294 -0.12316704 -0.1281768 -0.031340916 -0.01111932 0.012385195 0.03585649 0.028602619
-0.06908353 0.20473893 0.026671454 -0.11654843 -0.064993106 -0.06532127 0.08524914 -0.03143224
-0.012427002 -0.027067691 0.0048996564 -0.20902304 0.11733269 0.015161321 0.08606117 0.44850358
-0.050344385 -0.0901795 0.0026297371 0.0014029774 0.03287233 0.23000588 -8.051255e-06 0.06313162
-0.04324753 -0.022159219 -0.0743922 -0.1887267 -0.054806758 0.33919933 -0.06405456 -0.395947
0.32958978 0.085294925 0.039388236 -0.20532912 -0.080537245 0.062006332 -0.05533905 -0.06523821
-0.04408088 0.07831217 0.01588591 0.23109546 -0.057015326 0.06211799 -0.010758003 -0.001653011
0.11429698 -0.03053375 -0.013502526 -0.079807244 -0.07724742 -0.024668703 -0.06246935 0.06343573
-0.5410054 0.1281189 -0.0093142195 0.039611835 0.010710585 -0.00023293815 0.08291643 0.083776794
0.012951218 0.108263105 -0.043006934 0.0021758457 0.072713904 0.023660978 -0.07439959 -0.038335104
-0.050899923 -0.11110481 0.038307335 -0.04276955 -0.064280875 -0.088052675 -0.07342983 0.027611747
0.097663276 0.10408827 0.11462735 -0.060747072 -0.22754344 0.03745892 -0.14391845 0.0323462
0.0610988 -0.055568147 -0.006432617 0.08531838 0.006733061 -0.03158474 0.12090092 0.004453377
0.060127262 -0.047420606 0.056355808 -0.092275165 0.01626371 -0.050591536 0.10170389 0.06256978
0.078544766 -0.060110033 -0.077372424 0.095026635 0.08207266 0.015034427 0.08539656 0.12175023
-0.03660588 0.0068210294 0.025085844 -0.01950789 -0.03472005 0.0047878968 0.007773344 -0.0358004
-0.01326803 0.4109229 0.06947972 0.026851766 -0.040650386 -0.063369244 -0.048923656 0.03099202
0.013598323 0.007332857 0.0027838112 0.031535964 0.07608501 0.105275765 8.1210754e-05 -0.037063472
-0.009595341 -0.07370514 0.014797572 -0.031237885 -0.071583174 -0.030861905 -0.054984607 -0.021409053
0.12915036 0.020815514 0.11137194 -0.027361766 0.06123659 -0.14432026 0.038939714 -0.11693676
0.013963189 -0.14901266 -0.03798903 0.11996444 -0.34987178 0.13493398 0.018881835 0.049816497
-0.16260661 0.08106095 -0.21193752 0.058406275 0.057534423 0.121541336 0.1673069 -0.04100732
-0.14431746 0.020125747 -0.088637166 0.0034561516 0.2220187 0.2675071 -0.020149624 0.08444277
0.06825467 -0.026312692 0.17175291 0.06144637 0.020284662 -0.086333275 0.11011489 -0.0851279
0.4735214 0.074223556 -0.024043448 -0.036465038 -0.029128576 0.19616981 0.25010797 -0.059900858
-0.02634709 -0.013167358 0.019406905 -0.064327456 -0.00904972 -0.061082747 0.009889731 -0.1621527
00000000: 56b8 22be b724 e03c d666 cbbb 69e6 75bd
00000010: 749b e33e 6db5 2bbe 882e 33bc c523 783e
00000020: ad30 083d 5a00 06bc dbf0 183e fa8d 17bd
00000030: 8a1f aebd e671 c0be 39c3 cfbd eca0 8abd
00000040: 91ba df3d b1fb 643d b0c3 223d 473c 0ebe
00000050: 9658 9c3d 2518 efbd d2ef cc3e 6cfb 41bd
00000060: dac4 5b3d 07db ab3a cd9e 9f3c 91fd a83d
00000070: 3ab3 6bbe fcc5 3d3e 5828 213d 07ed e73c
00000080: 511b 63bd 0630 e33b c564 d23e b6c3 24bd
00000090: 4ef0 eabd cc6a 073d 1edc 5d3e e369 d93d
000000a0: dba6 913e 2d92 36be 12af 6a3d 8766 223d
000000b0: b2c2 ee3c 9603 28be dbcf 8ebe b354 e0bc
000000c0: 1c59 343d 003f fcbd c740 03be 555f 00bd
000000d0: cf2d 36bc 46eb 4a3c 41de 123d 0a50 ea3c
000000e0: aa7b 8dbd 15a7 513e 187e da3c f1b0 eebd
000000f0: 1b1b 85bd 28c7 85bd 1a97 ae3d 18bf 00bd
00000100: a09a 4bbc 10bd ddbc 4c8d a03b 230a 56be
00000110: 1f4c f03d 3067 783c d740 b03d 43a2 e53e
00000120: ea35 4ebd 08b0 b8bd ab57 2c3b 1ce4 b73a
00000130: 23a5 063d a986 6b3e e013 07b7 274b 813d
00000140: 5224 31bd 4087 b5bc f05a 98bd 9241 41be
00000150: 0d7d 60bd 89ab ad3e 0a2f 83bd 91b9 cabe
00000160: febf a83e 1baf ae3d 8f55 213d cc41 52be
00000170: b6f0 a4bd 5afa 7d3d 33ab 62bd 9c9b 85bd
00000180: 278e 34bd 2262 a03d 2b23 823c 4aa4 6c3e
00000190: e788 69bd 6f6f 7e3d 5642 30bc d8a9 d8ba
000001a0: 8914 ea3d ea21 fabc b339 5dbc fb71 a3bd
000001b0: e533 9ebd 0516 cabc dcdf 7fbd 98ea 813d
000001c0: 547f 0abf 9a31 033e ab9a 18bc 0540 223d
000001d0: 737b 2f3c dc40 74b9 17d0 a93d 2b93 ab3d
000001e0: 5831 543c 0cb9 dd3d 0a28 30bd a298 0e3b
000001f0: 07eb 943d abd4 c13c d05e 98bd 4505 1dbd
00000200: 707c 50bd eb8a e3bd 27e8 1c3d 202f 2fbd
00000210: b1a5 83bd f654 b4bd 6162 96bd 0832 e23c
00000220: af03 c83d 3b2c d53d bec1 ea3d ecd1 78bd
00000230: 2601 69be 866e 193d 5c5f 13be 737d 043d
00000240: bc42 7a3d 6d9b 63bd b4c8 d2bb 67bb ae3d
00000250: 02a1 dc3b 005f 01bd e79a f73d a2ed 913b
00000260: 0148 763d 1c3c 42bd 59d5 663d c3fa bcbd
00000270: 793b 853c 1239 4fbd 214a d03d 9624 803d
00000280: 14dc a03d f035 76bd 6f75 9ebd 539d c23d
00000290: b615 a83d f552 763c 64e4 ae3d 2f58 f93d
000002a0: 0cf0 15bd f182 df3b d480 cd3c 03cf 9fbc
000002b0: 9c36 0ebd cae3 9c3b 89b7 fe3b 71a3 12bd
000002c0: 2762 59bc 7d64 d23e 624b 8e3d 3cf8 db3c
000002d0: 0581 26bd bcc7 81bd 2c64 48bd fae2 fd3c
000002e0: 80cb 5e3c 7748 f03b 9a70 363b db2b 013d
000002f0: 75d2 9b3d d29a d73d b14f aa38 decf 17bd
00000300: c735 1dbc b8f2 96bd 8471 723c 98e6 ffbc
00000310: 339a 92bd 1bd2 fcbc 8a37 61bd 0a62 afbc
00000320: fe3f 043e 4c85 aa3c f916 e43d c825 e0bc
00000330: 38d3 7a3d b1c8 13be 407f 1f3d 8a7c efbd
00000340: dcc5 643c c696 18be 639a 1bbd ebaf f53d
00000350: 6522 b3be 222c 0a3e 14ae 9a3c 620c 4c3d
00000360: 5982 26be 4903 a63d 2606 59be 6b3b 6f3d
00000370: 37a9 6b3d aaea f83d 8052 2b3e 4bf7 27bd
00000380: f5c7 13be c0de a43c 6787 b5bd 9a80 623b
00000390: df58 633e b1f6 883e d310 a5bc 55f0 ac3d
000003a0: 1bc9 8b3d b78d d7bc ffdf 2f3e 30af 7b3d
000003b0: 052c a63c 80cf b0bd ea83 e13d 8957 aebd
000003c0: 6671 f23e 8502 983d c4f6 c4bc 5d5c 15bd
000003d0: 0d9f eebc bde0 483e 270e 803e 9a5a 75bd
000003e0: dad5 d7bc e7bb 57bc 3bfb 9e3c 1dbe 83bd
000003f0: 4745 14bc e731 7abd 8a08 223c 5b0b 26be

p_u.bias f4 [120]
0.032746367 -0.01592349 -0.10074045 -0.07214333 0.034826312 -0.027639732 -0.042025518 -0.06417032
0.09646243 0.072404236 0.07009252 0.0047134566 0.1390833 0.0013753605 -0.09374893 0.029796733
-0.020190632 -0.120603256 0.13496572 -0.029941453 -0.096010804 0.138974 -0.051751982 -0.13771255
0.010882883 0.058486678 0.045004264 -0.0067089954 -0.13050227 0.010143243 -0.04073592 0.008183622
-0.0027544606 -0.03565955 -0.067327455 0.018785141 0.039334625 0.054321606 0.06682706 -0.036076903
0.002766833 0.07021941 0.08681583 -0.10035084 -0.04567065 -0.054176997 -0.13093019 -0.028191261
-0.06534867 0.001164164 0.11795365 -0.05941926 0.08640039 0.083759986 0.03925392 0.008614047
0.11034177 0.033379182 -0.10708955 -0.13430727 -0.22528708 -0.17316173 -0.22725868 -0.22108887
-0.055053893 -0.11500124 -0.16265695 -0.05393381 -0.090580754 -0.16989906 -0.18600036 -0.015404941
-0.06216406 -0.18458883 -0.15510732 -0.13470297 -0.17164817 -0.109421745 -0.218569 -0.12030026
-0.08633279 -0.29392666 -0.07471467 -0.17963287 -0.0719083 -0.15388338 -0.08504525 -0.13485847
-0.2263173 -0.024694856 -0.25129053 -0.16931982 -0.104743764 -0.17144628 -0.17982055 -0.160068
-0.15707916 -0.19209957 -0.12803087 -0.09384338 -0.121647686 -0.14661625 -0.16976847 -0.20600441
-0.0653973 -0.18041103 -0.08976 -0.12697192 -0.042057786 -0.0943484 -0.06102068 -0.11809032
-0.13568053 -0.14905693 -0.117171206 -0.14759639 -0.034072343 -0.20438531 -0.0463591 -0.06534055
00000000: 0e21 063d fb71 82bc 0251 cebd e2bf 93bd
00000010: 09a6 0e3d b86c e2bc f322 2cbd bb6b 83bd
00000020: 188e c53d ac48 943d ab8c 8f3d 5773 9a3b
00000030: da6b 0e3e 7145 b43a 70ff bfbd 4718 f43c
00000040: d366 a5bc d7fe f6bd 7434 0a3e c747 f5bc
00000050: 50a1 c4bd 334f 0e3e e3f9 53bd 8504 0dbe
00000060: 1f4e 323c ba8f 6f3d 6456 383d 22d7 dbbb
00000070: 63a2 05be d82f 263c b5da 26bd 9914 063c
00000080: 2e84 34bb c00f 12bd fae2 89bd 4ce3 993c
00000090: 581d 213d 5580 5e3d a0dc 883d 60c5 13bd
000000a0: c153 353b 32cf 8f3d 7fcc b13d be84 cdbd
000000b0: 2611 3bbd b3e8 5dbd 9012 06be 5cf1 e6bc
000000c0: 86d5 85bd dd96 983a af91 f13d 9c61 73bd
000000d0: b0f2 b03d 5b8a ab3d b8c8 203d ef21 0d3c
000000e0: defa e13d 9cb8 083d c451 dbbd d887 09be
000000f0: a8b1 66be 4f51 31be 80b6 68be 1f65 62be
00000100: 3180 61bd c585 ebbd 8b8f 26be b3e9 5cbd
00000110: 6782 b9bd 05fa 2dbe e176 3ebe 0165 7cbc
00000120: be9f 7ebd db04 3dbe 74d4 1ebe 93ef 09be
00000130: 8ac4 2fbe 8218 e0bd 8dd0 5fbe fc5f f6bd
00000140: 3fcf b0bd 8e7d 96be 0104 99bd aef1 37be
00000150: a944 93bd 9b93 1dbe 342c aebd 5718 0abe
00000160: b9bf 67be de4c cabc 27a9 80be 2d62 2dbe
00000170: e683 d6bd 9d8f 2fbe e122 38be dee8 23be
00000180: 5cd9 20be c0b5 44be 861a 03be f530 c0bd
00000190: 6c22 f9bd 9222 16be c9d7 2dbe d2f2 52be
000001a0: 05ef 85bd abbd 38be 17d4 b7bd ed04 02be
000001b0: c944 2cbd bc39 c1bd d2f0 79bd 56d9 f1bd
000001c0: d6ef 0abe 61a2 18be 75f7 efbd 8223 17be
000001d0: 718f 0bbd 624a 51be 0ae3 3dbd 44d1 85bd

q_z.weight f4 [120, 100]
0.024907047 0.0046591903 0.0055162297 0.06923804 -0.032285307 0.0029775081 0.09086523 0.059313722
0.043629255 -0.004173956 0.009091376 -0.08493823 0.028272469 -0.014798361 0.03292827 0.0074362094
-0.06244165 0.082399614 0.06226164 -0.04314484 0.04521935 -0.07459079 0.017401561 0.028908828
0.026111357 -0.041988023 0.010846338 0.08987088 0.020057935 -0.033380356 0.07515046 0.021321021
0.03524465 -0.032946203 0.046715297 -0.107996054 0.047866397 0.017255578 0.039622366 0.08568287
-0.04788153 0.06432463 0.054806054 0.09119113 -0.11968793 -0.124167256 -0.13817924 0.09011119
0.029895788 0.088264465 -0.041512977 0.09482553 -0.084469624 0.08061469 0.032415878 -0.028148333
0.030695435 0.046409212 0.027453462 -0.08056122 0.045857 -0.0938956 -0.052120805 -0.023472087
-0.049612682 -0.06121861 -0.0673745 0.06527515 0.10119914 0.023671327 -0.081019565 -0.015632937
0.07463532 -0.04868406 -0.0539976 -0.06386461 -0.008885753 0.09111245 0.008870268 -0.07457703
-0.0101504475 -0.019866921 7.44255e-05 0.0047406717 0.055981398 0.07459918 -0.06507566 0.03538129
0.033743817 -0.026731255 -0.020387264 -0.01849661 0.049031574 -0.070433386 -0.00016971504 -0.035565257
0.01725565 0.051200233 0.09444398 0.017632136 0.01430538 0.002443459 0.07568661 -0.02426819
-0.10044912 -0.014380112 0.06327326 0.0523948 -0.03773284 0.12075177 -0.014283826 0.08171845
0.04081571 -0.017637875 0.05629563 -0.13106221 -0.023078436 0.12884413 0.036225535 0.0005724998
0.0006887827 -0.017573617 0.043523543 0.04035241 6.0968832e-05 -0.037428897 -0.033045296 -0.01783098
0.018108439 -0.02497235 -0.07387721 0.07369546 0.021113306 -0.059603903 -0.024518326 -0.049650855
-0.086417176 0.07244604 -0.0014478387 0.05841572 -0.05680064 -0.0704179 -0.01002994 -0.041238308
0.08382349 0.050798047 -0.040669706 0.06361033 -0.05213839 -0.008414997 -0.06109587 0.033970356
0.05767166 -0.042587314 0.0895713 -0.07276173 -0.058733877 0.08239246 -0.022838987 -0.0014355155
0.03710176 -0.03470644 0.031586777 0.05485292 -0.0021399234 0.027992181 0.07339828 0.0706997
0.035496768 0.10425791 0.17301944 -0.04958926 0.03234539 -0.012353202 0.027795615 0.07895613
-0.07888686 0.044316776 0.026344651 -0.014072164 0.031466387 -0.0381848 -0.034941565 -0.010015918
0.09648923 -0.05407435 -0.007123494 -0.02011874 -0.005042457 0.049839653 0.023720253 -0.012134882
0.023736376 0.0045419442 -0.024436697 0.034114838 0.02069209 0.04187126 -0.059894715 0.0038457534
-0.019414078 0.08319481 -0.009321378 -0.013779634 -0.021377932 0.032183483 -0.095194764 0.020444907
0.07587727 -0.049069665 -0.03628476 -0.018796407 -0.104533575 -0.031856112 0.06682378 0.034717884
0.0062080557 -0.051266376 -0.008341248 0.06810093 0.029983643 0.059182778 0.004210161 -0.11272573
0.066913486 0.09231209 0.059693526 0.039088324 -0.026214428 -0.005181322 0.10646826 0.07723278
-0.026909765 0.030198779 0.016712261 0.034926273 -0.10725091 -0.058836397 0.11233302 0.037561346
0.08334072 -0.033871714 -0.06765418 0.0018213273 0.0543349 0.011271706 -0.0043477598 0.0005095363
0.0015185674 -0.040567305 0.096742705 0.11330979 0.0076544527 0.06879102 0.020968536 -0.056113645
00000000: dd09 cc3c 1fac 983b 7dc1 b43b accc 8d3d
00000010: 993d 04bd 4c22 433b 8d17 ba3d f2f2 723d
00000020: 97b4 323d aec5 88bb fff3 143c 18f4 adbd
00000030: aa9b e73c d374 72bc cbdf 063d 72ab f33b
00000040: d1c2 7fbd 21c1 a83d 1006 7f3d a5b8 30bd
00000050: ed37 393d 0ec3 98bd b88d 8e3c 35d2 ec3c
00000060: 7ce7 d53c a2fb 2bbd d7b4 313c 390e b83d
00000070: 8a50 a43c d7b9 08bd 7ce8 993d 6ca9 ae3c
00000080: b25c 103d 99f2 06bd 8a58 3f3d 092d ddbd
00000090: 8e0f 443d 925b 8d3c 104b 223d 807a af3d
000000a0: 6c1f 44bd a2bc 833d 507c 603d 6ac2 ba3d
000000b0: f21e f5bd 674b febd dc7e 0dbe 378c b83d
000000c0: 03e8 f43c 00c4 b43d 8309 2abd e333 c23d
000000d0: 69fe acbd 5119 a53d 83c6 043d 5597 e6bc
000000e0: fe74 fb3c 9617 3e3d 15e6 e03c 48fd a4bd
000000f0: 8dd4 3b3d 564c c0bd a07c 55bd 8948 c0bc
00000100: ab36 4bbd 5dc0 7abd a4fb 89bd faae 853d
00000110: 7f41 cf3d 5fea c13c 96ed a5bd a510 80bc
00000120: 67da 983d f068 47bd 962c 5dbd 73cb 82bd
00000130: 8d95 11bc 2a99 ba3d 9a54 113c d8bb 98bd
00000140: 104e 26bc f4bf a2bc e314 9c38 a357 9b3b
00000150: c04c 653d 74c7 983d 6346 85bd f9eb 103d
00000160: f536 0a3d 81fb dabc 3103 a7bc 3486 97bc
00000170: 55d5 483d 613f 90bd 89f5 31b9 e0ac 11bd
00000180: b95b 8d3c 56b7 513d d86b c13d 4571 903c
00000190: 1d61 6a3c 7022 203b 9501 9b3d 15ce c6bc
000001a0: 45b8 cdbd 909a 6bbc 6995 813d ee9b 563d
000001b0: c08d 1abd b44c f73d b506 6abc 015c a73d
000001c0: 602e 273d 4e7d 90bc 3f96 663d 2c35 06be
000001d0: fd0e bdbc b7ef 033e 3a61 143d d013 163a
000001e0: 6d8f 343a 8cf6 8fbc be45 323d 9248 253d
000001f0: c9b8 7f38 0b4f 19bd 815a 07bd 4612 92bc
00000200: 2658 943c d092 ccbc ef4c 97bd a5ed 963d
00000210: d0f5 ac3c 3923 74bd a8da c8bc b25e 4bbd
00000220: 7dfb b0bd 975e 943d 68c5 bdba 5245 6f3d
00000230: caa7 68bd 4337 90bd 9e54 24bc 80e9 28bd
00000240: a6ab ab3d 9d11 503d 4795 26bd 2246 823d
00000250: 108f 55bd 0edf 09bc aa3f 7abd 8024 0b3d
00000260: 1e39 6c3d 0970 2ebd 2871 b73d 1a04 95bd
00000270: ef92 70bd 61bd a83d d418 bbbc e827 bcba
00000280: 04f8 173d 5728 0ebd 2361 013d 75ad 603d
00000290: f53d 0cbb dc4f e53c d651 963d 01cb 903d
000002a0: 0f65 113d 2c85 d53d 022c 313e 1c1e 4bbd
000002b0: 9a7c 043d 1665 4abc a1b3 e33c c0b3 a13d
000002c0: 6f8f a1bd 8285 353d bdd0 d73c ef8e 66bc
000002d0: e6e2 003d aa67 1cbd e31e 0fbd ce19 24bc
000002e0: 259c c53d 117d 5dbd 336c e9bb 0ed0 a4bc
000002f0: 323b a5bb aa24 4c3d fa50 c23c 62d1 46bc
00000300: ca72 c23c 97d4 943b 782f c8bc 00bc 0b3d
00000310: 7582 a93c 3381 2b3d 2954 75bd 0909 7c3b
00000320: 460a 9fbc 0a62 aa3d b1b8 18bc f9c3 61bc
00000330: c620 afbc d4d2 033d 79f5 c2bd 147c a73c
00000340: 8b65 9b3d 46fd 48bd 549f 14bd ecfa 99bc
00000350: b315 d6bd 8e7b 02bd e8da 883d 5734 0e3d
00000360: f26c cb3b b1fc 51bd bba9 08bc 8078 8b3d
00000370: 42a0 f53c a469 723d 64f5 893b bfdc e6bd
00000380: f009 893d 1f0e bd3d 3381 743d 141b 203d
00000390: a4bf d6bc 14c8 a9bb 080c da3d 382c 9e3d
000003a0: de71 dcbc 6e63 f73c 27e8 883c da0e 0f3d
000003b0: 5da6 dbbd 6ffe 70bd db0e e63d edd9 193d
000003c0: 8aae aa3d 11bd 0abd 468e 8abd 9ab9 ee3a
000003d0: 468e 5e3d f6ac 383c a777 8ebb 6792 053a
000003e0: ab0a c73a e729 26bd 0a21 c63d f70e e83d
000003f0: 34d2 fa3b 4ee2 8c3d 35c6 ab3c 6cd7 65bd

q_z.bias f4 [120]
0.07626538 -0.102968186 0.002815623 0.09570991 -0.073509134 0.073800266 -0.06279277 0.079043195
0.023631595 0.055100806 0.001855314 0.0673546 0.060765218 0.0631945 -0.054386083 -0.09089763
-0.03508869 0.09538423 0.06387144 0.009333345 -0.011223473 0.04884472 0.048298053 -0.08000348
-0.0047902535 0.07769147 -0.061946277 0.058517616 0.017343253 0.0073127486 -0.086733975 0.073287904
-0.043537952 0.09134157 0.07058569 -0.024749724 -0.038221955 -0.053785298 0.088650495 -0.013032038
-0.008424684 -0.09625243 -0.050300762 -0.024878765 0.035467573 -0.04105203 0.0017122518 0.056162193
-0.06484686 0.08981638 -0.044723336 0.0028034514 -0.040991683 0.028094616 0.06688237 -0.014707979
0.049337484 -0.055553813 0.029119052 -0.08431743 -0.055622295 -0.014302759 0.04211744 -0.03842642
-0.09273674 -0.022583157 -0.0664316 -0.06299678 -0.12952213 -0.057490725 -0.08019472 -0.07973513
-0.09518155 -0.07487042 0.011542104 -0.059567932 -0.11936178 -0.12848824 -0.14710103 -0.06114037
-0.061861455 0.01979947 -0.11689486 -0.10764288 -0.011495602 -0.03397158 -0.08946064 -0.04908217
-0.02053415 -0.09602378 -0.0063057155 -0.13535042 -0.1454371 -0.06179562 -0.05704896 -0.010720744
-0.055673383 -0.05404586 -0.008998835 -0.06997146 -0.09831513 -0.11231214 -0.034730785 -0.06278291
-0.062029034 -0.087023236 -0.11341339 -0.10076714 -0.053355582 -0.089889504 -0.020272737 -0.08923
-0.014712068 -0.052094635 -0.07292474 -0.0720552 -0.09247755 -0.011880612 -0.06964397 -0.070310846
00000000: 0631 9c3d fce0 d2bd 5186 383b 8f03 c43d
00000010: f58b 96bd 9824 973d 7f99 80bd 66e1 a13d
00000020: 0c97 c13c 62b1 613d 022e f33a 35f1 893d
00000030: f3e4 783d 1e6c 813d f1c3 5ebd 8928 babd
00000040: 29b9 0fbd cf58 c33d 08cf 823d e3ea 183c
00000050: a8e2 37bc 6711 483d 2ed4 453d ddd8 a3bd
00000060: 8ff7 9cbb b51c 9f3d 61bb 7dbd 2bb0 6f3d
00000070: 7013 8e3c c89f ef3b 95a1 b1bd f817 963d
00000080: da54 32bd 4a11 bb3d 3b8f 903d efbf cabc
00000090: a08e 1cbd f94d 5cbd 648e b53d 5484 55bc
000000a0: b007 0abc fe1f c5bd 2c08 4ebd 8dce cbbc
000000b0: 7246 113d 2c26 28bd a36d e03a 540a 663d
000000c0: 6ece 84bd a6f1 b73d d12f 37bd 1cba 373b
000000d0: e5e6 27bd ae26 e63c a0f9 883d bcf9 70bc
000000e0: 1a16 4a3d 658c 63bd 148b ee3c 9eae acbd
000000f0: 34d4 63bd 1f56 6abc 5683 2c3d 0665 1dbd
00000100: c3ec bdbd 5000 b9bc 4a0d 88bd 7504 81bd
00000110: 73a1 04be 657b 6bbd 213d a4bd 2c4c a3bd
00000120: 8bee c2bd aa55 99bd 181b 3d3c 81fd 73bd
00000130: f373 f4bd 6c92 03be a7a1 16be 536e 7abd
00000140: 7062 7dbd 8032 a23c 9366 efbd df73 dcbd
00000150: 0d58 3cbc c925 0bbd 2437 b7bd 630a 49bd
00000160: 3c37 a8bc 1ea8 c4bd 2da0 cebb 4d99 0abe
00000170: 77ed 14be 671d 7dbd 2cac 69bd 0fa6 2fbc
00000180: c609 64bd 315f 5dbd da6f 13bc 324d 8fbd
00000190: 7159 c9bd e803 e6bd de41 0ebd 5494 80bd
000001a0: 2812 7ebd 3d39 b2bd 4845 e8bd 015f cebd
000001b0: 628b 5abd fd17 b8bd 0313 a6bc 38be b6bd
000001c0: e30a 71bc 2f61 55bd 9159 95bd ad91 93bd
000001d0: df64 bdbd e6a6 42bc 7fa1 8ebd 22ff 8fbd
