hosp_models/deploy_week_43_2/feat_enc.pt (torch, 56491 bytes, 4 tensors)

gru.weight_ih_l0 f4 [180, 15]
-0.11244834 0.1570158 -0.31437162 -0.092872135 -0.048249997 0.049669337 -0.12341398 0.10236159
-0.011456807 -0.046779025 -0.04532745 -0.05243708 -0.2863552 -0.14835405 -0.0936029 -0.00714686
0.1030219 0.11044179 -0.09982686 -0.05969222 0.0035584897 0.1501645 -0.026568688 0.096606635
0.14388642 0.053769987 -0.16023952 -0.24964134 -0.034765273 -0.026436964 -0.18302096 0.057103697
0.07094988 -0.02157364 -0.023963736 -0.22448741 -0.06362986 0.11097363 0.057606544 0.059055496
-0.0071442146 -0.38585103 0.15046515 -0.20580697 -0.21517608 0.016726924 0.26781714 0.21641742
-0.16396935 -0.1693187 0.21282457 0.07956825 0.051237267 0.017440412 0.19788693 -0.13223323
0.040875826 -0.07668184 -0.08722153 -0.07108613 0.19533834 0.2686131 0.004782248 0.04663592
0.022511803 0.06056259 -0.049507603 0.029912949 0.08009027 0.1139577 -0.36081126 0.08977114
0.089798346 0.20270424 0.1730396 -0.17093924 0.10023299 0.029442603 -0.012020496 -0.1537114
-0.26519555 0.25010115 0.098162025 -0.1287803 0.023160692 0.04738294 -0.09832677 -0.011409511
0.07595373 0.016037803 0.22039379 0.158035 0.23173565 -0.21265696 -0.27527052 -0.011585684
-0.084366895 0.027020687 -0.10070841 -0.08279276 -0.017408978 0.115647115 -0.07297339 -0.18790695
-0.42117915 -0.029605312 -0.13377683 -0.06696378 0.003629823 -0.13422813 0.08583757 -0.1003365
-0.07856206 0.11714097 0.12615333 -0.12372532 -0.16765384 0.020805981 0.037167534 0.06697847
0.05608143 0.01510886 0.019056316 0.13275866 0.007217234 -0.12992665 0.034880865 -0.06288607
-0.045163292 -0.10458305 -0.11702016 -0.42884624 0.11661659 0.046461742 0.1506305 0.15362561
-0.111962736 0.06031325 -0.10490438 0.26742056 0.384697 0.20171127 0.12256876 -0.009336685
-0.07139087 -0.11662023 0.07797772 -0.07704625 -0.013106963 -0.0934167 -0.037223745 0.13288759
0.06963822 -0.03164086 -0.067974806 -0.19962782 0.08904921 -0.101021536 -0.02729295 -0.1926737
0.023940101 -0.05404111 -0.035130616 -0.1405846 -0.23756568 0.33601132 0.124776796 0.03812435
0.05178893 -0.3335625 0.11028951 -0.19752903 0.1165772 0.04675385 -0.29124787 0.11095866
0.20620278 -0.09425262 0.1361458 -0.114733376 -0.01746382 -0.055733476 0.21729457 0.12872154
-0.10108442 0.1487524 -0.07290715 -0.027150316 -0.10638845 0.23883414 0.1016256 -0.12971848
-0.28881544 -0.122620314 -0.26661125 -0.02757283 -0.11501827 0.079427004 0.021386892 -0.07241478
-0.0040180804 -0.010632689 -0.09758886 -0.088628344 -0.20574898 0.0833815 0.022308199 0.18420483
0.044937942 0.024802193 0.18792465 -0.07710521 -0.03548967 0.027021002 -0.09904094 0.09967855
-0.15282747 -0.06766508 0.10424686 -0.21701962 -0.16106604 0.06663762 0.071444385 0.007414414
-0.09158267 -0.093981795 -0.3508682 -0.29020852 -0.060764935 -0.01490985 0.13193445 0.18380462
0.016116623 0.11563344 0.10338925 -0.25268814 0.01952942 -0.16419317 0.023556594 -0.03245895
0.27389422 0.1853529 -0.1879138 -0.09741557 0.17340675 -0.26498207 0.44568235 -0.10675523
0.0017793132 -0.008231107 -0.12094902 -0.017443944 0.12909546 -0.02767315 -0.015957417 -0.120493226
00000000: 514b e6bd c0c8 203e 51f5 a0be bf33 bebd
00000010: caa1 45bd 1372 4b3d 78c0 fcbd f4a2 d13d
00000020: 55b5 3bbc 5d9b 3fbd 47a9 39bd 43c8 56bd
00000030: 269d 92be 20ea 17be e1b2 bfbd 3530 eabb
00000040: 25fd d23d 4e2f e23d 0672 ccbd d47f 74bd
00000050: 8d35 693b b9c4 193e 94a6 d9bc b3d9 c53d
00000060: f656 133e eb3d 5c3d d415 24be fba1 7fbe
00000070: 0866 0ebd 5592 d8bc d969 3bbe 91e5 693d
00000080: 2c4e 913d 34bb b0bc 994f c4bc 07e0 65be
00000090: 5f50 82bd 2446 e33d d7f4 6b3d 2de4 713d
000000a0: 041a eabb 448e c5be 8913 1a3e 10bf 52be
000000b0: 1e57 5cbe e706 893c 541f 893e 879c 5d3e
000000c0: 95e7 27be e261 2dbe afee 593e aef4 a23d
000000d0: 2bde 513d 32df 8e3c dfa2 4a3e 2668 07be
000000e0: 696d 273d 5e0b 9dbd 34a1 b2bd 9b95 91bd
000000f0: c606 483e a887 893e 67b4 9c3b 4e05 3f3d
00000100: ac6a b83c 7a10 783d 7cc8 4abd 000c f53c
00000110: 5e06 a43d a862 e93d 41bc b8be eed9 b73d
00000120: 32e8 b73d b391 4f3e 4b31 313e b20a 2fbe
00000130: f446 cd3d 9d31 f13c 9df1 44bc 8566 1dbe
00000140: b6c7 87be 420d 803e 2c09 c93d fcde 03be
00000150: 7ebb bd3c 9d14 423d 8c5f c9bd f5ee 3abc
00000160: a18d 9b3d b661 833c e9ae 613e edd3 213e
00000170: 1c4c 6d3e bfc2 59be 42f0 8cbe e1d1 3dbc
00000180: 8dc8 acbd 7d5a dd3c 3640 cebd 408f a9bd
00000190: 469d 8ebc 65d8 ec3d 1373 95bd ae6a 40be
000001a0: cba4 d7be d786 f2bc cbfc 08be 4e24 89bd
000001b0: 53e2 6d3b 1973 09be 9ccb af3d 397d cdbd
000001c0: 25e5 a0bd 9be7 ef3d 572e 013e b363 fdbd
000001d0: 73ad 2bbe 4e71 aa3c fc3c 183d 022c 893d
000001e0: a4b5 653d 278b 773c fe1b 9c3c e3f1 073e
000001f0: 8c7e ec3b 7e0b 05be 3ddf 0e3d 69ca 80bd
00000200: 25fd 38bd a32f d6bd 44a8 efbd bc91 dbbe
00000210: aed4 ee3d ab4e 3e3d e23e 1a3e 0850 1d3e
00000220: b84c e5bd 070b 773d 1cd8 d6bd 59eb 883e
00000230: 01f7 c43e 668d 4e3e 5405 fb3d e5f8 18bc
00000240: 6035 92bd 96d6 eebd c8b2 9f3d 6dca 9dbd
00000250: 96be 56bc 4151 bfbd ed77 18bd af13 083e
00000260: 7c9e 8e3d d999 01bd 6036 8bbd 3c6b 4cbe
00000270: 6f5f b63d 61e4 cebd 7795 dfbc 414c 45be
00000280: 081e c43c 365a 5dbd 1fe5 0fbd 69f5 0fbe
00000290: 6b44 73be ad09 ac3e fa8a ff3d 4728 1c3d
000002a0: a120 543d b4c8 aabe 77df e13d 0d45 4abe
000002b0: 07c0 ee3d f780 3f3d 711e 95be 4b3e e33d
000002c0: d226 533e 8507 c1bd ce69 0b3e 55f9 eabd
000002d0: 4910 8fbc c948 64bd 7882 5e3e 94cf 033e
000002e0: 5905 cfbd 8d52 183e 5850 95bd 576a debc
000002f0: 30e2 d9bd f090 743e 1521 d03d ecd4 04be
00000300: 9edf 93be 5c20 fbbd 4581 88be 6ae0 e1bc
00000310: b38e ebbd a0aa a23d 9033 af3c 334e 94bd
00000320: 1aaa 83bb bb34 2ebc abdc c7bd c782 b5bd
00000330: dcaf 52be ebc3 aa3d afbf b63c 31a0 3c3e
00000340: d910 383d f82d cb3c 526f 403e 56e9 9dbd
00000350: 9e5d 11bd 265b dd3c fad5 cabd 4524 cc3d
00000360: ce7e 1cbe fd93 8abd 617f d53d 643a 5ebe
00000370: 7fee 24be 4e79 883d 6f51 923d 9df4 f23b
00000380: b28f bbbd 8779 c0bd ffa4 b3be 3696 94be
00000390: a7e4 78bd 7248 74bc d319 073e 4737 3c3e
000003a0: 0207 843c 3ad1 ec3d bebd d33d 5760 81be
000003b0: 2afc 9f3c 4122 28be c2f9 c03c adf3 04bd
000003c0: dd3b 8c3e 27cd 3d3e 7a6c 40be d081 c7bd
000003d0: 8a91 313e bbab 87be 7a30 e43e 7ca2 dabd
000003e0: d837 e93a c4db 06bc 1fb4 f7bd 9ae6 8ebc
000003f0: 9a31 043e cdb2 e2bc 21b9 82bc 27c5 f6bd

gru.weight_hh_l0 f4 [180, 60]
0.021072412 0.07298987 -0.074649855 -0.1184239 -0.19879578 0.070418864 -0.023216391 0.19497824
0.13258033 -0.04061764 -0.1923189 -0.09106507 -0.22628771 0.07214914 -0.03374422 -0.17363298
0.0011741351 -0.15934695 0.11825819 -0.089753315 0.022572964 0.34702492 -0.13302785 0.045597732
-0.00048922887 0.15669209 0.07766487 -0.28161484 -0.26592126 0.117012 -0.16715878 -0.089396894
0.023258386 0.14951716 -0.08184688 -0.057347316 -0.06794914 0.03673887 0.21596387 0.104685165
0.12579314 -0.19851442 -0.10002433 -0.26193812 0.09604001 0.20858468 -0.01957582 0.043959364
0.042757276 0.16481745 0.07073282 0.04683937 -0.22969066 -0.15714055 -0.04081817 0.25831622
0.10301783 -0.022365116 -0.17238598 0.13559552 0.18594919 -0.19144778 0.14604884 -0.030221533
0.045395873 0.025287986 0.14301471 0.16078848 0.18957001 0.039078087 -0.005259511 0.044472095
-0.033603966 0.10986842 -0.17517719 0.05234005 0.06823094 0.20998092 0.028290022 0.053470828
-0.13380367 0.08265746 -0.020734385 0.07913737 -0.02780909 -0.14612195 -0.19346121 0.13392551
-0.08364324 -0.06407458 0.13438375 0.054464467 0.038934596 -0.10971751 -0.024532773 0.16290715
-0.08398237 -0.044914316 0.14174958 -0.07093269 -0.084684975 -0.012474651 0.03562672 0.10241251
0.04685539 0.02282575 0.09444096 -0.1229951 0.0049897223 -0.11187874 -0.010606066 0.021205654
-0.100479804 0.1317669 0.102015205 -0.21797977 -0.08177141 -0.056586288 0.113768026 0.08110637
-0.032390445 -0.020966414 0.13889915 0.037397943 0.20951582 0.09491928 -0.00836037 -0.023713086
-0.07007739 -0.09041576 -0.07936401 -0.025066178 0.21341234 0.15810686 -0.035867326 -0.066136576
-0.14149313 0.11859601 0.044908226 -0.08751081 -0.03686617 -0.2430348 0.09753031 0.008637709
-0.07654466 0.16199125 -0.06936469 0.14751096 0.18317647 -0.12733783 -0.20914225 -0.013020888
-0.13047217 -0.104250364 0.1416895 0.033865724 0.37684098 -0.28763705 -0.03857465 0.07119441
-0.10532503 0.104679495 0.11303365 0.09459316 0.032571476 -0.1541171 -0.028903382 -0.03626485
-0.0020094726 -0.041265957 -0.10194801 -0.1639173 0.18876794 0.10764187 -0.056397308 -0.17578001
-0.23134293 0.1049957 0.14895065 -0.026362872 0.1655323 -0.07507581 0.06022651 0.15070878
0.11817055 0.055605035 0.36093664 0.045902383 0.3108296 0.022511281 0.15124145 -0.09439454
0.12853299 0.2930623 -0.13825916 0.17163922 0.0025533976 -0.23835163 0.37346998 -0.13542259
0.044907857 -0.21563163 0.0086390115 0.26087338 -0.078215905 0.06473551 -0.19447744 -0.1454428
0.013396355 0.00076685176 0.16293839 -0.054508206 0.29450396 -0.24665591 0.35105914 -0.025612656
-0.015438302 -0.0754316 -0.27427202 -0.13969128 0.08019729 0.08430896 0.30251166 0.06401105
0.04132908 -0.28597596 -0.06787719 0.008212565 0.16534443 -0.37906212 0.13249663 -0.35802755
-0.012194014 0.034235947 -0.16870114 -0.37281373 0.17789736 0.252818 0.2913068 -0.020359077
-0.038933773 0.14149049 -0.013782959 0.050437737 -0.085668124 -0.112683125 0.24469575 -0.062015973
0.09377835 0.1260593 0.04098363 -0.09750292 0.203255 -0.04741309 0.25804213 0.07528099
00000000: 0da0 ac3c b77b 953d 06e2 98bd 3b88 f2bd
00000010: 1f91 4bbe c437 903d 4d30 bebc 60a8 473e
00000020: 23c3 073e af5e 26bd 3fef 44be 5380 babd
00000030: f7b7 67be eec2 933d 6137 0abd d8cc 31be
00000040: 70e5 993a d92b 23be 5a31 f23d 96d0 b7bd
00000050: f0ea b83c 40ad b13e 7438 08be b0c4 3a3d
00000060: 983f 00ba e473 203e c20e 9f3d d22f 90be
00000070: d526 88be fda3 ef3d ac2b 2bbe b815 b7bd
00000080: 5f88 be3c 071b 193e 569f a7bd 05e5 6abd
00000090: eb28 8bbd 7f7b 163d a225 5d3e 2d65 d63d
000000a0: ebcf 003e 5d47 4bbe 8ed9 ccbd c11c 86be
000000b0: a0b0 c43d 3997 553e 785d a0bc bc0e 343d
000000c0: 4122 2f3d e8c5 283e 5edc 903d a4da 3f3d
000000d0: 0734 6bbe 74e9 20be f430 27bd 0642 843e
000000e0: 03fb d23d 0c37 b7bc f385 30be 8dd9 0a3e
000000f0: 7769 3e3e e30a 44be d48d 153e 2693 f7bc
00000100: 06f1 393d c028 cf3c 7372 123e bca5 243e
00000110: a41e 423e 5810 203d fa57 acbb 5f28 363d
00000120: 50a4 09bd b202 e13d a661 33be 8562 563d
00000130: aabc 8b3d 3d05 573e 7ac0 e73c 3a04 5b3d
00000140: d403 09be 5048 a93d 28db a9bc c612 a23d
00000150: e4cf e3bc fea0 15be b21a 46be c523 093e
00000160: 264d abbd 8939 83bd e59b 093e 2216 5f3d
00000170: e279 1f3d 93b3 e0bd f4f8 c8bc 22d1 263e
00000180: f3fe abbd 13f8 37bd cd26 113e 2845 91bd
00000190: 516f adbd 7b62 4cbc 53ed 113d a6bd d13d
000001a0: 70eb 3f3d 11fd ba3c 436a c13d dbe4 fbbd
000001b0: d380 a33b ae20 e5bd 11c5 2dbc 7bb7 ad3c
000001c0: 5bc8 cdbd e7ed 063e 59ed d03d 1736 5fbe
000001d0: c577 a7bd 06c7 67bd 36ff e83d 191b a63d
000001e0: d8ab 04bd c2c1 abbc 943b 0e3e 962e 193d
000001f0: 518b 563e 0a65 c23d eff9 08bc f241 c2bc
00000200: bc84 8fbd e62b b9bd 9989 a2bd 9657 cdbc
00000210: c488 5a3e c4e6 213e 9ee9 12bd 9d72 87bd
00000220: 93e3 10be 77e2 f23d b0f1 373d de38 b3bd
00000230: fb00 17bd 1dde 78be f9bd c73d 2d85 0d3c
00000240: 72c3 9cbd 09e1 253e 130f 8ebd 1d0d 173e
00000250: 9d92 3b3e d964 02be 6329 56be 9055 55bc
00000260: 7f9a 05be 3781 d5bd 0d17 113e c9b6 0a3d
00000270: 4df1 c03e 2a45 93be 7400 1ebd 60ce 913d
00000280: a6b4 d7bd 3462 d63d 307e e73d 0fba c13d
00000290: ab69 053d e0d0 1dbe c9c6 ecbc 748a 14bd
000002a0: 5bb1 03bb 7e06 29bd 1eca d0bd f0d9 27be
000002b0: 624c 413e 5773 dc3d dd00 67bd adff 33be
000002c0: 29e5 6cbe fc07 d73d 8586 183e f3f6 d7bc
000002d0: 4d81 293e 59c1 99bd 13b0 763d 6753 1a3e
000002e0: 6703 f23d 1bc2 633d b0cc b83e 2304 3c3d
000002f0: 0f25 9f3e 9469 b83c 0adf 1a3e ed51 c1bd
00000300: 279e 033e 430c 963e cf93 0dbe 31c2 2f3e
00000310: e756 273b 7312 74be 7537 bf3e 38ac 0abe
00000320: 4df1 373d 8ace 5cbe a48a 0d3c 3291 853e
00000330: a92f a0bd 0d94 843d 1825 47be f5ee 14be
00000340: 637c 5b3c 8d06 493a 52d9 263e ff43 5fbd
00000350: 39c9 963e 5e93 7cbe 06be b33e a2d1 d1bc
00000360: eff0 7cbc e27b 9abd 626d 8cbe 3b0b 0fbe
00000370: 7a3e a43d 2daa ac3d cfe2 9a3e 3a18 833d
00000380: ae48 293d 716b 92be 3203 8bbd ff8d 063c
00000390: 0d50 293e 6e14 c2be 32ad 073e 634f b7be
000003a0: 67c9 47bc fe3a 0c3d febf 2cbe 71e1 bebe
000003b0: ba2a 363e 5c71 813e 2a26 953e 14c8 a6bc
000003c0: 0579 1fbd e2e2 103e ecd1 61bc cd97 4e3d
000003d0: c572 afbd 69c6 e6bd 8691 7a3e 7604 7ebd
000003e0: dd0e c03d b015 013e 73de 273d 9caf c7bd
000003f0: 1422 503e 3a34 42bd 191e 843e eb2c 9a3d

gru.bias_ih_l0 f4 [180]
-0.044437673 -0.111506715 0.15375239 -0.09530578 -0.15281944 0.04374374 0.002486485 0.1479727
0.15331452 0.019339738 0.21755706 -0.034065522 -0.018234266 0.0010978241 0.027708588 -0.08387926
0.046431508 0.012372037 -0.07624036 0.11923712 0.23425938 0.08816066 -0.03533778 -0.06258543
0.16190313 0.005034381 -0.059627548 0.024122462 0.19051564 0.0833396 -0.07613038 0.12683812
-0.10405132 0.028613178 -0.060182616 0.09983346 0.1527182 -0.034265876 0.13814004 0.030578276
0.04982966 0.069992684 0.03889397 0.14125791 -0.15506677 0.17523456 0.07339212 0.012374789
0.14230745 0.029459285 0.036317095 0.03222843 0.04425526 0.1249629 0.07251679 0.12713371
-0.078141995 -0.001925714 -0.09129075 0.15491593 0.21269628 0.036138963 -0.08716078 0.19079085
-0.013557327 0.029477354 -0.089861594 0.012155213 -0.035476126 0.02470982 0.18441136 -0.06178837
-0.0047192834 0.2189384 0.34956828 0.18013027 -0.13201381 -0.14480339 -0.024972435 -0.017186392
0.017057672 -0.016395312 -0.21863103 0.347849 -0.015090675 0.06377955 0.12572294 0.07324229
0.08335986 0.016286211 0.14935744 -0.039858285 0.06810019 -0.08068689 0.17254643 0.16526544
-0.067737356 -0.09606987 0.10304209 0.08237474 -0.11006233 0.2290491 0.17176972 0.07195026
-0.16030823 -0.24008378 0.14840198 0.18204224 0.0988568 0.24297348 -0.15079248 0.02871295
-0.107789606 -0.06745715 0.22628452 -0.12793769 -0.19125746 0.084149666 -0.015176934 -0.09810628
0.064258 -0.034461636 0.080325186 0.11334477 0.11096371 0.07819332 -0.10808237 -0.11526652
0.093715705 0.012009463 -0.09793016 0.13090849 0.043738704 -0.12883379 -0.03637943 -0.06655404
-0.082410805 0.040531516 -0.07677037 -0.053126816 -0.018587966 0.12378993 0.1122396 -0.15963206
0.043791045 -0.09220984 -0.037618402 -0.024988335 -0.08532185 -0.06882066 -0.12886734 -0.08580736
0.01914273 -0.13311742 -0.004034576 -0.031067833 -0.058609072 0.033777 0.11184813 0.04141071
-0.10970741 0.096222825 -0.018685313 0.06232108 -0.0415879 0.07488584 -0.080139436 0.07790566
0.086008124 0.00912792 0.06963825 0.05211791 -0.052255623 0.013222421 0.01234633 0.020504871
-0.07515603 0.054132562 -0.11285208 0.037551176
00000000: 4704 36bd a25d e4bd 4471 1d3e ad2f c3bd
00000010: b37c 1cbe a32c 333d 4cf4 223b 2886 173e
00000020: 7bfe 1c3e 5f6e 9e3c 47c7 5e3e 4a88 0bbd
00000030: 0760 95bc dde4 8f3a 1ffd e23c e4c8 abbd
00000040: f72e 3e3d 16b4 4a3c e823 9cbd 9732 f43d
00000050: b1e1 6f3e 938d b43d 59be 10bd ca2c 80bd
00000060: efc9 253e 73f7 a43b 043c 74bd 789c c53c
00000070: 8816 433e f4ad aa3d 3fea 9bbd dae1 013e
00000080: dc18 d5bd 2f66 ea3c 0c82 76bd 7c75 cc3d
00000090: 2962 1c3e 605a 0cbd 9574 0d3e 4b7f fa3c
000000a0: 301a 4c3d 5358 8f3d 494f 1f3d eaa5 103e
000000b0: d3c9 1ebe b070 333e 9c4e 963d a1bf 4a3c
000000c0: 0bb9 113e 9954 f13c 3cc1 143d f501 043d
000000d0: 0145 353d 8dec ff3d af83 943d 572f 023e
000000e0: e908 a0bd 3d68 fcba a5f6 babd 48a2 1e3e
000000f0: 0ecd 593e 7306 143d 5a81 b2bd ad5e 433e
00000100: 8d1f 5ebc 7e7a f13c 5b09 b8bd a926 473c
00000110: 6a4f 11bd 406c ca3c 55d6 3c3e cd15 7dbd
00000120: 38a4 9abb 6331 603e 9dfa b23e 1274 383e
00000130: a12e 07be 5747 14be fe92 ccbc 7aca 8cbc
00000140: 88bc 8b3c 764f 86bc d0e0 5fbe 4419 b23e
00000150: e13e 77bc da9e 823d 84bd 003e 0e00 963d
00000160: 93b8 aa3d a96a 853c 28f1 183e 7142 23bd
00000170: 1d78 8b3d 2b3f a5bd 03b0 303e 583b 293e
00000180: e2b9 8abd 48c0 c4bd bb07 d33d 16b4 a83d
00000190: 5c68 e1bd d98b 6a3e 67e4 2f3e a85a 933d
000001a0: d727 24be 86d8 75be b0f6 173e 4869 3a3e
000001b0: 6f75 ca3d 0ace 783e 5869 1abe 6c37 eb3c
000001c0: ccc0 dcbd f926 8abd 21b7 673e 1902 03be
000001d0: ffd8 43be a956 ac3d ada8 78bc f2eb c8bd
000001e0: b399 833d a527 0dbd 8881 a43d 4e21 e83d
000001f0: f140 e33d d223 a03d 4a5a ddbd da10 ecbd
00000200: 05ee bf3d 57c3 443c 9c8f c8bd e00c 063e
00000210: 5b27 333d 01ed 03be 9902 15bd 7c4d 88bd
00000220: ffc6 a8bd 6004 263d c939 9dbd 819b 59bd
00000230: ca45 98bc 9385 fd3d e0dd e53d 9676 23be
00000240: 3d5e 333d 83d8 bcbd c115 1abd 56b4 ccbc
00000250: 39bd aebd d9f1 8cbd cdf5 03be c5bb afbd
00000260: 37d1 9c3c ef4f 08be 7a34 84bb f881 febc
00000270: 1110 70bd c059 0a3d a210 e53d 479e 293d
00000280: 47ae e0bd 7910 c53d f111 99bc 6444 7f3d
00000290: 1358 2abd bf5d 993d 2520 a4bd 018d 9f3d
000002a0: 0725 b03d 458d 153c 809e 8e3d 9779 553d
000002b0: fe09 56bd daa2 583c 4348 4a3c d5f9 a73c
000002c0: 68eb 99bd 1bba 5d3d fe1e e7bd 43cf 193d

gru.bias_hh_l0 f4 [180]
-0.107178554 -0.015744794 0.0051545193 -0.14572713 -0.12605613 -0.03645536 -0.036127057 0.08661054
0.16536278 -0.1038704 0.06372912 -0.021744292 -0.10524556 0.0016836125 0.02533467 0.03514972
-0.06373393 -0.08883825 -0.14070423 0.1357729 0.25305885 0.15615441 -0.03498859 0.0903283
-0.011698275 0.2131989 0.02790007 -0.08984357 0.086208835 0.12338863 -0.009503755 -0.0456185
0.12801006 -0.022641422 0.0781429 0.019814355 0.24829526 0.09944829 -0.024865666 -0.001790134
0.123217225 -0.055091314 -0.050258905 -0.035603337 0.025586534 0.14764531 0.02695602 -0.022250066
0.20381919 0.05075484 0.17224316 0.07198453 -0.0044634636 0.009877862 0.007509456 -0.054415863
-0.019385757 0.13339615 0.047963575 0.09304334 0.23381108 -0.00018781092 -0.01752259 0.16523221
0.036236063 -0.047305025 -0.11634503 0.05194022 0.01552536 0.015900927 -0.03677621 -0.13432373
0.022928257 0.043621954 0.32582107 0.1230254 -0.20821232 -0.029290337 -0.09561266 0.053245984
0.11276965 -0.23773095 -0.26405802 0.43012825 -0.12830292 0.16943449 0.31084388 -0.002287383
0.16966416 0.048251744 -0.068828925 0.1107917 0.26771584 -0.10251153 0.2124029 0.15916856
0.047542155 -0.031725418 0.21877228 0.2781591 0.02462465 0.04835685 0.098842405 0.057158537
-0.22335637 -0.15444283 -0.023347171 0.12664615 0.22115234 0.019117437 -0.25871763 0.040010918
0.042787798 -0.040336296 0.19146465 -0.124189496 -0.14848967 0.03766852 0.07193778 -0.29209888
-0.13998105 -0.057040446 0.022949846 0.10195124 -0.03931759 -0.1076841 -0.10925258 -0.015296951
-0.09142276 -0.053417247 -0.084279165 0.07656762 -0.005002565 -0.10534305 0.05586689 0.028381998
0.030544076 0.038650237 -0.006625697 0.017333303 -0.07159406 0.14149503 0.049255706 -0.04648253
0.037337575 0.10090444 0.075694926 0.12303741 -0.07156751 -0.026633391 0.046056524 -0.056897048
0.01611947 0.08761307 -0.10936258 -0.029624876 0.012312177 -0.066959545 -0.085729964 -0.13715515
0.080022685 -0.062338017 -0.025107745 0.103209235 -0.08661232 -0.04805991 -0.042579085 -0.1016707
-0.016290976 0.04074917 0.07011795 0.10824417 -0.026795978 -0.0042769327 -0.059267253 0.005169346
-0.083529614 -0.13965915 -0.09006615 0.058115534
00000000: 6e80 dbbd 3afb 80bc 3ee7 a83b 7e39 15be
00000010: dc14 01be 3752 15bd f7f9 13bd de60 b13d
00000020: dc54 293e 01ba d4bd 6a84 823d 1621 b2bc
00000030: fc8a d7bd a9ac dc3a a78a cf3c 27f9 0f3d
00000040: ef86 82bd d4f0 b5bd c514 10be 0d08 0b3e
00000050: ee90 813e f1e6 1f3e 3250 0fbd 0bfe b83d
00000060: 1faa 3fbc d050 5a3e b08e e43c e8ff b7bd
00000070: 428e b03d 2eb3 fc3d a3b5 1bbc 77da 3abd
00000080: 1215 033e 817a b9bc 6209 a03d b751 a23c
00000090: 1d41 7e3e 8cab cb3d 15b3 cbbc eea2 eaba
000000a0: 5059 fc3d 6ea7 61bd 48dc 4dbd ced4 11bd
000000b0: da9a d13c 5530 173e dfd2 dc3c c545 b6bc
000000c0: fab5 503e 4fe4 4f3d 8360 303e a06c 933d
000000d0: 3f42 92bb c2d6 213c e211 f63b 2be3 5ebd
000000e0: e1ce 9ebc 0099 083e 7475 443d 828d be3d
000000f0: 2c6c 6f3e 1cef 44b9 898b 8fbc a232 293e
00000100: 446c 143d eac2 41bd 4e46 eebd 45bf 543d
00000110: 145e 7e3c a942 823c a7a2 16bd 298c 09be
00000120: 0ad4 bb3c efac 323d 05d2 a63e bef4 fb3d
00000130: 9c35 55be 4af2 efbc 92d0 c3bd 7618 5a3d
00000140: c6f3 e63d be6f 73be 9d32 87be c539 dc3e
00000150: d761 03be 3c80 2d3e ee26 9f3e ebe7 15bb
00000160: 71bc 2d3e 9fa3 453d 2ef6 8cbd c2e6 e23d
00000170: 0d12 893e 91f1 d1bd 2580 593e 15fd 223e
00000180: 90bb 423d 83f2 01bd d705 603e df6a 8e3e
00000190: a2b9 c93c d511 463d e36d ca3d 121f 6a3d
000001a0: 88b7 64be 4326 1ebe 9142 bfbc 87af 013e
000001b0: c275 623e 2c9c 9c3c a376 84be 7de2 233d
000001c0: 4242 2f3d ac37 25bd 4f0f 443e 1057 febd
000001d0: ad0d 18be 4e4a 1a3d 1d54 933d fc8d 95be
000001e0: 3157 0fbe 3ea3 69bd 5101 bc3c d0cb d03d
000001f0: 7b0b 21bd 7b89 dcbd d1bf dfbd 10a0 7abc
00000200: db3b bbbd 0bcc 5abd 8e9a acbd 7ccf 9c3d
00000210: 8fec a3bb 19be d7bd aed4 643d 5d81 e83c
00000220: 9237 fa3c b64f 1e3d 601c d9bb 92fe 8d3c
00000230: e89f 92bd 13e4 103e 5ac0 493d 7764 3ebd
00000240: 49ef 183d fda6 ce3d f105 9b3d 0afb fb3d
00000250: fd91 92bd 452e dabc c4a5 3c3d e10c 69bd
00000260: fb0c 843c 7b6e b33d 7df9 dfbd deaf f2bc
00000270: 03b9 493c 1622 89bd 3193 afbd 6672 0cbe
00000280: efe2 a33d 2656 7fbd c2ae cdbc 5d5f d33d
00000290: cd61 b1bd 78da 44bd 6867 2ebd ba38 d0bd
000002a0: a774 85bc 9ae8 263d 009a 8f3d 1faf dd3d
000002b0: 3d83 dbbc 8325 8cbb 38c2 72bd 9e63 a93b
000002c0: 9311 abbd cf02 0fbe 9a74 b8bd 8e0a 6e3d
