hosp_models/deploy_week_49_6/seq_enc.pt (torch, 46379 bytes, 4 tensors)

gru.weight_ih_l0 f4 [180, 1]
00000000: 15ce 9ebd a709 563e a37a 54bc 822e 353d
00000010: 3e4e eabc 586e 6abb 4f64 73bc 9bbb e4bd
00000020: 2c12 47be d591 113c 1109 083d b9fc 86bc
00000030: 65a0 e1bd ec40 54bd 155a 21be 84e8 d8bd
00000040: f10d d5bd b9d0 55bd 961c 30ba 27f0 05be
00000050: e4c1 20bd 294a a33d af11 89bc 8eeb 10be
00000060: b576 2e3d afbf 2c3c a6e0 383e 77de 5bbd
00000070: fe89 b9be afba 113d d29a 023d ea9a 7ebe
00000080: 8e22 56bd 1e04 18be e5b0 cf3d d076 c53d
00000090: 62e3 5dbe 0c99 b0bc 6a7e 83bd 1212 1abe
000000a0: 58d3 adbd 0511 93bd 866c cc3c 892c 1bbd
000000b0: fb9b 81be c3da 1cbe 3d91 64be 7b50 13bd
000000c0: 5ef0 13bd 5f45 adbd d6bf 113c 9380 26be
000000d0: 082d d73d e067 11be e51f 893c 9103 8ebe
000000e0: b5bd 7bbd 52c5 103c a8b3 95bc 5905 b7bd
000000f0: d7cb 2e3e b0c8 94bc f31f 0b3d a936 c73d
00000100: 446f 34bd 9391 89bd c705 c7bd b115 9fbd
00000110: d77b b03d 8dd0 17bc 55f0 3bbd fab4 153e
00000120: 50c6 c93b 8a1d f0bd bb53 0e3d 1a7c 813d
00000130: 02d5 5b3c 48d1 4cbd d91a f43d 3422 62bd
00000140: 94d4 69bd a661 d23d 6ba8 1cbd c593 c83d
00000150: 9803 20bc dd79 37bd 3477 b0bd 0afd 3d3e
00000160: 2e23 e33c aae6 143e 29da 2b3c 0331 673d
00000170: a86d 31bc c06c a63c f3af f93b ad3b 213d
00000180: 7324 c53d 6d2d 8bbd 2855 443d 5d8e 9b3d
00000190: d966 313e 4c29 3bbe e561 373e e591 a33e
000001a0: c722 de3c 86c6 893c 8eb5 ed3d d157 1c3d
000001b0: 8725 b53d ca82 dcbc a2b1 97bd 699f 2b3d
000001c0: d0f9 a73d c116 643d 64c7 2e3e 0fbe 033e
000001d0: 917e 35bb 2dcf 4fbe bcbc 10be 5783 38bd
000001e0: 2d21 ad3d cca0 4f3d 47e2 dfbd 7bcb 0fbe
000001f0: a77b 4a3d c7c6 063e 9272 e8bd 0d9a 32be
00000200: 2b63 6dbd 86fd 4b3e 871a 3bbe c0f7 bfbd
00000210: 9520 a43d 629a 76bc 2993 9d3d 8cf7 babd
00000220: a6c2 c83c 13ba c13d b142 d23d 5383 f63d
00000230: abfd 173e 6043 273e f0f9 25bd eb8b bfbd
00000240: e30d 95bd 1a1c c9bd 3e6e c6bd c768 f33d
00000250: 04c6 563d 1204 bcbc 25a9 7ebd 7b0e 16be
00000260: abb5 42be f066 403a ce5f 27be a864 47bc
00000270: e474 cebd 85ca 8e3d 0dc7 30bd a5fc 1e3e
00000280: 794b 3f3d b6b5 c23a bb70 c53d 14bc e63d
00000290: 76f2 77bd d197 523d 58bd ac3d d086 11be
000002a0: 4a81 8e3d 7f4d 003d 1fd6 e63c 3bc5 3dbd
000002b0: 7bca 16be 9410 913d e089 28be 54b1 813d
000002c0: f39a 09be e4f3 b3bd 20b8 a4bd 5403 43bd
-0.07754151 0.2090212 -0.012968692 0.044233806 -0.028601762 -0.0035771336 -0.014855458 -0.111685954
-0.19440526 0.008884867 0.03321177 -0.01647793 -0.11016921 -0.051819727 -0.1575702 -0.10591224
-0.1040305 -0.052201007 -0.0006718127 -0.13079892 -0.03924741 0.07973129 -0.016732065 -0.14152357
0.042593677 0.010543748 0.18054447 -0.053678956 -0.36238092 0.035578426 0.03188593 -0.24863783
-0.052279048 -0.1484532 0.10141162 0.09641802 -0.21668771 -0.021557353 -0.06420596 -0.15045956
-0.08487576 -0.071809806 0.024954092 -0.03788427 -0.25314316 -0.15317826 -0.22321029 -0.035965424
-0.036117904 -0.08460497 0.008895835 -0.16259985 0.10506636 -0.14199781 0.016738841 -0.27737096
-0.061460216 0.008836107 -0.018274143 -0.08936567 0.17069946 -0.018162102 0.033966016 0.097272225
-0.044051424 -0.06717219 -0.09717899 -0.07767809 0.086173706 -0.009266031 -0.045883495 0.14619818
0.006157674 -0.11724384 0.03474782 0.063224986 0.013417484 -0.050004274 0.11919183 -0.0552084
-0.057087496 0.10272531 -0.038246553 0.0979381 -0.009766482 -0.044793952 -0.08616486 0.18553558
0.027726736 0.14541116 0.010489025 0.056443226 -0.010829367 0.020315528 0.0076198517 0.039363552
0.09626093 -0.06795774 0.047932774 0.07595513 0.1732439 -0.18277472 0.17908438 0.31947246
0.027116193 0.016818296 0.116068944 0.038169686 0.088450484 -0.026917834 -0.07406928 0.041900072
0.08201945 0.055685762 0.17068249 0.1286547 -0.0027693848 -0.20293875 -0.14134496 -0.04504713
0.084535934 0.050690457 -0.10931831 -0.14042465 0.04943433 0.13161765 -0.113499776 -0.17441578
-0.057955902 0.1992093 -0.18271838 -0.093734264 0.08014027 -0.015051456 0.07694084 -0.09129247
0.024506878 0.09459319 0.102666266 0.12036767 0.1484286 0.16334295 -0.040521562 -0.09352859
-0.07278039 -0.09819813 -0.09688996 0.11885219 0.052434936 -0.02295116 -0.062173028 -0.14653961
-0.19014613 0.00073395576 -0.1634514 -0.012169994 -0.10080889 0.06972221 -0.04315858 0.15526064
0.046702836 0.001485518 0.09640642 0.11266342 -0.060533963 0.051414315 0.08434552 -0.14211583
0.06958254 0.031323906 0.028178273 -0.04633067 -0.14725678 0.0708324 -0.16458845 0.06332651
-0.13438015 -0.08786753 -0.080429316 -0.047610596

gru.weight_hh_l0 f4 [180, 60]
00000000: 81ad 17be be96 92bd 435d 8ebd c45c 143c
00000010: e90b dcbd 968c ca3d 85d4 193d 3dca 693e
00000020: 1311 b8bd 5e79 12be e38a 973d 0873 183e
00000030: 9104 d1bd 6c13 433e eede 29bc 0e86 183e
00000040: 0b28 bebd 995c 3fbe cfc6 dabd 898a 8bbd
00000050: 643c e0bd 7e92 793b 8d71 e93d bf9b 5fbb
00000060: 0062 3e3e eac1 913d aba7 9b3d a193 efbd
00000070: ae53 53be c7db 0cbe 0e77 793c cc94 743e
00000080: 46f2 0b3e 86ba b73c cff3 0a3e a5ee 123e
00000090: 7be5 2cbd 1b2d 0bbd 836a 8ebb ddae 1c3d
000000a0: 505c ac3d 0281 9f3b 9fa4 a7bd e8a7 ae3c
000000b0: 6e11 c53d b17f d93d 906a d7bc 283a 103e
000000c0: f06b 78be 1e44 61bd ba23 0d3e deee 32bd
000000d0: c615 533e 3fbb 65bd 455c 68bd bef2 203e
000000e0: aeaa e73d 760a 583e 2335 493e b5a5 56bd
000000f0: 6bd6 393e b89e 453e 931c 8cbd 93b1 c03d
00000100: 6153 003e ca33 f3bd d044 57bd 0a63 c3bd
00000110: c3c0 893d 020f 4abd 854f 84bc e1fb 44be
00000120: 2ffb 7a3d 1464 94bd 106f 8ebc 92f3 13be
00000130: a9f8 e6bc 2833 083d cee4 2abd 48c8 b8bd
00000140: a405 9d3d b33c 543e fcb0 293d c89b 90bd
00000150: 9f5e 60bd 5974 733d 7fa4 5abe ec43 ab3d
00000160: a9e9 e93d 2f1a 7b3d f446 833d a267 36be
00000170: ac84 48be 1173 6d3d a16f 52bc 835e 05be
00000180: 269b c3bd d15c 083e 6dee b83c b596 de3d
00000190: 237a acbd 9668 61b9 4f77 ee3c c3fc 5d3e
000001a0: d762 10be d3d3 f7bd a5c6 8c3e 6212 23bd
000001b0: 7929 0fbd 177e ec3c fc78 acbd 6cb9 0a3d
000001c0: 4730 2ebe 2f67 d63d 4602 12be 251f 5d3c
000001d0: 717b a8bd 5baf 56be fabf a4bb af44 debd
000001e0: 0ea0 6fbd 90f1 13bc bcb7 83bd de10 263e
000001f0: 59b7 32be 7bda 88bd 02ae 823d cdb1 94bc
00000200: 94f6 8ebd 498d 7cba 57cd 3c3d c949 f33d
00000210: 7d45 433d 2f61 123e 8e31 67bd 8df6 493e
00000220: 65df 203a 5339 81bd c578 143d a2b7 a6bc
00000230: ec79 febd a3d6 ebbc d3a4 823d 82ad 763d
00000240: 6bab 0e3e b4d2 ce3d 4352 8b3d 4e6e 0fba
00000250: 07de fa3d 4a9b fd3d ba51 f33d 7be6 f33c
00000260: a6c2 00bd b13e d73c 5f10 2bbd 1476 2b3e
00000270: 88c3 ca3d 3f40 6a3c 13b9 1a3e 209b ff3c
00000280: 3d04 00be 3afe b0bc 6bf0 f53c 0d60 f8bd
00000290: b602 d1bb 0d2a 813d 6a04 1dbd 1c30 ccbd
000002a0: 02c0 f53b 10c8 bebd 3a50 403e 7d84 4e3d
000002b0: 927d 1d3e 9edb ca3d eccd d13d 0922 7dbe
000002c0: 36b8 023e ec3b 21bd d53c 1c3e bf82 303e
000002d0: 9b10 493d 6198 06be 1ca3 093b ff3c dabd
000002e0: a765 bbbd 776c af3d b38a b8bc c0cf 9c3d
000002f0: c29d 87bd 836f 123d 9d27 23bc 733d bdbc
00000300: 473b b73d 8681 d1bd 8ca9 053e 1a71 84ba
00000310: 05f6 273e b0d1 a1bd 2d59 c5bd 7969 923d
00000320: 75e4 9fbd 1a8e 81bd c842 af3d 723f ba3d
00000330: 0e0b 54bd d3c7 9dbc 5b91 fe3d af13 c4bd
00000340: b98b 9a3d 2658 e53b 8478 c43d 4a0d 6d3d
00000350: 792d 81bd 7404 86bc 72be e1bd 9190 bbbd
00000360: 3e89 0d3e 7082 8dbc 651d 3b3e cc5c 9cbc
00000370: 730f c0bd 689b babc 6c38 ad3c 7cd2 0a3e
00000380: e9df 81bd 315e f43c b262 423d 4acd 653c
00000390: 3fdc 0dbd f699 bf3d 948f 8fba 408a b43d
000003a0: 5234 7cbd db19 283e fce1 803d eb02 8abe
000003b0: be9c 8bbd fe22 d53d 8f32 873d 6f79 ee3d
000003c0: 5fea d9bd 8262 363c 3ea6 a3ba 8f85 91bd
000003d0: 883c 363c 2fde 203e 8e16 8a3e 42ef 4b3e
000003e0: e678 d5bd 0eff 1f3e 0a76 bdbd f11c 4f3e
000003f0: 20b3 c33c 36a5 6c3d 132a 093e 7cce f93d
-0.1481228 -0.07157658 -0.06951382 0.00905532 -0.10744459 0.09890096 0.03755619 0.22831054
-0.08987632 -0.1430411 0.073995374 0.14887631 -0.10205949 0.19050378 -0.010368092 0.14894888
-0.09284981 -0.18687667 -0.10682451 -0.06813533 -0.109490186 0.00380817 0.11398611 -0.0034119932
0.18592072 0.07117064 0.076003395 -0.1169808 -0.2063739 -0.13755713 0.015226139 0.23884887
0.13666639 0.022427808 0.13569568 0.14348848 -0.042211037 -0.033978563 -0.0043461933 0.0382527
0.08416045 0.004867674 -0.08185696 0.021320298 0.09622465 0.10620058 -0.02629593 0.14084685
-0.24259925 -0.054996602 0.1378316 -0.043684833 0.20613775 -0.056086775 -0.05672862 0.15717599
0.113118514 0.2109774 0.19649176 -0.052404124 0.181482 0.19298828 -0.068413876 0.094088696
0.12531807 -0.11875112 -0.05255586 -0.095403746 0.067262195 -0.04933072 -0.0161512 -0.19236709
0.061274704 -0.07245651 -0.017386943 -0.14448383 -0.028194742 0.03325191 -0.04172211 -0.090225756
0.076670915 0.2072628 0.04142855 -0.07060963 -0.054777738 0.05943713 -0.21351813 0.083625644
0.1142152 0.061304267 0.064100176 -0.1781297 -0.1958186 0.057971064 -0.012843997 -0.13024335
-0.095510766 0.13316657 0.022574628 0.10868589 -0.08421733 -0.00021496633 0.029109625 0.21678452
-0.14100204 -0.12100949 0.27495304 -0.039812453 -0.03495166 0.028868718 -0.084215134 0.03386824
-0.17010604 0.104688995 -0.1425868 0.013496195 -0.082266696 -0.2096533 -0.005027768 -0.10852944
-0.05850225 -0.009029761 -0.06431529 0.16217372 -0.17452754 -0.06682297 0.063808456 -0.018151188
-0.06980625 -0.000963409 0.046094265 0.11879308 0.04767369 0.14294885 -0.056443743 0.19722958
0.0006136804 -0.06309762 0.036247987 -0.020351235 -0.124255985 -0.02878887 0.06379094 0.060224064
0.13932578 0.10098782 0.068027996 -0.0005471454 0.122493796 0.12383135 0.118808225 0.029772988
-0.03143563 0.02627501 -0.04176366 0.16744262 0.09900576 0.014297544 0.15109663 0.031201899
-0.12501617 -0.0216056 0.030021867 -0.12127695 -0.006378497 0.06306849 -0.038334288 -0.09970114
0.0074996958 -0.09315503 0.18780604 0.05041932 0.15379933 0.0990517 0.102443546 -0.24720015
0.12765583 -0.039363787 0.1525758 0.17237376 0.0490881 -0.13144065 0.0021001762 -0.10656165
-0.09150248 0.0856561 -0.022527074 0.07656813 -0.06621887 0.035750877 -0.009958175 -0.02310059
0.08946853 -0.10229783 0.13052958 -0.0010104508 0.16402443 -0.07901323 -0.096361496 0.071490236
-0.078072466 -0.06325932 0.085576594 0.090941325 -0.051768355 -0.019260323 0.12430068 -0.09574067
0.07546181 0.0069990335 0.09593299 0.057874 -0.06307501 -0.016359545 -0.11022653 -0.09158433
0.13821885 -0.017274112 0.18272932 -0.019087218 -0.09377947 -0.022779182 0.021145068 0.13556856
-0.063415356 0.02983007 0.047457404 0.0140259955 -0.03463387 0.093555376 -0.0010952824 0.088154316
-0.061573334 0.16416113 0.06293103 -0.2695535 -0.068170056 0.10407065 0.0660144 0.11644255
-0.10640406 0.0111318845 -0.0012485457 -0.071055524 0.01112283 0.15709756 0.26970333 0.19915488
-0.1042345 0.1562464 -0.0925103 0.20225884 0.023889124 0.057774745 0.13394956 0.12197587

gru.bias_ih_l0 f4 [180]
00000000: 8f12 9ebd fbfa f23d 5bd7 0cbd 1db1 cd3d
00000010: d44c 5bbe 6925 b7bc f395 2e3e 47e4 603d
00000020: 0d04 4f3d 8800 12be 9af0 f5bd c318 17be
00000030: b150 883d 4cdb 8fbc 050d 56be 9081 0ebd
00000040: 612d 13bd 16f0 fdbd f052 f33d 4442 2dbd
00000050: 115c edbd c288 953c f2c5 b6bd 12b2 9f3d
00000060: 8a7b b2bd 32c0 6bbd 363d da3c 5cf1 cabd
00000070: 8309 10bd ce92 3b3e 20c5 d43d 953f 62bd
00000080: 8946 68bd 611a 933b 1951 c03d 6657 f1bc
00000090: 0938 da3d b000 b0bd 4cbd cdbd 854b f4bc
000000a0: b356 373d cc77 073e c11b b93d 5cc9 e3bd
000000b0: e0a0 013e e47a 8b3d 318c 27be 6d22 b63c
000000c0: 59a9 e73d c991 4bbc f533 773d dfef 77bd
000000d0: 95ae 333d d6e2 ab3d 3de9 c2bd ed99 f03d
000000e0: 97b6 21bd c080 f83c 7ad6 b23d 3138 d13d
000000f0: a6ef ff3d 3e27 22be fb66 bdbd fcad 37be
00000100: e4e9 0a3e 5e5c 2fbe ddf3 013d c2a7 113e
00000110: 7070 18be d94d 38be a0ce 49bd c378 2f3d
00000120: f7e6 bdbd da0c 45be e87d abbe 685f 143d
00000130: 3ba7 e8bd 23b6 1bbe f3e5 b9bc 523e 92bd
00000140: 4e81 fcbc 3b0c 16be 9c00 443d 444e 28be
00000150: 8e1e ef3c 8f24 5cbe ac5f 983c 6fac babd
00000160: cc61 f33d b460 8cbd c215 49be be7a 02bd
00000170: 0bc6 93be 2a55 5ebb 88a1 54be 432e cb3d
00000180: 7e1c b9bd df79 34bd 0bc3 353d 8f4c 2bbe
00000190: 2e29 fbbd 33db 0ebe 7eb2 5ebe 99b8 053e
000001a0: 1843 b2bd 076d 2fbe 6941 7f3e 7f9c b0bd
000001b0: 8110 a83d 73b3 31be 2db3 69bd 8f68 cbbd
000001c0: f4d5 68be a94f 3c39 a04c 03be 912a a6bd
000001d0: 21a2 53be 9b87 20be 5c33 e7bd 8e0f 2a3d
000001e0: cd21 a73d d8f0 b9bd 3acc 0c3e b242 833d
000001f0: d5c8 b33d 0484 91bd 38be 01be 8cbe b0bc
00000200: b28d cd3c 7d92 08be 7b63 e03d 9ff5 ccbd
00000210: 95eb 863d 4f7f 1fbe 6819 13be 73d6 993d
00000220: d304 d63d d086 503d 161d f0bd c1a5 18bd
00000230: acf7 8f3c 0d13 913d 0d68 8f3c 0370 96bd
00000240: 4d88 c8bc 2cd6 143e d107 6cbc 345b b2bc
00000250: f12b 673d 94d2 333d 5f5c 133e a348 79bd
00000260: 0c3a 463d 441d 13bd 65eb 233e 3f15 bdbc
00000270: 73f9 2ebd ebdc eabc 4e3a 1bbd 8760 a1bd
00000280: 1804 4bbd 0344 c6bd 4ee9 073c 6087 b7bd
00000290: af0e 0dbc 3e22 13be 34e6 073e a1a8 573c
000002a0: ed8e 813d 0ff8 abbd dd54 aabd 0b9d 103e
000002b0: 25d6 cc3d 85b6 eebd 5823 c63d 3f8d 66bd
000002c0: 21d0 083e 283b f9bb c8fd 01bd e176 c93b
-0.077183835 0.11864277 -0.034385066 0.10043547 -0.21416026 -0.022356706 0.17049389 0.054905202
0.050540973 -0.14258015 -0.12008782 -0.1475554 0.06656016 -0.017560624 -0.20903404 -0.03479153
-0.03593195 -0.123993084 0.118810534 -0.042299524 -0.11589826 0.018253688 -0.08924474 0.07797636
-0.087149695 -0.05755634 0.026640516 -0.09909317 -0.03516532 0.1831772 0.10389161 -0.055236418
-0.056707893 0.0044892286 0.09390468 -0.02946062 0.10655219 -0.08593881 -0.10045871 -0.029821167
0.044760417 0.13229293 0.09038497 -0.11122391 0.12659025 0.06810549 -0.16362073 0.022233212
0.113115974 -0.012424895 0.060352284 -0.060531493 0.043867666 0.08392875 -0.09517143 0.11748109
-0.039480772 0.03033483 0.087323144 0.10215796 0.12496881 -0.15835282 -0.092481576 -0.17937464
0.13565785 -0.17125079 0.031726707 0.14224151 -0.14886642 -0.17998447 -0.04926932 0.042839777
-0.09272569 -0.19243184 -0.33494496 0.0362238 -0.11360022 -0.15206198 -0.022692656 -0.07140793
-0.030823376 -0.14653103 0.047852144 -0.16436106 0.029189374 -0.21498321 0.018600307 -0.0911492
0.11883888 -0.06854382 -0.19637206 -0.031855337 -0.28862032 -0.0033925273 -0.20764744 0.09920933
-0.090386376 -0.044061538 0.04437546 -0.16728424 -0.12263714 -0.13950805 -0.21747777 0.130587
-0.08704203 -0.17131434 0.24927296 -0.08623599 0.08206273 -0.1735361 -0.05705564 -0.09932052
-0.22737867 0.00017958753 -0.12822199 -0.08113588 -0.20667316 -0.1567673 -0.11289093 0.04151874
0.08160744 -0.090791404 0.13749781 0.064092055 0.0877854 -0.07105258 -0.12670219 -0.021575235
0.02509198 -0.13337131 0.109564744 -0.10007786 0.065879025 -0.15575908 -0.1436516 0.07511606
0.10450139 0.050909817 -0.11724298 -0.03726745 0.017574154 0.07083712 0.01750567 -0.07345583
-0.024479056 0.14534825 -0.01440616 -0.021772005 0.05643839 0.043901995 0.14390706 -0.060860287
0.0483952 -0.03591658 0.16007765 -0.02308142 -0.042718362 -0.028669795 -0.0378974 -0.07879739
-0.04956445 -0.09680941 0.00829537 -0.089613676 -0.008609458 -0.14368531 0.1327141 0.013162763
0.06326089 -0.08396923 -0.08316968 0.14122407 0.10001782 -0.116559066 0.0967471 -0.056287047
0.13360645 -0.007605929 -0.031736165 0.0061482047

gru.bias_hh_l0 f4 [180]
00000000: b279 c43c ae9a 66bd 26f9 c0bd 9e3e c73d
00000010: bae6 bcbd 30c6 68bd 6860 523d 781e f83d
00000020: debe 463c 3b0a 09be 4f0f 4cbe 58cd 9a3d
00000030: dded 0cbc 3763 0cbe 1653 d0bd d519 513d
00000040: f331 c83d 166a e4bd b703 8f3d 4f1f 02be
00000050: 5127 abbc fd75 aabd 3b34 0dbe 9e67 77bc
00000060: b513 4cbe f59f bfbd deab a1bd e1b6 b5bc
00000070: 0c1f 01be 351c ca3d 0cc4 bcbc 8d76 383d
00000080: 676a 823d b180 d13c b86e c63a 072b 1fbd
00000090: 08eb 0dbb 5657 a93c ab37 68bc 3b4a 013e
000000a0: 3575 b4bc 795c a23d c75f aebd 84ff 0fbe
000000b0: 0d1f c43b f1c0 943d e3db a6bd 273f 2c3c
000000c0: e0b9 bcbd dc15 f33c be75 6cba 6218 bcbd
000000d0: 58d1 e2bd 8d9c bbbc c2ce ebbb 327f 053e
000000e0: 0999 2cbe 6f0b c43d 2272 bbbd 4220 953c
000000f0: 060c 3c3e 73cf 29be 9872 e6bd dcdd 6dbe
00000100: f44a be3d e6f8 8dbe c185 4f3d 5ae7 6f3d
00000110: 9950 263d c02e 11be f8bf ecbd 4b97 133e
00000120: 2aad a3bd 85a5 47be 4ce4 5abe 8367 1e3d
00000130: b3b2 56be f2c8 2abe dbe6 833c 6d77 81be
00000140: 6067 ce3c 09e7 12be ebd8 003e 94e7 32be
00000150: dffc 2dbd e5fe 2cbe b879 d3bc 54bf ce3c
00000160: 0c0e 053e a6c3 86bc ad1f 313c 9af7 11be
00000170: 7613 8dbe 635e ba3d a885 21be 1704 783d
00000180: 3ad9 12bc 9ed4 e13d d163 5d3d fabf febd
00000190: 771b 19bd db5a d4bd 81e5 5ebd 3916 843e
000001a0: 581f 0cbd 88d6 73be 7614 333e 005e a2bc
000001b0: f870 1ebc 0ff7 19be 3052 09be 718e 64bd
000001c0: a5d6 3fbe 061d 17bd b7d0 b2bb c78f 79be
000001d0: cd1a 58be 038e 91be 64f9 73be fc2f 703d
000001e0: c4d7 5e3d f85d c3bd 6f9b 693d 5d68 8b3c
000001f0: 5881 cebd a603 03be f8ae d2bd 7379 2abe
00000200: da90 cd3d a956 9abd a248 88bd 2178 e23a
00000210: aa76 14be c1b9 363d 1523 2a3d e390 c23c
00000220: c4bd 3ebd 31c9 263d edfb 21be c8b3 ac3d
00000230: 3d7c c0bc d0ff 4e3c 2ff5 b9bd 0056 cc3d
00000240: 646e d5bc 8297 e93c 71da 4bbd 3786 98bd
00000250: a017 7c3c bf27 cf3d d3f2 143e 4bb0 91bc
00000260: 04cd d43d 7f71 3bbe 88ee 893d c8db 24bc
00000270: 681e 973b f122 333d 2bcf 15bd c2bf 97bd
00000280: 5927 b63d 3c92 34be abbd fdbd 3aaf b8bc
00000290: 5d16 573d 257d d7bd 44e3 eb3c b395 4abc
000002a0: f8f7 053e 0793 b93d ac4e 0ebe e8a2 903d
000002b0: dfbe adbd e369 abbd 67df bfbd 57e3 ccbd
000002c0: 78c0 be3c 7b10 95bd 7a22 eabc c5b3 60bd
0.02398381 -0.056299858 -0.09422521 0.0972874 -0.09223695 -0.05682963 0.05136147 0.121151865
0.012130467 -0.13382809 -0.19927715 0.075586975 -0.008601633 -0.13709722 -0.101720974 0.051050026
0.09775152 -0.11153047 0.069831304 -0.12707256 -0.020892771 -0.08323286 -0.13789456 -0.015100388
-0.19929393 -0.09356681 -0.07894109 -0.02218193 -0.126095 0.09868661 -0.023042701 0.045034934
0.06367951 0.02557406 0.0015139198 -0.038859393 -0.0021654982 0.020671528 -0.0141734285 0.12625973
-0.022028545 0.07927794 -0.08514362 -0.14062315 0.005985147 0.07263363 -0.08147409 0.010513104
-0.0921514 0.02967351 -0.00090202305 -0.09184338 -0.110750854 -0.022901798 -0.0071962783 0.13036802
-0.16855253 0.09572493 -0.091526285 0.018203858 0.18363962 -0.16583042 -0.11252326 -0.23229164
0.0929164 -0.27728957 0.050664667 0.058570243 0.040604208 -0.1417799 -0.11560053 0.14413182
-0.07992013 -0.19496734 -0.21376151 0.038672935 -0.20966606 -0.16678217 0.016101291 -0.25286427
0.025195777 -0.14345945 0.12582748 -0.17471153 -0.042477485 -0.1689411 -0.025814876 0.025237717
0.1299364 -0.016450714 0.010810775 -0.14254609 -0.2755391 0.09100034 -0.15773642 0.060550775
-0.008962924 0.11026882 0.05405027 -0.124389604 -0.03737971 -0.10368892 -0.05441809 0.25798205
-0.03420958 -0.23812306 0.17488274 -0.019820213 -0.009670489 -0.15035652 -0.13410258 -0.055799905
-0.18734224 -0.036892913 -0.0054570097 -0.24371253 -0.21103974 -0.2842866 -0.23825604 0.05863951
0.05440499 -0.095394075 0.057033 0.017017538 -0.10083264 -0.1279436 -0.10287279 -0.16647892
0.10037394 -0.0753606 -0.066544786 0.0017278233 -0.14498392 0.044610742 0.041537363 0.023750728
-0.046567693 0.040719215 -0.15818758 0.08432728 -0.023496741 0.012634233 -0.09079968 0.09977341
-0.026053615 0.028514627 -0.04976887 -0.074474744 0.015386492 0.10115003 0.14545755 -0.017784258
0.10390666 -0.18305014 0.06734949 -0.010062166 0.004611779 0.043734495 -0.036574524 -0.07409622
0.08894224 -0.17633909 -0.12389692 -0.022544492 0.05251156 -0.10521916 0.028794892 -0.012364793
0.13082874 0.09061246 -0.13897198 0.07062322 -0.084836714 -0.08369806 -0.093687825 -0.10004299
0.023285136 -0.07278534 -0.028580893 -0.05485894
