hosp_models/deploy_week_43_12/seq_enc.pt (torch, 46379 bytes, 4 tensors)

gru.weight_ih_l0 f4 [180, 1]
00000000: 2c57 463e c609 353e 1564 d73d 4d20 2b3d
00000010: eca4 36bb e8cc 6a3e a091 66bd 1bd1 c13d
00000020: 93b7 d8bd 21b7 c73c dc98 143e 64d5 1f3d
00000030: 0238 0cbe 7962 eebd c812 abbd 79ef c7bd
00000040: 93fe 143e ab04 823d 2b9d 163c 18d7 4dbd
00000050: a4f3 c13c b259 523d 8b9d 113c 31df 713d
00000060: 8c8b 5e3d 4e39 523d 0642 d03d 4dea 7dbd
00000070: 7762 93bd 23ee 163c 65b0 1b3e 7c53 d1bd
00000080: 3361 493d 8085 99bd 789b 8a3d 04ba 9c3e
00000090: c311 23bd ddc3 3cbd 87cc 023e 1cf7 533d
000000a0: 220a 373d 3851 23be 4d49 223d 2e29 303d
000000b0: 4f15 29be e768 c5bc ddd7 00be 002b 0b3e
000000c0: 2f5a 6e3e 028a 53bd 585e 533c ef6f 72bd
000000d0: 2d14 1f3e 40da 5e3e d2de 843d e575 05be
000000e0: 2ddb 253b ee48 4d3e 9307 5fbd 279f 313d
000000f0: 77bc 68bd 8295 06be dc5f 3cbe 0621 c0bd
00000100: 0c07 81be f9c3 92be 6041 59bd 4ed7 9bbe
00000110: aa78 e4bd 24f8 5b3b ae59 f7bd be19 af3d
00000120: bf60 28be b196 7abe f31e 1bbe c18d 113c
00000130: d7d2 80be a72e 94bd fb72 0f3d 5a8b 0cbe
00000140: 4bdc 3bbe bcaf bf3d 5770 77bb 2cf5 45bd
00000150: e307 0a3a e02e 5abd eca2 61be 394c 163d
00000160: e7bd 2ebe 0f7c 44bd 30b1 14bd 5c00 0a3e
00000170: 319b f3bd e800 873d 8203 343e 7013 4cbe
00000180: b212 a1bd 592a 72be 985e e33d 146c 06bc
00000190: 0689 9bbc f6c7 87bd 96cc 9bbd cb89 ebbd
000001a0: a707 0bbe 5eca 33be 1359 c63b 3664 05be
000001b0: 73eb 56be afa3 c5bd 07b6 92be 26e3 4e3c
000001c0: 64ae 07bd 960f a3bd 05c8 a2bb e05c 8f3d
000001d0: 1ea4 f7bd b873 3ebe c533 91be c13e 15be
000001e0: eb70 323e deef fdbd 0619 ca3d 1774 783d
000001f0: 3f3a cd3d f0a0 ccbd 023d dabd 2612 14be
00000200: 658d f0bc 586a 5e3d ec71 1ebd 3c23 c6bd
00000210: 2c13 143e 6dd3 023e 31e0 a0bd 486e d0bd
00000220: 91db 33be df8d ba3d 31c0 e53d fa39 bdbd
00000230: f59e 403e f0a4 213e 8f2c 1bbd 6419 d9bd
00000240: 8997 5cbd ca94 8fbd 2e13 4dbe 7c2b 113e
00000250: 9bfe 0e3e b822 00be f743 22bd 1f6c 25bd
00000260: 8943 53be 6429 4f3c d84c bbbc 1dfc 21be
00000270: 1a30 5ebe 9ce7 b9bd 89be 78bd 1ca7 5e3d
00000280: e848 cdbd 16de 25bd 22cc 3c3e e110 0d3e
00000290: 821f 2bbd 6d4e b9bd 931a e1bb 549f 4bbe
000002a0: ae80 f23d cd03 01bd 2963 903d d16d bebc
000002b0: e89d 09be f319 edba 0006 f9bd 6ea2 33bd
000002c0: 013f bcbd 7670 b4bc a7c8 903d 4d4e 3ebd
0.19369191 0.1767951 0.10517136 0.04177885 -0.0027869297 0.22929728 -0.056291223 0.09463712
-0.10581889 0.024379315 0.14511436 0.039021865 -0.1369324 -0.11639876 -0.083531916 -0.09762473
0.14550237 0.063485466 0.009192745 -0.050253958 0.023675747 0.05135507 0.008887659 0.059050743
0.0543323 0.05132418 0.10168843 -0.061991025 -0.07196515 0.00921205 0.15204008 -0.102210015
0.049164962 -0.07496166 0.067679346 0.3061067 -0.03981186 -0.046085227 0.12773333 0.051749334
0.044687398 -0.15948951 0.039620686 0.043008022 -0.16512035 -0.024097873 -0.12582345 0.13590622
0.2327659 -0.051645286 0.012900911 -0.05918878 0.1553504 0.21762943 0.06487812 -0.13033254
0.002530764 0.20047352 -0.054450583 0.04336467 -0.05682036 -0.1314297 -0.18395942 -0.09381299
-0.2520069 -0.2866514 -0.053040862 -0.30437702 -0.11155827 0.0033564651 -0.12077652 0.08549832
-0.16443156 -0.24471547 -0.15148525 0.008883894 -0.25160858 -0.07235461 0.035021763 -0.13725033
-0.18345754 0.093596905 -0.0037756169 -0.048329517 0.00052654574 -0.05326736 -0.22034806 0.036693785
-0.1706463 -0.047969874 -0.03630179 0.134767 -0.11894835 0.0659197 0.17579463 -0.1992929
-0.07864894 -0.23648967 0.11102027 -0.008204479 -0.018986236 -0.066299364 -0.07607381 -0.11500891
-0.13577138 -0.17557666 0.006053099 -0.13026509 -0.20988254 -0.09650361 -0.286545 0.012627399
-0.033125296 -0.07961957 -0.004967692 0.070001364 -0.1209185 -0.1859883 -0.2835981 -0.1457472
0.17425887 -0.12399267 0.09868054 0.060657587 0.10020875 -0.09991634 -0.106561676 -0.14460048
-0.029364297 0.054300636 -0.038682863 -0.09674689 0.14460438 0.12775965 -0.07855261 -0.101772845
-0.17564227 0.09109091 0.11218298 -0.09239574 0.18810637 0.15785575 -0.03788429 -0.10600546
-0.053855453 -0.07010801 -0.20026848 0.14176744 0.13964312 -0.12513244 -0.039615598 -0.040386315
-0.20631231 0.012644146 -0.02286379 -0.1581883 -0.21698037 -0.09077379 -0.060728583 0.054358587
-0.100236714 -0.040495 0.18437245 0.1377597 -0.041778095 -0.09048162 -0.006869623 -0.19884998
0.1184095 -0.031497765 0.07050163 -0.023245724 -0.13439143 -0.0018089399 -0.121593475 -0.043856077
-0.091917045 -0.022026282 0.070695214 -0.046461392

gru.weight_hh_l0 f4 [180, 60]
00000000: 9649 21bd eb32 83bc 78fc c9bd 71ea b1bd
00000010: 5e83 bfbc 1645 2c3e e2fa a33d af48 063e
00000020: 710a 12be 996b 85bc e808 33be a49a 3a3c
00000030: d8c6 6dbd 5016 233e 478a 9c3c 85bd 483b
00000040: bc2b 98bd e7a2 35bd 1d3a 8e3d dff5 b139
00000050: 9e11 19bd 44e8 873d 9274 9d3d d650 04bc
00000060: 20d4 5d3e cf24 bfbd 7c48 8bbd 030f eabd
00000070: e990 febd 8af1 80be dd60 11be 7cf9 0f3e
00000080: edc1 873c 41dd 11bd ad10 513b 3463 943d
00000090: fabc eebd d2ed b4bb 59f9 ee3c 5263 873d
000000a0: cc40 83bd 80ad e339 a269 123c be96 403e
000000b0: c88e 9c3d 96d2 f93d 1733 093e 1b7b ee3c
000000c0: a89c 16be f1d1 ad3d a154 ac3d f238 f6bd
000000d0: 796c e63d d774 a23c bf6f 1fbe a9c6 1e3e
000000e0: a2f7 823c 94f1 2e3e 3380 663d d23e 59be
000000f0: e6aa 363d a88f 093e 991a a5bd 471f 3a3d
00000100: 0e0c 4b3d 3d79 01be 6647 a73b ecf1 6e3d
00000110: 82b2 09be aaa7 c5bd 6634 ad3d b172 cdbc
00000120: 27d0 653d b63d 413d 709d 063d 61b8 00be
00000130: 56f4 8fbd 5d24 55bc 5ae0 f8bc ce41 cfbd
00000140: bc72 0c3d 8cdd 453e c8d3 e0bd c0cf d2bd
00000150: b981 c23b f6ab 6b3d 17a8 1dbe c1fa f83d
00000160: 3366 c43d 575c 51bc 8179 843d 0ae8 e0bd
00000170: d112 09be 9085 a63e 5f24 f83c 743c 93bd
00000180: b814 bebd 8d5f c13c 1a24 1b3e 971a cc3c
00000190: 3dc2 21bd da0f d83d b787 f33d b4a4 ea3d
000001a0: 8819 29be dfc0 a6bd 3f1e b83d ab98 a03c
000001b0: 61a6 05be 5012 fabb 0f5f 053c eb4a e139
000001c0: 4c29 c2bd e10a d43d 63b7 0abe 47f2 21bc
000001d0: c1ca 5bbe 10d5 f0bd d2ef 6b3d a3ec 73bc
000001e0: e4a5 a9bd 61a5 933d 2873 cdbd 1927 da3d
000001f0: 5f4d 40be 6957 f83b ce3d f43d cf23 b03d
00000200: 6fc1 83be 22bd e53d 456f 60bd 6259 223e
00000210: 4dc4 a8bc 104e f33d 8e11 53bd f6dd 373d
00000220: 1e88 c8bc 7773 923b c60f 003e 11fb a6bd
00000230: d66f b0bd 64c7 ddbc 8247 843d 55a7 32bc
00000240: 439d 783e 306a 36bd 9788 d23d a45a 49bc
00000250: 0fbe 49bd 0ac3 7e3d 754d 06bc ec17 923d
00000260: e782 19bd 61a4 ae3d f426 19be e668 153e
00000270: 0bb2 143d 398b c73d 1522 253e f715 c6ba
00000280: 352b 66be b17b e6bc b084 0e3d 8d41 39bd
00000290: 80e6 943d 10f8 ab3d b572 83bd a174 b9bc
000002a0: 2061 72bd d7a7 783d ad55 663d b0c8 1bbb
000002b0: ec10 323e 750b 033e df00 8b3d 5796 15be
000002c0: 1289 f43c 47ce a43c 1ba0 273c 446d bb3d
000002d0: 6c50 293c 7384 17bc 9dd5 babc 3dd1 1fbe
000002e0: 101a 45be 06f5 fc3d 5a7c c5bd 9fa1 503e
000002f0: e1bd 8cbd b53c fb3c 0c5d bdbd bd51 04be
00000300: f830 e4bc 204b 4cbe e995 093e 1413 33bd
00000310: 31ca c03d aa70 5a3c 4756 cebb a2df ef3c
00000320: 6e91 02be db00 81bb 6771 cc3d c324 5c3c
00000330: 9852 333c 95e7 973d cfc5 3d3e 838c 3fbe
00000340: ec6a dfbd a6c3 603c 865a 683d 15f5 d93d
00000350: 919e 52bc df08 86bd f13d 9dbd baff 8bbd
00000360: cf63 d43d 402f a03d 5903 b03d 75d4 04bd
00000370: 3829 bcbd 988f dbbd 3785 51bd 005e 783c
00000380: 2744 4d3e e25c 973d 66ce 773d f9ea 143e
00000390: e5d3 13be 0452 423e 0f60 b4bd 5b38 233e
000003a0: 68bd 5cbb e228 d83d 303b 083e 0177 223d
000003b0: 17fd 3cbd 5161 383e 2eb8 64bd 2dfa 78bc
000003c0: 50c2 17be 6a22 af3d 9d23 50bd 4ee6 0dbd
000003d0: 71f6 833d 3c73 563e 1a8f 823e cd55 833e
000003e0: 4d30 85be eddb f83d b922 18be 864c 7a3e
000003f0: ba37 80bd 99ee f7bc 504d 2a3e e0ef d03c
-0.039376818 -0.01601549 -0.09862608 -0.08687294 -0.02337807 0.16823229 0.080068365 0.13113664
-0.14261796 -0.016286658 -0.17483866 0.011389408 -0.05805096 0.1592648 0.019108905 0.003063054
-0.07430217 -0.04434481 0.06944678 0.0003394326 -0.037370317 0.06636098 0.0768825 -0.008075913
0.2166295 -0.093331926 -0.06800935 -0.114286445 -0.12429983 -0.2518428 -0.14197107 0.14060014
0.016571963 -0.035611395 0.0031900809 0.07245484 -0.11657138 -0.0055215145 0.029171633 0.06610741
-0.064088434 0.00043426082 0.008936318 0.18807504 0.07644421 0.12198369 0.13398395 0.029111436
-0.14708197 0.08487309 0.08414579 -0.1202258 0.11251158 0.019831104 -0.15569972 0.1550547
0.015987221 0.17084342 0.056274604 -0.2121537 0.044596575 0.13433707 -0.08061714 0.045439985
0.049572043 -0.12643905 0.005104947 0.058336183 -0.13447002 -0.0965112 0.0845726 -0.025079103
0.056106713 0.047177993 0.032864988 -0.12570335 -0.07029025 -0.013009158 -0.030380417 -0.10119973
0.034289107 0.19322795 -0.10977894 -0.102935314 0.0059358743 0.05753704 -0.15396152 0.121572025
0.095898055 -0.012778363 0.064684875 -0.10981758 -0.13386084 0.32523775 0.03029078 -0.07189265
-0.092812955 0.023605132 0.1515049 0.024915023 -0.03949188 0.105498984 0.1189112 0.11457196
-0.16513646 -0.08142256 0.08990144 0.019604048 -0.1305175 -0.0076315776 0.0081403395 0.00042971162
-0.09480533 0.103536375 -0.13546519 -0.009884424 -0.21464063 -0.117593884 0.057601757 -0.014887962
-0.08283594 0.07209278 -0.1003173 0.106519885 -0.18779515 0.0075787795 0.11925851 0.0860058
-0.25733516 0.11217715 -0.054793615 0.1585441 -0.020601416 0.118801236 -0.051530413 0.044889413
-0.024478968 0.004469331 0.12506017 -0.08153356 -0.08615081 -0.027072616 0.064589515 -0.010904153
0.2427874 -0.044534862 0.10279959 -0.012289677 -0.04925352 0.062197722 -0.008197178 0.07133469
-0.037478354 0.085274465 -0.14956266 0.14590797 0.036302608 0.097433515 0.16126283 -0.0015112747
-0.2247742 -0.028135153 0.03479451 -0.04522853 0.07270527 0.083969235 -0.06418363 -0.02263862
-0.059174657 0.06070694 0.05623405 -0.0023770742 0.17389268 0.1279734 0.067872755 -0.14608131
0.029850516 0.020117892 0.010231043 0.091517 0.0103341155 -0.009247887 -0.022806937 -0.15607162
-0.19248223 0.12351422 -0.09642859 0.20374154 -0.06872154 0.030668596 -0.09246263 -0.12921806
-0.027855381 -0.19950533 0.13436092 -0.043719366 0.09413565 0.013332525 -0.006296906 0.029281441
-0.1275079 -0.0039368696 0.09982567 0.013436499 0.010944985 0.07417218 0.18532489 -0.18705945
-0.109090656 0.013718521 0.056726955 0.10642449 -0.012855188 -0.06544661 -0.0767783 -0.06835885
0.103705995 0.07821512 0.085943885 -0.032429177 -0.09187549 -0.10720748 -0.051152434 0.01515913
0.2004553 0.07390763 0.06049957 0.1454276 -0.144363 0.18976599 -0.08807384 0.15939467
-0.003368223 0.10554673 0.13303828 0.039664272 -0.046139803 0.18005873 -0.05583971 -0.015196365
-0.14820218 0.08551486 -0.050815213 -0.034643464 0.06443489 0.20942396 0.25499803 0.25651398
-0.26013413 0.121513225 -0.14856996 0.24443254 -0.06260629 -0.03026514 0.16631055 0.025505006

gru.bias_ih_l0 f4 [180]
00000000: 8f08 80bd bbf0 873d 3603 86bd 65b6 203e
00000010: d103 4bbe 1faa 8fbd d7b4 eb3d d7a5 ed3c
00000020: c27d 73bd 925c 1ebe 2841 86bd baf7 32be
00000030: e1df c6bb f93e ecbc 6dc2 0cbe 7717 4dbd
00000040: 3600 86bd 8d68 e5bd fa28 c73d 2c0b 90ba
00000050: 0fcf 8cbe 28ef 4bbc 50a5 68be 3fd8 a0bd
00000060: 7654 06be a750 79be 15a9 62bd c434 46be
00000070: 880d 673c f843 32bd 2b60 76bd cb08 5bbd
00000080: 9ab7 54bd f2d3 f6bc 756a 05bd 6b4e 15bd
00000090: 0c3c 353d bdf2 b5bd 9ea8 3fbe c834 d6bd
000000a0: 10a8 483d 4b82 b23c 3baa f8bc f604 1cbe
000000b0: f873 e2bc 7d73 2f3d f65f 09be deed b9bb
000000c0: e63c ce3d e021 b5bd b8e8 2abd 33c5 05be
000000d0: e938 c83d 7043 cb3d e311 19bd 3128 633d
000000e0: e134 26bd 07ad 85bd 43f8 823d c93e 8b3d
000000f0: 45aa edbd 15f7 d33d dfd6 9d3c 3087 77bd
00000100: 971b d53d 806a f63b 16fe fc3c 62af 98ba
00000110: 0010 2c3c a911 30ba 4644 963c ce5c cdbd
00000120: 196d c5bd 027c 19be 311c d0bc aa34 6abc
00000130: c601 93bc ed1f f2bc 3b2a 50bd 05f3 043d
00000140: 1896 cf3c 06b6 20be 28b4 073e e75f f5bd
00000150: 4e97 863d cfa9 62bc 07f1 213e 0ff4 073d
00000160: 89d0 41ba a268 57bd 6e7f 963c c535 0b3e
00000170: 51e3 81be c3a6 54bd 3755 093d fcfd 21bd
00000180: fdb7 b3bd 7044 0e3d 863c 963c 0918 21be
00000190: 1714 1cbd 5f66 aabd c4bc 15be 1506 093d
000001a0: 7bd5 24be b969 063d a0b1 613d b3c0 40bd
000001b0: f1ad db3a 36ac 02be e6e5 813a 234a 87bb
000001c0: 328d 79be ccaa 273d 0269 0cbe 19e4 283d
000001d0: 2415 b8bc 27f9 74bd ac46 653e 2521 cabc
000001e0: a2a4 b63d 86e8 2cbd 970a e13d 95b4 c9ba
000001f0: 5557 663d 8666 24bd 1bf6 01be 630f 47bd
00000200: 8883 143d 522a a9bd aae5 bb3d daa7 01be
00000210: 34d7 dd3d fc80 05be b3dd 1fbe 404f 5d3d
00000220: 2808 043d d98c 913d 2cfc f1bc e709 90bb
00000230: eb9c 2c3d 6eae c93d f5e5 923c 0a9f 41be
00000240: 3096 90bd 9f29 013e c807 9cbc e840 873d
00000250: ab47 b53d aded ebbc 1061 9c3d f94a 24bd
00000260: 3d18 10bd a59f 4bbc 1460 023e 3c9a 7abd
00000270: 0b4c babd 6110 8fbd feb4 0ebd 7e8f f53c
00000280: 9f24 bd3c 4549 9ebd 3099 173d 2d18 d6bd
00000290: 6de9 cc3c 099c ecbd 2f90 e03d 8c97 6dbd
000002a0: 3931 a13d 6745 28be aa01 1c3d 0671 223e
000002b0: c0ce 033c 6483 20be 8347 763d a1e7 8e3d
000002c0: d07a fc3d dcc7 a7bb fa7b 2ebc 2017 b83c
-0.062516324 0.066377126 -0.06543581 0.15694578 -0.19825675 -0.0701487 0.11509102 0.029009743
-0.059446104 -0.15465 -0.06555396 -0.17477313 -0.006069169 -0.028838621 -0.13746043 -0.050071206
-0.06543009 -0.11201582 0.097246125 -0.0010989658 -0.27501723 -0.012447156 -0.22719312 -0.07853746
-0.13118157 -0.24347173 -0.05533703 -0.19356066 0.014102347 -0.04352185 -0.060150307 -0.053475183
-0.05193291 -0.03013036 -0.03257223 -0.03645174 0.04424672 -0.08884189 -0.18716666 -0.10459286
0.048988402 0.021790644 -0.03035461 -0.15236267 -0.027643189 0.042834748 -0.13415512 -0.005674108
0.10070209 -0.08844352 -0.041725844 -0.13063507 0.0977648 0.09924972 -0.037370574 0.05545825
-0.040577773 -0.06527143 0.063950084 0.06799085 -0.11604742 0.103498615 0.019267498 -0.06043166
0.10405653 0.00752002 0.030882876 -0.0011648948 0.010501862 -0.0006716499 0.018343102 -0.10027467
-0.09639949 -0.14988711 -0.025404068 -0.014294783 -0.017945182 -0.029556239 -0.050821524 0.032458324
0.025340125 -0.15694436 0.13252318 -0.119811825 0.06571828 -0.013834431 0.15814601 0.033191737
-0.000739344 -0.05259002 0.01837131 0.1359473 -0.2536874 -0.05191685 0.033528533 -0.03954886
-0.08775327 0.034733236 0.018339407 -0.15731825 -0.038105097 -0.08320307 -0.1462279 0.033453066
-0.16097061 0.03281567 0.055101037 -0.047058772 0.0016760213 -0.12761006 0.0009910434 -0.004128711
-0.24370268 0.04093437 -0.13711932 0.041233156 -0.022471018 -0.059807923 0.2239024 -0.024674008
0.0891812 -0.04221394 0.10988348 -0.0015388901 0.05623563 -0.040136836 -0.12691538 -0.04859866
0.03625825 -0.08260025 0.09174664 -0.12661687 0.10832062 -0.13037485 -0.15611915 0.054030657
0.03223434 0.07106943 -0.02953919 -0.0043957117 0.042141836 0.09847723 0.017931918 -0.18908325
-0.07059896 0.12613533 -0.01904668 0.06604177 0.0885156 -0.028799856 0.07635701 -0.040110562
-0.035179365 -0.012428199 0.12731963 -0.061182246 -0.09096535 -0.06985546 -0.034840576 0.029975649
0.023088751 -0.07728819 0.037011325 -0.1045383 0.02501365 -0.11553199 0.10965001 -0.058005854
0.078707166 -0.16432725 0.038087524 0.15863428 0.0080448985 -0.15675122 0.060126793 0.069777735
0.12328112 -0.0051202606 -0.0106496755 0.022471964

gru.bias_hh_l0 f4 [180]
00000000: a950 1e3d 9f57 debd 6148 00be 267d 1d3e
00000010: fc54 9cbd fa43 d6bd 8b6d 84bb d115 c33d
00000020: ee68 c8bd 4966 15be 7c37 14be c91e 463d
00000030: 655c a6bd 9eef 17be f7f8 f6bc ef83 123d
00000040: 58c8 8b3d 5ce2 cbbd cbb3 453d a9dd afbd
00000050: e054 38be ff55 e9bd 343b 8dbe bbbb 2fbe
00000060: 6e2a 79be 4718 8fbe d4c7 24be c9e5 eebd
00000070: a757 9dbd b915 03be 0e93 3fbe 6aad 3f3d
00000080: 0332 8c3d a733 14bc 73ec ffbd c5cd 3bbd
00000090: 2109 84bd ce8e 913c 2d9b cebd 43e5 523d
000000a0: 5fd2 91bc 21ca ffbc 1ad3 52be b91f 3abe
000000b0: 4ace 17be abff 413d 9406 55bd 327e 8ebc
000000c0: 5a26 d6bd 6ed4 3dbd 42e7 d2bd 74d5 25be
000000d0: bcdf 68bd 8a66 f8bb a146 4f3d 78f8 8b3d
000000e0: bab8 2dbe 2df3 f838 6150 ebbd acc4 82bc
000000f0: 1304 6bbd a9a6 c43d d6ee 4aba af23 e8bd
00000100: 6425 7b3d 3fc4 c9bd e410 4c3d 8cbe adbd
00000110: 7dc5 4c3e 36bc 193d 558f 44bd c459 853a
00000120: 3c33 abbd aa14 1cbe e627 c43d 6b14 42bc
00000130: 777e e9bd 3e5b 35bd 290f 45bc c192 18be
00000140: 9d9f a63d d190 1dbe 088d 573e 3e49 05be
00000150: 35ec c2bb 45ec 033d cdeb e83d 1f2b 193e
00000160: 3cb5 293c e43b 02ba a4f7 663e 41e7 ce3c
00000170: 8261 76be 2bfb 2d3d 61e2 aa3d 2b2b a0bd
00000180: 686b cfbb e999 413e 6b7e e53c eb56 eabd
00000190: 0023 413d a415 42bd 69e2 893c 5bb5 243e
000001a0: 5777 ddbd 783c 0bbd 0a05 9ebc 8f93 9e3c
000001b0: 2970 b8bd f9df d5bd 1dc3 9bbd 5859 213d
000001c0: da8d 50be 3e17 7d3b 972e 6bbc ea82 f8bd
000001d0: c4da dbbc 82d2 3fbe f4cd c93d 7481 f7bb
000001e0: 0da6 8d3d 8e6a 87bd bbf5 143d e410 4fbd
000001f0: b8b9 06be 2709 c5bd 00b1 dcbd 0750 3fbe
00000200: b8eb d93d e066 25bd f769 afbd 2ddb 79bc
00000210: 378c d2bd 560a 883d b2d0 413d 5af5 afbb
00000220: c980 00be 0ea4 843d c067 92bd 3a5b fb3d
00000230: ae49 133c 9bd7 2d3d 8e72 c6bd efbc 92bc
00000240: 0b9e 8cbd 3a29 923c f9f5 64bd 184a 553c
00000250: d910 233d ae8c 923c 69ee ae3d b2ed 19bc
00000260: 549e e73c c0a4 25be d552 3e3d b16b 52bd
00000270: 8573 2fbd b776 123c b3fa 0abd ca02 423d
00000280: 9bba 1c3e 751f 21be 486a b8bd 94f6 1cbd
00000290: fec5 c73d 4372 8abd 4f38 483c 1e40 a6bd
000002a0: 0ced 1a3e a417 913c b134 adbc 4d8c 9e3d
000002b0: 2513 30be 4d4e fabd 347e 0abe 8540 393d
000002c0: 071b a43c 6f4c 75bd 85d6 84bc 9178 0fbd
0.038651142 -0.10856556 -0.1252761 0.15379772 -0.07633397 -0.10462184 -0.004041379 0.095256455
-0.09785639 -0.145898 -0.1447429 0.048369203 -0.081230916 -0.148375 -0.030148013 0.035770353
0.06825322 -0.09955284 0.048267167 -0.085872 -0.18001127 -0.113933556 -0.2758423 -0.17161457
-0.24332592 -0.2794821 -0.16091853 -0.11664922 -0.07682734 -0.12801255 -0.1870844 0.04679624
0.068454765 -0.009045518 -0.12496271 -0.045850534 -0.06447054 0.01776829 -0.10088191 0.051488172
-0.017800508 -0.031224312 -0.20588341 -0.18176164 -0.14824787 0.047362965 -0.052008227 -0.017394159
-0.10456534 -0.046345167 -0.10298015 -0.16194707 -0.056853995 -0.007580583 0.050604466 0.06834501
-0.16964999 0.000118708565 -0.114899404 -0.015962921 -0.057376932 0.096021004 -0.0007741278 -0.11334931
0.061314955 -0.09851884 0.049820796 -0.084836096 0.19997211 0.037533008 -0.047988255 0.0010173847
-0.083593816 -0.15242258 0.095779225 -0.011845688 -0.114010744 -0.04427647 -0.01202754 -0.14899732
0.081359126 -0.15387274 0.21049893 -0.13016221 -0.005948568 0.032207746 0.113731004 0.14957856
0.010358151 -0.0004968031 0.22555405 0.025256755 -0.24060634 0.04247586 0.083439596 -0.07820734
-0.0063299425 0.18906368 0.028014382 -0.114423595 0.04715252 -0.04738392 0.016831594 0.16084807
-0.10813778 -0.033993214 -0.019289512 0.01935747 -0.09005768 -0.1044311 -0.07605574 0.039391845
-0.20366612 0.003861859 -0.01435437 -0.12134345 -0.026837714 -0.18732646 0.098537356 -0.007553274
0.06916437 -0.066121206 0.03636716 -0.050553218 -0.13156784 -0.09620886 -0.107759476 -0.18682872
0.10640663 -0.040381312 -0.08565133 -0.0152500095 -0.1028065 0.066425964 0.047318168 -0.0053698244
-0.12549128 0.064766034 -0.07148695 0.122732595 0.008989735 0.042441946 -0.09689818 -0.017912356
-0.06866082 0.017841924 -0.05589864 0.013018154 0.03981099 0.017889347 0.08541567 -0.00939505
0.028273739 -0.16176128 0.046465714 -0.051372234 -0.042834777 0.008939437 -0.03393049 0.04736594
0.1530556 -0.15734656 -0.090046465 -0.038321093 0.09754561 -0.06760075 0.012220456 -0.08117698
0.15129489 0.017711468 -0.02114329 0.07741604 -0.17194803 -0.12221966 -0.13524705 0.045227546
0.020032419 -0.059887346 -0.016215572 -0.03502709
