hosp_models/deploy_week_42_10/feat_enc.pt (torch, 56491 bytes, 4 tensors)

gru.weight_ih_l0 f4 [180, 15]
0	0x3e237dba	0.1596593
1	0x3e23aebe	0.15984628
2	0xbd24611d	-0.040131677
3	0xbc016715	-0.007898112
4	0xbbcdab7a	-0.006276545
5	0x3d6fc395	0.05853613
6	0xbc8ebd61	-0.017424287
7	0x3dd1a2f4	0.10236159
8	0xbc3bb555	-0.011456807
9	0xbdb7341c	-0.08945486
10	0xbd8be0ab	-0.068299614
11	0xbea6b043	-0.32556352
12	0x3dc403f2	0.09571065
13	0xbdce1cec	-0.1006411
14	0xbd1656f5	-0.036704022
15	0xbd802c66	-0.06258468
16	0x3dcb7ae2	0.099355474
17	0x3e79bfaa	0.2438952
18	0xbdf582c5	-0.11987833
19	0x3bf9c334	0.007622147
20	0xbc36d5dd	-0.011159387
21	0x3dee7f1c	0.11645338
22	0xbcd9a694	-0.026568688
23	0x3dc5d9b3	0.096606635
24	0xbc1b77aa	-0.009488979
25	0xbdaf64ac	-0.085641235
26	0x3e872e44	0.26402485
27	0xbe470eae	-0.19439194
28	0xbdc4c09d	-0.096070506
29	0xbdb94028	-0.0904544
30	0x3f1d5813	0.61462516
31	0x3e6da24b	0.23206441
32	0x3e36e154	0.17859393
33	0x3d59492b	0.053048294
34	0xbeb3c9f9	-0.3511503
35	0x3c6b5a16	0.01436474
36	0xbd294e89	-0.041334663
37	0x3de34624	0.11097363
38	0x3d6bf4d7	0.057606544
39	0x3cacf0e2	0.021110956
40	0x3d8f808f	0.070069425
41	0xbef01d21	-0.46897224
42	0x3dc6a0cf	0.096986406
43	0xbe6dafec	-0.2321164
44	0xbe6c3e80	-0.23070717
45	0xbe2fc36d	-0.17164393
46	0x3dddd9ba	0.10832544
47	0x3e1a5c11	0.15074183
48	0xbdff4b88	-0.12465578
49	0x3e5df213	0.21674375
50	0x3d9bd082	0.07608129
51	0x3d0eb545	0.03484084
52	0x3d51de2b	0.051237267
53	0x3c8edf32	0.017440412
54	0x3d9a7823	0.075424455
55	0xbdd7c86c	-0.10536274
56	0xbdae050c	-0.08497056
57	0xbcf0fca6	-0.029417347
58	0x3dd93c9c	0.106072634
59	0x3e6d4b0f	0.23173164
60	0x3d78fa3b	0.060785513
61	0xbe17eab0	-0.1483562
62	0x3d9a1ddd	0.07525227
63	0xbe88fc71	-0.26755098
64	0x3eed6dd5	0.46372858
65	0xbe066b94	-0.13126975
66	0xbc4d9f3f	-0.012550174
67	0x3cf50c00	0.029912949
68	0x3da4065e	0.08009027
69	0x3d887367	0.06662636
70	0x3e975616	0.29557866
71	0xbf0581b4	-0.52151036
72	0xbe9ade9c	-0.30247962
73	0x3e322f8a	0.17400947
74	0x3e8430b7	0.25818416
75	0x3e28d3cd	0.16487046
76	0x3d767b68	0.060176283
77	0xbdb39ab9	-0.087697454
78	0x3d94c165	0.072634496
79	0x3d645736	0.055747233
80	0xbea2aacc	-0.31770933
81	0x3eb8a70b	0.36064944
82	0x3dc9092c	0.098162025
83	0xbe03defc	-0.1287803
84	0x3d9473fb	0.07248684
85	0x3de1bbc3	0.11022141
86	0xbeaa463b	-0.33256707
87	0x3c878455	0.016542593
88	0xbd8c7914	-0.06859031
89	0xbe773f5e	-0.24145266
90	0x3dec8e17	0.11550539
91	0x3e76e6b1	0.2411144
92	0x3dec6819	0.115432926
93	0xbd9ec9d9	-0.07753343
94	0xbe6e0b51	-0.23246504
95	0x3db9d4ac	0.09073767
96	0x3e66da5e	0.22544238
97	0x3cdd5a7d	0.027020687
98	0xbdce4036	-0.10070841
99	0xbd3e8e84	-0.046522632
100	0x3ddc4232	0.10754813
101	0x3f07f1ca	0.53103316
102	0xbebadfbc	-0.3649882
103	0xbe033bbe	-0.12815759
104	0xbeb58d54	-0.35459387
105	0x3d9661a1	0.0734284
106	0xbe094f3a	-0.13409129
107	0xbdb28cee	-0.087182865
108	0xbddc359f	-0.10752415
109	0xbe4b6a54	-0.1986478
110	0xbe3de098	-0.18542707
111	0xbe0a8976	-0.13529
112	0xbda0e525	-0.07856206
113	0x3defe79b	0.11714097
114	0x3cbcadbe	0.023032065
115	0xbdcbc113	-0.09948935
116	0x3ef29460	0.47378826
117	0xbd9ab8f8	-0.07554811
118	0xbd9d7c0b	-0.07689675
119	0xbe7fe67c	-0.24990267
120	0xbc5cf615	-0.013486405
121	0xbc8d2e4a	-0.017233986
122	0xba616668	-0.00085983286
123	0xbdb87580	-0.09006786
124	0xbe6b85ac	-0.2300021
125	0x3d73b2fe	0.059496872
126	0xbd42813f	-0.04748654
127	0xbd80ca69	-0.06288607
128	0xbd38fd25	-0.045163292
129	0xbdd1288e	-0.10212813
130	0xbc388085	-0.01126111
131	0xbe91e289	-0.28493145
132	0x3d304b97	0.043040838
133	0xbcd198cd	-0.025585556
134	0x3c94cfe9	0.018165546
135	0xbce8c630	-0.028414816
136	0x3d020b62	0.031749137
137	0x3d93d816	0.072189495
138	0xbe360c52	-0.17778137
139	0xbc8966e4	-0.016772695
140	0x3e3ac129	0.18237747
141	0x3da0042b	0.07813295
142	0x3dfb0554	0.12256876
143	0xbc18f8e5	-0.009336685
144	0x3b26d370	0.0025455616
145	0x3d9f90b5	0.077912726
146	0xbe5ece62	-0.21758416
147	0xbe50d3ba	-0.20393267
148	0xbc2eb371	-0.010662899
149	0xbdc905d7	-0.09815567
150	0xbeb7c102	-0.3588944
151	0xbd29052e	-0.041264705
152	0xbdfd8f81	-0.12380887
153	0x3e57519f	0.2102723
154	0xbdf96158	-0.1217677
155	0x3d72f4b1	0.059315387
156	0x3e9d093a	0.30671102
157	0xbdcee461	-0.101021536
158	0xbcdf9577	-0.02729295
159	0xbe7a8765	-0.24465711
160	0xbe89f3df	-0.2694387
161	0xbec8be15	-0.3920752
162	0xbcaef60e	-0.021357562
163	0xbe722d75	-0.23650153
164	0xbd972c6d	-0.073815204
165	0xbe286c39	-0.16447534
166	0xbcb94630	-0.022616476
167	0xbe454b17	-0.19266926
168	0xbd69c403	-0.057071697
169	0x3e2589b1	0.16165806
170	0x3e93d939	0.28876665
171	0xbe51f1a7	-0.2050234
172	0x3deec007	0.1165772
173	0x3d3f80f7	0.04675385
174	0xbd972019	-0.07379169
175	0xbe09ab04	-0.13444144
176	0xbeac1264	-0.3360778
177	0x3e660042	0.22461036
178	0x3e079a90	0.13242555
179	0xbead3c25	-0.3383495
180	0x3e6044f8	0.2190131
181	0xbd48d7f3	-0.04903407
182	0x3e2c8a42	0.16849616
183	0xbd4e9e03	-0.05044366
184	0x3dad60de	0.084657416
185	0x3d36dddd	0.04464518
186	0x3d7efa0c	0.062250182
187	0xbcde6a57	-0.027150316
188	0xbdd9e230	-0.10638845
189	0x3e10bdc7	0.14134894
190	0x3e108eaa	0.14116922
191	0xbc223453	-0.00990017
192	0xbe1a9f10	-0.1509974
193	0x3d235b62	0.03988207
194	0xbdec9d48	-0.115534365
195	0x3e036dc4	0.12834841
196	0x3d89e837	0.067337446
197	0xbd6a981e	-0.057273977
198	0xbf0cc7b8	-0.54992247
199	0xbd6e506f	-0.058182176
200	0x3e0c5d71	0.1370752
201	0x3eaa50b1	0.33264688
202	0xbdc7dcab	-0.09758886
203	0xbdb582c7	-0.088628344
204	0x3e0bb754	0.13644153
205	0x3e78fe8d	0.24315853
206	0xbe727250	-0.2367642
207	0x3d8906df	0.06690764
208	0x3e107e3e	0.14110658
209	0xbc032eb1	-0.008006738
210	0xbe2cabf9	-0.16862477
211	0xbe2cfa14	-0.16892272
212	0xbd88c3c4	-0.06677964
213	0xbdfacd38	-0.122461736
214	0x3e1091f4	0.14118177
215	0x3e1a8d5b	0.15092985
216	0xbe3f586c	-0.18686074
217	0xbd8a93fd	-0.06766508
218	0x3dd57f61	0.10424686
219	0xbe11a87f	-0.14224432
220	0x3ca786be	0.020449992
221	0xbdd78c6d	-0.10524831
222	0x3e47c413	0.1950839
223	0xbd878151	-0.06616462
224	0xbe21e8e0	-0.15811491
225	0x3b36feca	0.0027922862
226	0x3d0ed7cd	0.034873772
227	0xbd8c69a5	-0.068560876
228	0xbe2bfbe0	-0.16795301
229	0xbde9d84a	-0.11418207
230	0x3e4896ce	0.19588777
231	0xbce0c13a	-0.027435888
232	0x3c840702	0.016116623
233	0x3decd13a	0.11563344
234	0x3de42a45	0.11140875
235	0xbe31ed6c	-0.17375726
236	0xbdcd33cd	-0.10019646
237	0xbe86ad1d	-0.2630395
238	0xbd11f41f	-0.035633203
239	0x3dbff90d	0.093736745
240	0x3d9953ac	0.07486662
241	0x3da74d34	0.08169022
242	0xbd931f67	-0.07183724
243	0x3dd60eb3	0.104520224
244	0x3d7eeccc	0.062237546
245	0xbdd3ec5d	-0.10347817
246	0x3deb6096	0.11493032
247	0xbddaa27c	-0.10675523
248	0x3ae937d8	0.0017793132
249	0x3d70d43f	0.058796164
250	0xbc5a64b0	-0.01332967
251	0xbe64d2dd	-0.22346063
252	0x3e4ed8af	0.20199846
253	0xbc901070	-0.017585963
254	0xbc96c4e0	-0.018404424
255	0xbe2d99d0	-0.16953206

gru.weight_hh_l0 f4 [180, 60]
0	0xbdd9d7a4	-0.10636833
1	0x3e123aa2	0.14280179
2	0xbd76d6b6	-0.060263358
3	0xbe31c7cf	-0.17361377
4	0xbdd45b06	-0.10368924
5	0x3cd5764a	0.026057381
6	0xbe5510f2	-0.20807245
7	0x3b0e6baa	0.0021731653
8	0x3d3ceb8f	0.046123084
9	0x3ce39a86	0.027783643
10	0xbe9b3a20	-0.30317783
11	0xb916aab8	-0.00014368712
12	0xbdd60734	-0.10450593
13	0x3c90f3b7	0.017694337
14	0x3e02c719	0.12771262
15	0xbe2354e8	-0.15950358
16	0x3d0d48a5	0.034493107
17	0xbe126d16	-0.14299425
18	0xbd39b65f	-0.04533994
19	0x3db8bd6e	0.09020506
20	0x3dc54b3f	0.09633493
21	0x3e19bde4	0.15013844
22	0x3daeaf93	0.08529582
23	0x3dc33d1b	0.09533139
24	0x3e0e0e68	0.13872683
25	0xbe80c4bb	-0.25150093
26	0x3cb04c53	0.02152077
27	0xbe343477	-0.17598139
28	0xbd29fdb0	-0.0415017
29	0x3e5d7001	0.21624757
30	0xbd821d6e	-0.063532695
31	0xbe95df81	-0.29272082
32	0x3c5f76fb	0.013639207
33	0xbe4341b2	-0.1906803
34	0x3d24ca96	0.040232264
35	0xbceccf41	-0.02890742
36	0xbb9a6432	-0.0047116512
37	0x3c3e2b16	0.011606952
38	0xbcfe84f8	-0.031069264
39	0x3e8b650c	0.2722553
40	0x3d97daf2	0.074148074
41	0xbea1d815	-0.3161017
42	0x3e32548f	0.17415069
43	0xbe6b3a6b	-0.22971503
44	0xbe03608f	-0.12829803
45	0x3e1928e5	0.14957006
46	0xbdf0525e	-0.1173446
47	0x3d6b54e0	0.05745399
48	0x3dd211a6	0.102572724
49	0x3e0162ee	0.12635395
50	0x3e0a1538	0.13484657
51	0xbde04f07	-0.10952573
52	0xbdb7b7b5	-0.08970586
53	0x3d043967	0.032281306
54	0xbe30c859	-0.17263927
55	0x3da0d0c5	0.0785232
56	0x3cc350df	0.023842273
57	0xbce71140	-0.028206468
58	0xbe25eeb8	-0.16204345
59	0xbe1c857d	-0.15285297
60	0x3e35b89b	0.17746203
61	0xbda4bc98	-0.08043784
62	0x3cfba46a	0.030718047
63	0xbdca0d4a	-0.09865816
64	0xbddaabed	-0.106773235
65	0x3cadd283	0.021218544
66	0x3dae980f	0.085250966
67	0x3d29a17a	0.04141376
68	0x3e1d3f7e	0.15356252
69	0x3dae0986	0.0849791
70	0xbd633f26	-0.055480145
71	0xbc0f06b1	-0.008729623
72	0xbc63af47	-0.01389677
73	0x3de67bb4	0.11254063
74	0xbe12f16c	-0.14349908
75	0x3cf3549a	0.029703427
76	0x3e26ca3f	0.16288088
77	0x3daa5faf	0.083190314
78	0xbe0349d2	-0.12821129
79	0x3e4d3ef5	0.20043547
80	0xbe6721ec	-0.22571534
81	0x3dd4efbf	0.103972904
82	0xbd726ce4	-0.059185877
83	0x3d027112	0.031846114
84	0x3cf28193	0.029602801
85	0xbd1e2ea1	-0.038618688
86	0xbe2e4be5	-0.17021139
87	0x3dfe949a	0.12430687
88	0xbe64048e	-0.22267362
89	0xbd561299	-0.05226383
90	0x3e4ce56f	0.20009397
91	0x3de44ef0	0.11147869
92	0xbe4552e0	-0.19269896
93	0xbe04d649	-0.12972368
94	0xbd816b27	-0.06319266
95	0x3e186ca9	0.148852
96	0xbdd16229	-0.10223801
97	0x3e02a9e8	0.12760127
98	0x3e2db2e4	0.16962773
99	0xbe1e4707	-0.15456782
100	0xbe179ec1	-0.14806654
101	0xbdc36a38	-0.09541744
102	0xbd723d95	-0.05914076
103	0x3dbf4aeb	0.09340461
104	0x3da4426f	0.08020484
105	0x3c947be0	0.018125474
106	0xbd9f91ec	-0.07791504
107	0xbdae22c0	-0.08502722
108	0xbd9b8039	-0.07592816
109	0xbe03e1f8	-0.12879169
110	0x3cf99b4b	0.030469557
111	0xbb0d8098	-0.002159154
112	0xbdbfaad4	-0.09358755
113	0x3d46e475	0.048557717
114	0xbde6d7d5	-0.112716354
115	0xbddabf7e	-0.106810555
116	0xbe2de15b	-0.16980498
117	0xbebcad84	-0.36851132
118	0xbc361649	-0.011113712
119	0x3ccfbead	0.025359476
120	0xbe76f161	-0.24115516
121	0x3e3f20d7	0.18664871
122	0xbe736b00	-0.23771286
123	0xbcaa972f	-0.020824043
124	0x3e88ebae	0.2674231
125	0xbcef1e94	-0.029189385
126	0xbd806429	-0.06269104
127	0xbe2921de	-0.16516826
128	0xbe34c9fc	-0.17655176
129	0x3b8e5812	0.004343995
130	0x3e0f8c80	0.1401844
131	0xbe062fe9	-0.13104214
132	0xbd7cab2f	-0.06168669
133	0xbcc2cb9b	-0.023778727
134	0x3e04bd47	0.12962829
135	0x3d6d61f7	0.057954755
136	0x3e2b3d96	0.16722712
137	0x3ec22705	0.37920395
138	0xbe119a63	-0.1421905
139	0x3e4b5c61	0.19859459
140	0xbe1b1c9f	-0.15147637
141	0xbde633ee	-0.112403736
142	0xbe2daf93	-0.16961507
143	0x3d239055	0.039932568
144	0xbc9b8e7f	-0.018988846
145	0xbdef9d07	-0.116998725
146	0xbe1f222d	-0.15540381
147	0x3ea92ee0	0.33043575
148	0xbe3275b6	-0.17427716
149	0x3e65c512	0.22438458
150	0x3c9e8875	0.019352177
151	0x3e0302c7	0.12794028
152	0xbe3f39e3	-0.18674426
153	0xbcbdbf29	-0.023162441
154	0x3d0f6a66	0.03501358
155	0x3e707fd6	0.23486266
156	0x3e5867df	0.21133374
157	0x3e3d7182	0.18500331
158	0xbc51917c	-0.012791034
159	0x3d15e641	0.03659654
160	0xbe190c0a	-0.14945999
161	0xbe422b4d	-0.1896183
162	0xbd5e5b19	-0.054286096
163	0xbd11c11b	-0.03558455
164	0x3db0dde8	0.08636075
165	0xbdba7fb9	-0.091063924
166	0x3e15f52f	0.14644311
167	0xbcc9f0ab	-0.024650892
168	0x3c06a9a5	0.008219157
169	0xbdb48e2b	-0.08816179
170	0xbe5e9f30	-0.21740413
171	0xbe15ef38	-0.14642036
172	0xbd56cd65	-0.052441973
173	0x3dc3b5fe	0.09556197
174	0xbe159a32	-0.14609602
175	0xbe297953	-0.16550188
176	0xbe1e6ead	-0.15471907
177	0xbc5d859b	-0.013520624
178	0xbd6386b5	-0.05554839
179	0xbe910992	-0.28327614
180	0xbd275c3e	-0.040859453
181	0xb9a8714f	-0.00032127879
182	0xbd90f608	-0.07078177
183	0x3c2c7f18	0.010528348
184	0xbbec7e3f	-0.007217198
185	0x3e191e32	0.14952925
186	0x3ceeb621	0.02913958
187	0x3d17e3bb	0.037082415
188	0x3e094225	0.13404138
189	0xbdcfad71	-0.10140503
190	0x3ceaf72c	0.028682314
191	0xbd6f41f7	-0.05841252
192	0x3e35755f	0.17720555
193	0x3e2dc27a	0.16968718
194	0x3ccf1af0	0.0252814
195	0x3d986de4	0.07442835
196	0x3e1acb38	0.15116584
197	0xbe8275c3	-0.2548047
198	0x3dcc8997	0.09987181
199	0x3d5a45da	0.053289272
200	0x3e0ebcca	0.13939205
201	0x3dbde60e	0.09272395
202	0x3e2cb3fe	0.16865537
203	0x3e2fab50	0.17155194
204	0xbdec632b	-0.11542352
205	0xbe3d2718	-0.18471944
206	0xbd7fa039	-0.06240866
207	0x3c0d778a	0.008634457
208	0xbd670c4a	-0.056408204
209	0x3d34f57d	0.04417943
210	0xbc604a27	-0.013689554
211	0xbcd1a666	-0.02559204
212	0x3e8d7f33	0.27636108
213	0xbd20adea	-0.039228357
214	0x3d3fd6a7	0.046835568
215	0x3daf1fd9	0.08550996
216	0x3dcefaf8	0.10106462
217	0x3e319598	0.17342222
218	0xbd95b01c	-0.07308981
219	0xbc533ef4	-0.012893427
220	0x3d94bb96	0.07262342
221	0xbd2021d7	-0.039094772
222	0x3c8b9cfb	0.017042628
223	0xbdafd9cb	-0.085864626
224	0x3d849be7	0.064750485
225	0xbe5c33d1	-0.21504141
226	0xbde5c1da	-0.11218615
227	0x3e442719	0.1915554
228	0x3d7cc623	0.061712395
229	0x3da38e85	0.07986168
230	0xbdd6722e	-0.10470997
231	0xbe2d859a	-0.16945496
232	0x3d52430a	0.051333465
233	0xbe8471e9	-0.25868157
234	0xbdb37dd7	-0.087642364
235	0xbded32cc	-0.11581954
236	0x3e5a0439	0.21290673
237	0x3ea38e3f	0.31944463
238	0x3d803729	0.06260521
239	0x3e4a5e86	0.1976262
240	0xbe8bf348	-0.27334046
241	0xbd67516b	-0.05647413
242	0xbd9456aa	-0.07243092
243	0x3e14a398	0.14515531
244	0x3e94d6f5	0.2907025
245	0xbe356c8d	-0.1771719
246	0xbdb12027	-0.08648711
247	0x3ed4a939	0.41535357
248	0xbe1e85d9	-0.15480746
249	0xbe3c27fd	-0.1837463
250	0xbe14262b	-0.14467685
251	0xbd06b81e	-0.03289043
252	0x3d92e9bf	0.0717349
253	0xbe43f6f4	-0.19137174
254	0x3d6bc2d2	0.057558842
255	0x3e1ece49	0.15508379

gru.bias_ih_l0 f4 [180]
0	0x3d2c2a5a	0.042032577
1	0xbd922073	-0.071350954
2	0x3e15ac99	0.14616622
3	0xbd6af7cd	-0.057365227
4	0x3d542370	0.05179161
5	0x3d0e414f	0.034730252
6	0xbcebe43a	-0.02879535
7	0x3e332451	0.17494322
8	0x3e15f518	0.14644277
9	0x3bb3650b	0.0054746917
10	0x3e104e13	0.14092283
11	0xbdc65598	-0.096842945
12	0x3cd6e1d0	0.026230723
13	0xbb5cf630	-0.0033716075
14	0x3cd7caf4	0.026341893
15	0xbe08ca1d	-0.1335835
16	0x3dadefdf	0.084930174
17	0xbd52bd67	-0.05145016
18	0x3de9db30	0.1141876
19	0x3d8b7178	0.06808752
20	0x3e650ff5	0.22369368
21	0x3d23b9c4	0.03997208
22	0xbc5fe54b	-0.013665508
23	0xbc727701	-0.014798881
24	0x3e1f4a60	0.15555716
25	0xbd8c4b49	-0.06850297
26	0xbd44bad1	-0.048029725
27	0x3d532aee	0.051554613
28	0x3dd5774a	0.10423143
29	0x3e1e6a82	0.15470317
30	0xbdbf9cbc	-0.093560666
31	0x3db10e1f	0.086452715
32	0xbd8da940	-0.069170475
33	0x3e337ce5	0.17528112
34	0xbe069de0	-0.13146162
35	0x3d16cfbb	0.0368192
36	0x3e3822dd	0.1798205
37	0xbcd468cd	-0.02592888
38	0x3d865d49	0.065607615
39	0x3e13e722	0.14443639
40	0x3d9e4b7f	0.077292435
41	0x3d66b91e	0.056328885
42	0x3e0ac4d4	0.13551646
43	0x3e033945	0.12814815
44	0x3dba8a81	0.09108449
45	0x3ded4b9b	0.11586686
46	0x3c767631	0.015042827
47	0x3c81be3d	0.015837783
48	0x3d0ce76f	0.0344004
49	0xbdf4dd01	-0.11956216
50	0xbd552c6d	-0.05204432
51	0x3cded848	0.02720274
52	0xbd4de479	-0.050266717
53	0x3d6be75f	0.0575937
54	0x3dce8b65	0.10085181
55	0x3e2ba101	0.16760637
56	0xbda97d6e	-0.08275877
57	0xbd063221	-0.03276265
58	0xbd953800	-0.07286072
59	0x3d06cd69	0.03291074
60	0x3e977cf1	0.2958751
61	0xbdceee31	-0.10104025
62	0xbc47503d	-0.012165126
63	0x3e3fa997	0.18717037
64	0xbb8e08e0	-0.004334554
65	0x3c999648	0.018748417
66	0x3e037ab6	0.1283978
67	0x3e402142	0.18762687
68	0x3e8408e1	0.25788024
69	0x3ec59cc6	0.3859617
70	0xbc58b330	-0.013226315
71	0xbd8704ee	-0.06592737
72	0x3e37cd34	0.17949373
73	0x3e612c58	0.21989572
74	0x3eaa17bd	0.33221236
75	0xbda616df	-0.08109831
76	0x3dff12ce	0.124547586
77	0x3c69a7f1	0.014261232
78	0x3c6e7f06	0.014556652
79	0x3d595a08	0.053064376
80	0xbd09fc3c	-0.033687815
81	0x3e6709c2	0.22562316
82	0x3e1d1ea5	0.15343721
83	0x3e3c4fae	0.1838977
84	0x3e0e1c6f	0.13878034
85	0x3d59280d	0.05301671
86	0x3eaa7c58	0.33297992
87	0x3e2d0d8e	0.16899702
88	0x3de98fee	0.114044055
89	0xbce1e497	-0.02757482
90	0x3e37a54e	0.17934152
91	0xbdd0ec0e	-0.10201274
92	0xbc9f08e5	-0.01941342
93	0xbe80ebc8	-0.25179887
94	0x3e7e3797	0.24825893
95	0x3e602143	0.21887688
96	0x3cec2329	0.02882536
97	0xbd8e4125	-0.06946019
98	0x3e7657d5	0.24056943
99	0x3e241e89	0.16027273
100	0x3e8f51cb	0.2799209
101	0x3eb7d2f2	0.35903126
102	0x3e8a398d	0.26997033
103	0x3e41417a	0.18872634
104	0xbe33e78d	-0.17568798
105	0xbda2c428	-0.0794757
106	0x3e8fd9af	0.28095767
107	0x3e2d7fe0	0.16943312
108	0x3e27aa7b	0.16373627
109	0x3dd75f0a	0.10516174
110	0x3e93b0c1	0.2884579
111	0x3f00aad0	0.5026064
112	0x3df25f79	0.11834616
113	0x3e97cb40	0.29647255
114	0x3e2ee93c	0.1708116
115	0x3ecec8a1	0.40387443
116	0xbdb925cc	-0.09040412
117	0x3d9b5791	0.07585061
118	0xbd39616b	-0.04525892
119	0x3e31f4ca	0.17378536
120	0x3d624ff5	0.055252034
121	0xbcc25e6a	-0.02372666
122	0x3db3f908	0.08787733
123	0x3db82b3d	0.08992622
124	0x3dd7261e	0.10505317
125	0x3d01b0c1	0.031662706
126	0xbdc03a6d	-0.09386144
127	0xbd411be5	-0.047145743
128	0x3dc3159b	0.09525605
129	0x3d043dfa	0.032285668
130	0xbdc5a461	-0.096504934
131	0x3d97794f	0.07396185
132	0xbb61fbe4	-0.0034482414
133	0xbdf31350	-0.11868918
134	0xbd6da0c7	-0.058014657
135	0xbd9be15e	-0.07611345
136	0xbd071361	-0.032977466
137	0xbcb1b418	-0.02169232
138	0xbdbdd844	-0.09269765
139	0xbc4f7e4f	-0.012664392
140	0xbc9b77b4	-0.018977977
141	0x3ddeea30	0.108845115
142	0x3d9c00d4	0.076173455
143	0xbe07d37d	-0.1326427
144	0x3ccba7ab	0.024860224
145	0xbd9e0c74	-0.07717219
146	0xbc8bd450	-0.017069012
147	0xbd8daf87	-0.06918245
148	0xbd78d94c	-0.060754105
149	0xbd2e841e	-0.042606466
150	0xbe014a93	-0.12626104
151	0xbd2a9f1d	-0.04165565
152	0xbd0d4dae	-0.03449791
153	0xbe1d71b7	-0.1537541
154	0x3d8a5861	0.06755138
155	0xbd9da947	-0.07698303
156	0xbd317706	-0.0433264
157	0x3d7b6c15	0.061382372
158	0x3dfbed32	0.12301101
159	0x3cced177	0.025246365
160	0xbddf237d	-0.10895441
161	0x3da49f26	0.08038168
162	0xbc78c237	-0.015183023
163	0x3d0d9629	0.034567032
164	0xbd44c35f	-0.048037883
165	0x3db23474	0.08701411
166	0xbdac356b	-0.08408626
167	0x3d3e29fe	0.046426766
168	0x3e103107	0.14081202
169	0xbc5fea99	-0.013666772
170	0x3dd92da0	0.106044054
171	0x3d7db32b	0.061938446
172	0xbd297f2a	-0.04138104
173	0x3bd97dd2	0.0066373134
174	0xbce19b3c	-0.027539842
175	0xbb973b9d	-0.0046152608
176	0xbdce098c	-0.10060415
177	0x3d8ff5a1	0.07029272
178	0xbdade464	-0.08490828
179	0x3d465d8a	0.04842905

gru.bias_hh_l0 f4 [180]
0	0xbca9a464	-0.02070827
1	0x3cc7f941	0.024410846
2	0xbb1f657c	-0.0024321964
3	0xbddcbf49	-0.10778672
4	0x3da0e15a	0.078554824
5	0xbd3a3d42	-0.045468576
6	0xbd8a0da1	-0.06740881
7	0x3de89d6b	0.1135815
8	0x3e224b79	0.15849103
9	0xbdf11f45	-0.11773542
10	0xbc536e13	-0.012904662
11	0xbdad19c7	-0.08452182
12	0xbd78f51f	-0.06078064
13	0xbb3691f4	-0.002785799
14	0x3cc45886	0.023967993
15	0xbc6e773c	-0.014554795
16	0xbcceb9ba	-0.025235046
17	0xbe1c52fe	-0.15266034
18	0x3d4bab31	0.049723808
19	0x3dad4f28	0.084623635
20	0x3e784ff7	0.24249254
21	0x3ddd1d3f	0.10796594
22	0xbc5a2c98	-0.013316296
23	0x3e0d6ddb	0.13811438
24	0xbc93d36b	-0.018045148
25	0x3e0f0378	0.13966167
26	0x3d21c872	0.0394978
27	0xbd7fa30e	-0.06241136
28	0xb89ee664	-7.576941e-05
29	0x3e476d1f	0.1947522
30	0xbcdca4e9	-0.026934104
31	0xbdb022d1	-0.08600391
32	0x3e26ccdb	0.16289084
33	0x3dfe01bf	0.12402677
34	0x3be0e8fe	0.0068637123
35	0xbd30f23c	-0.043199763
36	0x3e8d0107	0.27539846
37	0x3ddcbe9a	0.10778542
38	0xbdc778be	-0.097398266
39	0x3de583e1	0.112067945
40	0x3e1a4be5	0.15068014
41	0xbd8ccf51	-0.0687548
42	0x3d3de7b6	0.046363555
43	0xbd4786f8	-0.0487127
44	0x3e8b2151	0.27173856
45	0x3db4cacb	0.08827742
46	0xbd009658	-0.03139338
47	0xbc99e786	-0.018787157
48	0x3dc46dbc	0.09591243
49	0xbdc93fef	-0.098266475
50	0x3dabca67	0.083882146
51	0x3d8921dd	0.06695912
52	0xbdcab8fb	-0.098985635
53	0xbd6b7c30	-0.05749148
54	0x3d12d1ab	0.035844486
55	0xbc6471ca	-0.013943145
56	0xbcc4a0f1	-0.024002524
57	0x3dd20a63	0.10255887
58	0x3d87f967	0.066393666
59	0xbced406d	-0.028961385
60	0x3ea24c7e	0.31698984
61	0xbe0ca9ec	-0.13736695
62	0x3d6b68cd	0.057472993
63	0x3e257d89	0.16161169
64	0x3d3a32f9	0.045458768
65	0xbd6db515	-0.05803402
66	0x3dd0b879	0.10191435
67	0x3e68de9d	0.2274117
68	0x3e9e25b4	0.3088814
69	0x3ec11a2a	0.37715274
70	0xbe700a4b	-0.23441426
71	0xbe0dc922	-0.13846257
72	0x3e541ccb	0.20714109
73	0x3d369898	0.04457912
74	0x3e9def29	0.30846527
75	0xbe0d8539	-0.13820352
76	0x3d4609e2	0.04834927
77	0x3e04e388	0.12977421
78	0xbd65b809	-0.056083713
79	0x3dfcebc5	0.12349657
80	0x3d7e0d38	0.062024325
81	0x3b8c8583	0.004288377
82	0x3ddd3458	0.108009994
83	0x3e88484c	0.26617658
84	0x3cd17457	0.02556817
85	0x3e227aca	0.15867153
86	0x3f04a246	0.5181011
87	0x3dbf6bcf	0.09346735
88	0x3e4d2830	0.20034862
89	0x3b8fe0f8	0.004390832
90	0xbd1f1bf3	-0.038845014
91	0x3d473838	0.0486376
92	0x3e3886fe	0.18020245
93	0xbe8c185b	-0.27362332
94	0x3e9383d9	0.2881153
95	0x3e59e2f1	0.21277978
96	0x3e13903b	0.14410488
97	0xbba7a010	-0.0051155165
98	0x3eb66cf8	0.35630012
99	0x3eb64d09	0.35605648
100	0x3ed44778	0.41460776
101	0x3e369ea0	0.17833948
102	0x3e49c58a	0.19704261
103	0x3e321bf2	0.17393473
104	0xbe747738	-0.23873603
105	0x3bca0667	0.006165314
106	0x3ddfa87f	0.1092081
107	0x3de98c1b	0.11403676
108	0x3e9272c4	0.28603184
109	0xbdf31630	-0.11869466
110	0x3e38dd7b	0.18053238
111	0x3f038f39	0.51390415
112	0x3e89b05e	0.2689237
113	0x3ea5ae09	0.3235934
114	0x3e0b4163	0.13599162
115	0x3ed0b3e6	0.40762252
116	0xbd431e59	-0.047636364
117	0x3cf09815	0.029369393
118	0x3d2b7120	0.04185593
119	0xbca589f9	-0.020207392
120	0xbe1160d0	-0.14197087
121	0xbd16202c	-0.036651775
122	0x3cdae276	0.026719313
123	0x3d96a769	0.0735615
124	0xbd3e3b21	-0.04644311
125	0xbe2c0b13	-0.168011
126	0xbdacc84b	-0.0843664
127	0x3d35bcb8	0.04436943
128	0xbdb9d8c9	-0.090745516
129	0xbd2a4b36	-0.041575633
130	0xbdae5c6b	-0.08513721
131	0x3cd32e3a	0.025778878
132	0xbd5c90e2	-0.05384911
133	0xbdb3503d	-0.087555386
134	0x3d1e7346	0.038684152
135	0x3cd1f2c6	0.025628459
136	0x3d9f1df6	0.077693865
137	0xbcb0bd9a	-0.021574784
138	0xbc204721	-0.009782583
139	0x3d468eaa	0.0484759
140	0xbda0e1e5	-0.07855586
141	0x3de548f8	0.11195558
142	0x3bea0306	0.0071414737
143	0xbd05b2af	-0.03264111
144	0x3bd2af06	0.006429556
145	0x3df4f933	0.119615935
146	0x3de4a321	0.11163927
147	0x3da76075	0.081726946
148	0xbd87909d	-0.0661938
149	0x3bb2a1e8	0.0054514296
150	0x3d151af2	0.03640265
151	0xbc4f4743	-0.012651267
152	0xbd1be9a2	-0.038064606
153	0x3d3dde54	0.046354607
154	0xbd26887b	-0.0406575
155	0xbd3f57ed	-0.046714712
156	0x3c0562d9	0.008141243
157	0xbd34d951	-0.04415256
158	0xbd8a6375	-0.06757251
159	0xbe0f9fc3	-0.14025788
160	0x3d921349	0.071325846
161	0xbdd2182a	-0.10258515
162	0xbcbfbb6a	-0.023404796
163	0x3d9e1bb8	0.07720131
164	0xbd723be0	-0.059139132
165	0xbd1f81ef	-0.038942274
166	0xbd922a99	-0.07137031
167	0xbe0904ed	-0.13380785
168	0x3d28c96a	0.04120771
169	0x3c91471c	0.017734103
170	0x3db59407	0.088661246
171	0x3ddd07b8	0.10792488
172	0x3c76c911	0.015062586
173	0xbc5312d5	-0.012882908
174	0xbdc49675	-0.0959901
175	0xbc87835d	-0.016542131
176	0xbe0ad60d	-0.13558216
177	0xbe07d1e3	-0.13263659
178	0xbd891347	-0.0669313
179	0x3dc28e87	0.09499841
