hosp_models/deploy_week_49_30/feat_enc.pt (torch, 56491 bytes, 4 tensors)

gru.weight_ih_l0 f4 [180, 15]
0.16300477 0.1442513 -0.05061447 -0.162177 -0.092740744 0.027234837 -0.025494441 0.5168199
0.18143645 0.22217256 0.20619643 -0.025376482 -0.06851901 -0.17384283 -0.08465879 0.05656193
-0.1140274 0.01289704 -0.24814133 -0.1675525 0.25850976 -0.36399832 0.25658977 0.16438834
-0.11024251 0.08425065 0.11689647 -0.38624242 0.012744422 -0.07903792 0.014490857 -0.005064817
0.095107995 0.20646141 -0.11537313 -0.22867243 -0.20628648 0.12889953 0.060688064 0.13577454
0.12083312 -0.06618716 0.16261584 -0.28992307 -0.2406907 -0.18416156 0.11233985 0.12893662
-0.35792792 -0.350543 -0.002613777 0.20848273 0.12479563 -0.079466835 0.3819159 0.10661772
0.02405691 -0.27009833 -0.02931827 0.04282758 0.21515244 0.08439857 0.00926701 0.26850584
0.040088926 0.0037908137 -0.20436466 0.27237368 0.20427436 0.38737735 0.100072116 -0.047311038
0.19624949 0.076183975 0.11446686 0.10829015 0.071607895 0.2843212 0.07120255 -0.07731396
-0.12673424 -0.093047634 0.17273971 -0.13389802 0.196104 0.2803942 -0.021244753 0.30265236
0.20131731 0.13358511 -0.34903187 0.07423394 -0.0041695796 -0.23492698 -0.4433496 0.24367961
-0.24536422 -0.10666178 -0.22169423 0.018532649 -0.036213648 0.086989515 -0.18921506 -0.08968386
-0.18934432 -0.39554286 -0.48277134 0.038611453 0.1515147 -0.10880857 -0.05170109 0.37974468
0.04987279 0.31024253 0.49316114 -0.11220617 -0.032130826 0.17185082 -0.011463277 0.015534735
0.2518672 0.15392995 0.2045179 0.2670478 0.03242632 -0.3674014 0.2159795 -0.018547269
0.003970714 0.006130339 0.11758777 0.027595839 -0.007177386 -0.26117468 -0.07749817 0.040826697
0.012208489 0.26214623 0.2727913 -0.016121576 0.074727304 -0.017723374 0.07501996 -0.11887946
-0.07590963 -0.115684465 0.08790448 0.21387419 -0.14847688 -0.12422151 0.39444456 0.4836228
0.05181056 -0.36931068 0.4372317 -0.5851985 -0.15541503 0.037771966 0.13941363 -0.18224514
-0.039856628 -0.025347734 -0.21822336 -0.3323202 -0.18938269 0.14155395 0.00817987 0.07859542
-0.15684505 0.053332467 0.42837718 -0.07487075 0.420036 0.092665106 -0.00035225894 0.21054336
-0.014897362 -0.045034815 0.07076546 -0.1144098 -0.20894684 0.02969417 0.22741036 -0.010732224
0.0969891 0.4177207 -0.117695354 -0.04092174 0.2572614 0.059931114 0.77510095 0.08833305
-0.24809012 0.21944347 0.11042898 0.18742941 0.03779317 0.013631899 0.12381248 0.4571581
-0.15667567 0.1219813 -0.095928095 -0.45237738 -0.05567585 -0.034689244 -0.04640673 0.27733013
0.149044 0.17745695 -0.56232923 -0.20117761 0.24645597 -0.15365432 -0.28661618 -0.019284414
0.08812031 0.07820752 0.2301312 0.14441761 0.011090895 0.12771016 -0.12577397 -0.2038745
-0.29206368 -0.13021985 -0.22859254 0.054707438 -0.05808974 0.12478081 -0.13411328 -0.017078083
0.041836035 0.01720212 0.0011201396 -0.36428455 0.05790163 0.080436 -0.18675962 -0.038973942
-0.4335854 0.1161811 -0.29905903 -0.027229927 0.18703409 -0.14114791 -0.010545405 -0.22305636
-0.12615024 -0.3397122 -0.15082258 0.017063208 0.24718186 0.2880801 0.23599462 0.119942345
00000000: b9ea 263e 9db6 133e 1e51 4fbd ba11 26be
00000010: dcee bdbd 981b df3c b8d9 d0bc 4f4e 043f
00000020: 7aca 393e 3481 633e 2825 533e 57e2 cfbc
00000030: b253 8cbd db03 32be 9661 adbd 7bad 673d
00000040: 3387 e9bd 1b4e 533c c318 7ebe e292 2bbe
00000050: 645b 843e fd5d babe bc5f 833e 6b55 283e
00000060: d3c6 e1bd 9b8b ac3d 6b67 ef3d 91c1 c5be
00000070: fbcd 503c a2de a1bd 0f6b 6d3c c4f6 a5bb
00000080: fbc7 c23d 9f6a 533e bf48 ecbd 1b29 6abe
00000090: c33c 53be 3dfe 033e 0c94 783d 7b08 0b3e
000000a0: 5b77 f73d 228d 87bd c484 263e cc70 94be
000000b0: 9f77 76be d994 3cbe 6f12 e63d f607 043e
000000c0: 5442 b7be 5f7a b3be e74b 2bbb 7f7c 553e
000000d0: da94 ff3d 82bf a2bd 7b8a c33e 645a da3d
000000e0: ff12 c53c 544a 8abe de2c f0bc f96b 2f3d
000000f0: ec50 5c3e 28d9 ac3d a8d4 173c 9979 893e
00000100: 4934 243d 4d6f 783b f844 51be 9074 8b3e
00000110: 4c2d 513e 5356 c63e 9cf2 cc3d 38c9 41bd
00000120: a0f5 483e 5806 9c3d 9a6d ea3d 3ac7 dd3d
00000130: 29a7 923d 8c92 913e a4d2 913d c856 9ebd
00000140: 9fc6 01be c28f bebd aee2 303e 901c 09be
00000150: 7dcf 483e d48f 8f3e 7a09 aebc 40f5 9a3e
00000160: 2026 4e3e 89ca 083e 4eb4 b2be f707 983d
00000170: f8a0 88bb b390 70be b8fe e2be 2687 793e
00000180: c240 7bbe 7e71 dabd d003 63be c8d1 973c
00000190: c354 14bd 8f27 b23d 98c1 41be 2cac b7bd
000001a0: 7ae3 41be 9884 cabe ce2d f7be 0b27 1e3d
000001b0: ab26 1b3e 07d7 debd 86c4 53bd e56d c23e
000001c0: 6947 4c3d 1cd8 9e3e 9e7f fc3e 59cc e5bd
000001d0: 9d9b 03bd a9f9 2f3e 78d0 3bbc 6785 7e3c
000001e0: bdf4 803e d09f 1d3e 246d 513e 7dba 883e
000001f0: 76d1 043d 091c bcbe bb29 5d3e 71f0 97bc
00000200: c31c 823b 03e1 c83b dbd1 f03d ab10 e23c
00000210: 4730 ebbb b0b8 85be 5cb7 9ebd e539 273d
00000220: 1d06 483c 0838 863e 4dab 8b3e 6511 84bc
00000230: a10a 993d 9c30 91bc 11a4 993d 1377 f3bd
00000240: 8276 9bbd faeb ecbd 4407 b43d d601 5b3e
00000250: 530a 18be d967 febd a3f4 c93e 689d f73e
00000260: 4f37 543d 4a16 bdbe d5dc df3e 92cf 15bf
00000270: 1e25 1fbe c7b6 1a3d 72c2 0e3e 789e 3abe
00000280: b440 23bd 0da6 cfbc f275 5fbe e025 aabe
00000290: 89ed 41be 85f3 103e dd04 063c a3f6 a03d
000002a0: fd9b 20be 2573 5a3d 4154 db3e d655 99bd
000002b0: f50e d73e 34c7 bd3d 65af b8b9 ae98 573e
000002c0: 1114 74bc 6d76 38bd 7bed 903d af4f eabd
000002d0: 29f6 55be 3041 f33c 43de 683e 36d6 2fbc
000002e0: 39a2 c63d 7ddf d53e 430a f1bd 8e9d 27bd
000002f0: c4b7 833e 547a 753d 046d 463f f5e7 b43d
00000300: 560b 7ebe cab5 603e 9728 e23d 7fed 3f3e
00000310: 03cd 1a3d 5458 5f3c 6691 fd3d a010 ea3e
00000320: 966f 20be 55d1 f93d f375 c4bd 029e e7be
00000330: 5c0c 64bd 4f16 0ebd fc14 3ebd 37fe 8d3e
00000340: fe9e 183e 46b7 353e cff4 0fbf 8101 4ebe
00000350: f45e 7c3e 8f57 1dbe 5bbf 92be 59fa 9dbc
00000360: 6c78 b43d 442b a03d 83a7 6b3e 36e2 133e
00000370: 96b6 353c 74c6 023e e4ca 00be 7ac4 50be
00000380: 5f89 95be 5a58 05be 2a14 6abe e814 603d
00000390: 82ef 6dbd 158d ff3d fe54 09be 56e7 8bbc
000003a0: 435c 2b3d 76eb 8c3c a6d1 923a 8183 babe
000003b0: 422a 6d3d a1bb a43d ea3d 3fbe 24a3 1fbd
000003c0: e8fe ddbe 5bf0 ed3d 441e 99be 4c11 dfbc
000003d0: dd85 3f3e 1489 10be a2c6 2cbc e368 64be
000003e0: 872d 01be c2ee adbe 3c71 1abe 24c8 8b3c
000003f0: 3e1d 7d3e 3c7f 933e 93a8 713e 55a4 f53d

gru.weight_hh_l0 f4 [180, 60]
0.05907433 -0.24101223 0.029257774 0.14674084 -0.09546379 0.047308844 -0.31647006 0.20142761
0.06377746 0.110274285 -0.08572794 -0.02937552 -0.20880856 0.22180974 -0.21603207 -0.19931586
-0.23502712 0.09769729 -0.23012672 0.12706277 -0.07444254 -0.039560415 -0.011502313 0.1332486
0.04572596 -0.044752125 0.026114514 0.20819278 0.0255702 0.07475074 -0.0014327664 -0.0725734
0.22263443 -0.22428074 0.052209195 -0.11394473 -0.20447463 -0.23262562 0.21484628 0.17367922
-0.06346101 -0.35145974 0.019561032 0.11168681 -0.06399939 -0.09731822 0.07272366 -0.13798116
-0.13580984 -0.18076669 0.036304656 0.009805904 0.15247385 0.06696722 -0.04018738 -0.032579098
-0.0757253 -0.043814126 0.065370105 0.07277985 0.0024994817 -0.19657299 0.063443154 -0.17735174
0.14414416 0.09571962 0.39261296 0.21914239 0.05690189 -0.15127856 -0.33200705 -0.009559445
-0.056652345 0.26321664 0.14256302 0.045208786 0.027014403 -0.061485615 0.15390664 0.123155996
-0.012115696 0.60683274 0.0525609 0.067228034 -0.045304567 -0.30759275 -0.12599765 0.017710011
-0.5202359 -0.18943205 -0.14995682 0.12170573 -0.49991393 0.19177926 -0.3558501 -0.14545792
-0.05138566 0.3007362 0.28768054 0.018323801 -0.16033633 0.13158017 -0.109961905 -0.254896
0.05670435 0.017045744 -0.1964126 0.08702285 -0.10422185 0.38684392 -0.02023637 0.17111644
-0.13085513 0.102185786 -0.25611198 0.06751654 -0.1100707 0.10434069 -0.20456408 0.09445754
-0.017435186 -0.26732278 -0.014453995 0.23693891 0.13146994 0.015028252 -0.5051312 0.1789076
-0.009289808 0.013285192 0.115293674 0.205426 -0.022367569 0.092832655 0.03138269 -0.08523309
-0.14613496 0.2924141 -0.029805254 0.15496172 0.09859343 -0.085169606 -0.13746847 -0.054454986
0.015120062 -0.06391778 -0.07211808 0.2760774 -0.11010411 -0.050557666 0.034019645 -0.088385314
-0.10453724 -0.24704617 0.12815456 0.12745051 -0.31642628 -0.15149365 0.07416179 0.05736602
-0.20830917 -0.3020925 -0.13537738 0.06662524 0.20206158 -0.25074703 0.14833592 -0.26306713
0.14023088 -0.27570868 -0.10601725 -0.035966735 -0.29180667 -0.0384444 0.16794169 -0.43077636
-0.007834952 -0.1105876 0.15284316 -0.32042557 0.0708807 0.05324282 0.18744993 0.06218117
0.007951331 0.48899558 0.100100525 0.2640029 0.24955429 -0.26281244 -0.002244231 0.038103458
-0.08057424 0.3195396 0.27127063 0.27324387 0.1291824 -0.19658473 0.1632567 -0.12212009
0.20129691 -0.14066322 0.17587511 0.15065676 -0.110025324 0.20935611 -0.076591216 -0.15006465
-0.46252316 -0.22164087 -0.09039985 -0.16789384 -0.16409941 -0.13514607 0.12078917 -0.10068608
-0.5403287 0.22520031 -0.12690052 -0.05158065 0.0058129164 -0.1357629 0.19959007 -0.11296373
0.43538642 -0.20927468 -0.06431187 -0.027125023 0.14295821 -0.0020303128 0.08186245 -0.1891464
0.14438713 -0.077035666 0.082127966 -0.104818195 0.26677412 0.109718 0.13944878 -0.02132382
0.04981959 0.15468699 0.098825336 0.20308354 -0.034719612 0.11045829 0.1342506 0.24129747
0.011115013 -0.057873145 -0.059052482 0.036899846 0.12752332 -0.17219605 0.2560748 0.1832026
00000000: edf7 713d e9cb 76be 00ae ef3c 3b43 163e
00000010: 8582 c3bd ebc6 413d 5d08 a2be 0a43 4e3e
00000020: c29d 823d 7cd7 e13d 2192 afbd eea4 f0bc
00000030: e9d1 55be 1822 633e 8337 5dbe 7519 4cbe
00000040: f3aa 70be 8415 c83d 57a6 6bbe be1c 023e
00000050: 5575 98bd 1a0a 22bd 3374 3cbc 5272 083e
00000060: 254b 3b3d 014e 37bd 1bee d53c 7d30 553e
00000070: 9978 d13c ea16 993d aacb bbba 5da1 94bd
00000080: 48fa 633e daa9 65be 4fd9 553d db5b e9bd
00000090: cc61 51be 6935 6ebe aa00 5c3e f7d8 313e
000000a0: d9f7 81bd 88f2 b3be 753e a03c 0ebc e43d
000000b0: 1d12 83bd c64e c7bd 24f0 943d ef4a 0dbe
000000c0: bc11 0bbe e71a 39be 31b4 143d f1a8 203c
000000d0: 1b22 1c3e 1c26 893d 869b 24bd a971 05bd
000000e0: de15 9bbd 7176 33bd c3e0 853d 9a0d 953d
000000f0: 58ce 233b 6e4a 49be 7cee 813d b29b 35be
00000100: 879a 133e a608 c43d 9104 c93e dd66 603e
00000110: f511 693d c4e8 1abe d4fc a9be 389f 1cbc
00000120: 4a0c 68bd 55c4 863e 0afc 113e d92c 393d
00000130: 4f4d dd3c 57d8 7bbd b499 1d3e 3639 fc3d
00000140: ea80 46bc 6459 1b3f 194a 573d daae 893d
00000150: 4891 39bd cc7c 9dbe 8705 01be 9614 913c
00000160: 2e2e 05bf 7afa 41be 488e 19be db40 f93d
00000170: b8f4 ffbe c861 443e fc31 b6be ecf2 14be
00000180: c579 52bd 18fa 993e dd4a 933e cc1b 963c
00000190: 352f 24be f4bc 063e b533 e1bd ba81 82be
000001a0: d242 683d 84a3 8b3c 6220 49be 0939 b23d
000001b0: 4472 d5bd 6810 c63e bec6 a5bc 2639 2f3e
000001c0: e3fe 05be c846 d13d 1c21 83be 1d46 8a3d
000001d0: bf6c e1bd 92b0 d53d 3f79 51be f472 c13d
000001e0: 3cd4 8ebc 88de 88be 73d0 6cbc 1da0 723e
000001f0: 0ea0 063e 0f39 763c 4750 01bf 8e33 373e
00000200: 4734 18bc 22aa 593c 171f ec3d 315b 523e
00000210: 313c b7bc 0c1f be3d 238b 003d b08e aebd
00000220: 67a4 15be 4db7 953e 262a f4bc 49ae 1e3e
00000230: 5aeb c93d 676d aebd 89c4 0cbe 310c 5fbd
00000240: 23ba 773c 53e7 82bd a5b2 93bd 045a 8d3e
00000250: 437e e1bd 8e15 4fbd 2f58 0b3d 5c03 b5bd
00000260: 9f17 d6bd acf9 7cbe f33a 033e 6382 023e
00000270: a002 a2be 2721 1bbe 23e2 973d a2f8 6a3d
00000280: 004f 55be deab 9abe 5ea0 0abe d072 883d
00000290: 3be9 4e3e ea61 80be 5fe5 173e bcb0 86be
000002a0: af98 0f3e b029 8dbe 921f d9bd db51 13bd
000002b0: af67 95be e077 1dbd e8f8 2b3e b88e dcbe
000002c0: 2c5e 00bc c07b e2bd eb82 1c3e d20e a4be
000002d0: e729 913d 2515 5a3d e0f2 3f3e afb1 7e3d
000002e0: 4d46 023c a15d fa3e 8101 cd3d 632b 873e
000002f0: 298b 7f3e 5a8f 86be f313 13bb 5f12 1c3d
00000300: 1b04 a5bd b29a a33e fce3 8a3e 9fe6 8b3e
00000310: 6448 043e 824d 49be c42c 273e 191a fabd
00000320: c720 4e3e 050a 10be 9b18 343e c445 1a3e
00000330: f554 e1bd 7361 563e dbdb 9cbd 8caa 19be
00000340: d6cf ecbe d3f5 62be 8e23 b9bd 5dec 2bbe
00000350: ad09 28be bb63 0abe 5060 f73d 8134 cebd
00000360: fb52 0abf e99a 663e 36f2 01be 3b46 53bd
00000370: 477a be3b 6e05 0bbe 5761 4c3e 8759 e7bd
00000380: f8ea de3e 1a4c 56be f1b5 83bd 4c35 debc
00000390: a363 123e ff0e 05bb 80a7 a73d 98af 41be
000003a0: 38da 133e e0c4 9dbd b532 a83d ecaa d6bd
000003b0: 9e96 883e d5b3 e03d a9cb 0e3e 4baf aebc
000003c0: a00f 4c3d 4466 1e3e f064 ca3d 22f5 4f3e
000003d0: 2736 0ebd f537 e23d fd78 093e af16 773e
000003e0: be1b 363c 640c 6dbd 04e1 71bd 4b24 173d
000003f0: 7995 023e 2954 30be 3c1c 833e 7699 3b3e

gru.bias_ih_l0 f4 [180]
0.016862681 0.014839276 0.09217728 -0.17684262 -0.17019886 0.015994864 -0.08645987 -0.033791143
0.19895057 0.14658298 0.14467968 0.01147322 0.24938706 0.061120737 -0.016286587 -0.3204857
0.13947305 -0.06530994 -0.013051091 0.053040944 0.18373814 -0.027945781 0.05234996 -0.1557104
0.19002712 -0.191682 -0.06051699 -0.041667778 0.11146594 0.04201769 -0.1108378 0.24554984
-0.24675125 0.0852474 -0.16430072 -0.079757996 0.102427185 -0.091368355 0.030071463 0.106958605
0.02388957 0.10744014 0.118691534 0.20812826 -0.19335213 -0.01940547 0.040035658 0.017763883
0.14938337 -0.17754339 -0.06429375 0.117468365 -0.015911903 0.07347307 0.028607402 -0.04514423
-0.04084043 -0.14076331 0.08224125 0.12589356 0.13438381 -0.050341196 0.14049667 0.29366165
0.07300214 0.10629956 0.04944438 0.04034448 -0.08091813 0.20412172 0.20502888 -0.07682033
-0.09542957 0.39113826 0.49793684 0.15888242 -0.20172523 0.16365708 0.12471204 0.09582735
0.1889486 0.3882861 0.11644977 0.02221526 0.2634571 0.10776846 0.064011425 -0.20553745
-0.054015636 0.18658547 0.3246126 0.13290219 0.07677452 0.5529861 0.39829007 0.16182874
0.034716077 -0.13028015 0.2161776 0.20191148 0.14036237 0.219719 0.2498314 0.3496358
0.20040086 0.07762096 0.31317267 0.022214063 0.15540409 0.28361753 0.3914422 0.26407197
0.035059955 0.006417755 0.3122625 0.12752184 -0.0034094132 0.24559404 0.01931183 -0.1388761
0.08478434 -0.09297564 0.05667178 0.13274287 0.11955249 0.094362825 -0.14236043 -0.039574634
-0.027863331 0.123651065 -0.088786185 0.12314348 0.017081264 -0.1184011 -0.06558123 -0.10834423
-0.06853375 -0.023277987 -0.03534725 0.022833912 -0.03899926 0.11322895 0.058097523 -0.10703997
0.10418576 -0.05870167 -0.008315503 -0.06035787 -0.07825917 -0.08154658 -0.12910923 -0.056599673
-0.024880957 -0.1278815 0.093983084 -0.048706688 -0.034982074 0.013573025 0.15836953 0.045031805
-0.11119182 0.12499811 -0.042615738 0.052570514 -0.06726258 0.10024024 -0.034139644 0.08927133
0.16523999 -0.07163562 0.086418085 0.20938617 0.008690648 0.027230525 0.02055123 -0.014598247
-0.15976416 0.08533103 -0.052416913 0.056325532
00000000: 9b23 8a3c 6f20 733c 71c7 bc3d 3b16 35be
00000010: 9c48 2ebe a907 833c df11 b1bd 9568 0abd
00000020: b3b9 4b3e d919 163e e926 143e 2cfa 3b3c
00000030: 525f 7f3e bd59 7a3d 736b 85bc b416 a4be
00000040: 06d2 0e3e 38c1 85bd 3ed4 55bc 7641 593d
00000050: da25 3c3e 8dee e4bc e96c 563d 8c72 1fbe
00000060: 7896 423e 4948 44be aae0 77bd d5ab 2abd
00000070: 4148 e43d be1a 2c3d eefe e2bd 6b71 7b3e
00000080: 5cac 7cbe 3096 ae3d 733e 28be 2958 a3bd
00000090: 58c5 d13d 551f bbbd 6e58 f63c 1d0d db3d
000000a0: 0fb4 c33c 9309 dc3d 8c14 f33d 931f 553e
000000b0: 1afe 45be 38f8 9ebc 6efc 233d 9085 913c
000000c0: f4f7 183e efcd 35be 71ac 83bd 4193 f03d
000000d0: ae59 82bc 0d79 963d 125a ea3c 28e9 38bd
000000e0: 4b48 27bd 4224 10be 1a6e a83d 3eea 003e
000000f0: e99b 093e 9232 4ebd 5cde 0f3e d25a 963e
00000100: 2582 953d 95b3 d93d 3186 4a3d 4140 253d
00000110: 68b8 a5bd 4905 513e 17f3 513e fa53 9dbd
00000120: 9470 c3bd 4643 c83e 94f1 fe3e 13b2 223e
00000130: 0f91 4ebe b995 273e 0769 ff3d 2141 c43d
00000140: be7b 413e 70cd c63e 387d ee3d c7fc b53c
00000150: d9e3 863e b6b5 dc3d 6c18 833d 6978 52be
00000160: 803f 5dbd 4310 3f3e 9f33 a63e 8317 083e
00000170: f63b 9d3d 7f90 0d3f adec cb3e 6fb6 253e
00000180: 7232 0e3d 2968 05be a95d 5d3e e2c1 4e3e
00000190: 27bb 0f3e 04fe 603e cdd3 7f3e 7703 b33e
000001a0: e235 4d3e bdf7 9e3d 2b58 a03e 44fa b53c
000001b0: 4022 1f3e 5136 913e 1d6b c83e 7134 873e
000001c0: 079b 0f3d 084c d23b dfe0 9f3e 1695 023e
000001d0: 7670 5fbb 017d 7b3e d833 9e3c 8935 0ebe
000001e0: 69a3 ad3d 036a bebd ab20 683d bfed 073e
000001f0: f0d7 f43d 4c41 c13d efc6 11be 0319 22bd
00000200: a441 e4bc c53c fd3d 88d5 b5bd a632 fc3d
00000210: 02ee 8b3c 477c f2bd 744f 86bd 94e3 ddbd
00000220: 6c5b 8cbd 7ab1 bebc 47c8 10bd 2f0e bb3c
00000230: b0bd 1fbd 94e4 e73d abf7 6d3d c637 dbbd
00000240: 585f d53d 2a71 70bd bf3d 08bc d039 77bd
00000250: 5846 a0bd e501 a7bd 3635 04be 0fd5 67bd
00000260: 26d3 cbbc 5ef3 02be 347a c03d aa80 47bd
00000270: 5d49 0fbd 6561 5e3c 9f2b 223e 4573 383d
00000280: 89b8 e3bd 02ff ff3d d78d 2ebd 2e54 573d
00000290: f7c0 89bd c14a cd3d 03d6 0bbd e3d3 b63d
000002a0: ac34 293e b2b5 92bd f7fb b03d 5469 563e
000002b0: 3863 0e3c 8d12 df3c 0e5b a83c 7c2d 6fbc
000002c0: 3799 23be 09c2 ae3d 1eb3 56bd 9ab5 663d

gru.bias_hh_l0 f4 [180]
-0.04587804 0.110601 -0.056419812 -0.22726429 -0.14343597 -0.06420422 -0.12507357 -0.095153354
0.21099886 0.023372814 -0.0091477875 0.023794342 0.16237523 0.06170653 -0.01866046 -0.20145708
0.029307282 -0.16652118 -0.077515215 0.06957703 0.20253669 0.040048182 0.05269922 -0.0027968904
0.016425058 0.016482163 0.027010566 -0.15563329 0.007159079 0.08206687 -0.04421118 0.07309324
-0.014689835 0.033993326 -0.025975037 -0.15977727 0.19800468 0.042345658 -0.13293436 0.07458999
0.097277366 -0.017643929 0.029538605 0.03126776 -0.012698527 -0.046994537 -0.006400435 -0.016861046
0.2108951 -0.15624769 0.07163275 0.1572248 -0.06463029 -0.041612074 -0.036400013 -0.2266933
0.017916145 -0.005441282 0.2214937 0.064021744 0.155499 -0.08666797 0.21013416 0.26810217
0.12279607 0.029517297 0.022961246 0.08012923 -0.029916864 0.19531257 -0.016158741 -0.14935544
-0.06778236 0.21582192 0.4741896 0.101778015 -0.27792537 0.27917013 0.05407196 0.16626017
0.28466114 0.16695139 0.07102248 0.10449441 0.15024522 0.21342307 0.24913292 -0.28106597
0.032288607 0.21855074 0.10642685 0.28355426 0.2763912 0.5311609 0.43814623 0.15573178
0.14999567 -0.06593578 0.33190906 0.39769578 0.27504936 0.039027367 0.17690477 0.33484447
0.13735266 0.16326232 0.14142367 -0.033182185 0.27769846 0.059759934 0.28351688 0.27536982
0.18563674 0.033538412 0.27744323 0.13127002 0.039358288 0.19911306 0.1064269 -0.3328661
-0.116888665 -0.15055908 -0.024185523 0.161151 -0.023973081 -0.098761335 -0.118700735 0.038397256
-0.21359618 0.054138128 -0.08870906 0.09851597 -0.05612154 -0.09254895 0.024666341 -0.016105806
0.041492376 0.021243181 0.0050868806 0.07156717 -0.079699494 0.17096673 -0.022664301 -0.059060734
0.09849145 0.06029651 0.14168216 0.1288844 -0.09798038 -0.024223048 0.037884183 -0.019352676
0.043032367 0.08684619 -0.04581652 -0.032450903 0.031643283 -0.086330906 -0.020572353 -0.123003855
0.059005644 -0.049329404 -0.008976351 0.08856427 -0.08081194 -0.035387818 -0.021237906 -0.09463575
0.047616325 -0.023651762 0.021551969 0.24495499 0.06714408 0.05309338 -0.046120934 -0.02213246
-0.16808534 -0.07257168 -0.1980044 0.096055396
00000000: 9dea 3bbd c782 e23d 7618 67bd f8b7 68be
00000010: e1e0 12be 817d 83bd 4913 00be c3df c2bd
00000020: 1610 583e 5878 bf3c 9ae0 15bc 5aec c23c
00000030: b145 263e fdbf 7c3d d2dd 98bc c44a 4ebe
00000040: d315 f03c 8784 2abe 4cc0 9ebd 677e 8e3d
00000050: c765 4f3e 9009 243d 23db 573d 094c 37bb
00000060: d88d 863c 9a05 873c 4345 dd3c 555e 1fbe
00000070: b596 ea3b ad12 a83d c816 35bd e9b1 953d
00000080: a2ad 70bc 963c 0b3d 9ac9 d4bc a79c 23be
00000090: bdc1 4a3e a472 2d3d f21f 08be a3c2 983d
000000a0: 5b39 c73d 008a 90bc f2fa f13c 9f12 003d
000000b0: 7c0d 50bc 587d 40bd beba d1bb 2d20 8abc
000000c0: e3f4 573e 65ff 1fbe 31b4 923d 8aff 203e
000000d0: e35c 84bd 6c71 2abd 2e18 15bd 4a22 68be
000000e0: e1c4 923c c84c b2bb 3fcf 623e d51d 833d
000000f0: 213b 1f3e fa7e b1bd 692d 573e b044 893e
00000100: 827c fb3d 42ce f13c 3919 bc3c cb1a a43d
00000110: 3614 f5bc 0500 483e 565f 84bc a2f0 18be
00000120: 7ad1 8abd 6c00 5d3e fbc8 f23e fe70 d03d
00000130: 3c4c 8ebe 63ef 8e3e 8f7a 5d3d 1b40 2a3e
00000140: 1bbf 913e 4ef5 2a3e 3c74 913d 2a01 d63d
00000150: e2d9 193e 948b 5a3e b31c 7f3e e1e7 8fbe
00000160: 0f41 043d c4cb 5f3e 52f6 d93d 062e 913e
00000170: 2683 8d3e 29fa 073f b454 e03e 2778 1f3e
00000180: 7798 193e 5709 87bd fcef a93e c89e cb3e
00000190: 45d3 8c3e 29db 1f3d 8626 353e bc70 ab3e
000001a0: 2da6 0c3e 3d2e 273e 5ed1 103e 0bea 07bd
000001b0: 7e2e 8e3e d5c6 743d 2029 913e 46fd 8c3e
000001c0: 8f17 3e3e 935f 093d 0a0d 8e3e a66b 063e
000001d0: 2836 213d 4be4 4b3e 59f6 d93d 6d6d aabe
000001e0: 5363 efbd 292c 1abe b820 c6bc c504 253e
000001f0: 3263 c4bc 6243 cabd 5f19 f3bd 7146 1d3d
00000200: f5b8 5abe f1bf 5d3d 18ad b5bd bec2 c93d
00000210: b3df 65bd 4e8a bdbd 1111 ca3c 53f0 83bc
00000220: e9f3 293d 2e06 ae3c d9af a63b cf91 923d
00000230: 7d39 a3bd e711 2f3e 7caa b9bc abe9 71bd
00000240: e3b5 c93d 79f9 763d 2115 113e 46fa 033e
00000250: f0a9 c8bd 6a6f c6bc 722c 1b3d 8189 9ebc
00000260: b542 303d 6adc b13d 1aaa 3bbd 3deb 04bd
00000270: 639c 013d 42ce b0bd 5a87 a8bc 72e9 fbbd
00000280: e7af 713d a10d 4abd 8b11 13bc 2f61 b53d
00000290: bb80 a5bd d1f2 10bd 1efb adbc 63d0 c1bd
000002a0: 5609 433d 57c1 c1bc c18d b03c 7bd5 7a3e
000002b0: d682 893d 7278 593d 4ee9 3cbd 224f b5bc
000002c0: 901e 2cbe 76a0 94bd aac1 4abe b1b8 c43d
