mort_models/mort_model_week_1/feat_enc.pt (torch, 56491 bytes, 4 tensors)

gru.weight_ih_l0 f4 [180, 15]
000000 c8 17 05 be 90 12 63 bd 31 bb 05 be 4b f8 dc bd
       -0.12997353 -0.055437624 -0.13059689 -0.107895456
000010 f8 58 95 bc f9 9e 1c bd 59 3c 05 3f 76 95 bb 3d
       -0.0182309 -0.038237546 0.5204521 0.09159367
000020 9c 69 93 bc 68 7c 86 3c 06 7b fe bc 07 aa 1a be
       -0.017994694 0.016416743 -0.031064522 -0.15103923
000030 f0 50 4f bd 34 10 f3 bd df 1a 68 bd 33 3d 57 3d
       -0.050614297 -0.11868325 -0.05666625 0.0525486
000040 90 1e 04 3e 79 42 41 3e 99 ef 7f bd 4b 10 22 3e
       0.12902284 0.18873014 -0.062484358 0.15826528
000050 7e d3 24 bc 1b 0a 08 3f 20 3d 01 3c 61 87 cc 3d
       -0.010060189 0.5314042 0.0078881085 0.09986759
000060 07 3c 1f 3d 5b 55 b9 3b bf d6 b3 3d 41 f5 b1 bd
       0.038875606 0.005655927 0.08781194 -0.086893566
000070 3a 13 af 3d 6d 43 76 3e 39 91 17 bb 6d 83 92 3d
       0.08548589 0.24049158 -0.002312733 0.07153974
000080 8e 93 9e 3b 90 8f fa 3d 33 82 5a bd 6b 58 8c be
       0.0048393672 0.122344136 -0.053346824 -0.27411208
000090 41 d8 37 3c ef 5c 9a 3d 8f 2d a6 3d 7f 76 20 3d
       0.011220993 0.07537257 0.08114158 0.039175507
0000a0 0a 4a 42 bc 5c cf 01 be d3 12 88 3e a5 e1 19 be
       -0.011858473 -0.12676758 0.26576862 -0.15027483
0000b0 71 e5 1d be 95 0a 0d be ad d8 e2 3c d2 42 90 3d
       -0.15419556 -0.13773568 0.02769121 0.07043995
0000c0 ad 1a 0b be 6d a5 4f bd 9f 3d 3b 3e 84 f5 bb 3e
       -0.13584395 -0.05069487 0.18285225 0.3671075
0000d0 21 cb 03 3e 85 da 57 3d 2a 15 3b 3e c5 86 cb bd
       0.12870456 0.05269863 0.18269792 -0.099378146
0000e0 00 cb e0 bd dc f3 22 be 69 ee ef 3d 6a 24 13 3e
       -0.10976219 -0.15913337 0.11715395 0.1436936
0000f0 79 ca af 3d b4 e1 45 3d 60 20 7a be 96 53 5d 3d
       0.085835405 0.04831095 -0.24426413 0.054034792
000100 30 65 19 3e 00 fc 17 bd 86 31 1c be 11 b6 95 3d
       0.14980006 -0.03710556 -0.15253267 0.07310117
000110 ca a7 3a 3d b0 f5 6d 3d 1d 8a 71 bd e2 96 48 bd
       0.045570172 0.058095634 -0.058969606 -0.048972018
000120 f0 f0 74 3b 34 0e e9 3d 5e 41 b8 3d 28 96 f2 3d
       0.0037375055 0.11379662 0.08996843 0.11845046
000130 0a 73 67 3d a5 cb 48 bd aa 05 3a bd 07 00 d1 bd
       0.056506194 -0.049022336 -0.045415558 -0.10205083
000140 2a 4c 17 be 7d dd bc 3d 3b eb b0 3d 5e 73 b1 bd
       -0.14775148 0.09221933 0.08638617 -0.08664583
000150 4f 86 2e 3b a7 7d f1 3d 2c 9e 99 bd 68 b8 df bc
       0.0026630347 0.117915444 -0.07500872 -0.027309611
000160 30 3a 9e 3d ec ca 27 bd 48 da 1a bc 35 98 68 3d
       0.07725942 -0.040965006 -0.009451456 0.05678578
000170 56 62 1a 3e ac 55 3d 3c f2 86 5b be 5e 90 15 bc
       0.15076575 0.01155607 -0.21438196 -0.009128658
000180 12 58 0b 3e 76 22 38 bd a3 33 e4 bd 54 08 49 be
       0.13607815 -0.04495474 -0.111426614 -0.19632083
000190 ee cc 47 3e cf 7b 9c bc 72 8a 02 3d 56 2d 46 3c
       0.19511768 -0.019102005 0.031870313 0.01209577
0001a0 55 3c 92 bd 18 3d 77 3e 92 db d8 3d 27 e2 f5 3d
       -0.07140414 0.24144399 0.10588755 0.12006026
0001b0 af 9a 56 3e 82 04 7f 3d e1 6e 49 be 3a 86 2c be
       0.20957445 0.06226016 -0.19671203 -0.16848078
0001c0 0d 47 8f be 9c c9 79 bd 19 d3 03 3e bd e6 97 be
       -0.27983895 -0.060983285 0.12873496 -0.29668227
0001d0 fb 62 49 be 4b 98 01 3e 32 89 0a 3d f6 2c f3 3d
       -0.19666664 0.12655751 0.033822246 0.1187381
0001e0 27 1c 1f 3e e4 87 c2 3d 70 0d 0a be a9 28 a9 3d
       0.15538083 0.09498575 -0.13481688 0.082597084
0001f0 c2 71 42 bd 57 d7 28 be f1 93 ea bd e8 76 ca bd
       -0.04747177 -0.16488396 -0.11453999 -0.09885961
000200 8f 4c 20 be b8 4c 9a bd 98 d4 6d bb ed 2c 8d 3d
       -0.15654205 -0.07534164 -0.0036290046 0.068933345
000210 6d e9 e7 3c 75 ca ef 3c 55 6a 91 3d 7d 48 f7 3d
       0.028309548 0.029271344 0.07100359 0.12074373
000220 ad c3 2f 3d e3 f6 8e 3d 68 07 c8 3d 4c b9 68 3e
       0.04291122 0.06980684 0.09767038 0.22726935
000230 77 d9 2d 3e 3b c6 7c ba 90 8a fd bb 81 b3 0a be
       0.16977488 -0.0009642576 -0.007737465 -0.13545038
000240 dd 35 5e be 85 27 d6 bd f9 dd 0c 3e 39 43 02 3d
       -0.21700235 -0.104567565 0.13756551 0.03180239
000250 96 6b ad bc 7c c9 4d bd 35 cc fc bd 29 ea 8d bd
       -0.021169465 -0.05024098 -0.12343637 -0.06929428
000260 d5 e3 24 be cf b7 c9 3b a6 6c 11 bd 99 ed 66 bd
       -0.16102536 0.006155945 -0.035504006 -0.056378935
000270 55 3a ca 3d e0 fb 6d 3e 66 97 3c 3e e1 0f 8d 3d
       0.09874407 0.23240614 0.18417129 0.06887794
000280 ce 9c 5b 3e 3e c0 12 3d 29 31 a2 bd 72 9f e4 3d
       0.21446535 0.035827868 -0.07919533 0.11163224
000290 b4 ca 00 3e b0 6f 5f bd 78 f0 75 3d 99 80 df 3c
       0.12577325 -0.054549873 0.060043782 0.027283
0002a0 df b6 86 be 17 5d 21 be af cd 64 3e cd 3d 1c bc
       -0.26311395 -0.15758167 0.22344087 -0.009536219
0002b0 64 e7 83 3e 92 b2 0b 3e 87 63 8e bd 81 7d ad 3d
       0.25762475 0.13642338 -0.06952577 0.084712036
0002c0 31 c1 7e bb df 17 88 be 3a 39 48 3e 84 26 ec bd
       -0.0038872475 -0.26580712 0.1955308 -0.11530784
0002d0 66 58 06 3b 66 4c 95 bd a0 9f 7e 3c b8 e6 db bc
       0.0020499467 -0.072899625 0.015540987 -0.026843414
0002e0 46 5e a3 3d c1 a3 b9 3d cc ed 87 bd 26 d1 83 3c
       0.079769656 0.09064437 -0.06637153 0.01609094
0002f0 be 01 b9 bd 35 93 18 3e a1 d5 52 3e f2 94 18 3d
       -0.090335354 0.14899905 0.20589305 0.03725142
000300 75 35 d6 bd 13 13 b1 3d 1b 44 5e bc 6a 9d 8a 3b
       -0.10459415 0.08646216 -0.013566042 0.004230191
000310 05 e3 9b bd b0 9a de 3d 41 f3 00 3c da aa 1c bc
       -0.0761166 0.10869348 0.007870496 -0.009562219
000320 ca af c2 bd 7b 16 dd bd e9 86 75 be 11 9b 42 be
       -0.09506185 -0.107953034 -0.23977245 -0.19004466
000330 9d 37 78 be 1a a9 4b 3e b9 a1 fc bc 30 c1 38 3e
       -0.24239965 0.19888726 -0.030838834 0.18042445
000340 90 16 b2 bd 77 7d 61 bd 17 3f f7 bc 77 81 a2 3d
       -0.0869571 -0.055051293 -0.03018145 0.0793485
000350 f6 d7 21 3d 81 4f 32 3d 5e 85 8c 3d 48 43 49 3c
       0.039512597 0.043532852 0.06861375 0.0122841075
000360 bf 2f 3b be a8 5c d4 bd dd f0 85 3d 69 d4 39 be
       -0.18279932 -0.10369235 0.06540082 -0.18147434
000370 15 6f 88 bd 98 34 ce 3d 96 8f 92 3d 85 65 06 bc
       -0.06661812 0.10068625 0.07156293 -0.008202915
000380 c8 86 9c bd 67 39 b9 3d 39 43 c6 bc c0 9d dc 3c
       -0.07642895 0.09044152 -0.024201976 0.02693069
000390 61 f5 1c 3d 60 86 12 3e 06 b4 e9 bd 5c 6e 0d 3f
       0.03831995 0.14309072 -0.1141129 0.5524652
0003a0 49 62 9c bc 56 8c 83 bd 1e 6b d4 bd 57 fe e4 bd
       -0.019089835 -0.06423251 -0.103719935 -0.11181324
0003b0 b9 7b 3f bd a0 91 61 bd 20 e1 ca 3d 40 4d 8a 3e
       -0.04674885 -0.05507052 0.099062204 0.27012062
0003c0 1f aa 01 3d 7c 58 87 38 53 c7 83 be 1c 42 81 bd
       0.03165638 6.453783e-05 -0.2573801 -0.063114375
0003d0 51 dc 68 3e 62 19 3e be 7f e3 65 bd 8d aa 68 be
       0.22740294 -0.1856437 -0.05612516 -0.2272131
0003e0 66 ff 26 be c1 e0 ec bc bd 94 64 3d 1b 45 8b 3c
       -0.16308364 -0.028915765 0.05580591 0.017000725
0003f0 05 a9 3b bd ab f0 f2 bd 22 fd 2b be f7 6c 2f be
       -0.045815486 -0.1186231 -0.16795781 -0.1713141

gru.weight_hh_l0 f4 [180, 60]
000000 de 07 bc bd 76 83 0f 3c 58 c3 64 3e f2 37 84 be
       -0.09181188 0.00875937 0.22340143 -0.25823933
000010 b0 a0 4f be 1e 73 d6 bd b5 0b 94 be c8 be 79 3d
       -0.20276141 -0.104711756 -0.28915182 0.06097296
000020 80 2f 41 bd 08 8f 91 3e 6a 05 5b 3d 4d 0d 1a 3e
       -0.04716444 0.28429437 0.05347196 0.15044136
000030 34 76 de bd 86 7b 56 bd 09 b6 0b be 52 52 05 bf
       -0.10862389 -0.052363895 -0.1364366 -0.52078736
000040 14 8c 98 bd 65 57 0c be a8 29 77 be 60 c5 86 bd
       -0.07448593 -0.13705213 -0.24136984 -0.06580615
000050 29 90 b2 bd 9e 79 a8 3e d6 a5 87 bc d3 b1 fb 3d
       -0.087189026 0.32905287 -0.016558569 0.12289777
000060 50 aa 34 3e 54 9a ba 3d c0 f6 6b be 9c df 53 3b
       0.17643094 0.09111467 -0.23043346 0.0032329326
000070 b1 83 ec bc ea 7a 0d bd 0a 4e a7 bc 5c e8 7d bd
       -0.02887139 -0.034541048 -0.020422954 -0.061989173
000080 58 56 06 3e b9 68 4a be 3b d3 e7 3d e2 bc b3 bd
       0.13118875 -0.19766511 0.11319586 -0.08776261
000090 c8 01 05 be 19 ed 9a be 75 f2 e9 3d c5 e7 a5 3d
       -0.1298896 -0.30259016 0.11423198 0.08100847
0000a0 fa 5d c2 bd 49 37 37 be 47 d6 d2 3d 19 c6 17 3c
       -0.09490581 -0.17892183 0.102947764 0.009263539
0000b0 1e 45 16 3d 7a 94 a1 bd 12 c8 0a 3e 43 ab 95 bd
       0.03668701 -0.07889648 0.13552883 -0.07308056
0000c0 c1 1d 8e 3e 4c 39 89 bc 29 b7 b9 bb 1e 27 65 bd
       0.27757075 -0.016750954 -0.0056675863 -0.05594551
0000d0 fd a9 ea 3d d2 c0 33 3d b8 16 88 be 76 e0 91 3e
       0.11458204 0.04388506 -0.26579833 0.28491563
0000e0 9c 67 56 bd 53 3f 24 3e 36 7d 40 3d ff 1b 74 bd
       -0.052344903 0.16039781 0.04699441 -0.05959701
0000f0 f7 c1 fc bd 7a b1 d1 bd 6f 5f 24 3e 22 27 70 3d
       -0.12341683 -0.10238929 0.1605203 0.05863107
000100 aa ce 04 3e 75 0d 15 be 30 86 32 3e 80 6e 0d 3e
       0.12969461 -0.14555915 0.17434001 0.13811684
000110 e5 ed b4 bd 48 be dc 3d be e5 99 3d 18 cd 47 3a
       -0.08834437 0.10778481 0.07514523 0.0007621809
000120 91 53 03 bd 16 96 88 3d 54 d6 4d be 25 62 fd 3d
       -0.032062117 0.066692516 -0.20101291 0.12372235
000130 50 34 54 3e 65 01 33 3e d8 d0 b4 bd 04 20 a0 3d
       0.2072308 0.17481 -0.08828896 0.078186065
000140 c6 af 1d be 7c bd cd 3c c1 86 2a be ce 19 9f 3d
       -0.15399083 0.025114767 -0.16652967 0.07768594
000150 e4 ef d1 3c 9d b4 e9 bd ea ee e6 bd 9a 4a 19 3e
       0.025627084 -0.114114024 -0.11276038 0.14969864
000160 16 f5 ba bd af dc a2 3c 30 3d 8a 3e c8 9f 29 bb
       -0.09128778 0.01988062 0.26999807 -0.002588259
000170 ca a7 93 bd 2e 31 66 be cf c1 21 3e c3 68 66 3e
       -0.072097376 -0.22479698 0.15796588 0.22500901
000180 ff 88 3d be 33 20 e2 3d f8 3b cb 3d 92 38 13 be
       -0.18509291 0.11041298 0.099235475 -0.14377049
000190 de c0 e9 bd 04 49 9e bc af 6c 6f be 66 66 fb bd
       -0.114137396 -0.019321926 -0.23381303 -0.1227539
0001a0 50 b1 7f 3a 41 04 84 3d e8 ad 29 3d c0 5e 71 bd
       0.00097538996 0.06446124 0.041425616 -0.05892825
0001b0 0d 3a ee bd 6b a6 39 3d d3 ef f3 bc c2 58 47 3d
       -0.11632166 0.045324724 -0.029777443 0.04866863
0001c0 1c 08 43 3d 82 a2 5a 3e d3 eb 45 be aa 27 6e bd
       0.047615156 0.21351054 -0.19328241 -0.058143295
0001d0 8d d2 db bd 0c bc b7 bd f5 2c 5c 3d 83 51 01 be
       -0.10733519 -0.08971414 0.053753812 -0.1262875
0001e0 73 4e d1 3c 6c 4f 54 3e 78 62 2f 3e 79 db 27 be
       0.025550103 0.20733422 0.17127407 -0.16392316
0001f0 af 61 96 3c 28 0c e7 bd ec 45 37 bd dc 02 9a 3c
       0.018357126 -0.112816155 -0.044744417 0.018800192
000200 88 0d 83 3d ac ca ab bc 2a 44 ab bd d0 ac c4 bd
       0.06399065 -0.020970665 -0.08362611 -0.09603274
000210 7b 20 a8 3e fc 1e 36 3e a4 a9 8a 3d 2e 15 0b bc
       0.3283728 0.17785257 0.06770638 -0.008488936
000220 9b ee c5 3d 6b 10 48 be 56 3a 25 3e 72 a3 97 3c
       0.09664651 -0.19537513 0.16135535 0.018510554
000230 4b 1e 5c 3d b8 db 83 3b 25 45 c9 3d f6 7c 3f 3d
       0.053739827 0.0040239953 0.098276414 0.04675003
000240 cd bd f7 3c 44 b9 7e be 76 3c c2 be 17 8e 85 bd
       0.030241871 -0.2487536 -0.37936753 -0.06521242
000250 dc aa 1c 3e 9a 3a 20 be b7 45 72 3d 7b 69 13 3b
       0.15299553 -0.15647355 0.059148517 0.0022493291
000260 98 b9 31 3d cf 7e cb 3d e4 96 82 3e 0c 7b 8e 3d
       0.043389887 0.09936296 0.25505745 0.06957063
000270 84 c5 86 3e 48 bd b6 bd 27 6f fc bd 8d 76 2d 3e
       0.26322567 -0.08922821 -0.12325888 0.16939755
000280 dc de 84 3e 6b 30 4e 3d bb 94 72 be b5 bb 07 3d
       0.25951278 0.050339144 -0.23689549 0.033137996
000290 4e 90 41 bd ac 48 1d 3e 44 4b 3d 3e 06 2b 62 be
       -0.04725676 0.15359753 0.18485743 -0.22086725
0002a0 3b 89 f8 bd f7 f2 9e bd 12 9b ca bd 3a 29 38 be
       -0.1213555 -0.077611856 -0.098928586 -0.17984477
0002b0 de 55 dc bd 44 9b 00 bd 62 8b a0 3e a1 97 35 be
       -0.10758565 -0.031398073 0.3135634 -0.17733623
0002c0 f2 cc 0b bd 5d 4c f0 bc 32 b5 b7 3d 5a dc 8e bd
       -0.034130998 -0.029333288 0.08970107 -0.069756225
0002d0 ba 01 2c be 71 ee 25 be 21 a6 22 3e 73 b3 55 bd
       -0.16797534 -0.1620424 0.15883686 -0.05217309
0002e0 0d e5 34 3d 81 e8 1a 3c 19 33 56 bd 37 f1 78 3e
       0.044163752 0.009454847 -0.052294824 0.24310766
0002f0 2e 2d d7 3d 01 50 cb bd d1 2c c1 3d 06 8f e5 3d
       0.10506664 -0.09927369 0.09432376 0.1120892
000300 85 3f 31 bd 3b 44 d9 3d e5 22 6b bc 90 b8 8d 3e
       -0.043273468 0.10608717 -0.014351581 0.27679873
000310 43 25 95 bd c3 e4 a2 3d a1 1a 37 bd 8f c5 75 bd
       -0.07282498 0.07953789 -0.04470313 -0.06000286
000320 c6 45 fc 3d d8 86 41 bc 44 4c b9 bd 60 50 a3 bb
       0.12317996 -0.011811934 -0.0904775 -0.0049839467
000330 e6 92 73 3d 49 20 79 bd 52 1d 87 3d db 1f cc bd
       0.059466265 -0.060821805 0.06597389 -0.099670134
000340 a0 36 c8 bc de a2 4b be 59 43 bd bd fa 21 02 3d
       -0.02444011 -0.19886348 -0.09241361 0.031770684
000350 7b 46 1a be 84 dd 9b be 94 95 28 be 98 ff bb 3d
       -0.15065949 -0.3044244 -0.1646331 0.0917961
000360 e8 33 97 be 30 60 13 3e 1b 8f 4a 3d a3 b1 89 be
       -0.2953179 0.14392161 0.049452882 -0.2689334
000370 ac 0d c6 bd 50 82 e6 3c 36 48 0b 3e 95 b4 c4 3d
       -0.096705765 0.02813831 0.13601765 0.09604756
000380 84 bb aa 3e f5 4d 8c be 68 4a be bd 83 ba 2a 3e
       0.33346188 -0.27403226 -0.092915356 0.16672711
000390 d3 2a 46 3e e7 43 23 3d a9 88 6e be ca b9 13 3d
       0.19352274 0.03985968 -0.23294319 0.036065854
0003a0 da 65 e3 3d 7e 62 e4 bc 30 93 74 be 86 96 30 bd
       0.11103411 -0.027878996 -0.23884273 -0.0431123
0003b0 c9 3c 8f bd 12 29 40 3e 4b e1 46 3e 60 5c ed bc
       -0.06994016 0.18765667 0.1942188 -0.028974712
0003c0 18 9d 11 ba 21 d7 ff 3b 99 57 d3 bc ce 95 2a 3e
       -0.000555472 0.007807628 -0.025798606 0.16658708
0003d0 e8 83 2c bc 6a 1d b5 bd c5 00 f8 3d 42 11 5e 3d
       -0.010529496 -0.08843501 0.12109522 0.054215677
0003e0 19 da 10 be c6 c9 31 bd d5 d3 38 bd 10 d1 05 be
       -0.14145698 -0.043405317 -0.045123894 -0.13068032
0003f0 89 e8 1d bd cc 64 01 be 48 6f 23 bb f6 0f 2a bb
       -0.03855184 -0.12636107 -0.0024938155 -0.0025949455

gru.bias_ih_l0 f4 [180]
000000 fd 6e 92 3d 41 4f 95 bd fc 02 33 3d 90 58 70 3d
       0.071500756 -0.07290507 0.043704018 0.05867821
000010 09 e1 84 bd 7b 68 6d bd 17 b0 66 3d 8d e3 43 3e
       -0.064882345 -0.05796097 0.056320276 0.19129772
000020 76 80 0a 3e 94 36 c6 3d 34 f4 57 3e 61 51 10 bd
       0.13525566 0.09678379 0.2108925 -0.03523386
000030 40 9e a0 3c 73 a7 40 3d cf c7 d0 bb 1f 32 85 bc
       0.01960671 0.047034692 -0.0063714753 -0.016259251
000040 2d 83 4c 3d 97 f2 12 bd ef 49 4e 3e 20 65 e3 3d
       0.049929786 -0.035875883 0.20145391 0.111032724
000050 fa 9e 29 3e 2f f4 b6 ba 14 bf 16 3d 67 95 3d bd
       0.16564551 -0.001395827 0.03680332 -0.04628506
000060 87 72 23 3e 01 59 31 be 61 b9 4d bd a7 8c bc 3b
       0.15961657 -0.17319109 -0.05022562 0.0057540718
000070 16 af 07 3e ff 87 91 3d 78 ec a7 bd f8 17 33 3d
       0.13250384 0.07106017 -0.081994 0.04372403
000080 01 31 ed bd 61 1a dd 3d cf 16 60 bc 04 06 1a 3d
       -0.115816124 0.10796047 -0.013677313 0.037603393
000090 1d f2 95 bc 11 e1 65 3c 34 96 6c 3d 12 8a b9 3d
       -0.018303925 0.014030711 0.057760432 0.09059538
0000a0 f8 20 31 3e 3c 97 98 3c 88 c1 0c 3e 09 71 d4 3d
       0.17297733 0.018626802 0.13745701 0.10373122
0000b0 65 5c 2f bd 48 9a 3d 3e 9f 6b df 3d 05 7e f1 3c
       -0.042812724 0.18515885 0.10909199 0.029479036
0000c0 5f eb f2 3c 9f 1e 9e bd 83 0f f8 bb b2 7a 57 3d
       0.02965325 -0.07720684 -0.0075702085 0.052607246
0000d0 99 ad 80 ba 1b 43 9a 3d 4f 20 33 3d 0b 84 f4 3c
       -0.0009817361 0.075323306 0.043731984 0.02984812
0000e0 58 fd 79 bd ed f4 f1 bd 63 18 ad 3d 75 ab d0 3c
       -0.061032623 -0.11814294 0.08451917 0.025472382
0000f0 62 2a c8 3c c9 b0 bc bd 2f 81 16 be ed 3b c4 bb
       0.024434272 -0.092134066 -0.14697717 -0.005988589
000100 55 38 9d 3a 0d 6e f1 bb e6 3f ff 3c 25 54 87 bd
       0.0011994938 -0.0073678554 0.031158399 -0.06607846
000110 cf fe f5 bd 45 fd bd 3e 7b cc 82 3d a4 9c 88 bd
       -0.120114915 0.37107292 0.06386658 -0.06670502
000120 8c c3 c0 3d 8c f5 cf bc da 84 62 3e a3 78 a1 bd
       0.094122976 -0.02538564 0.22120991 -0.07884338
000130 76 25 a2 bd 49 26 81 bd 0d 37 a7 3d ab 78 9a bc
       -0.07917301 -0.063061304 0.08164797 -0.018856367
000140 ec 11 18 3b 6e 81 e1 3d a8 74 48 3b 5e e0 06 be
       0.0023204042 0.11011015 0.003058711 -0.13171527
000150 6e 29 4f 3d d7 2f b1 3d 6e 4b 24 be b3 7d 56 bd
       0.05057662 0.08651703 -0.16044399 -0.05236597
000160 c0 75 0a be 9f 36 0a 3e fd d8 bd 3e 86 8b 05 bd
       -0.1352148 0.13497399 0.3707961 -0.032603763
000170 7c 02 b5 bb b0 1e a9 bd a0 d1 f4 bb d9 56 04 3e
       -0.005523978 -0.08257806 -0.0074712783 0.12923755
000180 c3 c1 7b bd 0d 20 50 3d 18 4b a4 bd fb c5 26 be
       -0.061464082 0.050811816 -0.080221355 -0.16286461
000190 13 ea cd 3d df 39 29 3e 4e 62 87 3e a0 13 d3 3d
       0.10054412 0.16525982 0.26442188 0.103064775
0001a0 76 23 8c bd c1 2d 80 bd db 78 c2 3d ea e7 d2 3d
       -0.06842701 -0.06258727 0.094957076 0.1029814
0001b0 15 ff b4 bd 52 51 05 3e 55 d8 64 bc c2 85 53 3e
       -0.088377155 0.13019302 -0.013967593 0.20656493
0001c0 1c 49 9d bd 6e a0 f7 bd 5d 84 03 3e d6 32 6c bc
       -0.0767996 -0.120911464 0.12843461 -0.014416417
0001d0 83 74 a3 be b8 16 f4 3d 1c ec 2a 3d b9 8b 36 3e
       -0.3192483 0.11918396 0.041729078 0.17826737
0001e0 7f e4 98 3d c3 48 d8 bc 0f a8 be 3d 75 c8 aa 3d
       0.07465457 -0.026401883 0.093093984 0.083390154
0001f0 75 2f cd 3d 38 f9 17 3d de 54 ea bd 7b 89 df bd
       0.10018817 0.037102908 -0.114419684 -0.10914894
000200 01 95 92 3d 5e f7 4c 3d 35 bc a0 bd 8d 4e ef 3d
       0.071573265 0.050040595 -0.07848398 0.11684904
000210 9a 6e 28 bc 9b c5 15 be ec b0 3d bd 68 6a 8d bd
       -0.010280276 -0.14626162 -0.046311304 -0.06905061
000220 f9 28 d4 bd 4d 62 fd bb 0c c5 6f bd 95 5e ca bc
       -0.103593774 -0.0077326656 -0.058537528 -0.024703303
000230 cf ab 4b bb 58 b6 0b 3e 5b cf d6 3d 8b e2 2a be
       -0.0031077748 0.13643777 0.10488769 -0.16687982
000240 78 80 cd 3b 66 8c 86 bd 2e f1 b8 bc 4a 0d b3 bc
       0.006271418 -0.065697476 -0.022575941 -0.021856923
000250 ee 28 8c bd 54 71 be bd ce 5b 12 be 5a 05 5b bd
       -0.06843744 -0.092989594 -0.14292833 -0.0534719
000260 9d 8b 4f 3c a5 72 0f be fa 5c bf bb 1f 5f 97 bd
       0.012667564 -0.14008577 -0.005839941 -0.0739119
000270 56 78 85 bd b7 b7 25 3d b0 e4 1b 3e 5a c7 85 3d
       -0.06517093 0.040458407 0.15223956 0.06532164
000280 b6 30 d1 bd 26 35 87 3d db 08 65 bc 96 56 a4 3c
       -0.10214369 0.06601934 -0.013979162 0.020060819
000290 8a 8f aa bd 81 59 98 3d 75 d1 09 bd e0 31 aa 3d
       -0.08328159 0.074389465 -0.03364702 0.08310294
0002a0 21 95 cd 3d 83 e3 35 bc 99 bc 93 3c 52 c6 94 3d
       0.1003821 -0.011101606 0.018034266 0.07264389
0002b0 98 60 64 bb 05 fe d4 bc 1e 86 89 bc b0 68 8e 3c
       -0.0034847613 -0.026000032 -0.016787585 0.017383903
0002c0 84 de 9f bd 30 3c de 3d dc de d7 bd a9 fc 1a 3d
       -0.07806113 0.108513236 -0.10540554 0.03783861

gru.bias_hh_l0 f4 [180]
000000 9e 85 0f 3c 28 3e bb 3c d7 d2 d6 bd 57 47 07 3c
       0.008759884 0.022856787 -0.10489433 0.008256755
000010 bf 22 1c bd b7 79 0d be 7b 0d 91 3c c8 0d 05 3e
       -0.038119074 -0.13815962 0.017706623 0.12993538
000020 e8 d6 16 3e 4f 7c d8 bc 8f bd 69 3d 3a b3 bb bc
       0.14730418 -0.026426462 0.057065543 -0.02291261
000030 77 0b 8a bd b0 0d 43 3d cd 48 0f bc c7 78 d2 3d
       -0.06740468 0.047620475 -0.008745384 0.10276943
000040 c4 b9 76 bd 55 60 0c be 19 47 0c 3e 6c a1 02 3e
       -0.060235754 -0.13708623 0.13698997 0.1275689
000050 09 df 3c 3e a2 64 88 3d 39 2d 18 3d 03 60 da 3d
       0.18444456 0.06659819 0.037152503 0.10662844
000060 4f 21 65 bc 5d 40 0f 3d 1d ca 18 3d 25 9e dd bd
       -0.013984992 0.03497349 0.037302125 -0.10821179
000070 ff fc e6 3c 3c 8d e3 3d 6b c7 7b bc 68 d2 03 be
       0.02819681 0.11110923 -0.015367369 -0.12873232
000080 26 12 ee 3d 8d 44 68 3d 7d 47 ff 3d 03 bc 2d bd
       0.11624555 0.056706 0.12464807 -0.04241563
000090 49 41 9e 3d 73 4a 17 3e c4 8a d7 bd 48 7f 6e 3d
       0.07727296 0.14774494 -0.10524514 0.058226854
0000a0 0d 47 7c 3e 11 06 da bd a7 da 45 3d 15 c5 95 bd
       0.24636479 -0.10645688 0.048304226 -0.07312981
0000b0 05 26 0d 3e df 59 21 3e af 51 80 3d 52 9e a8 bb
       0.13784035 0.1575694 0.0626558 -0.0051458264
0000c0 cc b4 ba 3d 23 03 65 bd be 6f 03 3e 32 29 bd 3d
       0.091165155 -0.055911195 0.12835595 0.09236373
0000d0 c2 92 4b bd 34 dd 22 bd ba 49 ae bc 7a 57 1b be
       -0.049700506 -0.039761737 -0.02127539 -0.15170088
0000e0 b0 2f 15 bb ea b9 8c 3c e1 24 65 3e d5 17 15 bd
       -0.002276402 0.017178494 0.2237735 -0.03639968
0000f0 ad 91 3a 3d 42 8b 03 be f0 63 9e bd d1 37 01 bd
       0.045549084 -0.12846091 -0.07733905 -0.03154737
000100 27 de 50 3d f5 56 ac bd 70 31 99 3b b6 64 d7 bc
       0.05099311 -0.08415023 0.004675083 -0.02629314
000110 5a 8b 8d bd ac 7a b9 3e b8 18 21 be 04 95 0e be
       -0.06911345 0.36226404 -0.15732086 -0.13924032
000120 c6 62 f9 3d d2 84 4d be ac 33 4a 3e 10 36 0b be
       0.12177043 -0.20070198 0.19746274 -0.13594842
000130 a8 19 1f be 48 d8 56 3d ec 59 34 3c 62 41 53 3d
       -0.15537131 0.052452356 0.011007767 0.051576026
000140 1a c5 c8 3d e4 c9 e3 bd 8e 8a 2d bd 79 7d 4a bd
       0.09803219 -0.11122492 -0.042368464 -0.049436066
000150 4a 47 80 bd ae c8 44 3e 08 27 ca 3c 0b f7 02 be
       -0.06263597 0.19217178 0.024676815 -0.12789552
000160 41 56 48 bd 37 f2 2a 3e bd 45 1c 3e 6e c2 f1 3d
       -0.048910383 0.1669396 0.15260978 0.11804663
000170 df bf 46 3e 0d d1 d5 bd 80 a6 04 3d 0e 31 fc 3d
       0.1940913 -0.10440264 0.03238535 0.12314044
000180 86 6d 5c 3d 08 d7 eb 3d 24 72 11 3d 35 d7 06 3d
       0.053815387 0.11515623 0.035509244 0.03292008
000190 72 e0 70 3e 10 d7 7c bc 37 17 44 3e 8f c8 b4 3d
       0.23523119 -0.015432134 0.19149481 0.08827316
0001a0 63 a1 06 be 98 db bc 3c 29 45 9d bd 18 e9 42 3d
       -0.13147502 0.02305393 -0.07679207 0.047585577
0001b0 b1 ed 0a 3d 52 d2 bf bd 29 a3 f9 bd 72 17 5f 3e
       0.033918086 -0.09366287 -0.121893235 0.21786287
0001c0 c6 18 97 3d 41 15 c0 bd 1c b9 bf 3d 1b ca 2e bc
       0.07377772 -0.09379054 0.09361479 -0.010668303
0001d0 e3 8e 8d be 32 e5 94 3d aa ef 03 3e 78 d2 80 bc
       -0.27648076 0.07270278 0.12884393 -0.01572536
0001e0 b4 9b 19 be f2 1f 43 bd ce 76 46 3d 66 a9 66 3d
       -0.15000802 -0.047637887 0.048453145 0.056313895
0001f0 b5 5b 42 bd 21 5a 13 be 32 34 04 be 5a b2 28 3b
       -0.04745074 -0.1438985 -0.12910536 0.0025741071
000200 7d 5f e7 bd e0 25 0a bd 7d f3 60 bd 0d 1a 5d 3d
       -0.1129751 -0.033727527 -0.05491971 0.053979922
000210 b2 43 7a bd f4 0b f0 bd 6c 1d 27 3d a4 b3 7d 3d
       -0.061099716 -0.1172103 0.040799543 0.061938897
000220 b6 d4 13 3d e4 3e be 3c 0f 13 86 3c a5 84 25 3d
       0.03609153 0.023223348 0.01636651 0.040409703
000230 67 62 85 bd 16 b3 08 3e 1e 5b 09 3d 17 4f 85 bd
       -0.065129094 0.13349566 0.03353416 -0.06509226
000240 66 ad 43 3c d7 70 ee 3d 7b a4 bc 3d 7b 70 03 3e
       0.011943197 0.11642616 0.0921106 0.12835877
000250 64 a1 93 bd e5 6a 7d bd 06 6a 57 3c 3d cd 95 bc
       -0.07208517 -0.06186952 0.013147837 -0.018286342
000260 b9 f7 06 3c 2a 81 9c 3d 16 07 03 be a3 8a 7c bd
       0.008237773 0.076418236 -0.12795672 -0.06165565
000270 26 9e 99 3b ae 72 80 bd d7 ab 40 bd 80 1f c2 bd
       0.004688042 -0.062718734 -0.04703888 -0.094786644
000280 dd 45 9e 3d 0b 2d b1 bd 4c d0 bf bc ff d1 86 3d
       0.07728169 -0.086511694 -0.023414753 0.06583022
000290 27 c9 f3 bd f5 ae 62 bd 5d ff c7 bb 06 6c bc bd
       -0.11903601 -0.055342633 -0.0061034397 -0.09200291
0002a0 3b a2 e7 3b 1b 0d 94 3c 87 d7 bb ba ea 84 f9 3d
       0.0070689 0.018072655 -0.00143312 0.121835545
0002b0 6f f0 2d 3d 6c 7c 45 bd 3b 4e bc bd e3 8d 8f 3b
       0.042465623 -0.04821436 -0.09194609 0.004380928
0002c0 55 60 97 bd 65 77 a0 bd 07 a1 9c bd 73 a8 8d 3d
       -0.07391421 -0.07835273 -0.07647901 0.06916895
