mort_models/mort_deploy_week_42_3/fnp_enc.pt (torch, 762335 bytes, 64 tensors)

cond_trans.0.weight f4 [100, 60]
00000000: 446c 0d3d 3671 37be 7689 043e c6df 09be
00000010: b95d 893c 48a4 7fbd 7f44 18be 4c96 2bbc
00000020: 4040 00be a58f 1abe f106 7a3d 8416 f23d
00000030: 2fe6 e1bd 2a6b e73d e5af 623d 44f7 bd3d
00000040: 6631 16be a634 7c3d f09c 493d 5ec8 2fbe
00000050: 11b3 233e 40f6 75bd b6c1 4f3d 397a 57bd
00000060: 860b 1fbe 8fdc 0c3e a558 c83d 2c51 a1bb
00000070: 2fb0 8cbb 4ec9 4c3d dcce bdbd b35c 0b3e
00000080: 77e9 a13a 29a5 30be 8f2f 5fbd b53d d2bd
00000090: 5a9c 38be 92ff ce3c 5c0b 9b3d a7ae c2bd
000000a0: 6bfd 57bd a7cb d13d ce6c f63c 6993 6cbd
000000b0: 9b63 263c 9f13 17bd e284 edbb e183 efbd
000000c0: a26d 7a3e 5426 91bd ac82 873d effa 99bd
000000d0: 97b8 153d b570 a0bd 04d8 f7bd 1b57 c03c
000000e0: 655d 393c 8972 ac3d b7f9 143d e1a8 b13d
000000f0: b9c0 623d fc2d c1bd ece3 023e b5c1 9e3d
00000100: d90c b13d 9300 aabc 5dbf 98bd 3d66 26bd
00000110: 30cd f03c f12d 82bd 94ad 4d3d 7524 0dbe
00000120: 96dd 27be 2652 0abd 3870 343e 5731 683d
00000130: eb3f 03be 2224 673d 03c6 a4bd 1829 44be
00000140: 2e9a 73bc e897 813d 6bdb 813d f9c1 7d3c
00000150: 5661 213d 67c8 203d 99ed 01bd 9666 b43d
00000160: d7e9 81bd 3a05 5ebc dc70 07bd db8e 093e
00000170: 8212 053d 40d8 26be e455 d9bc 309d ddbc
00000180: e2db 80bc 921f a7bc 6bf4 023e 23d4 50bd
00000190: 368c 273e 213b 50be 3872 aa3d ae54 653d
000001a0: 3090 223e bd9d 0b3d 9152 dcbd 3631 35bc
000001b0: 3f94 eabc 1202 16be bf29 18be c596 8d3c
000001c0: 185a cf3d 559d 313a a92b 93bd 7b89 8a3d
000001d0: d6ec a13d 6a6d 30bd 4ef2 af3c 04d7 88bd
000001e0: 8a6e 01be 050e 5e3d 2861 f73d 7bf5 8d3d
000001f0: 800f 1fbe 18b8 2cbc fec1 d0bc 3c30 6cbc
00000200: 208e 103e 934c 14be bd95 5abd 42aa 6dbc
00000210: 272f 8dbd 191b 423d 0849 a6bd dbf9 67bc
00000220: f553 b63d 5e58 6bbe d635 79bd 814e 643e
00000230: 1a84 85bd 0d38 cc3d 04a4 20be 8cd0 743d
00000240: f113 67bd 8d24 dd3d f536 31be 772f 633b
00000250: 4bda 343e d4b5 f73b d63e 57bd 260b c53c
00000260: 73c9 1e3d aa4c 9fbd a436 2f3d 001d 8fbd
00000270: cb2c 4ebd f887 f5bd f416 a23c 9ace c03d
00000280: d38b 4abe 2b78 363e 0b2b 0f3e c6f2 c9bd
00000290: 98ce b5bd afe0 053e 93ad 65bd 0dd0 873e
000002a0: f742 1f3e e291 b23d 14bc e1bd 0a39 06be
000002b0: b99c 8fbd 9bd0 08bc ce1b 0fbd 0a45 15be
000002c0: 122d 13bc b5b2 92bc 34ef d3bc af89 fbbc
000002d0: 7fe0 4c3d 4559 8a3b 338c 98bd 1d7a cabd
000002e0: 0a46 b2bd 05bc 193d 7d37 dc3d 3fb3 073c
000002f0: 75d9 07bd 741a 523c a739 38bd f119 243d
00000300: c53b a3bc 8cee 59bd 715b d23d 22c5 cfbc
00000310: 745e aa3d 3eaa 13bc 3e19 973d 14d7 253d
00000320: 24c3 39bb 6048 56bc f603 d8bc dc4e 983c
00000330: ff94 6fbb 3e87 873d 370b ef3c 6362 66bd
00000340: c030 813d 4bd4 cf3c 8eb4 ea3d 70cb a93c
00000350: b736 843d f636 8c3d 6ec4 4a3d 3ed8 cbbd
00000360: e63a d13c 0fd4 45bd 4058 06bd 7326 a23d
00000370: aa66 f8ba fde1 493d a836 d7bc f6c1 a7bd
00000380: e3fd bb3d 1b92 bfbd c700 e13d 8c40 073b
00000390: 58e3 c5bd a6f1 7cbd 208b 793d aa2e 7cbd
000003a0: d043 b2bb 9de8 77bd a745 193d b96e ebbd
000003b0: ac7c ea3d bfc6 19be 9488 1e3d 5dc6 94bd
000003c0: acf8 f33d 3c25 ca3d 107a 9b3d 5060 18be
000003d0: 4c66 b1bd c635 f13d 2e9e cbbd 61e8 66bd
000003e0: 721f f93d 8e68 a53c ba56 97bd d320 3f3d
000003f0: 2b80 af38 64e3 42bd 1fa3 a43d e51d 213c
0.03452708 -0.1791428 0.12943062 -0.13464269 0.016768323 -0.06241253 -0.14869879 -0.010472845
-0.1252451 -0.15093859 0.061041776 0.11820701 -0.11030232 0.11299737 0.055343527 0.09275678
-0.14667282 0.061573647 0.049221933 -0.17166278 0.15986277 -0.060049295 0.050721847 -0.052606795
-0.1553174 0.13756011 0.097825326 -0.0049230065 -0.0042934637 0.049996667 -0.09267971 0.1360958
0.0012352903 -0.17250504 -0.054488715 -0.10265676 -0.18028393 0.02526835 0.07570526 -0.095059685
-0.052731913 0.10243922 0.030081179 -0.05775777 0.010155584 -0.036883947 -0.007248507 -0.11695076
0.24455884 -0.07087389 0.066167206 -0.07518565 0.03655299 -0.07833997 -0.121017486 0.023479035
0.011313771 0.08420283 0.03637096 0.08674789 0.055359576 -0.09432599 0.12782258 0.077517904
0.086450286 -0.020752227 -0.07458375 -0.040624846 0.029394716 -0.06356419 0.050214365 -0.13783439
-0.16393122 -0.03376975 0.17620933 0.05668768 -0.12817352 0.056430943 -0.0804558 -0.19156301
-0.014868302 0.06327802 0.06340679 0.015488141 0.039399467 0.03925362 -0.03172073 0.08808629
-0.063434295 -0.013551051 -0.033066615 0.13433401 0.032488354 -0.1629343 -0.026530214 -0.027052492
-0.015729848 -0.020400796 0.1278855 -0.05098356 0.1636208 -0.20335056 0.08322567 0.05598896
0.15875316 0.034085978 -0.10757936 -0.011059096 -0.028635142 -0.14649227 -0.14859675 0.017283807
0.10124606 0.00067754585 -0.07186062 0.067645036 0.07906501 -0.043073095 0.021477845 -0.06681636
-0.12639824 0.05421259 0.12079078 0.06931587 -0.15533257 -0.010541938 -0.025483128 -0.014415797
0.14116716 -0.14482336 -0.053365458 -0.014505925 -0.06893759 0.047389124 -0.08119398 -0.014158691
0.08902732 -0.22982928 -0.060842358 0.22295572 -0.06519337 0.09971628 -0.15687567 0.0597692
-0.056415502 0.10797987 -0.1730612 0.0034665742 0.17661397 0.0075595174 -0.05255016 0.024053168
0.038766336 -0.077782944 0.04277672 -0.06987953 -0.050335687 -0.119888246 0.019786336 0.09414406
-0.19779901 0.17819278 0.13981263 -0.098607585 -0.08877295 0.13073991 -0.056073736 0.26525918
0.15552889 0.08719231 -0.11022201 -0.13107696 -0.07012314 -0.008350517 -0.034938626 -0.14577118
-0.008982914 -0.01790748 -0.025870897 -0.030705301 0.050018784 0.0042220675 -0.07448616 -0.098865725
-0.08704765 0.037532825 0.10752771 0.008282482 -0.033166368 0.01282369 -0.044976857 0.040063802
-0.019925961 -0.05320601 0.10271347 -0.025362555 0.08318797 -0.009012757 0.073778614 0.040488318
-0.0028345073 -0.013078779 -0.026369076 0.01859229 -0.0036557314 0.06617592 0.029180152 -0.056246173
0.063081264 0.025369784 0.11460219 0.02072689 0.064557485 0.068464205 0.049503736 -0.09953354
0.02554078 -0.048297938 -0.032799006 0.0791749 -0.0018951495 0.049287785 -0.02627118 -0.08191292
0.091792844 -0.09354039 0.109864764 0.0020637838 -0.09662503 -0.06175389 0.060923696 -0.06156794
-0.005440213 -0.06052457 0.03741994 -0.11495728 0.114495605 -0.15017222 0.03870447 -0.07264397
0.11912665 0.09870383 0.07591641 -0.1488049 -0.0866209 0.117778346 -0.0994228 -0.056373958
0.12164201 0.020191457 -0.07389589 0.046662163 8.3685234e-05 -0.047580138 0.080389254 0.009833788

cond_trans.0.bias f4 [100]
00000000: 0f6c d63d 4fab a9bd 5580 35bd a0d0 58be
00000010: 7490 18bd 7397 893d 4200 05be fc1b 033e
00000020: b45b cdbd 8d45 173e a888 423d 02d8 03bd
00000030: a720 b5bd 2dee dabc b2b2 fbbd 83b2 2fbd
00000040: b7fd b1bd 21e3 3fbe 15d0 80bd d9b5 c93d
00000050: 344a 93be 041d 5abd e860 aabd d6e6 a4bd
00000060: 8c58 b13d 96d2 abbd 9783 d7bd 112b 903c
00000070: 3cf1 ec3c 2f3b 84bd a8c7 01be 4ebc 0e3e
00000080: 9853 e13d 80f2 3fbd 12ac 31be e458 a53d
00000090: fea0 c43d 0c2e c33c a99e c93c 3ee9 1abe
000000a0: 8989 43be 7ea1 1cbe 42d5 76bc 8fe6 663d
000000b0: 2b44 2bbe 4c7e 243d 0f87 2fbe f3b4 8dbd
000000c0: 369b 91bd b7a9 25be 9fba 343e a95d 27be
000000d0: 20d9 fcbd e635 40bd b8f0 5abd 15c5 b2bd
000000e0: 8b15 083e f341 c2bd c72b f43a d68a f23d
000000f0: 34c5 a9bd cd2a e3bd 0570 943c 0b8f f4bc
00000100: f0f1 6a3d 87d9 6b3c ca36 47bd 8cbd ecbd
00000110: 4bf5 3bbe 483d b33b 57e7 3cbd 4c0e c23d
00000120: 30c0 8c3d 93be 41bd 7b67 56be 5ad3 d7bd
00000130: 2033 02bd 6b2b 0abe a0ee bf3d 3aaa 22be
00000140: a2cb 3dbe 77c1 c2bd 8a41 593d b937 09be
00000150: 50ad a23c a7a4 5ebd 70c7 3ebd d211 48be
00000160: afae 153d 9da8 cdbd 5d72 e9bd 003b 27be
00000170: 81f3 3dbe 01a2 ae3d 33ec 35be 604f 8bbd
00000180: 3173 2f3d 5b61 8b3d 765a 3abe 0784 1abe
0.10469829 -0.08284628 -0.04431184 -0.21173334 -0.037247136 0.0671834 -0.1298838 0.12803644
-0.100272566 0.14772625 0.047493607 -0.032188423 -0.088441186 -0.0267249 -0.12289943 -0.04289485
-0.086909704 -0.18738987 -0.062896885 0.09849138 -0.2876755 -0.053250328 -0.08319265 -0.08051841
0.08659467 -0.083897755 -0.10523146 0.01759866 0.028923623 -0.06456601 -0.12673819 0.1393902
0.11002272 -0.046862125 -0.17350796 0.08073595 0.09601019 0.023825668 0.024611788 -0.15128037
-0.19095434 -0.1529598 -0.015065493 0.05637222 -0.16725223 0.04015951 -0.17141365 -0.06919279
-0.07109682 -0.16178022 0.17649315 -0.16344322 -0.12346101 -0.0469264 -0.053452224 -0.08728997
0.13289468 -0.09485235 0.0018628769 0.11842887 -0.08289567 -0.11092148 0.018119821 -0.029853364
0.057359636 0.014395124 -0.048636235 -0.11559591 -0.1835529 0.005469952 -0.04611906 0.09475383
0.06872594 -0.047300886 -0.20937912 -0.10538359 -0.031787038 -0.13493125 0.09371686 -0.15885249
-0.18534711 -0.09509557 0.05304102 -0.13400163 0.019858032 -0.054356243 -0.046576917 -0.19538048
0.036543544 -0.10041926 -0.11398766 -0.163311 -0.1854992 0.085269935 -0.17765884 -0.06802249
0.042834464 0.068056785 -0.1819857 -0.15089427

cond_trans.2.weight f4 [100, 100]
00000000: 961e e53b 8cc8 c7bd 897f 6ebc b73c a9bc
00000010: 3c16 d13d 82d4 ebbd 84cf 3a3e b000 7dbd
00000020: d91d 89bd 1524 2fbd a737 9b3d 0a71 f43c
00000030: d2c3 2bbe 45f1 883d eb92 893b 1138 8abd
00000040: 5949 313d 3703 a23d 7595 6f3d 61fe fb3c
00000050: 5b17 f5bd 0de9 443d ce5c 2fbd e375 3ebd
00000060: 5c7f 0d3c 4d4c 8dbd 93b0 693b 4310 a0bd
00000070: 9b5f 5fbd 22e4 083d 04de 713d b470 fa3c
00000080: 4f73 0abe 1708 54bd 41c8 bf3d b5cb abbd
00000090: 975a c73d 3ce4 193c d1a5 b7bb 15c1 a23d
000000a0: 031c 813d e8c5 bb3c bcae 08be 2dd6 6a3d
000000b0: 6e4d 243d 4c54 2dbe a5c1 82bd 9711 aa3d
000000c0: e387 8c3c 4cdf 8e3e 0750 bbbd 56cc 1f3a
000000d0: 9659 97bc 48cb 63bd ba61 c1bc 3c94 e3bd
000000e0: 6f36 92bd a269 e9bb 6175 2ebe 3519 633d
000000f0: b06a 0e3e cbf5 87bd 7e76 bcba 2edf 67bd
00000100: d5ae d93c 2387 22bd cbb9 12bd 0bcf 193e
00000110: ecb6 7cbd b0c5 943c 2dc0 9e3c 5c6c f5bb
00000120: a6cf 6dbc 7b56 66be 9b5c 60be 1641 dfbd
00000130: bed0 29bc f2a6 d8bd 0355 3abd 8c7e 143d
00000140: b3d0 1bbb 34a0 fe3c a4d6 42bd c70f ffbd
00000150: d07f 19be 2fef 063c 9ede f73c 607f 453e
00000160: 43ed 3f3d a62a 05be 13df a6bc 2302 343e
00000170: 098b 493d 5542 08be 4687 e4bd 6485 c53d
00000180: 4d77 38bd f665 933d 94a6 5ebe e853 12be
00000190: bee7 4a3d e62b 76bd d193 12bd 116d c2b9
000001a0: 11ef 243d 385f b73b e66f fdba 58dd 093c
000001b0: db39 b3bd 7bf0 9abe fd4e ecbc 0132 eb3d
000001c0: b4c7 ddbd fdb8 633c 9884 34be 95ae ebbc
000001d0: 434e a0bd e702 c03d ceca 56bd a243 933d
000001e0: 392b 203e be46 b0bd 02f2 09be 24a0 93bd
000001f0: f8f4 99bd 4839 ab3d 0d49 96be de4f 873c
00000200: 12e7 813d fbb0 723e 5fb3 60be 3629 debd
00000210: e1c9 153d edd1 4b3c ceee 2abe 806d 4abd
00000220: 1af4 353a 8f92 d9bd b1f3 dbbc aabf 50bc
00000230: be86 023e c8d8 a03c e0f6 e3bd 48a6 4abd
00000240: fb8e cd3d 46c0 8abd d1ed 52be f614 403e
00000250: 431c 013d 19b9 a33e 6ab7 e0bd 3265 223d
00000260: 766a fd3d 18ce 323e 233d b1bd 8f3c 99bd
00000270: e745 d53d 2b0a 16bd 923c 253c ad57 e13d
00000280: 3ed5 f5ba a53d 523c f3f4 423c b08a 2a3e
00000290: 6602 26bc 7a9d d0bd 6d4e 26bd d09d 1bbe
000002a0: c85c f5bd 1c9f 923d 9eaa 98bd ed43 1f3d
000002b0: 120c 70be a111 5ebb 4aec 103e 2969 0dbc
000002c0: c3ce 8a3c 9a8d 733e c595 2abe bab0 3a3d
000002d0: 8453 80be 55c5 1a3d 4a2c 5cbc 2109 12bd
000002e0: c1b0 d3bc dbf0 4cbe 60f6 ba3d b46e 303e
000002f0: 0975 60bc df18 883d f171 843e 4aa2 8dbc
00000300: 01c0 17be 1904 7dbc 9bb7 f33d 2e7b 83bd
00000310: 63d4 5bbd ec78 bebd 427a 26bd d406 8bba
00000320: 6651 243d d18c 713d 1b0b 833d a180 a43d
00000330: cdf3 dfbd 128b 6cbc c8dd af3d 730a 36bc
00000340: a7e2 88bc 0fe1 d5bd 7f04 8bbe bc92 cbbd
00000350: 6ec2 a53c e7d3 97be 6b60 8fbe c0ee 063e
00000360: 8cfa d13e 4394 f2bd 670d 4ebe f1a2 e93d
00000370: 3350 dabd 6b34 f3bb d863 953d a123 99bd
00000380: 8552 b6bc 059a 57bd 324e a53d f1ac 5ebd
00000390: e7f3 8b3d 1413 80bd 689a 213e 9b5a b6bc
000003a0: 340d 2abe c9cc e5bc 9646 5abe e114 30bd
000003b0: 2310 08be c139 18bc f258 513c 5410 813e
000003c0: df99 27bb 41fc 22bd 70e9 02bd 124a 39bd
000003d0: 84db 9b3c a5c3 d33d 8a28 25bd 41d6 94bd
000003e0: 9030 11be d680 613d 20c4 6c3d 2324 f1bd
000003f0: 76d5 c33d a98d d9ba b7e8 313e d34c 473d
0.0069921715 -0.09755048 -0.014556774 -0.020658834 0.10209319 -0.11515142 0.18243223 -0.061768234
-0.06695146 -0.04275902 0.07578974 0.029839057 -0.16773918 0.066866435 0.004198422 -0.06748975
0.04328284 0.079107694 0.058492143 0.030760946 -0.11967345 0.048073817 -0.042813115 -0.046499144
0.008636322 -0.06899319 0.0035658225 -0.07815602 -0.054534536 0.03342069 0.05904962 0.03057132
-0.13520549 -0.051765528 0.09364367 -0.083884634 0.097340755 0.009392794 -0.0056044837 0.07946984
0.06304171 0.022921517 -0.13347906 0.05733316 0.040112905 -0.16926688 -0.06384591 0.08304136
0.01715464 0.27904737 -0.091461234 0.0006095817 -0.018475335 -0.055613786 -0.02360617 -0.11112258
-0.07139289 -0.007123188 -0.17036964 0.05544396 0.13907886 -0.06638678 -0.0014378575 -0.056609325
0.026572624 -0.039679658 -0.035821717 0.15020387 -0.061697885 0.018160671 0.019378746 -0.007489724
-0.014514839 -0.22493927 -0.21910326 -0.10901086 -0.010364709 -0.10578717 -0.04549123 0.036253497
-0.0023775517 0.03108225 -0.04756798 -0.12454181 -0.14990163 0.008235737 0.03025752 0.19286871
0.04685713 -0.1300455 -0.020370042 0.1757894 0.04920486 -0.13306554 -0.11158614 0.09644583
-0.04503565 0.07197182 -0.21743232 -0.1428982 0.049537413 -0.06010046 -0.0357855 -0.00037083824
0.040267054 0.0055960678 -0.0019335716 0.008414589 -0.087512694 -0.30261597 -0.028846258 0.11484147
-0.10829106 0.013899085 -0.17628706 -0.02876977 -0.07827427 0.093755536 -0.052439503 0.07190634
0.15641488 -0.08607243 -0.13471225 -0.07208279 -0.07517427 0.08360535 -0.29352608 0.016517576
0.06342901 0.23700325 -0.21943425 -0.10847704 0.03656948 0.012440187 -0.1669266 -0.049420834
0.0006940976 -0.10623657 -0.0268496 -0.012741009 0.12746713 0.01963462 -0.11131072 -0.049474984
0.10037037 -0.067749545 -0.20598532 0.18757996 0.031521093 0.31977156 -0.109724835 0.03964729
0.123738214 0.17461431 -0.08654239 -0.07482254 0.104137234 -0.03663079 0.010085242 0.11003051
-0.0018755568 0.01283208 0.011899221 0.16654468 -0.010132408 -0.10186286 -0.040602136 -0.1519692
-0.11980587 0.07159254 -0.07454418 0.03888314 -0.23442104 -0.003388502 0.14152637 -0.008631029
0.016944295 0.23784485 -0.16658695 0.045578696 -0.25063717 0.037785847 -0.013438294 -0.035653237
-0.025841119 -0.20013754 0.091290236 0.1722973 -0.013699778 0.06645369 0.2586818 -0.0172893
-0.14819337 -0.0154428715 0.11900254 -0.06419979 -0.053669345 -0.09300408 -0.040643938 -0.0010606893
0.04011669 0.058972184 0.063986026 0.080323465 -0.10935173 -0.014437454 0.08587223 -0.01111089
-0.016709639 -0.10443317 -0.27151868 -0.09940097 0.020234313 -0.29653856 -0.2800325 0.13177013
0.41011465 -0.11844685 -0.201223 0.11408032 -0.10659828 -0.00742202 0.07294434 -0.07477499
-0.022256145 -0.05263712 0.08071555 -0.05436415 0.0683363 -0.06253639 0.15781558 -0.02226
-0.16606599 -0.02805175 -0.21315989 -0.04298866 -0.13287406 -0.009291113 0.012777554 0.2520777
-0.0025573892 -0.03979135 -0.031960905 -0.045236655 0.019025572 0.103400506 -0.040321864 -0.07267428
-0.14178681 0.05505451 0.057804227 -0.11774471 0.09562199 -0.0016598004 0.1737393 0.04865725

cond_trans.2.bias f4 [100]
00000000: b2cc 46bd baf8 d0bc 851c f7bd ed5e 4fbd
00000010: bbc4 e23b c467 8c3d 5a90 04bb af75 a83d
00000020: 5b44 abbd ce3b 6d3d f2e0 9cbd cbbb bf3d
00000030: 66ed f1bd 1cc0 ad3d b2bf 1c3c b83d 1ebd
00000040: 4b85 85bd 59f2 c5bb 756a d53d aef0 2c3d
00000050: 62dd 45bd 5d8d a3bd 8b81 98bd 2665 61bd
00000060: 5025 993a bdf5 073e 3329 45bd c306 073d
00000070: d569 8e3d befe aebd 6e4e 933d f700 ac3d
00000080: c68e afbd dafc 64bd 369a 923d 788e 31bd
00000090: 3eeb 4b3d f9eb b0bb 3bbf 5e3e 7fe8 dc3d
000000a0: 2cb9 e0bd 5f2c d2bd e334 ddbd 7317 56bd
000000b0: 131e 1fbc ca6b 0b3d 6d3d e8bd 0d9d 2fbd
000000c0: bb37 7bbc b6a5 ea3c 38f8 23bc cea6 f23d
000000d0: 9379 17bd 9123 e6bd 8281 a8bd e1cc a93b
000000e0: c7a5 bd3d 500f c1bd 831d e1bd a2db 673d
000000f0: 07ae 063e 6101 033d bfad 1f3e d6e5 7bbb
00000100: 54cb 9bbd b902 03be 8382 fcbd 6506 d9bd
00000110: 7cd3 203d 1e07 fcbd 485f 693b ec7c 8abc
00000120: 4764 5e3d 2dfd 8438 ba65 863d 57d9 4bbd
00000130: dec6 8cbd 9764 acbd e1fd a73d 9af4 173e
00000140: 87d8 e6bd b494 a0bc ae2d bd3d ae4a 0b3d
00000150: 59d1 da3c 221a dc3d 41ee b13d 4d12 9ebd
00000160: 50ae b4bd f88c ae38 5cd0 213d 21e4 993d
00000170: 48dd 1cbd d594 7ebd f3d7 c2bd 07d7 e1bb
00000180: 9b1c b53d 9b14 75bd 83ae 523d 0a77 5f3d
-0.048535056 -0.025509227 -0.120659865 -0.050627638 0.0069204248 0.06855729 -0.0020227642 0.08225571
-0.08362647 0.057918362 -0.076600924 0.093619905 -0.11812858 0.084839076 0.009567188 -0.03863308
-0.06519564 -0.006040853 0.10420696 0.042221718 -0.04830683 -0.07985947 -0.07446583 -0.055028103
0.0011684094 0.13277335 -0.048134994 0.032965433 0.069537796 -0.08544682 0.07192694 0.083986215
-0.08572154 -0.0559052 0.0715832 -0.04334876 0.04978489 -0.005399224 0.21752636 0.107865326
-0.10972819 -0.10262369 -0.10801103 -0.052268457 -0.00971176 0.034038343 -0.11339841 -0.042874385
-0.015333111 0.02864347 -0.01000791 0.11848222 -0.036981177 -0.112372525 -0.08227827 0.005181894
0.09260135 -0.09426749 -0.10991957 0.056605943 0.13152324 0.031983737 0.15593623 -0.0038436553
-0.07607141 -0.12794007 -0.12329581 -0.10596923 0.039264187 -0.12306045 0.003560977 -0.01690527
0.05429485 6.341408e-05 0.065623716 -0.04976782 -0.068738684 -0.084176235 0.082027204 0.14839402
-0.11271768 -0.019602157 0.09237228 0.034006767 0.026711153 0.10747172 0.086880215 -0.07718334
-0.0882231 8.323224e-05 0.039505348 0.07514215 -0.038296968 -0.062153656 -0.09513845 -0.0068920883
0.08843347 -0.059834104 0.05143596 0.054556884

cond_trans.4.weight f4 [100, 100]
00000000: 829c 433d c645 a63c 3fa6 18bd 1b75 94bd
00000010: 808c e0bd 07c0 f1bc dd26 833d 52e7 c9bd
00000020: e5b0 7d3d cbf3 53bd 0edb 8e3d 1480 c0bd
00000030: 7aa2 9f3c 87a8 a43d 1fe3 843d 88fa a0bd
00000040: e7ac b5bc 82ee 663d 7fa8 93bd 0cbe 983d
00000050: 022e b3bd 64a5 3bbd 18e9 c2bd 1a0a 773c
00000060: 17a5 95bc 45bf 523d 808a 4f3d 9133 013c
00000070: d8d8 6d3d 184b 20bd eabd 473d 89d5 3a3d
00000080: 9370 e8bc 07aa a83d 8f87 8d3c c542 45bd
00000090: ad32 933d 6f59 063d b3dd bcbd 8e00 c73c
000000a0: 1abe 793c a42e 40bd 7027 5e3b 1ac0 acbd
000000b0: e0ff a6bd 4f36 44bd 0d91 7f3d 9146 c53c
000000c0: e4a8 18bd 82a7 b8bd 164a 6dbd 7bda febd
000000d0: 7b34 41bd 0d8b d23d bc55 823d 01bf b5bd
000000e0: d08c b0bd 8971 9abd fc30 603d c5db cd3b
000000f0: 01cf 513d 21f2 2fbd 743b 9cbc 73d8 823d
00000100: ba81 9abd a323 c9bd 8333 993c 1aef 313d
00000110: d693 b23d b57f b7bc c67a 043d 6344 cebd
00000120: a091 1a3d 14b2 35bc 9e19 a2bd 0303 46bd
00000130: aa3b cebd a309 883d 7b56 50bd a07c 5ebd
00000140: b6b5 5f3b 175c 17bd 12fb 903c fd6c 6bbd
00000150: 1225 d5bd a588 63bc 6f0b c7bc 71b8 9a3d
00000160: 516d 1bbc e807 383d 288b d0bc c8cb 8fbd
00000170: fa1c 3abd bbaf 05bd cb94 c4bd 9267 f0bb
00000180: 4cd4 a2bd ef70 1abd 9d13 bbbd af93 b33c
00000190: b22e 9c3d 37fb dabd 269b f7bc 7bc5 f5bd
000001a0: 6702 e6bd b663 21bc 091f 35be 3a7b c63d
000001b0: b303 c8bc a316 50be 7728 e7bc 47a3 153d
000001c0: 50b5 13be 50f1 8f3c 8cb2 8d3c 38e3 1abe
000001d0: b8b5 ff3d 17e5 b83d 7ce4 1d3e 1977 b53d
000001e0: e4c3 38be 6db6 2c3d f7a2 4bbc 0af9 5a3c
000001f0: e5fe cdbd 5356 f6b8 ae6b 59bd c87e 993d
00000200: cbd8 35bc c985 153e 6587 223e 9e66 cd3d
00000210: dfbf 903a b2de f03c b565 1bbe 44bc a33d
00000220: 5040 e3bd 49cd 193e 46e7 943d a15b be3d
00000230: 27b4 2b3c 2697 3cbd 97a1 83bb 531c 023d
00000240: fed7 983d 8e58 56bd a072 9cbe 97e4 01be
00000250: 233c 8cbe 4943 9b3d e819 d43d 33e5 013e
00000260: 2818 a1bd 16b3 7d3d 81bd 8e3d 1a6d 8b3c
00000270: 41f9 30bc 4d23 babd f131 ee3c 1470 083e
00000280: 1923 233e 818b a53d beab 323e 1385 bf3c
00000290: fe5c 0fbe 9937 503d 2712 7f3d ca02 a33c
000002a0: 9cd4 ba3b f01b bc3d 478d 533c 5d63 64bd
000002b0: dce0 28bd 5b2f 6abe 0dd2 a43d b1e4 c3b9
000002c0: 2be0 a93d 1262 d9bd 3547 c7bd 51bf 443e
000002d0: 2e0f 963d 9154 c73b ed5e 1b3c ea20 31bc
000002e0: bada 063d 6315 7b3d 8ffe 363e 59f3 d5bb
000002f0: d3d8 c73d 542f 2e3e 000d 263e 4180 563e
00000300: 498e 46be 4d3d 3e3d f39f 19bd a13e 9d3e
00000310: 1313 ac3e 0fdf adbd 9a8e 4dbe ead5 863b
00000320: f025 ba3d bb80 2dbe 6af0 0b3e cac6 423e
00000330: 4193 5b3d 9c61 a13c 3784 9a3d c489 123d
00000340: 96d4 8dbd d7da 693e eb71 013e 16e5 98bd
00000350: f320 79bc 0bde 673b 52ec b43d 1db7 903d
00000360: a58c 76be d7ae c03c 8d8a 00be 3282 60be
00000370: 8cc3 303e bedf 513d 17bd 2bbd a5d9 c23b
00000380: edfa 023e 468e 0fbd bccd a9bd e403 09bd
00000390: f4b7 f93d 6ee1 18be c91b c4bd ba45 fdbd
000003a0: 182c c2bd cfff ef3d 9574 d03e 0dad 4fbd
000003b0: e01a 763d 3957 873d 5e74 58bd 153d c73d
000003c0: 2231 bc3b fee3 993d 6a8d b3bd 431b 25bd
000003d0: f173 e4bd 8817 963d a0e3 ca3e 9dda 773e
000003e0: 4cbb 793e e54a 143c b780 063d 7204 b03d
000003f0: 55ce 023d 4b9c a7bd 9808 f13d d544 653d
0.04775668 0.020296942 -0.03726792 -0.072488986 -0.10964298 -0.029510511 0.06403897 -0.09858574
0.061936278 -0.05174617 0.06975375 -0.09399429 0.019486655 0.080399565 0.064886324 -0.07860285
-0.022177173 0.056379803 -0.072098725 0.074581236 -0.0874901 -0.045812026 -0.09517115 0.015078092
-0.018267198 0.05145194 0.050669193 0.00788583 0.058068126 -0.039134115 0.0487651 0.0456138
-0.028373992 0.08235555 0.017276553 -0.04815938 0.071874 0.032800134 -0.09221973 0.024292257
0.015243078 -0.04691948 0.0033898018 -0.08435078 -0.08154273 -0.047903355 0.06239419 0.0240815
-0.03727044 -0.090163246 -0.057931982 -0.124440156 -0.04716919 0.10280428 0.06364009 -0.08874322
-0.08620608 -0.07541186 0.054734215 0.006282302 0.051222805 -0.04295552 -0.019071318 0.06388941
-0.07544275 -0.0982125 0.01870132 0.043440916 0.08719604 -0.022399763 0.03234365 -0.100716375
0.037736535 -0.01108982 -0.07915042 -0.048342716 -0.10069974 0.06642463 -0.050863724 -0.05431807
0.0034135408 -0.036953058 0.017697845 -0.057476986 -0.10407461 -0.013887559 -0.024297444 0.07554711
-0.009486512 0.044929415 -0.02545698 -0.0702129 -0.04543779 -0.032638293 -0.095986925 -0.0073365653
-0.07950649 -0.037705358 -0.091346 0.021921007 0.07626094 -0.10692447 -0.030225348 -0.12000557
-0.11230927 -0.009850433 -0.1768762 0.09691472 -0.024415826 -0.20321135 -0.028217537 0.036532667
-0.14424634 0.017571121 0.017297052 -0.1512574 0.12485832 0.090280704 0.15419191 0.08860607
-0.18043476 0.042166162 -0.012428991 0.01336504 -0.10058383 -0.00011746273 -0.053081207 0.07494885
-0.011099051 0.14601816 0.15871961 0.10029338 0.001104351 0.029403064 -0.15175517 0.07994893
-0.11096251 0.15019716 0.072706744 0.092948206 0.010479963 -0.046042584 -0.0040170657 0.031765293
0.07463072 -0.052330546 -0.30556202 -0.12684856 -0.2738963 0.07581193 0.10356504 0.12685089
-0.078659356 0.061938368 0.06969739 0.017019797 -0.010801614 -0.09088764 0.029076548 0.13324004
0.15931357 0.08083249 0.17448327 0.023378884 -0.14000317 0.050834272 0.06227317 0.01989879
0.0057016145 0.09185016 0.012912101 -0.055758823 -0.041230068 -0.22869627 0.080478765 -0.00037363687
0.0829471 -0.106144086 -0.097303785 0.19213606 0.07327114 0.006083079 0.009483081 -0.01081107
0.032923438 0.061299693 0.17870544 -0.0065292534 0.09758153 0.17010242 0.16215897 0.20947362
-0.19390215 0.04644518 -0.037506055 0.30711845 0.33608302 -0.08489811 -0.2007393 0.004114856
0.09089267 -0.16943638 0.1366593 0.19021145 0.05360723 0.019699864 0.07544749 0.035775915
-0.06925313 0.22837387 0.12641113 -0.0746557 -0.01520561 0.003538015 0.08834137 0.07066176
-0.24077089 0.02352087 -0.12552853 -0.21924666 0.17262095 0.051238768 -0.041928377 0.0059463554
0.12791033 -0.035047792 -0.08291194 -0.033450976 0.121932894 -0.14929745 -0.09575612 -0.12366815
-0.094810665 0.117187135 0.40713945 -0.050702143 0.060084224 0.06608433 -0.05284535 0.09728447
0.005743162 0.07514189 -0.08767207 -0.040309202 -0.111549266 0.07328707 0.3962679 0.24204488
0.24387854 0.009051059 0.032837596 0.08594598 0.031935055 -0.081841074 0.11769217 0.055973846

cond_trans.4.bias f4 [100]
00000000: 8a45 473c 7085 093e c589 30bc 0072 633d
00000010: 6af0 b83c c856 1c3e e95d a5bd b6d1 033e
00000020: 4608 84bd 8d9a 593e ed53 3b3e 7ebe 31bd
00000030: cd80 84bd 5b04 9dbd 8632 7bbd 7104 9e3d
00000040: 9191 d73d 4b94 403d b170 9f3e cb25 093c
00000050: c64f 0e3c 4891 9d3d 8819 ef3d e430 ccbd
00000060: f427 b23b b7af dcbd 112e f0bc b243 3ebd
00000070: 2c6f 133d 2590 d13d 57a7 c43c d2db 5c3d
00000080: 5c3e 87bd 5324 cb3d 3395 103e 53c8 b3bc
00000090: 46eb dc3d bb5d 873e f8ee 003d f991 b73d
000000a0: 69b7 893b c6ee 5e3d 1a8e 6c3c 8b21 dfbd
000000b0: 708b c1bd 268a cabd 0c6e 7bbd 5b66 dcbd
000000c0: cb15 0b3e a756 433d 0c03 143e 3fe6 92bc
000000d0: 40ff 4bbd f2a4 77bd f473 a93d 6bb5 523e
000000e0: 0d72 3cbd c899 7f3d f0f2 033e 2311 ea3c
000000f0: 89f6 47bd 8f33 4a3d a23c babd 19f3 043e
00000100: 880d 283e 0b3a 6a3e 73d8 f2bc ab9e 19bd
00000110: a4fa 893e 9ef1 babd a9bc d1bc 7807 c23d
00000120: 007b cebd a883 d9bc ae57 f33d 4bdc 04bd
00000130: 90b9 83bd 44b5 b03c f07e 81bc 399b eb3c
00000140: 4158 06bc d324 dfbd 1495 2d3d d72a 9b3c
00000150: 117a b6bd ea5f f1bc 7910 05be eb04 9e3c
00000160: 63b0 c73e 9589 ce3d cacc 93bd 3c98 e53b
00000170: a9ec a8bd ad5d 353d 8110 943d 65df 143e
00000180: 9d6c 6e3d 8947 b43c 7481 693e ea76 fc3c
0.0121625755 0.13429809 -0.010775034 0.05552864 0.022575576 0.1526748 -0.080745526 0.12872967
-0.064468905 0.21250363 0.18293734 -0.043394558 -0.06469879 -0.07666846 -0.06132748 0.07715691
0.105258115 0.047016423 0.31140664 0.008370827 0.008686012 0.07693726 0.116747916 -0.09970263
0.0054368917 -0.107757024 -0.029318841 -0.046451278 0.035994694 0.102325715 0.024005575 0.053920574
-0.06603691 0.09919038 0.14119415 -0.021946108 0.10787062 0.26438698 0.0314779 0.08963389
0.0042027724 0.05442693 0.0144381765 -0.1089507 -0.09450424 -0.09889631 -0.061384246 -0.1076171
0.13582532 0.04769006 0.14454287 -0.017932056 -0.049803972 -0.06046004 0.082740694 0.20577018
-0.046007205 0.062402517 0.12885642 0.028572625 -0.0488191 0.049365576 -0.09093596 0.1298336
0.16411412 0.22873704 -0.029644227 -0.037504833 0.26949036 -0.09128116 -0.025602655 0.09474081
-0.10082054 -0.026552036 0.11881958 -0.03243665 -0.064318776 0.02157081 -0.015807599 0.02876054
-0.008199752 -0.108956955 0.0423785 0.018941326 -0.08910001 -0.02946468 -0.12994565 0.019289454
0.3900176 0.100848354 -0.07216795 0.007006673 -0.08248264 0.04427879 0.0722971 0.14538343
0.05820905 0.022006767 0.22803289 0.030818421

p_u.weight f4 [120, 100]
00000000: 182b 9e3c 29fd 17be 7146 743e 09fb e7bd
00000010: 524b 523e 4351 82be d638 fd3c cb7f 6bbe
00000020: 4cbf 9ebd ad12 0dbd 570a a53c 18d6 cc3c
00000030: b502 89bd 606a eebc a709 d2bd b751 a53e
00000040: 51d1 f23d e6d6 5c3e 70ec a9bc 1bdd 413d
00000050: 1f01 bebd 5d54 5cbe 6e83 3cbd 05ee 3cbd
00000060: 0a07 853d ae5f 073d 9147 debc 0cb8 893d
00000070: d699 a3bd 22bc 43be 4a20 8f3e 9349 213e
00000080: b779 873c fdfd 973c 6a66 8cbd efc8 afbc
00000090: aac6 92be 2701 a2bd 9284 173d 1f9c c93c
000000a0: b84b 2cbe c917 423b cdda b0bd afd9 d33c
000000b0: 1d63 003d 599a 9abd 0af4 dcbd 92d2 02bc
000000c0: 9af8 f7bd f66b 913d 096c 8bbc 187d bebb
000000d0: 697e 173d f7e8 8f3c 1898 953d 6d9e 993d
000000e0: c1a3 8abd 630b 413e f1dd ef3d 020d 423e
000000f0: 8856 a4bd cf4f 513e 2b50 b43d 0d34 b6bc
00000100: 5872 b9bd 5304 d23c cea5 bc3c 356a 123d
00000110: 66be 6abd 177e 68bd 5f9e a13d 1ede e33d
00000120: 6229 283d f899 bfbd 4739 dabd 2886 833e
00000130: 23a5 063d 41e7 983d 4952 cebc 78ce 343e
00000140: 8c3a 033e f042 a6bd 683c 013e b2f2 b23d
00000150: d68f 24bd 4b86 7b3e 332d 21bd f575 903e
00000160: c1ac d33c 7d64 c0bd 7984 c63d 9c56 00be
00000170: 8961 e0bd af27 10be 924a 513e e73e 413d
00000180: ff7d 19be 24f4 ee3d e84b 1fbd 9d92 9f3b
00000190: 8559 efbd e4ed 14be 5a31 a73e 78a9 00be
000001a0: 5827 d13d cb44 36be 27a9 2b3d 55a3 64be
000001b0: e636 5fbe 31e7 7fbd 383c 11be 6cd7 5e3d
000001c0: 1cf6 b6bb a6ac 6f3d d1e1 a13b 0241 ea3e
000001d0: 77d9 9b3d 6b81 d73d 3a34 513d f59e 3f3e
000001e0: 650f 03be 6907 c8bd 1740 dabd 2c90 b53a
000001f0: 4469 7d3d 73b9 973b 0e65 5bbd 867b 2ebd
00000200: c093 66be 6ebc f8bd 1cab 633e fef3 12bd
00000210: 41c9 a6bd fb45 90bd 76ce 32be 0b55 ac3c
00000220: 9a7f b7bd 5ad4 713d b92b 493e 3092 60bb
00000230: 90c2 bcbc 64f0 a33d 3dc6 00bc 984d 9a3c
00000240: ddb0 a13d ad3f 79bd 6fcb 13bc 7125 d53d
00000250: 28f6 09be 7e5b bebc 5d5b 873d 59d3 2abd
00000260: c261 f23d 1b17 abbc a35f df3d 388f bdbd
00000270: f0c3 d4bc 72f4 273d 3dd8 e43d 541d 453e
00000280: 54e1 983d 8e79 843b fda7 82bd bd4d a73d
00000290: f33b 91bd 813e 3bbd eedd b53d 84b1 0b3e
000002a0: a90d dbbc 95a5 2a3d 5899 6b3d 6ac7 853d
000002b0: 656b df3c 9ec4 4a3d 61f0 00be a91d fa3d
000002c0: 2762 59bc 5488 563e 3ad9 fbbb e284 b53d
000002d0: eddb 153e f046 99bd 5e93 193c c63c 173e
000002e0: 050c d03c 6d95 113e a983 e13c c0b2 933e
000002f0: 061e 953d a6ab 35bd a984 11bb f892 b5bd
00000300: 87c6 8fbd 223b 43be b3fb f13d a39f 9bbd
00000310: 4de9 c7bd ef06 8ebc 73d7 82bd 08e6 fcbc
00000320: 2e94 9dbc fa8f 94be fd94 9c3e d199 31be
00000330: 03ff 083e 9bca 65be 854f 7f3d d884 4cbe
00000340: a79c 90be 0060 8fbd 7e65 543c 4e9a 733d
00000350: d6ea 7ebc 4ebc 13bd e78a 333c 2c67 973d
00000360: 0bfe c83d ea00 893e 77bb bcbd 9a5d 923e
00000370: 876e 1bbe 1d71 c5bd 5e3a 91bd 9c4c 81bd
00000380: 5986 cebd 6839 4e3c 94b0 93bd a67b ffbc
00000390: 0c26 bebd 6ae9 9abd 3803 f93d 5243 633e
000003a0: 598d 983d 2106 543e 553e 5dbd fadd ac3c
000003b0: c49b 3bbe 34e5 0fbc 1186 823e 8ab7 2d3e
000003c0: 1157 8f3d 06bf 2b3e 581c a3bb 6487 51bd
000003d0: 0d1e f2bc f030 de3d 444e 4e3d 11ae 20bd
000003e0: 32be febd 8d74 923d b7a7 283d f4eb ffbd
000003f0: 1dbc b13d 9e96 d639 c6f5 7d3e f58e afbd
0.019307658 -0.14842667 0.23854996 -0.11327178 0.20536545 -0.25452623 0.03091089 -0.22997968
-0.07751331 -0.03444164 0.020146532 0.025004432 -0.066899695 -0.029103458 -0.10255747 0.32288906
0.1185633 0.21566352 -0.020742625 0.047330003 -0.092775576 -0.21516557 -0.04602378 -0.04612543
0.06495483 0.03305023 -0.027133735 0.06724557 -0.07988326 -0.19114736 0.27954322 0.15750723
0.01653753 0.018553728 -0.068554714 -0.021458117 -0.28667194 -0.07910376 0.036991663 0.024610577
-0.1682576 0.0029616228 -0.08635483 0.025860636 0.03134452 -0.07548971 -0.10788734 -0.007984774
-0.12107964 0.0710067 -0.017019289 -0.005813252 0.03698579 0.017567141 0.073044 0.075009204
-0.06769515 0.18852 0.11712254 0.18950275 -0.08024317 0.20440601 0.08804353 -0.022241617
-0.090550125 0.025636828 0.02302828 0.03574582 -0.057310484 -0.056760874 0.07891535 0.1112635
0.04105509 -0.09355539 -0.10655456 0.2568829 0.03287233 0.07465983 -0.025185721 0.17656887
0.12815303 -0.08118236 0.126207 0.08737697 -0.040176235 0.24562947 -0.039349746 0.28214994
0.025839211 -0.093941666 0.09693236 -0.12533039 -0.10956103 -0.14077638 0.20438603 0.04717913
-0.1498947 0.1166766 -0.03889075 0.0048697726 -0.11686996 -0.14543873 0.3265484 -0.12564647
0.10212582 -0.1779968 0.041909363 -0.22327931 -0.21798286 -0.06247634 -0.14183128 0.05440466
-0.0055835377 0.05851426 0.0049402495 0.45752722 0.076098375 0.105227314 0.051075198 0.18712981
-0.12798841 -0.097670384 -0.106567554 0.0013852171 0.061867967 0.0046302616 -0.05356317 -0.04259827
-0.225173 -0.12145315 0.22233242 -0.03587722 -0.08143855 -0.07044598 -0.17461571 0.021036645
-0.08959885 0.059040405 0.19645585 -0.0034266822 -0.023041993 0.08004835 -0.007859764 0.018835828
0.07895062 -0.06085174 -0.00902067 0.10407532 -0.13472807 -0.023236986 0.06609223 -0.041705463
0.11835052 -0.020885041 0.10906913 -0.092558324 -0.025972337 0.041004606 0.11174057 0.19249469
0.07464853 0.0040428108 -0.063796975 0.08169124 -0.070915125 -0.045713905 0.0888022 0.13641936
-0.026739912 0.041661818 0.057519287 0.06532176 0.02727289 0.049503915 -0.12591697 0.122126885
-0.01326803 0.20950443 -0.0076858075 0.08863236 0.14634676 -0.074842334 0.009373514 0.14769277
0.025396356 0.14217158 0.0275286 0.28847313 0.07281117 -0.04435315 -0.0022204316 -0.08865923
-0.07020288 -0.19065526 0.11815586 -0.07598808 -0.097612955 -0.01733729 -0.0638875 -0.030871406
-0.019235697 -0.29016095 0.3058242 -0.17343833 0.13378529 -0.22440569 0.062331695 -0.19972551
-0.28244516 -0.070007324 0.012963651 0.05947333 -0.015558919 -0.036068253 0.01095841 0.07392725
0.0981408 0.2675851 -0.092154436 0.28587037 -0.15178882 -0.09640715 -0.07091211 -0.0631344
-0.100842185 0.012586929 -0.07211414 -0.03118689 -0.092846006 -0.075640514 0.12158817 0.2219365
0.07448835 0.20705463 -0.054014523 0.02110194 -0.18321139 -0.008782674 0.2549291 0.16964546
0.069990285 0.16772088 -0.004977744 -0.05115451 -0.029555345 0.10849178 0.05036761 -0.039228503
-0.124386206 0.071511365 0.04117557 -0.12496176 0.08678458 0.0004092948 0.24800786 -0.08572189

p_u.bias f4 [120]
00000000: d9f8 7d39 0df0 3fbd 240d b6bd 4e6a fcbc
00000010: 4376 123d 5073 80bd 7e3b 2bbd 1a46 b8bd
00000020: a93f f83d 2cc6 acbc efe2 f03d 27f2 9b3a
00000030: cd39 a93d 0db2 603c 5177 98bd e920 233d
00000040: 5595 2e3d f456 afbd 3977 643d f495 83bd
00000050: 5c49 1ebe 6535 b53c dc0b da3c 7cd7 2bbe
00000060: 3887 003d aad2 ccbc e95a 5fbc 6817 1f3d
00000070: 1d8c e4bd b915 9e3d 4926 cf3c da99 fd3b
00000080: 58ab 44bc 6ece 8ebc 1fb4 d4bc 5aec a63c
00000090: f2f6 9fbc 3328 0d3d 643b 4e3d 9835 24bd
000000a0: 972e a7bc f81c 3b3d 7048 083d f970 0ebe
000000b0: 0031 ddbd 2574 eabd 12c1 bbbd 79c7 59bd
000000c0: 160e 65bd 77b5 183d 23b6 1a3e 595f cdbd
000000d0: d8e3 493d bf9d ea3d 4b5b b63b 46b0 57bd
000000e0: ac72 163e 7fd9 98bc a560 68be 5ad6 ebbd
000000f0: 6d91 80be aeda 5abe de2a 5cbe 3be3 55be
00000100: c359 a0bd 45a2 f6bd 9dc7 14be 556e 59bd
00000110: 1ae0 d9bd a298 1dbe 14f2 64be 15fd 8e3c
00000120: b664 2abd d7eb 24be 4c73 17be 93aa 32be
00000130: ab8e 3fbe d9a2 d1bd 450a 65be 7a66 2fbe
00000140: 2b71 dabd 63eb 82be 71aa d7bd 150e 26be
00000150: 4ac0 0fbe fc7a 50be 32f6 b5bd d244 11be
00000160: af42 5dbe c36b 31bd 7f85 43be 0400 5cbe
00000170: a7d7 c3bd 6aae 2abe c6c8 48be 1b95 2abe
00000180: a596 d3bd 4c2c 2fbe 4bb3 09be 081e e8bd
00000190: e09a 93bd 2b14 36be 2e44 2dbe bbb2 8cbe
000001a0: 842f c8bd 8057 3abe 7a3c babd 86c3 e9bd
000001b0: 79e9 b3bd c312 e9bc 81a2 31bd a238 2ebe
000001c0: 6d32 08be cd9d 2abe 7270 8ebd 1a12 22be
000001d0: 00ca 22bc ea71 78be b675 a9bd ec7e 95bd
0.00024220663 -0.04685979 -0.08889225 -0.030812409 0.035757314 -0.06271994 -0.041804783 -0.08997746
0.12121517 -0.02109059 0.11762034 0.0011897729 0.08262978 0.013714326 -0.07444633 0.039826307
0.042622883 -0.08561507 0.055777762 -0.06425086 -0.15457672 0.022120187 0.026616983 -0.1678142
0.031378955 -0.025002796 -0.0136325145 0.03884068 -0.11159537 0.07718987 0.02528681 0.007739288
-0.012003742 -0.017432418 -0.025964795 0.020376373 -0.019526932 0.034462165 0.050349608 -0.040090173
-0.020407958 0.045681924 0.033272207 -0.13910283 -0.10800362 -0.11447934 -0.091676846 -0.053168748
-0.055921637 0.037282433 0.15108542 -0.10027952 0.049289554 0.11455869 0.005565082 -0.05265834
0.14692181 -0.018658398 -0.22693117 -0.11515494 -0.2511095 -0.21372482 -0.21500728 -0.20887463
-0.07829621 -0.12042669 -0.14529271 -0.053083736 -0.10638447 -0.15390256 -0.2235797 0.017454663
-0.04159995 -0.16105591 -0.14790076 -0.17447881 -0.18706767 -0.10236139 -0.22367199 -0.17128935
-0.10666116 -0.2557021 -0.10530556 -0.1621631 -0.14038196 -0.20359415 -0.08884849 -0.14186409
-0.21607469 -0.04331566 -0.19093893 -0.21484381 -0.09562617 -0.16668096 -0.19607839 -0.16658442
-0.103314675 -0.17106742 -0.13447301 -0.11333853 -0.072072744 -0.17781131 -0.1692054 -0.2748011
-0.09774688 -0.18197441 -0.09093566 -0.11414246 -0.08784766 -0.02845133 -0.043367866 -0.17013791
-0.13300486 -0.16661759 -0.06955041 -0.15827218 -0.009935856 -0.24262205 -0.08274405 -0.07299599

q_z.weight f4 [120, 100]
00000000: eb86 8f3d a708 123d b444 0a3b 3cae bb3c
00000010: 4afc 57bd fa1b 4e3d f850 d33d f14d 6e3d
00000020: ab32 c3bc 931e 733b d662 093d 756e c7bd
00000030: 0d1b 91bb 7092 493d b4ee 333d 770e 71bd
00000040: 86c0 debc f4cc f93c 1ca1 af3d c44a 8cbd
00000050: 3196 5b3c 1729 c8bd 6232 c93c f2dd 973c
00000060: 04f9 d73c 9722 52bd ce4b 713c 7a3d 923d
00000070: d828 dfbb 7ae0 a8bd d42a 423d fc62 723d
00000080: 652a 49bb 573b adbc 4c4a 2e3a 8ea8 a7bd
00000090: 8abe aa3c 6808 ba3c 1989 b33c 12d7 b03c
000000a0: 57b9 0cbd ae1e bf3d 2947 ad3d bd49 da3d
000000b0: 3d8b b1bd 27f8 aabd 9c30 dcbd 6c5d a83d
000000c0: b1ef 7b3d 9f9d af3d 918e 9a3b 413a b83d
000000d0: 6678 d6bd 86cf b83d 9f84 ac3d a128 dc3c
000000e0: a72a 9c3d db84 ca3b 66a5 a13c 7ff1 d8bd
000000f0: eb41 b63d 00c2 7abd 9563 c1bd a1a5 5ebb
00000100: 07ef 17bd 596f 30bd 5fa0 593b 6ce7 e43d
00000110: 9b7a 8b3d a062 1b3d 0374 d6bd 179a bdbc
00000120: 6587 69bc 8804 42bd 2187 89bd 06a8 1cbd
00000130: 8d95 11bc bb81 18bd c2e2 023d 8f46 73bd
00000140: b099 30bd 4eff 55bb ebbd a6bc e28b 353d
00000150: e658 823d b37f 863d 7174 24bd 6342 c43c
00000160: 1b37 613d e12c 00bd ca91 5b3c 8cc7 2cbd
00000170: 28a2 093b e156 ffbd 65bd f13c 8130 443c
00000180: 1da3 e43c baa5 0ebd 9c66 bd3d 1178 183c
00000190: e147 51bc 75fb 52bc 4bb4 dd3c a1eb 12bd
000001a0: 9a88 a6bd 810f ecbc 4259 1a3d 2e11 b83d
000001b0: 9b29 df3b 2341 633d 6aed 963d 87cf c93d
000001c0: f934 563d 2368 8cbd dda2 693d 10ce 57bd
000001d0: 5e52 773b 91d0 813d b6d2 b53d d040 8abb
000001e0: 451b d13b 2d63 923c a9e1 9c3d 0e0f a93d
000001f0: 9149 4e3c ae5f e4bb 09da d1bd bcdb c7bc
00000200: 3e53 d5bc 8d25 a2bd f21b babd 1b84 403d
00000210: db80 3d3d 51b4 a0bd 9fef d3bc 402b 93bc
00000220: 2d81 edbd d968 723d 3af9 e43c 5aaf 603d
00000230: a416 d5bd 463f 19bd 7f65 243d ad48 68bd
00000240: b269 ae3d 0c54 ba3d 31f3 cabb 18c1 703d
00000250: 8c0e c5bd 6730 82bd 60c5 89bd 2a6f 993c
00000260: 20ee 4a3d efa7 8dbc 84e9 973d 43bb 60bd
00000270: de49 b8bd 5505 6a3d d607 6f3b c115 16bd
00000280: 2530 9bbd 6aa2 65bc dfcc ee3c 7027 483d
00000290: ddc5 c53c 5737 5abc f61e aa3c 40af e83c
000002a0: fc18 653d bf0a e73d bf14 d73d ea9a 53bc
000002b0: 54de c63c cf22 49bc bf91 033d d155 c73c
000002c0: 6f8f a1bd cfd0 973d ec1c b93b c78b 76bc
000002d0: 065b a93c e0ea 9dbb 5aa4 85bd cfa8 11bd
000002e0: 6b6e ae3d 4c46 92bd c953 17bd 7986 413c
000002f0: ad08 103c 13eb 433d e4eb 4f3d 4127 86bd
00000300: 3c0e 863c 938a 903c 5eec 01bc 44dc ed3a
00000310: ff50 92bd 8bb0 dc3c af0a 463c b563 72bc
00000320: 519c c7bc 13d4 5a3d 4ee7 57bd a18c 2fbb
00000330: 5184 28bc 9244 4f3d 4dfc 4fbd e961 823c
00000340: faff 0b3d 6cac 3cbc 3dc0 7bbd 4840 3f3b
00000350: f9d0 f1bd 910f 37bd 8b0b d23d 7856 603d
00000360: 38ca 703c 2ae5 b7bc 6482 3a3c d663 673d
00000370: 8c51 533c cf7d 5f3d b590 8bbd 8a26 02be
00000380: 5746 ab3d 8855 8e3d 995b 0cbc 91f2 71bb
00000390: 7372 01bc 69b4 fbbc d47c b43d 67a2 9c3d
000003a0: 662e 6bbc c89a 053d bfa5 50bc cac7 113c
000003b0: bc61 bcbd 1138 26bc 5366 923d be3c 75bc
000003c0: d009 9c3c 8829 9cbd 41be 5cbd a41f 60bc
000003d0: b7bb 343d b198 e93b b8c1 aebd 2b24 3cbc
000003e0: 4fc9 9fbd 65c2 04bd f372 ba3d ba84 923d
000003f0: b4c9 d7bd 9d40 8c3d cfaa eabd ae3a 58bc
0.070081554 0.035652783 0.002109808 0.02291023 -0.052730836 0.05031965 0.10318178 0.0581798
-0.023827871 0.003709708 0.033541523 -0.09737865 -0.0044282735 0.04921192 0.043928817 -0.058851685
-0.027191412 0.030493237 0.08575651 -0.06850198 0.013402508 -0.09773462 0.024560157 0.018538449
0.026363857 -0.05130252 0.014727546 0.07140632 -0.006810289 -0.082459405 0.047404125 0.05917643
-0.0030695435 -0.02114646 0.00066486443 -0.08186446 0.02084281 0.022709087 0.02191596 0.021586929
-0.03435644 0.093320236 0.08460838 0.10658596 -0.08669136 -0.083481126 -0.10751459 0.08220944
0.061507884 0.08574986 0.0047167023 0.08995486 -0.10472183 0.09023957 0.08423733 0.026874842
0.07625323 0.0061803884 0.019732188 -0.10592937 0.088992916 -0.06122017 -0.09442822 -0.0033973234
-0.03709319 -0.04307494 0.003320716 0.11176953 0.068104945 0.037935853 -0.10471346 -0.023144765
-0.014253472 -0.047367603 -0.06715227 -0.038246177 -0.008885753 -0.037233096 0.031954534 -0.05939346
-0.043115318 -0.0032653394 -0.020354232 0.044322856 0.06364612 0.065673254 -0.04015011 0.023957437
0.054984193 -0.0312928 0.013401458 -0.04218249 0.0021001194 -0.12467743 0.029509256 0.011974455
0.02790981 -0.034826018 0.09248087 0.00930597 -0.012773485 -0.012877335 0.02706351 -0.035869244
-0.081315234 -0.028815987 0.03768278 0.08987652 0.0068103797 0.05548204 0.07369502 0.09854036
0.052296612 -0.068558 0.057040084 -0.05268675 0.0037738304 0.06338609 0.088780805 -0.004219152
0.0063814246 0.017869556 0.07660229 0.082548246 0.012590782 -0.0069694137 -0.10246665 -0.02439677
-0.02604067 -0.079173185 -0.090873614 0.047000986 0.046265464 -0.078468926 -0.025871096 -0.01796496
-0.11596904 0.05918202 0.027950872 0.05485473 -0.10404709 -0.037413858 0.040135857 -0.056709934
0.085162535 0.09098062 -0.0061935415 0.0587779 -0.09621915 -0.06356888 -0.067270994 0.018729765
0.0495435 -0.017291991 0.074175864 -0.054866087 -0.08998464 0.05713399 0.0036473176 -0.03664184
-0.07577542 -0.014015773 0.029150425 0.048865736 0.0241422 -0.013318858 0.020766716 0.028403878
0.05593203 0.112813465 0.10502004 -0.012915352 0.024275936 -0.012276365 0.032121416 0.024332913
-0.07888686 0.07412874 0.0056491997 -0.015047974 0.020673286 -0.004819259 -0.06525488 -0.03556138
0.08517154 -0.07142314 -0.036945138 0.011811846 0.008791131 0.047831606 0.050762072 -0.06550456
0.01636421 0.017644202 -0.0079298895 0.0018147309 -0.07144355 0.026939651 0.012087508 -0.01479428
-0.02436653 0.053424906 -0.052710824 -0.0026786702 -0.010285453 0.050602503 -0.050777722 0.015915828
0.034179665 -0.011515718 -0.06146263 0.0029182602 -0.118074365 -0.04469258 0.10256108 0.054769963
0.01469665 -0.022448141 0.011383627 0.056491695 0.01289786 0.05456334 -0.0681471 -0.12710014
0.08363026 0.069499075 -0.00856676 -0.0036918262 -0.007900822 -0.030725675 0.088128716 0.07648163
-0.014354324 0.032618314 -0.012734829 0.008897731 -0.09198329 -0.010145203 0.07148423 -0.014968095
0.019047648 -0.07625109 -0.053892378 -0.013679419 0.04412433 0.007128798 -0.08533043 -0.0114832325
-0.078020684 -0.03241195 0.09103956 0.07154222 -0.10536519 0.068482615 -0.114583604 -0.013197584

q_z.bias f4 [120]
00000000: c35d d73d 5922 81bd da04 353d 409a 693c
00000010: 633f b5bd a8d8 d63d 9bf0 e7bd 0000 913d
00000020: be8a 4e3d e2f3 ce3d e238 5b3d 6dcd 4e3d
00000030: 6b80 af3d 64b6 b63d e90c aebd 3d52 bbbd
00000040: 2aa4 48bd 50ff cd3d 9638 9e3c 6de6 2ebc
00000050: 925a ea3b a710 763c 1245 693d 3727 4abd
00000060: 77e7 0abd 827d cf3d a768 99bd 0bdb 4f3d
00000070: b2f0 b03c f94b c5bc 85d5 84bd 97ba 633d
00000080: 69d4 38bd 82fd 883d 4455 c03c e49e 13bd
00000090: 24ee 40bc 6ddb a8bd 3397 3b3d 06f3 87bc
000000a0: a447 87bd bca3 a1bd f112 a7bc 8f93 85bd
000000b0: 9301 7c3d 7d0e 24bd 7e69 89bd fb73 163d
000000c0: ce00 e2bc e708 c63d ce60 cebc 2448 313c
000000d0: 4c31 afbc ceeb ba3d 2eeb 883d 26ec 1dbb
000000e0: 92ad c33c 00f2 2abd 94b1 8b3d 009b bbbd
000000f0: f7d0 6fbd b376 50bc 418e 033d 3de6 9bbd
00000100: ac60 b3bd a55a d4bc a35c c3bd 0fda 8bbd
00000110: d3a6 11be 4d6d e7bd 7d97 c6bd 63c7 d4bd
00000120: 8079 a7bd 7161 d6bd f047 d63a d195 91bd
00000130: a6b6 9abd 6560 04be fda9 22be 3e6d aabd
00000140: 3b66 8dbd 6f6d 56bc 60fb efbd 1d72 f3bd
00000150: 666b 7f3c ba5a cfbc 480f 1dbe 9a24 3abd
00000160: 9899 41bd bbb2 c2bd b409 33bd 71c0 0ebe
00000170: 8b4a 03be 021a 82bc eaa7 c2bd 1abb 08bb
00000180: 00db a5bd 2d32 83bd e7f5 3abd 2115 ffbd
00000190: 8817 fabd e571 f9bd 951d 96bc 1e5e 7dbd
000001a0: 6ea2 00be 3a57 a8bd 678d 04be 1651 14be
000001b0: 6eab 92bd 0267 94bd 5ad5 b6bc e478 bcbd
000001c0: 7e85 18bd b841 b5bd 48f2 62bd 6f58 28bd
000001d0: 489c 1cbe 2dcf 52bd 522e 22bd 7206 a3bd
0.105159305 -0.063053794 0.04419408 0.0142579675 -0.08849981 0.10490543 -0.11325189 0.07080078
0.050425284 0.10105111 0.053521045 0.050488878 0.08569416 0.08921507 -0.08498556 -0.09146545
-0.048984684 0.100584626 0.019314092 -0.010675055 0.00715191 0.015018619 0.056950636 -0.049353804
-0.03391215 0.101313606 -0.07490664 0.050746005 0.021599147 -0.024084078 -0.06486038 0.055597868
-0.045124445 0.06688978 0.023478158 -0.0360402 -0.011775527 -0.08244977 0.04579849 -0.016595375
-0.06605461 -0.07892558 -0.020394774 -0.06522285 0.06152494 -0.04005288 -0.06709574 0.0367317
-0.027588274 0.09669667 -0.025192644 0.010820422 -0.021385811 0.091270074 0.06685482 -0.0024097054
0.023886476 -0.041734695 0.0682098 -0.09160423 -0.058548894 -0.012723613 0.032118086 -0.07612274
-0.08758673 -0.025922129 -0.095391534 -0.06828701 -0.14223795 -0.11300144 -0.09696863 -0.103895925
-0.08177471 -0.10467804 0.0016348343 -0.07108653 -0.07554369 -0.12927397 -0.15885158 -0.083216175
-0.069042645 -0.013087614 -0.11717868 -0.11887 0.015589571 -0.025311816 -0.1533786 -0.045445062
-0.04726562 -0.095067464 -0.043710425 -0.13940598 -0.12821405 -0.015881542 -0.09504683 -0.0020863474
-0.080984116 -0.06406055 -0.045644667 -0.12455202 -0.122115195 -0.12179927 -0.018324653 -0.061857335
-0.12561962 -0.08219762 -0.12944566 -0.14484057 -0.07161604 -0.0724621 -0.02231853 -0.092027456
-0.037236683 -0.088504255 -0.05540684 -0.04109996 -0.15293992 -0.05146711 -0.039594956 -0.07960214
