hosp_models/deploy_week_42_5/seq_enc.pt (torch, 46379 bytes, 4 tensors)

gru.weight_ih_l0 f4 [180, 1]
00000000: 56cc b73d 8f48 dd3d 49c3 d13d 1d20 0f3e
00000010: ea82 1a3d ac6a 213e 8ef2 c5bd c480 07be
00000020: e5fc 433c 4dcd 12bd ab59 613e 7c28 8cbc
00000030: f887 e0bd 881d 35bd fab4 55be 118b 3b3d
00000040: f0b9 d23c aa91 a33c c559 e03c 80c0 0dbd
00000050: 2909 8d3d 5169 023e f8f1 8f3d 5a90 b53b
00000060: 77d5 bf3c 7aaa 263d 84c4 fd3d 7d73 86bd
00000070: 087c 3bbe e268 8ebd 30b9 713e 79af 6c3d
00000080: 0ff7 89bd c9cf 973d 839a c93d 6c3b 133e
00000090: 48cc 14be f07a 8bbd 1f57 f13d 1f19 c33c
000000a0: c185 5e3d 0ec3 01be 7cb2 863d 425a c23c
000000b0: 9e21 e2bd c672 dbbd cf07 a13c 95d1 f53d
000000c0: e4e9 3b3e ae60 cbbd c777 e73c 32fc c9bd
000000d0: 1e0b 3abd 0dcc 1c3d a5c9 09bd d5d3 16be
000000e0: 572b 74bd 1c48 68bd db6d 23bd 69e5 7b3d
000000f0: 713d 3e3d d5b4 a03b 3bd5 a6bd 40b1 c7bc
00000100: aa97 02be 3538 27be e61e 8b3d be84 f4bd
00000110: fa8a aebd ca5d e5bd 78cf 0fbe b1b8 1d3e
00000120: 650c 9abd 5eb0 47be 0b67 07be ab7c 90bd
00000130: 1733 f1bd 0fdb 6cbe 2778 a0bd c241 29be
00000140: 7d21 66be bbe7 313e 6012 fabd 7c34 b2bb
00000150: 1221 42bd 4bbe d2bd 266a 02be e82d 30bd
00000160: bf03 9fbc 52ab 14bd 7e41 2fbe 8e2d 90bc
00000170: 2019 d8bd 43ff e33c b324 b33d eaaa c0bd
00000180: c982 913c 6688 3dbd 10f8 923b 6103 d4bd
00000190: d434 853c 26a8 b9bd 5b39 9d3c b6fd 9f3c
000001a0: 637c ccbd a4da d4bd f245 24be 566b 133d
000001b0: eaaa 43be a51a 5bbd 95a9 ecbc f7b7 5bbd
000001c0: 0921 c53d ff0a f5bd 7153 c63d 6541 02bd
000001d0: 768c 31be b02a 6ebe c734 19be 2d19 b6bd
000001e0: ce13 323e a8a2 63be 00d1 81bc 704b ce3d
000001f0: 7be3 043e 2e5f 2bbe 709b 403d 18c1 4ebd
00000200: 5548 13bc 36d0 1d3e a2d5 fbbd b779 94bd
00000210: 104f 3c3e 3d84 5a3e e4c2 2bbe d788 84be
00000220: d586 87bd a61a 3c3e 2c85 7f3e fc3e d7bd
00000230: 942d 823e 57f2 a63d b9eb d83d 6df5 2fbe
00000240: e9cf 0dbd 7d25 0bbe abd3 58be e16e 993e
00000250: 871e a43d 4ffe 95be 310e 903c 0859 9b3d
00000260: 8373 22be fe26 ebbb b242 c6bd 0ac8 4fbe
00000270: 45ea 83be a674 babd 3826 c8bb 3218 0ebd
00000280: 9241 393e bbae a7bd 65e3 243e 22aa 2a3e
00000290: 7208 213d 00fc 19bd a590 a9bd e76a 21be
000002a0: 0215 2a3e 8c01 17be 16c0 223b b2e2 2c3c
000002b0: 9046 803d 1899 debd f3bf f9bd e5f5 5e3e
000002c0: eb5c b6bd ad31 433e f7cc a33d 0dcf 293d
0.08974521 0.10804855 0.10242326 0.13977094 0.037722506 0.15763348 -0.09665404 -0.13232714
0.01196215 -0.03584032 0.22006862 -0.017109148 -0.10963434 -0.044217616 -0.20869818 0.04578692
0.025723428 0.019966919 0.027386555 -0.03460741 0.06886513 0.12735488 0.07028574 0.0055408897
0.023417218 0.040689923 0.12390998 -0.065649964 -0.18309033 -0.069535986 0.236058 0.05778453
-0.06736576 0.07412679 0.09843924 0.14378136 -0.14531052 -0.06810558 0.11784195 0.02381569
0.054326776 -0.12672064 0.06577012 0.023724679 -0.11041568 -0.10715251 0.019657044 0.12002865
0.18350941 -0.099305496 0.028255356 -0.098625556 -0.04542076 0.038280535 -0.03363957 -0.14729245
-0.059611645 -0.056709394 -0.03989969 0.06149808 0.046445314 0.0049043694 -0.08146139 -0.024376512
-0.12753168 -0.16330035 0.06793003 -0.11939381 -0.085226014 -0.111995295 -0.14043987 0.15402485
-0.07521895 -0.19500872 -0.13222902 -0.070550285 -0.11777323 -0.23130439 -0.07835417 -0.16528991
-0.22473712 0.17373554 -0.12210536 -0.0054383855 -0.04739482 -0.10290202 -0.12735805 -0.04301253
-0.019410966 -0.036296196 -0.17114827 -0.017599847 -0.10551667 0.02783168 0.08747234 -0.09407599
0.017762559 -0.046272658 0.0044851378 -0.10352207 0.016260542 -0.09065275 0.019192388 0.019530158
-0.099846624 -0.10393265 -0.16042307 0.035991035 -0.19108167 -0.053492207 -0.028889457 -0.05364224
0.096254416 -0.11964988 0.09683884 -0.031800646 -0.17338738 -0.23258471 -0.14961539 -0.08891521
0.17390367 -0.22230017 -0.01584673 0.10072982 0.12977402 -0.16735527 0.047023237 -0.050477117
-0.008989413 0.15411457 -0.122966066 -0.07249778 0.18389535 0.21339507 -0.16773564 -0.2588565
-0.06617514 0.1836954 0.24953145 -0.1051006 0.25425398 0.081516914 0.105918355 -0.17183466
-0.034622107 -0.1358852 -0.21174495 0.29967406 0.08013635 -0.29295585 0.017584892 0.07585341
-0.15864377 -0.007176279 -0.0968069 -0.20291153 -0.2576467 -0.0910428 -0.0061080717 -0.034691043
0.1809142 -0.08187624 0.16102369 0.16666463 0.039314695 -0.03759384 -0.08279542 -0.15763436
0.16609576 -0.14746684 0.002483373 0.010552095 0.06263459 -0.10869044 -0.121948145 0.21773489
-0.089044414 0.19061919 0.07998078 0.041457225

gru.weight_hh_l0 f4 [180, 60]
00000000: 7813 87bd b9e0 a9bd cd43 693c 45ad ef3c
00000010: d3ce f5bb 82cf b53d 9d08 063e df9d 1f3e
00000020: c30d a33b 800f 97bc f89b 3f3d 275d 183e
00000030: 6d7b ccbd 0832 303e e026 7abd fcc6 ac3c
00000040: becb 1bbe 91a3 b7bd e57c 73bb 9ced 6fbd
00000050: 599c 1fbc ed7c 353d 738e 363e a005 9cbd
00000060: 4d2f bc3d 9f43 85bd 0321 153d 20b9 4fbd
00000070: 2c2a 0ebe 65a7 0fbe f859 82bc ee60 253e
00000080: 084d e9ba 4fc2 713d af9c 233d 138f 163c
00000090: d62b 20be 9fe1 aabc bb39 603d 4983 1d3d
000000a0: 233a 183e 03c4 9a3d ee72 57bd 462e 1b3e
000000b0: 75fa 053e 59c9 e03d 3d36 9e3c d602 d03d
000000c0: 2948 b2bd 2272 24bd e411 153e c781 1cbd
000000d0: f4c3 233e 640a a9bd 69fb 36be a0dd 653e
000000e0: 07c9 cc3d 0d8a 403e fecb 283e a280 9bbd
000000f0: e396 b73d ae1c 433e 9a22 95be b82c b9bd
00000100: b3a0 81bd c42c d1bc 0030 0fbd 9fca 503d
00000110: f472 81be a472 f7bd 2b37 b5bd ee39 68be
00000120: ae8a 813d 3181 29bd ebe3 a83d 2d95 18bd
00000130: 93b8 eb3c 0a57 f9bd 8920 f3bd 185d 2abc
00000140: c18e a2bd 6f8f 253e 1f0a afbd 2312 3dbb
00000150: 3088 133e 2f6f 343e 8bf9 53be eafe 833d
00000160: 2fc2 9b3d a96d 1f3d cc7a 33bd fe86 80be
00000170: fb02 f8bd 07b2 a2bc 45ad 743c f273 6dbc
00000180: bfdf b3bc 5efe aa3d 3528 69bd 2ad4 753e
00000190: 2a3c 46bd 37e1 4d3d 2d1a 2b3e d24e 083a
000001a0: 82a8 19bd fa03 17bd 1d3c 6c3e 973f 833c
000001b0: f7b6 63be ed42 2a3d 620a a0bc b9d4 09bd
000001c0: 3d9c 46be 0904 813e c18b 08be 135c ce3c
000001d0: 356f adbd aea7 1ebe 469b 11bd 3fc4 06be
000001e0: 3989 81bd b709 42bc 59dc e93b f6b5 363e
000001f0: 723f e0bd 1690 a3bd f83c f83c 66bf 843d
00000200: 7e7f 0d3d b2c3 52bc fdc9 da3d 9a1f 403e
00000210: 20cf 513d 7c3c 003e 157c ebbd 547e e33d
00000220: bc3d e5bb f8dd 083c ef1e 433d 36e0 9dbd
00000230: d9d7 0dbd 23ad de3c 70aa 033e 463a d1bd
00000240: e1ec dd3d 93bc 853d 6060 fa3d 329a 7e3d
00000250: 7fa4 833d e8ee ce3d b5bc 093e 037d ba3d
00000260: 37a7 1bbe 927d be3d 0e80 42bd 0157 ed3d
00000270: 3d0b 0dbd 3d32 493b 8eab 4b3d ab4f 6b3d
00000280: a1a6 04be 5239 c0bd 4913 0c3c b38c 82bd
00000290: 43b7 783d 8fca b13d c39e f8bd 5822 47bd
000002a0: b1b3 fb3c cdda b1bd e691 d03d 6076 873d
000002b0: c66f 173e 5765 123d 23c7 9c3c 7dad 6cbd
000002c0: 1122 5c3e 4511 babc 6d14 cc3d 24d2 463e
000002d0: 90a6 903d 2557 08be 8970 afbc 594c 36bd
000002e0: 4ef8 9dbd 6cc2 803d 1051 29bd a8ea 803d
000002f0: 9f73 ecbd 0516 813d 5741 dfbb b845 febc
00000300: 0614 d53d 12f8 a4bd 7869 8c3d 48c3 8fbd
00000310: 0ba5 833d 4e45 f5bc 6186 e1bc c0d6 81bd
00000320: a732 dcbb 7242 69bc a09f 0b3e 137d 4bbd
00000330: 54ac 91bd f21d 0dbd 5297 cb3d a9c4 75bd
00000340: 01d1 e83c 6d03 afbd dc64 8b3d fec5 e33d
00000350: b313 16be 00ce 79bd 4cca e4bd b415 debd
00000360: da9f 8c3b 572f 25bd bb29 d23d cdc2 04bd
00000370: cba5 3bbd 4db8 65bd 79c4 993d 9c7d db3d
00000380: 7166 d43d f0f6 b3bc c8c5 2dbd 40cf 333d
00000390: 28fc 7abd b823 413d baad 07bc 654a 183e
000003a0: f447 51bd 01e3 ea3d b894 cb3d ef20 75bd
000003b0: a4a2 6dbd c8bb 203e ea8b 533d 0fb3 213e
000003c0: b943 613d 1ad4 debc 19d8 973a a418 c1bc
000003d0: b649 933d d83c 103e 5259 5e3e 5f4c 423e
000003e0: bd2e a9bd baae f03d 8785 18be ca38 2a3e
000003f0: 7168 65bc 3fa6 44bb db6d 9c3d ef04 433d
-0.0659551 -0.082948156 0.014237356 0.029257426 -0.007501462 0.088774696 0.13089223 0.15587567
0.0049760058 -0.018440008 0.046779603 0.14879285 -0.09984479 0.17206585 -0.06107223 0.021090977
-0.1521444 -0.08966745 -0.00371533 -0.05857621 -0.009741866 0.04430859 0.17827778 -0.076182604
0.091887094 -0.06507038 0.036408436 -0.05071366 -0.13883275 -0.140287 -0.015912041 0.16150257
-0.0017799446 0.059023198 0.039944347 0.009189385 -0.15641722 -0.020859538 0.054742556 0.03845528
0.14865927 0.075569175 -0.05259984 0.1515437 0.13083823 0.10975904 0.019312972 0.10156791
-0.0870517 -0.040147908 0.14557606 -0.038209703 0.15992719 -0.08253935 -0.17869343 0.22447824
0.099992804 0.18802662 0.16484067 -0.07592894 0.08964326 0.19053909 -0.2912796 -0.090417325
-0.06329479 -0.025534041 -0.034957886 0.050974485 -0.25283015 -0.12082413 -0.08848413 -0.22678348
0.06325279 -0.041382972 0.08246597 -0.03725164 0.028774535 -0.121748045 -0.1187144 -0.010398172
-0.079373844 0.16167997 -0.08546852 -0.0028849922 0.1440742 0.17620538 -0.20700662 0.064451054
0.07605397 0.03892294 -0.04381828 -0.2510299 -0.121099435 -0.01986028 0.014933889 -0.014492976
-0.021957276 0.08349298 -0.05692311 0.24006715 -0.04839722 0.05026361 0.16709204 0.00051997334
-0.037514217 -0.036869027 0.23069806 0.016021533 -0.22237764 0.04156773 -0.0195362 -0.033650134
-0.19395538 0.2519839 -0.13334562 0.025190389 -0.08468477 -0.15493652 -0.03554847 -0.131608
-0.06325001 -0.0118431365 0.007136863 0.1784285 -0.10949601 -0.079864666 0.03030251 0.06481819
0.034545414 -0.01286404 0.106830575 0.18762055 0.05122292 0.12523073 -0.11498276 0.111080796
-0.0069958847 0.008353703 0.047636922 -0.077087805 -0.034629676 0.027182167 0.12857985 -0.10216193
0.10836197 0.06530108 0.12225413 0.06215877 0.064278595 0.101041615 0.13450892 0.09105875
-0.15200506 0.093012944 -0.047485404 0.1158886 -0.034434546 0.003070011 0.049724154 0.057449024
-0.12954189 -0.09385933 0.00854952 -0.063744925 0.060721647 0.08681213 -0.121396564 -0.048616737
0.030725332 -0.08684311 0.10184078 0.06614375 0.14788732 0.035741176 0.019137925 -0.05778264
0.2149737 -0.022713313 0.099648334 0.194161 0.07063019 -0.13314493 -0.021415966 -0.044506405
-0.07713376 0.06287083 -0.041337073 0.06294757 -0.115454905 0.06303028 -0.006813209 -0.031039104
0.1040421 -0.08055128 0.06856054 -0.07019669 0.06427964 -0.029940274 -0.027529897 -0.063397884
-0.0067199054 -0.014237033 0.13635111 -0.049679827 -0.07112947 -0.034452386 0.099409714 -0.060002003
0.028419973 -0.08545575 0.06806347 0.111217484 -0.14655952 -0.060987473 -0.111713976 -0.10843983
0.0042915167 -0.04032835 0.10261866 -0.03241234 -0.04581241 -0.056083966 0.07508177 0.107173175
0.10371102 -0.021968335 -0.042424947 0.04389882 -0.06127563 0.047153205 -0.008281166 0.1487213
-0.05109401 0.11469079 0.09940475 -0.05984586 -0.058016434 0.15696633 0.051647104 0.15790962
0.054996226 -0.027200747 0.0011584788 -0.02357132 0.071917936 0.1408571 0.2171376 0.18974446
-0.08260868 0.117520764 -0.14894687 0.16623226 -0.014001952 -0.0030006317 0.07638141 0.047612127

gru.bias_ih_l0 f4 [180]
00000000: ae06 8ebd e574 503d f207 a83b 60e4 153e
00000010: 1e92 76be 8ac1 6cbd 84eb 4e3e 0b7c f33c
00000020: 5b14 4dbd 7573 0abe 7c14 353c b489 11be
00000030: 87fb 28bd 3d25 5ebb ef9a 37be bdf4 eebd
00000040: f32d b3bd f70a 64be ff0f c33c abfa 6e3d
00000050: 00a2 90bd 2e33 943d ca82 debd f6d5 7b3d
00000060: 5ad0 3abe 765b cebd 6dd9 2f3d aebe 35be
00000070: 6a54 b6bd b768 7e3d 4da0 963d 7015 023d
00000080: 13c0 c2bd 8356 f6bd eace 083d 8d32 81bd
00000090: 4707 db3d b8df 0abe 68fa cbbc f780 a1bd
000000a0: 37eb cbbc 2543 d63c a451 9cbc 336b 57bd
000000b0: dd8c 7d3d 81ca cabd 33d5 97bc b6a8 a1bd
000000c0: 7bf0 c43d d831 52bd 3bb6 0ebe d53a 03be
000000d0: 01dd df3d 52f7 013e 3689 c5bd 8c7b afbb
000000e0: b6cc 523a 3a0b c2bd 5606 bebc 3970 bc3d
000000f0: 502a 06be 7cef 29be 0211 e73c 16f1 0abe
00000100: 4a57 05be 2633 05be cf53 193d 84d2 b93d
00000110: 5120 b4be 5b2f 7cbe 2884 58bb c6f2 a7bc
00000120: dbb1 38be c0f2 a6be f28c 85be 08ec 8ebd
00000130: 614b 1c3e db30 46be 5be1 86bd 0be2 0fbe
00000140: 8f1f 523d 9b23 9d3d e6a5 1dbe 5c65 e2bd
00000150: 4dd1 793d d693 9ebe 1750 06be 3c05 87be
00000160: eb70 1dbe 613a 95be e9d2 29be 43aa 01be
00000170: e0f5 e6bd 23b5 17bd 2b0c 79bd 0682 02be
00000180: 2109 38bd 020e 6fbe 2233 883d a509 0abd
00000190: 4e6a 63bc 63b5 7cbd 3ebc 8ebe e33f 70be
000001a0: 1337 01be 7f0e 623d b420 7dbe 313c b6bd
000001b0: 0053 07be ab9a 15be c412 153d 66ed 783d
000001c0: 63be c0bd 0f85 993d 9dbe 7f3e bffe c1bd
000001d0: d20e 63be 5945 0ebe c47d 4d3e 885b 85bd
000001e0: 1c07 4f3d 8eb5 0ebd bc84 b73d ff61 853d
000001f0: 6c01 ff3d 8b0f 7ebc df39 10be 0880 14bd
00000200: f4a4 45bd 5308 9abd 0449 893d f376 cebd
00000210: c977 eb3d 8a19 cdbd ab09 f7bd 74e8 bd3c
00000220: 3a19 f73c bec5 ec3d f9a8 953b afd9 95bd
00000230: 28f8 ad3d 6ba2 fd3d 7395 303d 0fb9 13be
00000240: 9282 4abd 820b a03d d779 48bd f4b2 1b3d
00000250: bc07 8f3d d340 03bd 31f5 a13d 8216 6cbd
00000260: 4df7 08bc 45f7 123d b4b8 0d3e e3a3 02bd
00000270: 93d1 82bd a54b 01bd d575 97bc f0cc 72bd
00000280: 5270 9abd 2142 a9bd 65e1 b63d 2384 97bd
00000290: 0658 363c 6f67 b1bd 9ccc 2e3d 08b4 b7bc
000002a0: 8255 973d 9000 f2bd e498 b3bc 82e9 083e
000002b0: 817c 453d 245e a5bd cc0f ab3d ee99 113c
000002c0: c089 983d 3d07 723c facf 20bd af28 a83d
-0.06934868 0.05089273 0.0051279003 0.146379 -0.24079177 -0.05780176 0.2020703 0.029722234
-0.05006824 -0.13520606 0.011052247 -0.14212686 -0.0412555 -0.0033896707 -0.17930196 -0.11667774
-0.087489985 -0.22269808 0.023811338 0.058344524 -0.07062149 0.07236324 -0.1086479 0.061483346
-0.18243542 -0.100760385 0.042931963 -0.1774852 -0.089028195 0.062111583 0.07354794 0.031758726
-0.095092915 -0.120282196 0.033400454 -0.0630847 0.106947474 -0.13561904 -0.024899676 -0.07885926
-0.024892433 0.026155064 -0.019081898 -0.052592468 0.061901916 -0.09901906 -0.018534278 -0.07893507
0.096161805 -0.051317066 -0.13936703 -0.12815411 0.10930825 0.12692001 -0.096453115 -0.005355304
0.00080413686 -0.094747975 -0.02319638 0.09201092 -0.13102078 -0.16595262 0.028206352 -0.1356853
-0.1302158 -0.13007793 0.03743344 0.09073356 -0.35180905 -0.2462744 -0.0033037756 -0.020501506
-0.18036596 -0.3260708 -0.26084095 -0.06978613 0.1526313 -0.19354574 -0.06585952 -0.14051072
0.051299628 0.07672807 -0.15395316 -0.11054489 0.06099062 -0.30972165 -0.1311649 -0.2637118
-0.15375106 -0.29146102 -0.16584362 -0.12662606 -0.11277366 -0.03703798 -0.06080262 -0.12744913
-0.04493058 -0.23345187 0.06650378 -0.033700604 -0.0138803255 -0.06169642 -0.27877992 -0.23461871
-0.12618665 0.055189606 -0.24719507 -0.08898199 -0.13215256 -0.14609782 0.03639485 0.060773276
-0.094113134 0.07496082 0.24975057 -0.09472417 -0.22173622 -0.13893642 0.20067507 -0.06511599
0.05054389 -0.034841113 0.08960864 0.06512832 0.12451443 -0.015506635 -0.14084576 -0.036254913
-0.048253015 -0.07521119 0.0670338 -0.100812815 0.114974566 -0.10014637 -0.12062391 0.023182131
0.030163396 0.11561154 0.0045672623 -0.073169105 0.08494598 0.123844944 0.043111276 -0.14426063
-0.049440928 0.07814695 -0.04894432 0.03801246 0.06983897 -0.032044243 0.07908095 -0.057638653
-0.008359742 0.035880346 0.1383999 -0.031894576 -0.06387629 -0.03156628 -0.018488804 -0.059277475
-0.07540955 -0.08264566 0.08929709 -0.0739825 0.011129385 -0.086623065 0.0426756 -0.022424713
0.07389356 -0.118165135 -0.02192349 0.13370326 0.04821444 -0.080745965 0.083526224 0.008886797
0.07448149 0.014772234 -0.039260842 0.08210885

gru.bias_hh_l0 f4 [180]
00000000: 7854 023d df0d febd fe19 60bd 1fab 123e
00000010: 8871 f3bd 7bfa bcbd b2db a93d 778b c43d
00000020: 7334 b5bd 2f7d 01be 668b 8bbd 4eeb a53d
00000030: 236c eebd c4c0 fbbd 116f 93bd 339c fcbc
00000040: 4735 3d3d f847 57be 802c cebc f980 d8bc
00000050: c1c0 c73c 9993 eebc 9912 21be 5168 01bd
00000060: 2fd3 96be b20d 0cbe 6a4e 80bd 9cf9 cdbd
00000070: e446 38be 2854 b7bc 77ab 5abd e032 073e
00000080: 9236 cf3c 0728 cbbd 839f 71bd 3572 94bd
00000090: c3fe e7ba 58a4 edbc ab6f 7b3d 9a26 9e3d
000000a0: 56c3 bbbd 1509 dcbc fd47 47be 31eb a7bd
000000b0: 9172 70bd 7384 c1bd 3747 823d 76a9 b9bd
000000c0: b472 dfbd 140a 17bc b46f 4dbe 084b 23be
000000d0: 4297 39bd 2192 a43c 0ee7 0abc bbca f63b
000000e0: 9e58 03be fb7f f0bc 18e5 4ebe 9e01 043c
000000f0: 132c 94bd b097 31be e7c5 053c 1921 41be
00000100: ac1b 31be 93c8 71be b1e5 663d 526b e73b
00000110: 003c 26be 3310 55be af9c 8ebd b375 a53d
00000120: e594 2bbe 133f a8be 5e02 0fbe 03e8 89bd
00000130: 66b1 673d b043 55be bbb8 ddbc cdd8 a4be
00000140: 14ca db3d fd6d a33d 539a 9bbd f597 f7bd
00000150: 63eb 2ebc fb00 87be 47cb 33be 5ddc 16be
00000160: bc13 12be dc1c 75be 4053 293d 3c03 73be
00000170: 962b ccbd aaec 6a3d 5173 32bc 2a18 2abe
00000180: a879 153d 7d0a a2bd 9f03 9c3d 99a2 163c
00000190: 442e 923d 6bfc d3bc e1fe ecbd 2898 dbbd
000001a0: b43a 96bd 8c5e 3ebc c6a6 a4be eddb b8bc
000001b0: 5842 65be 8bbc fbbd 8f82 26bd 1598 d53d
000001c0: 867f 5dbd d130 1b3d 62ba be3e eabc 83be
000001d0: 8187 67be d66c 88be 023c 9a3d 9196 44bd
000001e0: ba0c 003d 7f1c 94bd 53e0 473c 4f93 b63c
000001f0: 628e 8dbd 7eba a5bd e6d6 01be 48ee 38be
00000200: e648 103d e21b 8bbc c0fa cebd e17c 0f3c
00000210: 5ef0 bebd 41a2 d13d 8e97 9c3d 9e29 d4bc
00000220: b31e 02be b3ba d33d ca52 28bd 35d2 3b3d
00000230: 6901 333d d31b 833d e50d 80bd 13f5 be3c
00000240: 8a5a 4dbd 200a 1abd a555 98bd 5a3b 64bc
00000250: 7fc2 043d 4fce 7b3c 6497 b73d e937 a1bc
00000260: f754 563d 1353 ebbd 6af5 6d3d 60b7 d5bc
00000270: d274 80bc 7ba6 173d 54fc 4ebc e599 3bbd
00000280: de10 813d 8185 20be 00ee 4bbd 6e83 30bb
00000290: 8891 9d3d f6b5 4fbd faa8 52bd d7bb 55bd
000002a0: 1d53 173e e789 7d3d 03ef a0bd 9428 673d
000002b0: a121 0fbe 62db 52bd 11fe d9bd 4055 bbbc
000002c0: 7f37 17bd 5b0e 08bd 0df1 3bbd 30fa c43c
0.031818837 -0.124049895 -0.054712288 0.1432309 -0.11886889 -0.09227463 0.08293857 0.09596913
-0.088478945 -0.1264541 -0.068136975 0.081015214 -0.11641719 -0.122926265 -0.071989186 -0.0308362
0.046193387 -0.21023548 -0.025167704 -0.026428686 0.024383904 -0.029123114 -0.1572975 -0.031593625
-0.29457995 -0.136771 -0.06264956 -0.10057375 -0.17995793 -0.022378996 -0.053386178 0.13203001
0.025294576 -0.09919744 -0.058990013 -0.07248346 -0.0017699826 -0.02900903 0.06138579 0.077222064
-0.09168117 -0.0268598 -0.19461055 -0.08199156 -0.05870301 -0.09449091 0.063612394 -0.09065525
-0.1091055 -0.009218711 -0.20062143 -0.15946591 -0.045310266 0.020089211 -0.008477939 0.0075314916
-0.12826774 -0.0293579 -0.2020458 0.008057026 -0.07234969 -0.1734302 0.008164859 -0.18860282
-0.17295712 -0.23611669 0.056371395 0.007062354 -0.16233826 -0.20806961 -0.06963479 0.0807909
-0.16756018 -0.32860622 -0.13965747 -0.06733706 0.056565665 -0.20826602 -0.027065625 -0.32196656
0.10731903 0.07979963 -0.075977944 -0.120895304 -0.010676238 -0.26367936 -0.17558013 -0.147325
-0.1426534 -0.2393679 0.04133916 -0.23731703 -0.09969251 0.057354607 -0.010891751 -0.1661078
0.036492974 -0.07912157 0.07617878 0.00919404 0.07137731 -0.025877198 -0.11572052 -0.10722381
-0.073354155 -0.011619221 -0.32158488 -0.022565806 -0.2238859 -0.12291821 -0.040651854 0.10429398
-0.054076694 0.03788835 0.37251574 -0.25730067 -0.22610284 -0.26645535 0.07530977 -0.047995154
0.031262137 -0.07231998 0.012199479 0.02228704 -0.06911923 -0.08092211 -0.12679633 -0.18059647
0.03522577 -0.016981069 -0.101064205 0.008757801 -0.0932319 0.102360256 0.07646094 -0.02589875
-0.12707023 0.103383444 -0.04109458 0.045854766 0.043702517 0.064017914 -0.0625265 0.02331022
-0.050135173 -0.037607312 -0.074382104 -0.013930166 0.03241205 0.015369012 0.08964422 -0.01967998
0.052327123 -0.114904545 0.058095373 -0.026088417 -0.015680704 0.037024003 -0.012633402 -0.045801062
0.06302045 -0.15675928 -0.04978752 -0.0026933807 0.076937735 -0.05071064 -0.05143068 -0.05218109
0.14777799 0.061899092 -0.07858088 0.056435183 -0.13977672 -0.05147875 -0.106441624 -0.022867799
-0.03691816 -0.033216815 -0.04588418 0.02404508
