flu_models/flu_deploy_week_01_feats/seq_enc.pt (torch, 25195 bytes, 8 tensors)

gru.weight_ih_l0 f4 [90, 1]
0	0x3d4d6d29	0.05015293
1	0x3de17693	0.11008944
2	0x3e115f16	0.14196429
3	0xbde95f58	-0.113951385
4	0xbd97e410	-0.07416546
5	0xbdcbf074	-0.09957972
6	0xbe430d4a	-0.19048038
7	0xbe04aa9c	-0.12955707
8	0xbc5f657f	-0.013635038
9	0x3e879ac1	0.26485255
10	0xbe1abc36	-0.1511086
11	0x3d24019c	0.040040597
12	0x3de00ba3	0.109397195
13	0xbb6fd061	-0.003659271
14	0x3c26d80b	0.010183345
15	0x3e4dd603	0.2010117
16	0xbe0e64ec	-0.13905686
17	0xbd6aeb7c	-0.05735348
18	0x3dff1b51	0.12456382
19	0x3e12c0ed	0.14331408
20	0x3e1cef42	0.15325645
21	0xbd7c03c9	-0.061527047
22	0x3e0e04e8	0.13869059
23	0x3d40377b	0.04692791
24	0xbe558f67	-0.20855485
25	0xbd45cb78	-0.048289746
26	0x3e8dfa25	0.27729908
27	0x3e1b4b70	0.15165496
28	0xbd5f19da	-0.054468013
29	0xbe6f15a9	-0.23348106
30	0xbe46acb0	-0.19401813
31	0xbeb28bdc	-0.3487233
32	0x3e9175ad	0.28410092
33	0xbeaff1ef	-0.34364268
34	0xbe0a9c36	-0.13536152
35	0x3e5f066f	0.21779798
36	0xbe9991d4	-0.2999407
37	0xbcf41228	-0.029793814
38	0xbcfac1d5	-0.030610004
39	0x3d306b47	0.043071058
40	0xbe8ddb20	-0.27706242
41	0xbebfac51	-0.37436154
42	0x3e69a5b0	0.22817111
43	0x3d19b688	0.03752759
44	0x3d6229da	0.055215694
45	0x3e2c2b3d	0.16813369
46	0xbe1aba39	-0.15110101
47	0xbefe7ffc	-0.4970702
48	0xbe872a38	-0.26399398
49	0xbe0b1ddc	-0.13585609
50	0x3e6b7787	0.22994815
51	0x3dacce60	0.084378004
52	0x3d855174	0.065096766
53	0x3e585249	0.2112514
54	0xbd19be40	-0.037534952
55	0x3e8db971	0.27680543
56	0x3e2ed084	0.1707173
57	0xbe2bc3a3	-0.16773848
58	0xbc85efbe	-0.01634967
59	0x3d498afe	0.04920482
60	0x3e1ca935	0.15298922
61	0x3e20b651	0.15694548
62	0x3dab5b10	0.08366978
63	0x3e930fa4	0.2872287
64	0x3ddda405	0.108223
65	0xbc7e1565	-0.015508031
66	0x3e83370e	0.2562794
67	0xbe5e8e30	-0.21733928
68	0xbd890593	-0.06690516
69	0x3da87aee	0.08226572
70	0xbe3e1a89	-0.1856481
71	0xbe4e349c	-0.20137256
72	0x3cb7a58a	0.022417802
73	0xbe3abbb0	-0.1823566
74	0x3e37c654	0.1794675
75	0x3d5889bd	0.052865732
76	0x3e519655	0.20467503
77	0xbe3d5350	-0.18488812
78	0xbe4c005b	-0.1992201
79	0x3e22cbe1	0.15898086
80	0x3e759df0	0.2398603
81	0xbe120927	-0.14261304
82	0xbe1ed483	-0.15510754
83	0xbd78e367	-0.060763743
84	0x3e4f30d4	0.2023347
85	0xbc45410a	-0.012039432
86	0xbe1d9b3f	-0.15391253
87	0xbd780f0e	-0.060561232
88	0xbe4662fd	-0.19373699
89	0x3e556b0b	0.20841615

gru.weight_hh_l0 f4 [90, 30]
0	0xbe78ea48	-0.24308121
1	0x3d0b8137	0.034058776
2	0x3e4a444b	0.19752614
3	0xbe75cc4c	-0.24003714
4	0xbec4f25f	-0.38466164
5	0xbd3f8cb5	-0.046765048
6	0xbe596e15	-0.21233399
7	0xbb6f446c	-0.0036509288
8	0x3c221f05	0.009895091
9	0x3b041a78	0.0020157378
10	0x3dbf82ea	0.09351142
11	0x3ef8de91	0.48607305
12	0xbe0478b8	-0.12936676
13	0x3de01dd2	0.10943188
14	0x3e071513	0.13191633
15	0xbd1da331	-0.03848571
16	0xbdfee236	-0.1244549
17	0x3ecb91b9	0.39759615
18	0x3e41f1b2	0.18939856
19	0x3c099bef	0.008398994
20	0x3e8606ac	0.26176965
21	0xbe1d04fd	-0.15333934
22	0x3e03cead	0.1287181
23	0xbe8dbaa1	-0.2768145
24	0xbe47955b	-0.19490568
25	0xbe3e31cb	-0.18573682
26	0xbc7a99c9	-0.015295454
27	0xbcbcfc33	-0.023069477
28	0x3e69730a	0.2279779
29	0xbe47c132	-0.19507292
30	0x3e38c069	0.18042149
31	0x3e3ed14e	0.18634531
32	0x3e44b898	0.19211042
33	0xbe4ca3f9	-0.19984426
34	0x3db702c5	0.08936075
35	0x3c8a5284	0.01688505
36	0xbea90083	-0.33008203
37	0x3bf7a8cf	0.0075579653
38	0xbdc16423	-0.09442928
39	0x3e3b17a4	0.18270737
40	0x3e2a31d1	0.16620566
41	0xbe2d4c16	-0.16923556
42	0x3e2d6010	0.16931176
43	0xbd95ddc4	-0.07317689
44	0x3e9bb128	0.30408597
45	0xbc042694	-0.008065838
46	0x3ca5bb9b	0.020231059
47	0x3d8b0381	0.06787778
48	0x3eb1fafc	0.34761798
49	0x3cd1e6c7	0.025622739
50	0x3e8c2594	0.2737242
51	0xbe5a1844	-0.21298319
52	0xbe83c3a8	-0.2573521
53	0xbe958262	-0.29201037
54	0xbde2866b	-0.110607944
55	0x3e2fb32a	0.1715819
56	0xbd80f7df	-0.06297278
57	0xbdeaefe2	-0.11471535
58	0xbe31408a	-0.17309776
59	0x3d09b436	0.03361913
60	0x3dab63dc	0.08368656
61	0xbdfa4368	-0.12219888
62	0x3e208edb	0.15679495
63	0xbe59c925	-0.21268137
64	0x3db09549	0.08622224
65	0x3d119056	0.03553804
66	0xbe84445e	-0.2583341
67	0xbeaff5f2	-0.3436733
68	0xbf04bc65	-0.5184997
69	0x3e8f2b41	0.27962688
70	0x3dafced1	0.08584369
71	0xbe5b4de0	-0.21416426
72	0x3e521845	0.2051707
73	0x3e269ff0	0.16271949
74	0x3ecbee66	0.3983032
75	0x3eaac63c	0.33354366
76	0xbd982339	-0.07428593
77	0x3e1c0f0a	0.15240112
78	0x3e8e5cf8	0.27805305
79	0x3ea54411	0.32278493
80	0x3e35ace1	0.1774173
81	0xbc82249d	-0.0158866
82	0xbdf9c430	-0.12195623
83	0xbe712d3b	-0.2355241
84	0xbddeff2a	-0.108885124
85	0xbe611943	-0.21982293
86	0xbee1f25f	-0.44130227
87	0x3dcad98e	0.099047765
88	0xbe060aa6	-0.1309
89	0xbad1aa21	-0.0015996137
90	0x3d6dd06f	0.058060106
91	0x3e0746f0	0.13210654
92	0x3e835872	0.25653416
93	0x3e34a92a	0.17642656
94	0x3e882bf9	0.26596048
95	0xbe9e9b18	-0.30977702
96	0x3bd03fa6	0.0063552437
97	0xbcdb8512	-0.026796851
98	0xbe93b808	-0.28851342
99	0x3db48141	0.08813716
100	0xbe7b97ae	-0.2456958
101	0xbeb8925a	-0.36049157
102	0x3e48a3cd	0.19593735
103	0x3de6d74d	0.11271534
104	0x3eabfe01	0.33592227
105	0x3e036c81	0.1283436
106	0xbe0caaa2	-0.13736966
107	0x3dab9cfe	0.08379553
108	0x3e2a22ac	0.16614789
109	0x3e32d4bc	0.17463964
110	0x3e66d89b	0.22543566
111	0xbe5849cc	-0.21121901
112	0xbe15476b	-0.14578025
113	0xbe9bb75c	-0.3041333
114	0x3e946cbe	0.28989214
115	0xbda3fdf4	-0.08007422
116	0xbd5cb667	-0.05388489
117	0xb94a94d4	-0.00019319664
118	0xbeafcec4	-0.34337437
119	0x3e768aa0	0.24076319
120	0x3c782591	0.015145675
121	0x3c33f47c	0.010983583
122	0x3e9ad8a9	0.30243424
123	0xbe8a9a59	-0.27070883
124	0xbe526845	-0.20547588
125	0xbea7cf39	-0.32775286
126	0xbd6a0a0a	-0.05713848
127	0xbe9021d1	-0.281508
128	0xbed35628	-0.4127667
129	0x3efd2ab0	0.4944663
130	0x3cc56296	0.024094861
131	0x3e1d1440	0.15339756
132	0x3eba7ac4	0.36421788
133	0xbe1f9ec1	-0.15587904
134	0x3e571099	0.21002425
135	0x3e19d327	0.15021954
136	0xbd278f84	-0.04090835
137	0x3e26e5c8	0.16298592
138	0x3e7aa041	0.24475195
139	0x3e9fcb89	0.31209973
140	0x3eb7e2bd	0.35915175
141	0xbea6e52b	-0.32596716
142	0xbeac1b23	-0.33614454
143	0xbea3e869	-0.32013252
144	0x3e448572	0.1919153
145	0xbbac508b	-0.005258625
146	0xbe1a5f27	-0.1507536
147	0x3dbe4883	0.09291174
148	0x3d737fe8	0.059448153
149	0xbd925601	-0.0714531
150	0xbb687b60	-0.0035473928
151	0x3e8b66dc	0.27226913
152	0x3cb711f5	0.02234743
153	0x3e35889e	0.17727897
154	0x3e9295bc	0.28629863
155	0x3e2d3841	0.1691599
156	0x3e6018b3	0.21884422
157	0xbe2777ec	-0.1635434
158	0xbe61e8c6	-0.22061452
159	0x3cb7539d	0.022378737
160	0xbe4c8e1b	-0.19976084
161	0xbc84985e	-0.016185936
162	0x3e7de02d	0.24792548
163	0xbe135b4d	-0.14390297
164	0x3e7c1094	0.24615699
165	0x3cd6bf4f	0.02621427
166	0x3e33bb1e	0.17551848
167	0xbdd6ad0a	-0.10482223
168	0xbe827620	-0.25480747
169	0x3c16c5e7	0.009202457
170	0x3d044409	0.032291446
171	0xbd9ab529	-0.07554085
172	0x3d38738b	0.045032065
173	0xbdf31771	-0.118697055
174	0xbd8f471f	-0.06995987
175	0xbdc7ca1e	-0.09755348
176	0x3d8ab375	0.0677251
177	0x3d35f7b7	0.044425692
178	0xbebabc7d	-0.3647193
179	0xbd05e473	-0.03268857
180	0xbd99c385	-0.075079955
181	0x3e647939	0.22311868
182	0x3e273c58	0.16331613
183	0x3d80802c	0.06274447
184	0x3d970060	0.073731184
185	0xbcd5864a	-0.02606501
186	0x3e1110cd	0.14166565
187	0xbe47b1de	-0.19501445
188	0xbd6ca26a	-0.057772078
189	0x3e8ec385	0.27883545
190	0xbb8ca475	-0.0042920657
191	0x3c8c3dc4	0.017119296
192	0x3cfd613f	0.03093016
193	0xbdc371ba	-0.09543176
194	0x3d4a14a6	0.049336098
195	0xbdcc160a	-0.09965141
196	0xbde275a8	-0.110575974
197	0x3e153b53	0.14573412
198	0x3e44feb8	0.19237792
199	0x3daca718	0.08430308
200	0x3e464ab4	0.19364434
201	0xbe78de57	-0.24303566
202	0xbe5032e3	-0.20331912
203	0xbed2faf6	-0.41207093
204	0x3e6962be	0.22791573
205	0xbdfc18c0	-0.12309408
206	0xbc133a7a	-0.00898611
207	0x3e11f399	0.14253081
208	0xbdbc5a43	-0.091969036
209	0xbb8c13ae	-0.004274807
210	0x3e092d61	0.13396217
211	0xbe60fb34	-0.21970826
212	0xbb8f658d	-0.0043761195
213	0xbe96eaed	-0.2947611
214	0xbe107286	-0.14106187
215	0xbe8c0005	-0.27343765
216	0xbe900712	-0.28130394
217	0x3d040d61	0.03223932
218	0xbb741f1f	-0.0037249995
219	0x3e37b907	0.17941676
220	0x3dc762a9	0.09735615
221	0x3d505183	0.050858986
222	0x3d8913dd	0.06693242
223	0x3e07899b	0.13236086
224	0x3e17c8c4	0.1482268
225	0x3d0d1bdf	0.034450408
226	0xbb2778a9	-0.0025554097
227	0x3d7d8131	0.061890785
228	0x3e2e4576	0.17018685
229	0xbdb7730a	-0.08957489
230	0x3e082b4d	0.13297768
231	0xbeae2f23	-0.34020337
232	0x3d2e7bdc	0.04259859
233	0xbe242a9b	-0.16031878
234	0x3df2d87c	0.11857697
235	0xbd1ca7a1	-0.0382458
236	0x3d904f81	0.07046414
237	0x3d94ed6b	0.072718464
238	0x3ddaadfb	0.106777154
239	0xbc571c2d	-0.013129276
240	0x3e5a6b31	0.21329953
241	0x3db7f372	0.089819804
242	0xbdf89bdd	-0.121391036
243	0x3ebc5c76	0.36789292
244	0x3e00e872	0.12588671
245	0x3ddd10d5	0.10794226
246	0x3e6fe841	0.23428442
247	0xbe18c8f0	-0.14920402
248	0xbe4335b6	-0.19063458
249	0x3e5c4890	0.21512055
250	0xbdb17a3e	-0.08665894
251	0xbec7be6a	-0.39012462
252	0x3e4f300d	0.20233174
253	0xbe2f6191	-0.17127062
254	0x3d192b5c	0.037394866
255	0xbcb9bfbd	-0.022674436

gru.bias_ih_l0 f4 [90]
0	0xbc3a0f6a	-0.011356214
1	0xbe1c4be8	-0.15263331
2	0xbd95ea09	-0.07320029
3	0x3d9e04d9	0.07715768
4	0x3e12bac3	0.14329056
5	0xbe3b3d7e	-0.18285176
6	0x3e058d03	0.13042073
7	0x3db22c55	0.08699862
8	0x39ad36ea	0.00033038046
9	0x3d4bf881	0.04979754
10	0xbe7c73f5	-0.24653609
11	0x3e8e6431	0.27810815
12	0x3c94de94	0.01817254
13	0xbd39cdf0	-0.045362413
14	0x3cdf580c	0.027263664
15	0x3e30252d	0.17201681
16	0x3e59b07f	0.21258734
17	0x3b700e49	0.0036629608
18	0x3e0f63e9	0.14002956
19	0x3b8b555d	0.0042521195
20	0x3d842958	0.06453198
21	0xbe1e115f	-0.15436314
22	0x3e05f030	0.13079906
23	0x3da2d295	0.079503216
24	0xbf1c9aad	-0.61173517
25	0xbe8a6e4d	-0.27037278
26	0x3d725779	0.05916545
27	0x3d934682	0.07191183
28	0xbe02a72a	-0.1275908
29	0x3c941b93	0.018079555
30	0xbcee239a	-0.02906971
31	0xbd74c5c9	-0.059758935
32	0x3e6c0c80	0.23051643
33	0xbe0bd620	-0.13655901
34	0x3b7aa98b	0.0038248028
35	0x3c8416f4	0.016124226
36	0xbe069dfc	-0.13146204
37	0x3c36ef59	0.011165463
38	0xbe393afc	-0.18088907
39	0xbd81f23f	-0.06345033
40	0xbd228162	-0.03967417
41	0xbe4c6d4f	-0.19963573
42	0x3dba0c8a	0.09084423
43	0x3da1d759	0.079024024
44	0x3bbe32b2	0.005804383
45	0x3c2b5420	0.010457069
46	0xbe493b67	-0.19651566
47	0xbe79e00c	-0.24401873
48	0xbedda911	-0.4329305
49	0x3e25625a	0.161508
50	0xbc4f7bdf	-0.0126638105
51	0x3e4d01eb	0.20020263
52	0xbe36255f	-0.17787693
53	0xbd118faf	-0.035537418
54	0xbe0de45b	-0.13856642
55	0x3e521060	0.20514059
56	0xbd7de716	-0.06198796
57	0xbe5204ae	-0.20509598
58	0xbe9b3d01	-0.3031998
59	0x3e47c9d9	0.19510593
60	0x3d5a879c	0.053351983
61	0xbe0b593f	-0.13608263
62	0x3e477617	0.19478641
63	0xbde30cd3	-0.110864304
64	0xbdfeb687	-0.12437158
65	0xbe1de1b2	-0.15418127
66	0xbe1e1163	-0.1543632
67	0x3e714c4c	0.23564261
68	0x3e095829	0.13412537
69	0xbdf99561	-0.12186695
70	0x3d72742f	0.059192833
71	0x3de053db	0.10953494
72	0xbe112f51	-0.14178206
73	0xbd249f79	-0.040191147
74	0xbe336942	-0.17520621
75	0x3ce7e3f7	0.028306944
76	0xbda36aa2	-0.07979323
77	0x3e9026fb	0.2815474
78	0x3de1e804	0.110305816
79	0x3c93b861	0.018032255
80	0xbd2f0786	-0.042731784
81	0xbd70da17	-0.058801737
82	0x3cef8b3d	0.029241199
83	0x3e066371	0.13123871
84	0xbdbafeea	-0.09130652
85	0xbcf2be0a	-0.029631633
86	0x3de73eee	0.112913
87	0x3b2cf693	0.0026392087
88	0x3e6b6105	0.22986229
89	0xbe256789	-0.16152777

gru.bias_hh_l0 f4 [90]
0	0xbd5b0963	-0.05347575
1	0xbe13ba70	-0.14426589
2	0x3d05a284	0.03262569
3	0x3c85fc05	0.016355524
4	0x3dd22c2f	0.102623336
5	0xbe164b9e	-0.14677283
6	0x3dc7fb4d	0.09764729
7	0xbdb8bcdd	-0.09020398
8	0xbe3070f1	-0.17230584
9	0xbe082c52	-0.13298157
10	0xbd6bea3a	-0.057596423
11	0x3e989913	0.29804286
12	0xbe72aea7	-0.23699437
13	0xbd59dda6	-0.053189896
14	0x3db69db2	0.08916797
15	0x3df91625	0.12162427
16	0x3e9b4f69	0.30334023
17	0xbcc65e50	-0.024214894
18	0x3d71cf64	0.059035674
19	0x3dfb0932	0.12257613
20	0xbd6ea4e2	-0.058262713
21	0xbe830c06	-0.2559511
22	0x3d82b9a1	0.06383062
23	0x3e3d5216	0.18488345
24	0xbeb98be6	-0.36239547
25	0xbeb52b22	-0.3538447
26	0x3bdc220a	0.006717925
27	0x3dec593d	0.11540458
28	0xbe0601c6	-0.13086614
29	0xbd8d1e5f	-0.068905585
30	0x3e8f1969	0.27949074
31	0xbd2e2c95	-0.042522985
32	0x3e2d5fa3	0.16931014
33	0xbe0f5600	-0.1399765
34	0xbd3da8c9	-0.046303544
35	0x3e0aa4c6	0.13539419
36	0xbec7db7f	-0.3903465
37	0x3cce8db3	0.025214052
38	0x3da680c8	0.08130032
39	0x3d2004ea	0.039067186
40	0xbe0c99b7	-0.13730513
41	0xbe80cb59	-0.25155142
42	0x3d39a526	0.045323513
43	0xbe2e8ba7	-0.1704546
44	0x3d8475b9	0.06467766
45	0x3e115199	0.14191283
46	0xbe309ee4	-0.17248112
47	0xbee010e4	-0.43762887
48	0xbe016bcc	-0.12638777
49	0xbd9ddc0e	-0.07707988
50	0x3e03293d	0.128087
51	0x3dd14e15	0.10219971
52	0x3c10bae0	0.008833617
53	0x3dce646e	0.10077749
54	0xbea1b80b	-0.31585726
55	0x3e8ab678	0.27092338
56	0x3d5d7b3d	0.054072607
57	0xbe3f8caa	-0.18706003
58	0xbd165cde	-0.03670966
59	0x3d243c87	0.040096786
60	0xbdc137bd	-0.09434459
61	0xbd7a730a	-0.061144866
62	0x3e539674	0.20662862
63	0xbe39b670	-0.18136
64	0xbe719a80	-0.23594093
65	0xbdbf449a	-0.093392566
66	0xbdde4c34	-0.10854378
67	0x3e446ff9	0.19183339
68	0xbdb14f2a	-0.086576775
69	0x3e23b460	0.15986776
70	0xbdf67b6d	-0.1203526
71	0x3dd41153	0.10354867
72	0x3dccd426	0.100014016
73	0x3b300565	0.0026858684
74	0x3dddea29	0.10835678
75	0x3d2173a5	0.039416928
76	0xbed2eff2	-0.4119869
77	0x3d92a921	0.07161165
78	0x3e70989c	0.23495716
79	0xbd2060be	-0.03915476
80	0x3e820128	0.25391507
81	0xbe11bfb2	-0.14233282
82	0xbe088e28	-0.13335478
83	0x3ddf5cf1	0.10906399
84	0x3dc3cb1d	0.09560225
85	0xbe055611	-0.13021113
86	0x3e0fbe13	0.14037351
87	0x3c4d4073	0.012527573
88	0xbc983122	-0.018578116
89	0x3c716b77	0.014735094

gru.weight_ih_l0_reverse f4 [90, 1]
0	0xbe06bc7c	-0.13157839
1	0xbd296887	-0.04135945
2	0xbd344337	-0.044009414
3	0xbea88ad3	-0.32918414
4	0xbe8eefee	-0.27917427
5	0x3d9084a6	0.07056551
6	0x3d9eb3ef	0.07749163
7	0xbe314bd1	-0.17314078
8	0x3bddf338	0.0067733787
9	0xbe87cd5d	-0.26523867
10	0xbe22dec7	-0.15905295
11	0xbeb1f729	-0.3475888
12	0x3d910b19	0.07082195
13	0x3d1daeb7	0.0384967
14	0xbe080159	-0.13281764
15	0xbdead3eb	-0.114662014
16	0xbe90fe53	-0.28319034
17	0x3e019dcb	0.1265785
18	0xbdb6aa1c	-0.089191645
19	0x3cee5a11	0.029095681
20	0xbde373ae	-0.111060485
21	0x3dc49717	0.095991306
22	0xbe26d9cc	-0.1629402
23	0xbcfc1d0f	-0.030775575
24	0x3d281809	0.041038547
25	0x3db6bdf2	0.08922948
26	0x3e5150ad	0.20440932
27	0xbdd71417	-0.10501879
28	0xbe338102	-0.17529681
29	0xbe8c2663	-0.27373037
30	0xbe30b821	-0.1725774
31	0xbbc1819c	-0.005905343
32	0x3e0379b3	0.12839393
33	0x3ea200b9	0.31641176
34	0x3e4e0d64	0.20122296
35	0x3d7664bd	0.060154665
36	0xbe80b5e6	-0.25138777
37	0xbe948d4c	-0.2901405
38	0xbe8f55ea	-0.27995235
39	0x3dd56b7f	0.10420894
40	0xbe76e1e6	-0.24109611
41	0xbea9f91c	-0.33197868
42	0x3e7878bd	0.24264808
43	0xbe43f4ba	-0.19136325
44	0xbdf5d510	-0.12003529
45	0xbe4b1249	-0.19831194
46	0x3eec0607	0.46098348
47	0x3e2750b5	0.16339381
48	0xbe3e660a	-0.18593612
49	0x3db5da67	0.088795476
50	0x3e40b6a2	0.18819669
51	0x3e4a014f	0.19727062
52	0xbdec9a99	-0.11552925
53	0xbc4f262d	-0.012643379
54	0xbd879d64	-0.06621817
55	0x3e9ea63b	0.309862
56	0xbe463cb7	-0.19359098
57	0xbe9c4963	-0.3052474
58	0x3ea901db	0.33009228
59	0x3e74065c	0.23830551
60	0x3dbff36d	0.09372602
61	0xbd8eafd1	-0.06967128
62	0x3ca8676b	0.020557126
63	0x3dd81af7	0.10552018
64	0x3dcdd38b	0.10050114
65	0x3d99d19f	0.07510685
66	0xbe2336d7	-0.15938888
67	0xbe0c7f8c	-0.1372053
68	0x3e5a1623	0.21297507
69	0x3de10e2f	0.109890334
70	0xbdf86181	-0.121279724
71	0x3e425936	0.18979344
72	0x3ccde02e	0.025131311
73	0xbe1efe5a	-0.15526715
74	0x3e6277a6	0.22115955
75	0xbdacd55b	-0.08439132
76	0xbd216aa4	-0.03940834
77	0x3cd417c7	0.025890244
78	0x3e869ad1	0.2628999
79	0xbe127002	-0.1430054
80	0xbd31eea8	-0.04344049
81	0xbe9508f9	-0.29108408
82	0x3e0c0df0	0.13677192
83	0x3dc7a664	0.09748533
84	0xbe1fc899	-0.15603866
85	0xbd23abc5	-0.039958734
86	0xbe4f75e3	-0.20259814
87	0x3e2d7bbf	0.16941737
88	0xbcdeb5e3	-0.02718634
89	0x3e6e1f66	0.23254165

gru.weight_hh_l0_reverse f4 [90, 30]
0	0xbe0deff4	-0.13861066
1	0x3e337ff3	0.17529278
2	0xbe00912f	-0.12555383
3	0x3e2a259d	0.16615911
4	0xbcfcf626	-0.030879091
5	0x3dd878a1	0.10569883
6	0xbc626f36	-0.01382046
7	0xbdb9b76d	-0.09068189
8	0xbcfe5a14	-0.031048812
9	0x3d9aa262	0.07550503
10	0x3dc75ffe	0.09735106
11	0x3e26db11	0.16294505
12	0x3bba520e	0.005686051
13	0x3d8d40ff	0.06897163
14	0x3df75970	0.12077606
15	0xbd9a2521	-0.07526613
16	0xbd726a9c	-0.059183702
17	0x3dab5e42	0.083675876
18	0xbd390bcb	-0.045177262
19	0x3d5454ac	0.051838562
20	0x3da2010d	0.07910357
21	0xbce546d1	-0.02798787
22	0xbd53043b	-0.051517706
23	0x3e2a65ea	0.1664044
24	0x3d925134	0.071443945
25	0xbe358026	-0.17724666
26	0xbe2fc0d3	-0.171634
27	0xbcf56e59	-0.029959844
28	0xbde0959a	-0.10966034
29	0x3e14c8a6	0.14529666
30	0x3e0a056b	0.1347863
31	0x3df319f5	0.11870185
32	0x3e19b157	0.15009056
33	0x3e0c9442	0.13728431
34	0x3e1a4c4d	0.15068169
35	0x3bd637cf	0.0065374146
36	0x3e21e466	0.15809783
37	0x3d78e8f2	0.06076903
38	0x3dbf3109	0.093355246
39	0xbdba1091	-0.09085191
40	0x3da24399	0.079230495
41	0xbe1ceb7a	-0.15324202
42	0x3b58d696	0.0033086888
43	0xbdd03423	-0.10166194
44	0x3c8c24c9	0.017107384
45	0x3c987d54	0.018614449
46	0xbc9fa3d1	-0.019487293
47	0x3e39f186	0.1815854
48	0xbe2d4423	-0.16920523
49	0xbe37cfd3	-0.17950372
50	0x3c429dd9	0.011878454
51	0xbdf60bc9	-0.120139666
52	0xbdf82a28	-0.12117416
53	0xbddfd07e	-0.109284386
54	0x3e169fb2	0.14709356
55	0xbdede268	-0.11615449
56	0xbe19c942	-0.1501818
57	0x3e061805	0.130951
58	0xbdf070a3	-0.11740234
59	0xbca79e8c	-0.020461343
60	0xbde1645e	-0.11005472
61	0x3d5d52fa	0.05403421
62	0x3e2123ac	0.15736264
63	0xbde1de1f	-0.11028694
64	0xbe07df78	-0.1326884
65	0x3d9cbdfc	0.07653424
66	0xbde303df	-0.11084723
67	0x3d8f8d3d	0.07009361
68	0x3de6e2a8	0.112737
69	0x3e0d9260	0.13825369
70	0x3cc086c5	0.023501763
71	0x3e2bc31f	0.16773652
72	0xbd47c85e	-0.04877507
73	0x3dd4ce18	0.10390872
74	0xbd67fbf0	-0.05663675
75	0xbdca2799	-0.09870834
76	0x3d5fa103	0.054596912
77	0x3dcaf8da	0.09910746
78	0x3dafd431	0.08585394
79	0x3df464b4	0.1193327
80	0xba70b384	-0.00091820234
81	0x3d92da31	0.07170523
82	0x3e056399	0.13026275
83	0xbdff8b78	-0.124777734
84	0xbd11006f	-0.035400804
85	0x3de79254	0.11307207
86	0xbd085b57	-0.033290233
87	0x3e1dcdc4	0.15410525
88	0x3dad8d4d	0.084742166
89	0xbd9cd834	-0.07658425
90	0x3e12a5b2	0.1432102
91	0xbd91b714	-0.071149975
92	0x3df2ed1a	0.1186163
93	0x3e12abbf	0.14323328
94	0x3de7abf2	0.11312093
95	0x3e11b7a2	0.14230207
96	0x3c6ff5a4	0.014645968
97	0xbe1eea3c	-0.15519041
98	0x3e1221e1	0.14270736
99	0x3c8fba21	0.017544808
100	0xbd934c6a	-0.07192309
101	0xbce66b70	-0.028127402
102	0xbddb60c1	-0.10711814
103	0x3da79b3d	0.08183906
104	0xbe33e20b	-0.17566697
105	0x3dad55d2	0.084636346
106	0xbe317ffb	-0.17333977
107	0xbdb5dd72	-0.08880128
108	0x3dff44c7	0.1246429
109	0xbce4c1cf	-0.027924446
110	0x3e022798	0.12710416
111	0x3e147d0a	0.14500824
112	0xbd6a7003	-0.05723573
113	0x3b2a9992	0.0026031476
114	0xbe0df553	-0.13863115
115	0xbd639698	-0.05556354
116	0x3d9008cf	0.0703293
117	0xbd58b0b3	-0.05290289
118	0x3e188678	0.14895046
119	0x3dc89da6	0.09795694
120	0x3def14db	0.116739
121	0x3e1250eb	0.1428868
122	0x3c46d3f3	0.012135494
123	0xbbe87f2f	-0.0070952396
124	0xbd13a785	-0.03604843
125	0x3e2e0cfc	0.1699714
126	0x3e008739	0.12551583
127	0xbe0e94c0	-0.13923931
128	0x3d516b79	0.051127885
129	0xbd4d6023	-0.05014051
130	0x3e1e4221	0.15454914
131	0xbdd78f9e	-0.1052544
132	0xbe11964d	-0.14217491
133	0x3d25c8ab	0.040474575
134	0xbdfff9fe	-0.12498854
135	0x3e22f538	0.15913856
136	0x3e2de8de	0.16983363
137	0xbe029b60	-0.12754583
138	0xbcfc936c	-0.030832015
139	0xbcbe88b4	-0.023258545
140	0xbe2d896e	-0.16946957
141	0xbe0d8e97	-0.13823925
142	0x3e2e09f1	0.1699598
143	0x3e099652	0.13436249
144	0xbd84d800	-0.06486511
145	0x3d8e4435	0.06946603
146	0xbd23149f	-0.039814588
147	0x3ce91e7b	0.028456917
148	0xbc47668e	-0.012170447
149	0x3d835f0e	0.064146146
150	0xbdc94dd3	-0.09829297
151	0x3e2162ff	0.1576042
152	0xbd01d1fa	-0.03169439
153	0x3e38408e	0.17993376
154	0xbdcf8ee5	-0.10134677
155	0xbd059887	-0.032616165
156	0x3e06959d	0.1314301
157	0xbe2bf32b	-0.1679198
158	0x3d28f16d	0.041245867
159	0x3dabdba4	0.083915025
160	0xbc09124d	-0.00836618
161	0xbe0f0407	-0.1396638
162	0xbdf85f06	-0.12127499
163	0x3db3518a	0.08755787
164	0xbe35f4af	-0.1776912
165	0xbddd59e1	-0.10808159
166	0x3df9011d	0.121584155
167	0xbd3f8c81	-0.046764854
168	0xbe35a6d3	-0.1773942
169	0xbd9d15e4	-0.07670191
170	0x3cbdcdd6	0.02316944
171	0xbd941c8d	-0.07232008
172	0xbdb359d3	-0.08757367
173	0xbdd5c33f	-0.10437631
174	0x3e1e4448	0.15455735
175	0x3e1afaef	0.15134786
176	0xbdff9326	-0.12479238
177	0x3df5ca6f	0.12001502
178	0x3e3295dc	0.1743998
179	0xbd92c2c1	-0.071660526
180	0x3d911a39	0.0708508
181	0xbe39dc84	-0.18150526
182	0x3e180129	0.14844193
183	0xbdc55d45	-0.096369304
184	0xbe22016a	-0.15820852
185	0xbde71405	-0.11283115
186	0xbe3636a6	-0.17794284
187	0x3e2651bb	0.16242115
188	0xbe2954c7	-0.16536246
189	0xbe1ea7a1	-0.15493633
190	0x3d628b7d	0.055308808
191	0x3dd55eec	0.104184955
192	0xbdae2566	-0.08503227
193	0x3db3ce3a	0.08779569
194	0xbca30948	-0.019901887
195	0xbe02ff28	-0.12792647
196	0x3da86565	0.082224645
197	0x3dbcd148	0.09219605
198	0xbe2bebed	-0.16789217
199	0xbe2222bc	-0.15833563
200	0xbcad3ddf	-0.021147666
201	0xbe124760	-0.1428504
202	0xbe0e1b6f	-0.13877653
203	0x3ce99f3d	0.028518314
204	0x3c616a21	0.013758213
205	0x3d871a43	0.06596806
206	0xbdde55ac	-0.10856184
207	0xbdaafcdb	-0.083490096
208	0xbe34e969	-0.17667164
209	0x3dcb0ffb	0.099151574
210	0xbe226dbd	-0.15862174
211	0x3d0b9a0d	0.03408246
212	0x3e0ba3c5	0.13636692
213	0x3d92ddcf	0.07171213
214	0x3dd8e115	0.10589806
215	0x3e1d3d4a	0.15355411
216	0x3ad482ba	0.0016213276
217	0xbd9487c7	-0.0725246
218	0x3aec25f7	0.0018016685
219	0xbe1599c2	-0.14609435
220	0xbdeb6694	-0.114941746
221	0x3dc18f49	0.094511576
222	0x3dfb3057	0.122650795
223	0x3da2d652	0.079510346
224	0xbe20b4f5	-0.1569403
225	0xbdffbda1	-0.12487341
226	0x3e193df9	0.14965047
227	0x3c33b2f1	0.010967956
228	0xbe08789f	-0.13327263
229	0x3d128a68	0.035776526
230	0x3dcfe65f	0.10151362
231	0x3dd04f2e	0.10171352
232	0x3e00dc16	0.12583956
233	0xbda74051	-0.08166564
234	0x3dd4b252	0.103855744
235	0xbe048fcd	-0.1294548
236	0x3dbeccf0	0.093164325
237	0xbe0f1d00	-0.13975906
238	0x3aa929de	0.0012906154
239	0x3e271c7c	0.1631946
240	0x3e07fab5	0.13279231
241	0x3daa1cce	0.08306275
242	0x3c4ad246	0.012379235
243	0x3dce714b	0.10080203
244	0x3b03d248	0.002011435
245	0x3e18dc48	0.1492778
246	0x3dd08de5	0.10183314
247	0x3e387b89	0.18015875
248	0xbd738f40	-0.059462786
249	0x3dc42eb9	0.09579224
250	0x3e0a180b	0.13485734
251	0x3db5cdac	0.088771194
252	0xbdd2d4f8	-0.10294527
253	0x3d899b8a	0.0671912
254	0xbdb8c22e	-0.09021412
255	0xbe23eeab	-0.16009013

gru.bias_ih_l0_reverse f4 [90]
0	0xbd4df1dc	-0.050279483
1	0xbe6a0acd	-0.22855683
2	0xbe1575b7	-0.14595686
3	0xbed20471	-0.41019014
4	0x3dcb08e6	0.099138066
5	0xbdf17e4d	-0.11791668
6	0x3cedbc7b	0.029020539
7	0x3e728136	0.23682103
8	0x3e024bfa	0.12724295
9	0xbe5561e6	-0.20838127
10	0x3e304a76	0.17215905
11	0xbc64e54a	-0.013970682
12	0x3e03647d	0.12831302
13	0xbea46dc5	-0.32114998
14	0xbdf1ab24	-0.118002206
15	0x3e838eea	0.25694972
16	0x3d249498	0.040180773
17	0xbe6c67e2	-0.23086503
18	0x3d3e46a7	0.046454098
19	0x3e904a6b	0.28181776
20	0xbd6beace	-0.057596974
21	0xbe3dc12b	-0.18530719
22	0x3db1eb6a	0.0868748
23	0xbc8e8292	-0.017396245
24	0xbc0b827f	-0.008514999
25	0xbe7599f2	-0.23984507
26	0xbd60865f	-0.054815646
27	0xbe05bb90	-0.1305983
28	0xbed47366	-0.41494292
29	0xbe8ce20c	-0.2751621
30	0x3e476382	0.19471553
31	0x3eabd037	0.33557293
32	0x3de9f303	0.11423304
33	0x3e88da54	0.2672907
34	0x3dcf8095	0.10131947
35	0x3e6d87c8	0.23196328
36	0xbda816ed	-0.08207498
37	0x3e1851fa	0.14875022
38	0xbe9cd435	-0.3063065
39	0x3e62bbce	0.22141954
40	0xbe9afe6e	-0.3027224
41	0xbe39ac41	-0.18132116
42	0x3e303c20	0.17210436
43	0x3c8f39bf	0.01748359
44	0xbe811b78	-0.2521627
45	0x3e1494d3	0.14509897
46	0x3e9959ed	0.2995142
47	0x390c80cc	0.00013399421
48	0xbe84a40a	-0.25906402
49	0x3d24d300	0.040240288
50	0x3d87ff4e	0.066404924
51	0xbe2184d0	-0.1577332
52	0x3d13c548	0.036076814
53	0xbdaba214	-0.08380523
54	0x3c78c450	0.015183523
55	0x3f0486bc	0.5176809
56	0xbdf2e2c7	-0.118596606
57	0x3d4f618d	0.05063014
58	0x3ecea73e	0.4036197
59	0x3b933364	0.00449221
60	0xbd33303e	-0.04374718
61	0x3d80fc64	0.0629814
62	0x3cf3a665	0.029742429
63	0x3cf758a1	0.030193629
64	0xbe5c29de	-0.21500346
65	0x3da98e80	0.08279133
66	0x3dfead0b	0.12435349
67	0x3c169e94	0.009193081
68	0xbdd8b168	-0.105807126
69	0xbe238fe0	-0.15972853
70	0x3e1efd7c	0.15526384
71	0x3dee6552	0.11640419
72	0xbdc64c73	-0.0968255
73	0x3e7bb9ad	0.24582548
74	0xbe63d4d2	-0.22249153
75	0xbbe15040	-0.0068760216
76	0x3e0d6185	0.13806732
77	0x3e3a08ac	0.1816737
78	0xbe647605	-0.22310646
79	0xbe973b93	-0.2953764
80	0x3d98d993	0.07463374
81	0xbed31f25	-0.412347
82	0x3da29964	0.07939413
83	0xbd2ff2e0	-0.042956233
84	0x3e055b78	0.13023174
85	0x3d08bfab	0.033385914
86	0x3e305152	0.17218521
87	0xbe48b8de	-0.19601771
88	0x3dec465c	0.115368575
89	0xbd5a1018	-0.053238004

gru.bias_hh_l0_reverse f4 [90]
0	0xbe01e27e	-0.12684056
1	0xbd0dd923	-0.034630906
2	0xbe4b857f	-0.19875143
3	0xbe9fa10d	-0.3117756
4	0x3e0be277	0.13660608
5	0xbe37b663	-0.17940669
6	0x3e99b5f2	0.30021626
7	0x3e4c0373	0.19923191
8	0xbe00fc61	-0.12596275
9	0xbe5b1d2a	-0.21397844
10	0xbd5c42c7	-0.05377462
11	0x3dee0458	0.11621922
12	0xbd5456cf	-0.0518406
13	0xbdca0e08	-0.098659575
14	0xbd9b3544	-0.07578519
15	0x3e887c4d	0.26657334
16	0xbd8490f0	-0.06472957
17	0xbeb71c1d	-0.35763636
18	0xbd9e2110	-0.0772115
19	0x3df5a0f6	0.119935915
20	0xbe4e7633	-0.20162277
21	0xbe2a7e0f	-0.1664965
22	0xbd0e7b76	-0.03478571
23	0xbe4c6a54	-0.19962436
24	0xbd071a3a	-0.032983996
25	0xbd41fb1b	-0.047358613
26	0xbe2f5a2b	-0.1712424
27	0xbe0f7ac9	-0.14011683
28	0xbef8be6d	-0.48582783
29	0xbc0e97f1	-0.008703218
30	0x3dec92d6	0.11551444
31	0x3df07c5d	0.117424704
32	0x3ea1ac4b	0.31576762
33	0x3e2d660c	0.16933459
34	0x3dc5420f	0.0963174
35	0x3e3019ca	0.17197338
36	0xbd46b5fb	-0.048513394
37	0x3e13f477	0.14448725
38	0xbd83adae	-0.06429611
39	0x3e32fb87	0.17478763
40	0xbdcfb833	-0.10142555
41	0xbdaa7dc7	-0.083247714
42	0x3bb38747	0.005478773
43	0xbd4405b0	-0.047856987
44	0xbd26234e	-0.040561013
45	0x3e4a3de1	0.19750167
46	0x3ea78d34	0.32724917
47	0x3e932909	0.28742245
48	0xbe6d8531	-0.2319534
49	0x3c1ae7c8	0.009454675
50	0x3d10e716	0.03537663
51	0xbdcfb091	-0.10141099
52	0xbdec0a55	-0.11525408
53	0x3d85f25e	0.065403685
54	0xbe2bd9f6	-0.16782364
55	0x3ec42ca9	0.38315323
56	0xbd0666ed	-0.032813
57	0x3d62d822	0.0553819
58	0x3ec37d91	0.38181737
59	0x3d8158fe	0.06315802
60	0xbe037106	-0.12836084
61	0x3d2f701e	0.042831533
62	0x3d7536af	0.059866603
63	0x3b38fa00	0.0028225183
64	0xbe622350	-0.22083783
65	0xbde25067	-0.11050492
66	0x3e5e29cd	0.21695633
67	0x3e3acf95	0.18243249
68	0xbddd3dde	-0.10802816
69	0xbc856ddc	-0.016287737
70	0x3ea02749	0.31279972
71	0xbe34aeb5	-0.1764477
72	0xbdfbf22e	-0.123020515
73	0xbd686998	-0.056741327
74	0xbdc79002	-0.09744264
75	0x3ea30c86	0.31845492
76	0xbca3edcd	-0.020010853
77	0x3d45c820	0.048286557
78	0xbe0f7851	-0.14010741
79	0xbe828d8c	-0.25498617
80	0x3c4fb7a5	0.012678062
81	0xbda3dd1c	-0.08001158
82	0xbdcab910	-0.09898579
83	0xbc9ddf74	-0.01927159
84	0xbdb648b6	-0.08900587
85	0x3d8814ad	0.066445686
86	0xbdcf0f36	-0.10110323
87	0x3dc66c97	0.096886806
88	0x3ca6499c	0.020298772
89	0xbcde37c6	-0.027126204
