hosp_models/deploy_week_48_11/fnp_enc.pt (torch, 762335 bytes, 64 tensors)

cond_trans.0.weight f4 [100, 60]
0.056972377 -0.11937817 0.13720961 0.02109581 -0.092341416 -0.07867296 -0.17134172 -0.09336245
-0.0698084 -0.005930289 0.1288721 0.15346803 -0.019433884 0.24344417 0.09040354 0.0504703
-0.08891246 0.012131901 0.05337431 -0.101669915 0.10428952 -0.021503994 0.13413632 -0.02672839
-0.080733865 0.03051798 -0.019412568 0.09872768 -0.04010191 0.0931047 0.002098127 0.13031115
0.074382275 -0.14754938 -0.12733184 -0.09545242 -0.11718244 -0.09647138 0.14293699 -0.048877455
-0.035301622 0.1454077 0.14612357 -0.1175549 0.0228776 0.008200011 -0.07993928 -0.05136126
0.112284385 -0.07114191 0.10452795 -0.052994825 0.08006188 -0.004136394 -0.10046647 -0.010267472
0.029016301 0.05952902 0.08193421 0.12388042 -0.06298236 0.046581965 0.13060945 -0.05486411
-0.058222532 -0.12979417 -0.1768774 -0.16189767 0.07881807 0.1066105 0.07424637 -0.25261673
-0.11336824 -0.04464114 0.04136646 0.23827922 -0.16967356 0.012336357 -0.14579973 -0.15926597
-0.1311839 -0.01240769 -0.088107824 0.0366377 -0.018869994 0.023141973 0.13650931 0.063530505
0.06938575 0.08143233 0.07728699 0.09270273 0.0024139625 -0.040408988 0.0543841 -0.034081284
0.21151204 -0.11821487 0.11525242 -0.063384175 0.20745645 0.015455793 0.014912705 -0.019237362
0.17512494 -0.089008816 -0.18071856 0.03846839 -0.08481331 -0.035488002 -0.10699966 0.051058654
-0.050158758 -0.03835309 -0.25051793 0.06748181 0.08516618 -0.13463467 0.029202271 -0.1336827
-0.04318942 0.15646884 0.09899915 -0.04405148 -0.16463259 0.09714002 -0.007919305 0.04218479
0.097336605 -0.2071272 0.009132907 -0.0029852758 -0.03025346 0.07028746 0.17963685 0.1721829
0.046076503 -0.050086774 -0.12352185 0.11809952 -0.17602737 0.18764317 -0.284877 0.103782065
-0.24933785 -0.026811952 -0.20386261 0.07277668 0.08016186 0.034558166 0.06558015 -0.0028018781
0.010508336 -0.09918772 0.068010814 -0.013266871 -0.13720141 0.13079494 -0.07079934 -0.038983896
-0.04757898 0.03246475 0.21076411 -0.15923223 0.0826138 0.07482084 -0.047874894 0.100133196
0.039079513 0.019642394 -0.15507008 -0.14184193 0.0869021 0.020656595 0.025851576 -0.14474964
-0.057976738 0.21581496 0.12452413 0.04331757 0.1494658 -0.19867519 -0.08137103 -0.06837091
-0.15624958 0.11749781 0.13275987 -0.11661707 -0.024078635 -0.026712058 -0.10711491 -0.041144084
-0.17506266 0.0034278417 -0.04745078 0.048890255 0.11823602 -0.076651804 0.16591088 -0.17093904
0.08326445 -0.05332734 -0.03618208 0.13879922 -0.24955581 -0.04406363 -0.13373508 -0.08093668
0.010087227 -0.0074036736 0.16963954 0.050627735 0.057590272 0.00095721154 -0.013271333 -0.16096026
0.28217298 0.027077392 -0.112874016 0.25884426 -0.088153265 -0.03666252 -0.02035909 -0.18683945
-0.07138743 -0.118752405 0.11787734 -0.17361452 -0.07267958 -0.3463747 -0.012632744 -0.16416425
0.044173013 -0.1281296 0.10797722 -0.17508885 -0.11642884 0.08168763 0.029031679 0.015027384
0.042549558 0.3515042 0.007216738 -0.046633553 -0.15390189 -0.008378271 0.045749195 -0.051136464
0.15822963 0.039996922 0.020490093 -0.14811744 -0.14242744 0.028578985 0.10194445 0.18287177
00000000: de5b 693d 8b7c f4bd ad80 0c3e 1fd1 ac3c
00000010: 7f1d bdbd 4a1f a1bd 3474 2fbe d034 bfbd
00000020: b5f7 8ebd df52 c2bb 0cf7 033e b926 1d3e
00000030: cf33 9fbc 6e49 793e 7e25 b93d f2b9 4e3d
00000040: bc17 b6bd e2c4 463c 059f 5a3d 5138 d0bd
00000050: be95 d53d 2529 b0bc 085b 093e 7ff5 dabc
00000060: cc57 a5bd d800 fa3c 1b07 9fbc bd31 ca3d
00000070: e641 24bd adad be3d bb80 093b 4970 053e
00000080: bc55 983d 2f17 17be 4763 02be 8f7c c3bd
00000090: 59fd efbd c992 c5bd 135e 123e ba33 48bd
000000a0: 6f98 10bd c2e5 143e 6ba1 153e a0c0 f0bd
000000b0: ce69 bb3c 5759 063c 35b7 a3bd 2f60 52bd
000000c0: 5bf5 e53d dab2 91bd c012 d63d 1a11 59bd
000000d0: 7cf7 a33d 968a 87bb 5dc1 cdbd e638 28bc
000000e0: 98b3 ed3c b4d4 733d 20cd a73d 05b5 fd3d
000000f0: e5fc 80bd bbcc 3e3d 7cbe 053e 30b9 60bd
00000100: c07a 6ebd c3e8 04be 591f 35be 81c8 25be
00000110: 5e6b a13d 9b56 da3d 7b0e 983d fb56 81be
00000120: 9c2d e8bd a1d9 36bd e16f 293d 78ff 733e
00000130: e8be 2dbe 6e1e 4a3c 864c 15be 9e16 23be
00000140: 1355 06be a049 4bbc e071 b4bd 6a11 163d
00000150: 3f95 9abc 3c94 bd3c 19c9 0b3e 481c 823d
00000160: 1e1a 8e3d fec5 a63d a448 9e3d eeda bd3d
00000170: 9233 1e3b e583 25bd ddc1 5e3d d198 0bbd
00000180: 9d96 583e a31a f2bd 7609 ec3d 90cf 81bd
00000190: 776f 543e 4b3a 7d3c 6b54 743c ac97 9dbc
000001a0: f453 333e 414a b6bd 490e 39be 0891 1d3d
000001b0: 9ab2 adbd de5b 11bd a322 dbbd e122 513d
000001c0: 4573 4dbd 2118 1dbd e343 80be e733 8a3d
000001d0: 9b6b ae3d acdd 09be 9a39 ef3c 1ee4 08be
000001e0: 64e7 30bd 5e39 203e 11c0 ca3d 536f 34bd
000001f0: 7295 28be 59f1 c63d f9bf 01bc f5c9 2c3d
00000200: 6a58 c73d 2719 54be 30a2 153c 9ea4 43bb
00000210: 1bd6 f7bc dff2 8f3d b9f2 373e b750 303e
00000220: b7ba 3c3d ca27 4dbd 06f9 fcbd 29de f13d
00000230: 8540 34be 8825 403e 66db 91be b18b d43d
00000240: 6c52 7fbe bda4 dbbc 5cc1 50be f10b 953d
00000250: e72b a43d dd8c 0d3d e34e 863d b79f 37bb
00000260: 282b 2c3c ee22 cbbd 4149 8b3d 4a5d 59bc
00000270: 877e 0cbe 1cef 053e 3fff 90bd 94ad 1fbd
00000280: 2de2 42bd c2f9 043d 8cd2 573e c60d 23be
00000290: 6d31 a93d ab3b 993d 7718 44bd a212 cd3d
000002a0: d711 203d 16e9 a03c b1ca 1ebe 033f 11be
000002b0: baf9 b13d 0538 a93c afc6 d33c 4039 14be
000002c0: 0479 6dbd 99fe 5c3e 8206 ff3d c46d 313d
000002d0: 900d 193e 8271 4bbe dba5 a6bd 0c06 8cbd
000002e0: e4ff 1fbe b1a2 f03d 34f2 073e eed4 eebd
000002f0: 8f40 c5bc 3fd3 dabc 105f dbbd b386 28bd
00000300: a043 33be a4a5 603b c05b 42bd 2641 483d
00000310: ba25 f23d 9ffb 9cbd 8be4 293e a50a 2fbe
00000320: 8d86 aa3d c56d 5abd a933 14bd 6221 0e3e
00000330: 8f8b 7fbe 117c 34bd d9f1 08be 21c2 a5bd
00000340: e644 253c 849a f2bb fdb5 2d3e 075f 4f3d
00000350: c7e3 6b3d 61ed 7a3a 0170 59bc c4d2 24be
00000360: fa78 903e 68d1 dd3c 7e2a e7bd 3c87 843e
00000370: b389 b4bd 702b 16bd 1bc8 a6bc d752 3fbe
00000380: 9333 92bd 7634 f3bd ad69 f13d 01c8 31be
00000390: 08d9 94bd 0658 b1be 92f9 4ebc ac1a 28be
000003a0: c3ee 343d 6834 03be 2923 dd3d 7e4a 33be
000003b0: 3e72 eebd d84b a73d d8d3 ed3c 6b35 763c
000003c0: 7248 2e3d 5cf8 b33e 637a ec3b d302 3fbd
000003d0: 7598 1dbe 0445 09bc 8263 3b3d 7874 51bd
000003e0: f306 223e d0d3 233d d7da a73c 19ac 17be
000003f0: 80d8 11be 7a1e ea3c 40c8 d03d bd42 3b3e

cond_trans.0.bias f4 [100]
0.086618714 -0.1651645 -0.12930065 -0.24877901 -0.11150373 0.059596904 -0.18983129 -0.040691134
-0.21886776 0.15799297 0.109508626 -0.17405456 -0.09756488 -0.14791264 -0.08935042 -0.10533078
-0.115063936 -0.2135002 -0.117296666 0.15047558 -0.22942859 0.10020995 -0.14767115 -0.07424641
-0.058523193 -0.14636026 -0.23031898 -0.018572573 0.032235492 -0.09563328 -0.17348775 0.024139239
0.12914549 -0.06811361 -0.23975642 0.097059056 0.08626427 0.10494853 0.021174446 -0.26423678
-0.15601774 -0.12009184 -0.08431241 -0.06837749 -0.13963738 -0.06621045 -0.14603768 -0.20188816
-0.046890236 -0.12616979 0.10319711 -0.17326315 -0.1480188 -0.013310389 0.013289329 -0.07005173
0.07632667 -0.08096568 -0.0059764152 0.093196824 -0.041550875 -0.1681073 -0.067675784 -0.13621545
-0.07558007 -0.060441192 -0.0035742158 -0.12920444 0.0055785924 0.15307936 0.029544437 0.023399044
-0.06455275 -0.09283673 -0.21325245 -0.09147448 -0.017524362 -0.13938104 0.108027734 -0.19947915
-0.23432213 -0.16578075 0.073924065 -0.16484 0.022209154 -0.018065583 -0.19064812 -0.12514041
-0.025226835 -0.095869794 -0.14698346 -0.15731141 -0.12570596 0.057807814 -0.15486856 0.017213644
-0.053693634 0.0781679 -0.1843049 -0.15366395
00000000: 2765 b13d e220 29be 6467 04be edbf 7ebe
00000010: 115c e4bd e21b 743d 2263 42be bfab 26bd
00000020: df1e 60be e9c8 213e 0f46 e03d 5c3b 32be
00000030: 19d0 c7bd 6976 17be 5afd b6bd aab7 d7bd
00000040: a4a6 ebbd cc9f 5abe 3c39 f0bd 4516 1a3e
00000050: 54ef 6abe e03a cd3d 1b37 17be 800e 98bd
00000060: 04b6 6fbd 77df 15be bdd8 6bbe 8225 98bc
00000070: 5d09 043d 62db c3bd c6a6 31be a7bf c53c
00000080: b73e 043e 267f 8bbd b582 75be e6c6 c63d
00000090: 52ab b03d 41ef d63d 0876 ad3c 0b4a 87be
000000a0: 1dc3 1fbe b6f2 f5bd fcab acbd 7f09 8cbd
000000b0: 1afd 0ebe 5899 87bd e78a 15be c5bb 4ebe
000000c0: fa0f 40bd a732 01be 0259 d33d e56b 31be
000000d0: 3e92 17be d113 5abc 7cbb 593c 4877 8fbd
000000e0: 2851 9c3d 56d1 a5bd ced5 c3bb fadd be3d
000000f0: 4031 2abd 5224 2cbe 9a99 8abd 107c 0bbe
00000100: b9c9 9abd 2f91 77bd 643d 6abb 2b4e 04be
00000110: a0cc b63b d6c0 1c3e 2d07 f23c 5aaf bf3c
00000120: 3b34 84bd 2f21 bebd da5e 5abe f956 bbbd
00000130: 408f 8fbc e7b9 0ebe a53d dd3d 4344 4cbe
00000140: 24f2 6fbe 6ec2 29be 8065 973d d1cb 28be
00000150: f9ef b53c 46fe 93bc 4339 43be cf24 00be
00000160: 82a8 cebc 6257 c4bd d582 16be 3e16 21be
00000170: 10b9 00be e3c7 6c3d dd95 1ebe a103 8d3c
00000180: dbed 5bbd 7e16 a03d 6cba 3cbe 155a 1dbe

cond_trans.2.weight f4 [100, 100]
0.029442143 -0.17275763 0.16599803 -0.03884728 0.21285321 -0.0930694 0.07737108 0.016065955
-0.08859195 -0.21953614 0.049844567 0.11275873 -0.20196508 0.010821333 -0.11183287 -0.10920084
0.02758798 0.04267474 0.13320932 -0.014420602 -0.19723059 0.12158815 -0.04990117 -0.062431034
-0.036999233 -0.19799528 0.08575107 0.08299921 -0.14484695 0.007563281 0.13076253 -0.19251524
-0.13346191 -0.058002677 0.23038651 -0.23899083 -0.12696026 -0.0045818104 0.08713703 -0.116467476
-0.09726185 -0.057846442 0.0586476 0.31239152 0.0212813 0.0012711551 0.022991445 0.2759206
-0.032654658 0.101832114 -0.080456056 -0.016687455 -0.07552542 -0.008313497 -0.0059165065 -0.17076059
-0.21487568 0.021125723 -0.11443571 0.07146072 0.09674889 0.09216723 -0.21304326 -0.06473796
-0.08907575 0.07263536 0.101419434 -0.22686082 -0.17732164 0.05794437 0.14086261 -0.009655792
-0.3750069 -0.094066955 -0.17208989 -0.037566993 0.040482104 0.013206046 0.07864478 -0.046951365
-0.08677505 -0.16688 0.043440845 -0.17715834 -0.07548388 0.018203923 -0.11187478 0.065020375
0.07839855 0.031978864 -0.3948018 0.2130026 0.097156584 -0.2184692 -0.27842808 -0.000767125
0.11801814 0.06225913 -0.13211834 -0.19054827 0.117743745 0.04053599 -0.073958814 0.1469204
-0.06477438 -0.09848409 0.07878089 0.044543456 -0.1260398 0.08772947 0.09166614 0.17853802
0.09528134 -0.15740743 -0.06725413 -0.044720717 -0.27301094 -0.016939675 0.047861904 -0.04636071
0.026418196 -0.1719194 -0.077440694 -0.04218226 0.09651234 0.056390643 -0.05857574 -0.030735482
0.056745958 0.2438643 -0.05506163 -0.11859489 -0.105482966 0.019637955 0.0075344495 -0.107562415
-0.14960991 -0.054798014 0.019444551 0.020555012 -0.08401727 -0.2310761 -0.21423076 0.27606204
0.17788377 -0.079918824 -0.21699798 0.10004074 0.0052398173 0.14133815 -0.08367124 -0.11155996
0.014267127 -0.010488948 -0.1164504 -0.07239673 0.061819755 0.021580396 0.05933087 -0.0916403
-0.1853686 -0.037523475 0.1593609 0.20221542 -0.116383344 -0.26695892 -0.15894355 -0.17062895
0.009398773 -0.034731742 0.08298197 -0.13203783 0.02427797 0.07285987 0.046447396 -0.047242917
0.07113543 0.08558471 -0.21161576 -0.20190983 0.007225994 0.095115416 -0.0023781315 -0.017567249
0.13653247 0.023170203 -0.07181226 0.10343765 -0.19482711 0.112377785 -0.09452616 0.19279079
-0.31592155 -0.17953406 0.036163785 -0.044590317 0.1644149 -0.13743001 0.0035598313 -0.01176751
0.03769678 0.00915637 0.047895085 -0.022788329 0.07682904 0.07267191 0.0899538 -0.0072458773
-0.016952576 -0.10039778 -0.105484456 -0.055574033 0.024823792 -0.023493253 -0.071309336 0.04494844
0.09120596 -0.08507889 -0.0069820895 0.028185928 -0.061559305 -0.061587892 0.015312201 0.04905357
-0.07249217 -0.08497291 0.040172484 -0.093802765 0.02798617 0.0818122 0.064912066 -0.03876472
-0.035705015 0.005891134 -0.0387293 -0.10342033 -0.0537404 -0.054467913 0.049499273 0.052912135
-0.011429724 -0.10438006 0.024664557 0.07646868 -0.0073896185 -0.054963224 -0.0374667 -0.1071041
-0.034725364 0.041976538 -0.006710706 0.034819648 0.00096978963 -0.057968512 -0.030886821 -0.054155964
00000000: a630 f13c 60e7 30be 63fb 293e 531e 1fbd
00000010: 31f6 593e 2b9b bebd bb74 9e3d c09c 833c
00000020: b26f b5bd 15ce 60be d129 4c3d 0dee e63d
00000030: efcf 4ebe f64b 313c a208 e5bd b1a4 dfbd
00000040: 3000 e23c b5cb 2e3d 0668 083e 6344 6cbc
00000050: d1f6 49be 3503 f93d 2b65 4cbd afb7 7fbd
00000060: 828c 17bd 46bf 4abe 429e af3d 7dfb a93d
00000070: c252 14be 66d5 f73b 9de6 053e b722 45be
00000080: 3daa 08be 3794 6dbd 71ea 6b3e 03ba 74be
00000090: df01 02be 0323 96bb e674 b23d 8086 eebd
000000a0: 3931 c7bd 64f0 6cbd 7738 703d c8f1 9f3e
000000b0: 1f56 ae3c e39c a63a 8e58 bc3c 7745 8d3e
000000c0: e4c0 05bd 5b8d d03d 25c6 a4bd 21b4 88bc
000000d0: 12ad 9abd 5535 08bc 41df c1bb dddb 2ebe
000000e0: 5f08 5cbe da0f ad3c 455d eabd ff59 923d
000000f0: 4824 c63d 2cc2 bc3d 0328 5abe 5695 84bd
00000100: 596d b6bd d9c1 943d feb4 cf3d 344e 68be
00000110: ce93 35be 1357 6d3d 4a3e 103e 5433 1ebc
00000120: e800 c0be 2da6 c0bd 5538 30be d9df 19bd
00000130: 90d0 253d 2c5e 583c 8410 a13d 1350 40bd
00000140: 1eb7 b1bd 97e2 2abe 07ef 313d ff68 35be
00000150: 4b97 9abd 6520 953c 9b1e e5bd 6729 853d
00000160: 6b8f a03d 45fc 023d 7623 cabe 5b1d 5a3e
00000170: 08fa c63d 64b6 5fbe 208e 8ebe e318 49ba
00000180: 7fb3 f13d 6e03 7f3d 084a 07be 161f 43be
00000190: a223 f13d 1109 263d b877 97bd 4d72 163e
000001a0: 6ea8 84bd 07b2 c9bd e057 a13d 3373 363d
000001b0: 9410 01be 82ab b33d 75bb bb3d acd2 363e
000001c0: dd22 c33d 6a2f 21be 89bc 89bd 122d 37bd
000001d0: 17c8 8bbe 13c5 8abc d80a 443d bae4 3dbd
000001e0: f96a d83c a40b 30be 3a99 9ebd 4ec7 2cbd
000001f0: 43a8 c53d e0f9 663d 1ded 6fbd fac8 fbbc
00000200: 736e 683d 90b7 793e 4e88 61bd e1e1 f2bd
00000210: 7407 d8bd c7df a03c 8be3 f63b af49 dcbd
00000220: 5733 19be e273 60bd 2e4a 9f3c fc62 a83c
00000230: 3f11 acbd 379f 6cbe 4f5f 5bbe 0158 8d3e
00000240: 2a27 363e 7bac a3bd b834 5ebe 29e2 cc3d
00000250: c6b2 ab3b f3ba 103e d45b abbd 8c79 e4bd
00000260: abc0 693c d6d9 2bbc 8c7d eebd bd44 94bd
00000270: b636 7d3d 5fc9 b03c ed04 733d e9ad bbbd
00000280: 44d1 3dbe 37b2 19bd 812f 233e 8f11 4f3e
00000290: 645a eebd d7ae 88be 19c2 22be 5bb9 2ebe
000002a0: 50fd 193c df42 0ebd 73f2 a93d ed34 07be
000002b0: 98e2 c63c 8e37 953d a03f 3e3d ca81 41bd
000002c0: 74af 913d 0947 af3d cdb1 58be 73c1 4ebe
000002d0: 08c8 ec3b dfcb c23d 6dda 1bbb 31e9 8fbc
000002e0: 2bcf 0b3e 70cf bd3c 4e12 93bd 1ed7 d33d
000002f0: c280 47be 5326 e63d ee96 c1bd f36a 453e
00000300: 78c0 a1be c7d7 37be 7a20 143d 56a4 36bd
00000310: 615c 283e 74ba 0cbe 0f4c 693b 84cc 40bc
00000320: f067 1a3d 9904 163c a32d 443d 97ae babc
00000330: 8b58 9d3d 03d5 943d b339 b83d d36e edbb
00000340: 21e0 8abc 5a9d cdbd 3c08 d8bd 99a1 63bd
00000350: 445b cb3c ec74 c0bc a10a 92bd db1b 383d
00000360: 31ca ba3d d73d aebd 03ca e4bb 2de6 e63c
00000370: 9c25 7cbd 9643 7cbd 07e0 7a3c 65ec 483d
00000380: c676 94bd 4706 aebd e78b 243d aa1b c0bd
00000390: 4143 e53c 288d a73d 9ef0 843d c1c7 1ebd
000003a0: 6c3f 12bd 6a0a c13b 9da2 1ebd 0ace d3bd
000003b0: e51e 5cbd bf19 5fbd c0bf 4a3d 65ba 583d
000003c0: bd43 3bbc 37c5 d5bd 530d ca3c 9c9b 9c3d
000003d0: 9d24 f2bb 1e21 61bd af76 19bd 6559 dbbd
000003e0: 2f3c 0ebd 97ef 2b3d 7be5 dbbb 0c9f 0e3d
000003f0: 7b39 7e3a 6470 6dbd 5c06 fdbc a5d2 5dbd

cond_trans.2.bias f4 [100]
0.024764085 -0.040116373 -0.12229124 -0.0995487 -0.045575224 0.0656017 -0.06226404 0.024175707
-0.120696954 0.09243309 -0.07579288 0.16057931 -0.11167532 0.11824859 0.018673731 -0.014451346
-0.13550976 -0.0503298 0.00061636296 0.078572 0.021870116 -0.02609682 -0.08929288 -0.0727722
-0.01146544 0.08356368 -0.029720198 0.038508203 0.047881227 -0.07875236 0.015826177 0.15305196
-0.090517335 -0.052926008 0.09930126 -0.041214067 0.09069294 -0.067420766 0.08096271 0.14644079
-0.13452713 -0.10259025 -0.1173612 -0.057956215 -0.04746101 0.015581196 -0.1608184 -0.029891016
-0.09088315 0.017989933 -0.08827846 0.026548207 0.02833212 -0.10835963 -0.10651221 0.006360722
-0.023274545 -0.025250968 -0.08353762 0.015972804 0.19287242 -0.0431232 0.00033418127 -0.06380995
-0.10424708 -0.13395482 -0.13119148 -0.13214028 -0.041628517 -0.13563833 -0.0028999508 -0.08740053
0.0937162 -0.04126055 0.0650385 -0.05026786 -0.10697203 -0.088718526 0.161353 0.05111489
-0.1068739 -0.0072866124 0.067474216 -0.030543191 0.03545328 0.14949714 -0.019765146 -0.10250008
-0.09524585 -0.08954362 -0.0799347 0.07630202 -0.14789523 -0.11461444 -0.14066234 0.11992802
0.019046016 -0.03313857 0.00088164414 0.1195043
00000000: 0dde ca3c 1151 24bd d473 fabd 30e0 cbbd
00000010: 16ad 3abd 2f5a 863d 9408 7fbd 220c c63c
00000020: f72f f7bd 8f4d bd3d 4c39 9bbd e76e 243e
00000030: 08b6 e4bd 512c f23d a7f9 983c 57c5 6cbc
00000040: 12c3 0abe 9f26 4ebd 6b93 213a 5bea a03d
00000050: f528 b33c 00c9 d5bc 2fdf b6bd 9709 95bd
00000060: 8ad9 3bbc 6f23 ab3d c677 f3bc c7ba 1d3d
00000070: 1b1f 443d eb48 a1bd e6a5 813c a7b9 1c3e
00000080: 2761 b9bd f1c8 58bd 765e cb3d 15d0 28bd
00000090: 38bd b93d e613 8abd c7cf a53d 93f4 153e
000000a0: 7bc1 09be d61a d2bd 125b f0bd 7f63 6dbd
000000b0: 7a66 42bd 4648 7f3c 94ad 24be 01de f4bc
000000c0: f220 babd a05f 933c 56cb b4bd a07b d93c
000000d0: c318 e83c a7eb ddbd 1323 dabd 9a6d d03b
000000e0: 42aa bebc 1edb cebc c615 abbd 66d9 823c
000000f0: 5980 453e f4a1 30bd 0d35 af39 cbae 82bd
00000100: 7e7f d5bd 742b 09be 0f57 06be c84f 07be
00000110: aa82 2abd c6e4 0abe 1a0d 3ebb 0dff b2bd
00000120: 47ee bf3d d300 29bd e832 853d ace5 4dbd
00000130: 2714 dbbd 0fb2 b5bd b939 253e d95d 513d
00000140: b4e0 dabd 89c4 eebb ec2f 8a3d b735 fabc
00000150: 7537 113d c715 193e 84ea a1bc 90eb d1bd
00000160: 4210 c3bd a562 b7bd ceb4 a3bd 3c44 9c3d
00000170: d971 17be faba eabd ca09 10be d29c f53d
00000180: 6406 9c3c 4fbc 07bd 231e 673a acbe f43d

cond_trans.4.weight f4 [100, 100]
0.020388845 0.012045675 -0.029813379 -0.088236295 -0.07586285 -0.013772666 0.0827737 -0.12410589
0.064736724 -0.055381022 0.062135804 -0.14792351 0.006764976 0.043863166 0.027813487 -0.06919997
0.016851122 0.037744705 -0.04979499 0.05625902 -0.0942596 -0.040995423 -0.10771226 0.0054565053
0.032448623 0.04406652 0.045054 0.0033336852 0.011937433 -0.02411322 0.001071576 0.014631707
-0.028373992 0.0892003 0.012110533 -0.053496078 0.06819554 0.031058885 -0.086518906 0.0024166263
0.015243078 -0.036465194 0.0070833536 -0.058066845 -0.080712155 -0.057690635 0.080140345 0.016850814
-0.03919234 -0.08432771 -0.09161339 -0.11389198 -0.07635507 0.07822809 0.030250287 -0.10010949
-0.05097706 -0.10907 0.03712664 -0.07497449 0.012695812 -0.05684297 -0.0129395025 0.064036995
-0.062018987 -0.10867491 -0.000906555 0.043440916 0.08639899 -0.027922831 0.03138646 -0.06889938
0.0025182688 -0.07281511 -0.104706585 -0.04666179 -0.08393239 0.08022844 -0.042162403 -0.043997582
0.008242125 -0.021643613 0.034434076 -0.07680982 -0.06458247 -0.017726 -0.024996497 0.06460354
-0.021713767 0.072513476 -0.053415958 -0.075329974 -0.0034384492 -0.027203465 -0.095986925 -0.07362332
-0.07542094 -0.06522306 -0.09644288 0.011982296 -0.03703178 -0.015872207 -0.08143936 -0.034439646
-0.086994424 -0.02256266 -0.08452435 -0.010179771 -0.035532173 -0.05919494 0.016241936 -0.13597101
0.069303 -0.053378046 -0.01413082 -0.020038424 -0.03339603 0.020163987 -0.014175647 -0.03908266
-0.037146464 0.03300967 0.014188332 -0.02048384 -0.023678442 -0.045913044 -0.060880676 0.04547443
0.011637168 0.030282918 0.049535014 -0.05434898 -0.034046654 0.04451243 -0.0030261893 0.17235716
-0.10376116 0.07317172 -0.016951233 -0.028534386 0.010479963 0.01381313 0.033811122 0.055657398
0.020720351 -0.04077099 -0.027168376 0.05114482 -0.093499176 0.06026706 0.022494566 0.07372922
-0.0913475 0.016122341 0.061852578 0.02497844 -0.05965769 -0.16498618 0.0029659648 0.02704565
0.024684122 0.0026850365 0.058814213 0.018350054 0.024737032 0.030272556 -0.061181076 0.015803767
-0.043102182 0.055150993 0.0011226451 -0.030971048 -0.08978303 0.06548854 0.020559963 -0.046661623
0.07557542 0.0011977383 -0.09639454 0.06413035 0.048523784 -0.10111575 -0.045951765 -0.096364655
0.0632813 -0.04852238 0.088887796 -0.008637922 0.09060838 0.048598386 0.05536608 0.04199667
-0.08711189 0.03776764 -0.028428476 0.02435375 -0.067412354 -0.078915335 -0.050341923 -0.05932119
-0.053379804 0.068168476 -0.008977508 0.13250318 0.021853723 -0.09499369 -0.044840086 0.07663576
-0.004587313 0.124938376 0.09861801 -0.03961014 0.17810681 0.07216452 0.2830392 0.07694423
-0.09343714 -0.015745426 -0.026631093 0.28601012 0.047693055 0.13816035 -0.13526402 -0.04159376
-0.03855524 0.094113 -0.051221494 0.12218479 0.059984013 0.059273325 -0.17098658 0.059408862
-0.10216123 0.04003765 0.28256 -0.029033825 -0.30157217 0.019837543 -0.04555577 0.15016343
0.008903389 0.034414012 -0.1363827 -0.04720623 -0.22345531 0.17869289 0.12665758 0.07181249
0.11304891 -0.0036909692 0.112794556 -0.16164432 0.11448271 -0.09778266 0.05684685 0.02451104
00000000: 8206 a73c 395b 453c 303b f4bc 3bb5 b4bd
00000010: fb5d 9bbd c0a6 61bc 4285 a93d 3b2b febd
00000020: b094 843d 36d7 62bd 1d82 7e3d 4379 17be
00000030: bbac dd3b dda9 333d 1cd9 e33c b7b8 8dbd
00000040: 5d0b 8a3c 319a 1a3d d5f5 4bbd dc6f 663d
00000050: 2d0b c1bd d1ea 27bd 3f98 dcbd 7ccc b23b
00000060: d9e8 043d 187f 343d 8b8a 383d f579 5a3b
00000070: 3995 433c 1689 c5bc 2074 8c3a d4b9 6f3c
00000080: 9370 e8bc a6ae b63d 426b 463c b41e 5bbd
00000090: 1aaa 8b3d 346f fe3c d330 b1bd 4360 1e3b
000000a0: 1abe 793c 875c 15bd 7a1b e83b 80d7 6dbd
000000b0: 6a4c a5bd 044d 6cbd 9f20 a43d b80a 8a3c
000000c0: 2688 20bd 02b4 acbd cd9f bbbd 3340 e9bd
000000d0: 0c60 9cbd 0d36 a03d 73cf f73c 3406 cdbd
000000e0: 52cd 50bd 1860 dfbd 1b12 183d 3a8c 99bd
000000f0: 1802 503c 2dd4 68bd 3500 54bc d425 833d
00000100: 9f07 7ebd f490 debd e0a5 6dba 1aef 313d
00000110: f4f1 b03d 6cbe e4bc 178f 003d 1e1b 8dbd
00000120: 8a09 253b 1720 95bd 6870 d6bd 6f20 3fbd
00000130: bfe4 abbd cf4e a43d 7cb2 2cbd cf36 34bd
00000140: fa09 073c f24d b1bc bf0a 0d3d 784e 9dbd
00000150: d043 84bd 1e36 91bc 74c5 ccbc dc4e 843d
00000160: 12e1 b1bc f281 943d b1ca 5abd 9a46 9abd
00000170: 9b57 61bb cdd9 debc cb94 c4bd d3c7 96bd
00000180: 4b76 9abd ab93 85bd d883 c5bd 6451 443c
00000190: a3ae 17bd 6e06 82bc aec9 a6bd 9610 0dbd
000001a0: 222a b2bd 54d5 b8bc 1a1b adbd 0ec9 26bc
000001b0: 2f8a 11bd 6576 72bd cf0d 853c fc3b 0bbe
000001c0: bbee 8d3d f0a2 5abd f484 67bc 9f27 a4bc
000001d0: 47ca 08bd f22e a53c f940 68bc 2415 20bd
000001e0: e426 18bd 2635 073d 2d76 683c bacd a7bc
000001f0: 4bf9 c1bc 510f 3cbd 045e 79bd 6543 3a3d
00000200: d2a9 3e3c e213 f83c 3ae5 4a3d 099d 5ebd
00000210: 8174 0bbd aa52 363d 0853 46bb 657e 303e
00000220: bb80 d4bd 0edb 953d 50dd 8abc f2c0 e9bc
00000230: 27b4 2b3c 7750 623c 887d 0a3d 03f9 633d
00000240: babd a93c 7bff 26bd 3790 debc 3b7d 513d
00000250: 7f7c bfbd 98da 763d 8646 b83c 58ff 963d
00000260: 6614 bbbd 0013 843c 2159 7d3d 969f cc3c
00000270: 9f5b 74bd 23f2 28be a260 423b d78e dd3c
00000280: 5b36 ca3c 70f7 2f3b 2ce7 703d da52 963c
00000290: 51a5 ca3c 27fe f73c 0299 7abd e776 813c
000002a0: ea8b 30bd 02e6 613d b825 933a ffb6 fdbc
000002b0: 2ae0 b7bd db1e 863d 5e6d a83c 4220 3fbd
000002c0: 49c7 9a3d 6efd 9c3a 806a c5bd c656 833d
000002d0: e0c0 463d c615 cfbd eb37 3cbd d55a c5bd
000002e0: a099 813d 67bf 46bd ce0a b63d 1286 0dbc
000002f0: e390 b93d 1a0f 473d 8bc7 623d b304 2c3d
00000300: b867 b2bd 3eb2 1a3d d6e2 e8bc 8481 c73c
00000310: 7d0f 8abd 5d9e a1bd 5533 4ebd c7fa 72bd
00000320: c8a4 5abd ea9b 8b3d 6616 13bc eaae 073e
00000330: 9406 b33c 0d8c c2bd 3daa 37bd 36f3 9c3d
00000340: 2c51 96bb b1df ff3d 3df8 c93d 3e3e 22bd
00000350: a261 363e feca 933d 84ea 903e f094 9d3d
00000360: f95b bfbd 8dfc 80bc 7329 dabc eb6f 923e
00000370: cb59 433d e879 0d3e a782 0abe 385e 2abd
00000380: 19ec 1dbd 51be c03d a1cd 51bd 053c fa3d
00000390: ccb1 753d 96c8 723d 1b17 2fbe b556 733d
000003a0: e839 d1bd 85fe 233d b4ab 903e 58d8 edbc
000003b0: ab67 9abe 5882 a23c b098 3abd 71c4 193e
000003c0: 85df 113c b5f5 0c3d e8a7 0bbe 525b 41bd
000003d0: 78d1 64be 45fb 363e 86b2 013e 6d12 933d
000003e0: 3086 e73d 30e4 71bb d500 e73d 1786 25be
000003f0: e975 ea3d 4642 c8bd 3ed8 683d 60cb c83c

cond_trans.4.bias f4 [100]
-0.0034261823 -0.010520963 0.045505024 0.24349613 -1.2719646e-05 0.2733434 -0.021236869 0.41697925
-0.10916842 0.25330925 0.3788966 -0.08194128 -0.025769392 -0.07506079 -0.053796686 0.120137446
0.2503548 0.13877451 0.2611797 -0.0380658 -0.09747825 0.13734679 0.058125317 -0.09515225
0.09944045 -0.11439792 -0.020151386 -0.07860664 0.16366631 0.05036878 0.021429593 0.16811216
-0.075130485 0.2653841 0.0769684 -0.036828283 0.041254703 0.06292407 0.038301393 0.42995855
-0.079215124 0.19783846 0.004602765 -0.09334879 0.07346813 -0.069779895 -0.08291068 -0.13511364
0.11134344 0.40140495 -0.02545189 -0.036258254 -0.07455479 -0.083335035 0.20029144 0.40764162
-0.11104116 0.15658155 0.16911732 0.089260496 -0.06344931 0.09242267 -0.10857781 0.19239663
0.5179352 0.23928426 0.13129582 -0.07910075 0.29796952 -0.094758004 -0.041757744 0.040963765
-0.086176015 -0.038092896 0.13971202 -0.10417319 -0.09394717 -0.048783768 -0.06703304 -0.03736729
-0.06428518 -0.08911269 -0.007479317 -0.04165816 -0.094623305 -0.07848471 -0.12520258 -0.046609327
-0.0038160756 -0.021910818 -0.09471121 -0.11484705 -0.08705081 0.01653734 0.0836265 0.070886925
0.049788725 -0.02131326 0.49521217 0.18656106
00000000: cd89 60bb 1e60 2cbc 7a63 3a3d 0d57 793e
00000010: 7766 55b7 abf3 8b3e f1f8 adbc 4e7e d53e
00000020: b193 dfbd c0b1 813e bcfe c13e d4d0 a7bd
00000030: 551a d3bc 79b9 99bd ea59 5cbd 9f0a f63d
00000040: 812e 803e e81a 0e3e 58b9 853e e2ea 1bbd
00000050: ada2 c7bd a3a4 0c3e d014 6e3d 2fdf c2bd
00000060: 6fa7 cb3d 7549 eabd 8514 a5bc 85fc a0bd
00000070: 2498 273e 7e4f 4e3d 1d8d af3c 9825 2c3e
00000080: 03de 99bd 6de0 873e 9ca1 9d3d 41d9 16bd
00000090: b1fa 283d 56de 803d ece1 1c3d 8723 dc3e
000000a0: 8a3b a2bd 2a96 4a3e cbd2 963b a72d bfbd
000000b0: 7576 963d c3e8 8ebd 13cd a9bd 3b5b 0abe
000000c0: 0808 e43d f384 cd3e 7b80 d0bc 8983 14bd
000000d0: 2fb0 98bd 8fab aabd 3319 4d3e 67b6 d03e
000000e0: 8c69 e3bd ea56 203e 172d 2d3e 35ce b63d
000000f0: b6f1 81bd 1948 bd3d 0b5e debd 9f03 453e
00000100: 6797 043f ef06 753e 6972 063e 93ff a1bd
00000110: 768f 983e 7c10 c2bd 2b0a 2bbd 9fc9 273d
00000120: 0d7d b0bd 4c07 1cbd ab10 0f3e c158 d5bd
00000130: 6067 c0bd 7dd1 47bd 9e48 89bd 720e 19bd
00000140: f3a7 83bd b780 b6bd 0f15 f5bb bfa1 2abd
00000150: ddc9 c1bd 97bc a0bd 1b35 00be 6ce9 3ebd
00000160: 2017 7abb 517e b3bc f3f7 c1bd ee34 ebbd
00000170: b247 b2bd 5179 873c 5f44 ab3d 2a2d 913d
00000180: 43ef 4b3d 2599 aebc 738c fd3e dd09 3f3e

p_u.weight f4 [120, 100]
0.015358138 0.076731265 0.066711724 0.057299446 0.054373026 -0.0975514 0.8819807 -0.08221661
0.11129918 -0.004107027 0.06594999 0.15486765 -0.06937937 -0.07204578 0.03464258 -0.13530312
0.08847555 0.067888185 -0.05198514 0.08016372 0.0895198 0.25571087 0.27552542 -0.054992974
0.2546757 0.09548531 -0.045022286 0.11735391 0.48219657 0.24557339 0.60173917 0.23195823
0.02096847 0.008994913 0.20062074 0.023377541 -0.14402649 0.2855605 0.251724 -0.03213681
-0.07576234 -0.33933198 -0.18783593 0.03964856 0.34646606 -0.11473277 0.06956183 -0.0013595794
-0.038041484 -0.049645774 0.0019479735 0.0030865707 -0.07225328 -0.019751228 0.06678362 0.056871902
-0.044571254 0.26190218 0.1295521 0.14615738 -0.07820024 0.64628565 0.084680036 0.04786377
0.053434942 0.033995863 0.0066409744 0.023158347 -0.085816614 -0.046858888 0.11286437 0.019631213
-0.011206413 -0.124701224 0.41922286 0.10188484 0.019543288 -0.13203034 0.037851833 0.11462049
-0.051393237 -0.029213864 0.05387984 -0.07877535 -0.00093540276 0.14730695 -0.046952043 -0.0011761953
0.02752132 0.06504125 0.12668024 -0.04753525 -0.16864431 0.48169443 0.265171 0.48827884
-0.05792802 0.08372688 -0.08841933 0.04630787 -0.14534284 0.04122348 0.4066473 0.00810497
0.020902814 -0.089791015 -0.10549638 -0.054063078 -0.16288431 0.034523793 -0.08106387 0.07869521
0.045692325 0.06794986 -0.049929418 0.5756827 0.08928559 -0.15695448 0.10869697 -0.05312374
0.025663111 -0.46298435 0.1741052 0.03179867 0.41184828 0.008164879 -0.024433417 -0.06993068
-0.9186531 0.15058799 -0.21145114 -0.10940909 -0.104772314 0.0058343615 0.1501791 0.005183884
0.26036927 0.18779898 0.094316624 -0.01837657 0.04645441 0.06913884 -0.028141025 0.0323462
-0.42405576 -0.1355708 -0.16116048 0.067104794 0.2624915 -0.090478465 0.2297273 0.019368878
-0.0069227805 -0.053486712 0.045171775 -0.11432168 0.014807564 -0.29785287 -0.042324234 -0.18623066
0.038975377 -0.5022686 -0.07778886 0.095193535 0.03476949 -0.064941116 0.6621973 0.061680164
-0.051596552 0.06429511 0.032019027 0.071508475 -0.025308121 0.053995457 -0.34214604 -0.054972894
-0.037017748 0.1190947 0.026374802 -0.33041912 0.0056181336 0.08265609 -0.046817474 -0.029071575
-0.013179876 -0.03103071 0.018822968 -0.026362248 0.15428285 0.09649699 -0.04127015 -0.0045486796
0.014107494 -0.09815698 0.12200512 -0.37226385 -0.21138214 -0.051259797 -0.028166706 0.003346805
0.11094449 -0.0817661 -0.4126782 -0.044835877 -0.032783356 0.058111157 -0.07968631 0.0447929
0.06653747 -0.07266711 0.09849736 0.080717094 -0.1119791 -0.04555341 0.09598326 -0.65981436
-0.16772881 0.2547719 -0.105094165 0.16230293 0.049534895 0.6487852 -0.17492591 -0.07574885
-0.5411972 -0.012823418 -0.14356479 0.024269767 0.9017289 -0.13850835 0.19158916 0.15305051
0.0717166 -0.06266516 -0.19336933 0.06696844 -0.08841982 -0.15027109 0.04241218 4.6107907e-05
0.10021379 0.11729571 0.03194922 -0.036465038 0.52022344 0.15028039 0.20929556 -0.037335515
-0.21871142 0.003979832 -0.19767083 -0.08740994 0.058688514 0.018485209 0.052694906 -0.07916324
00000000: b3a0 7b3c 4825 9d3d 28a0 883d d3b2 6a3d
00000010: 40b6 5e3d 07c9 c7bd 7dc9 613f 2f61 a8bd
00000020: d3f0 e33d 3d94 86bb ca10 873d a095 1e3e
00000030: c516 8ebd bd8c 93bd 61e5 0d3d e78c 0abe
00000040: ab32 b53d f608 8b3d 5fee 54bd e02c a43d
00000050: 2856 b73d 89ec 823e ab11 8d3e 5040 61bd
00000060: da64 823e cd8d c33d 4a69 38bd 3f57 f03d
00000070: 78e2 f63e 9777 7b3e 940b 1a3f 7586 6d3e
00000080: 12c6 ab3c 665f 133c 866f 4d3e 4282 bf3c
00000090: ae7b 13be fc34 923e f8e1 803e e3a1 03bd
000000a0: 4929 9bbd ecbc adbe 1058 40be 8766 223d
000000b0: 0064 b13e 04f9 eabd 6f76 8e3d ea33 b2ba
000000c0: 63d1 1bbd 5e59 4bbd 2553 ff3a 1048 4a3b
000000d0: 87f9 93bd 54cd a1bc dac5 883d 83f2 683d
000000e0: 5990 36bd 0b18 863e 4ea9 043e 48aa 153e
000000f0: 7327 a0bd fa72 253f ba6c ad3d cd0c 443d
00000100: 99de 5a3d 3f3f 0b3d 889c d93b 93b6 bd3c
00000110: 9fc0 afbd 1bef 3fbd 6f25 e73d a3d1 a03c
00000120: 1a9b 37bc 5b63 ffbd 61a4 d63e 00a9 d03d
00000130: 3f19 a03c f632 07be 860a 1b3d 26be ea3d
00000140: b781 52bd ea51 efbc 1bb1 5c3d f854 a1bd
00000150: d135 75ba a2d7 163e c950 40bd 912a 9aba
00000160: 6474 e13c 5934 853d 77b8 013e 53b4 42bd
00000170: 18b1 2cbe a7a0 f63e 7ec4 873e afff f93e
00000180: ee45 6dbd 0079 ab3d 3215 b5bd 52ad 3d3d
00000190: c1d4 14be f4d9 283d 1334 d03e b5ca 043c
000001a0: 613c ab3c 5ae4 b7bd 7c0e d8bd 3f71 5dbd
000001b0: 25cb 26be d268 0d3d d004 a6bd f42a a13d
000001c0: e027 3b3d 4c29 8b3d ca82 4cbd f15f 133f
000001d0: 5ddb b63d adb8 20be 849c de3d 4798 59bd
000001e0: 723b d23c 490c edbe a248 323e 523f 023d
000001f0: c7dd d23e fcc5 053c 9728 c8bc d137 8fbd
00000200: d92c 6bbf bd33 1a3e a686 58be df11 e0bd
00000210: de92 d6bd 2c2e bf3b 8dc8 193e 92dd a93b
00000220: 1f4f 853e 604e 403e 1329 c13d 768a 96bc
00000230: fb46 3e3d aa98 8d3d 0288 e6bc 737d 043d
00000240: d61d d9be 12d3 0abe 4107 25be 3d6e 893d
00000250: 4965 863e c64c b9bd a23d 6b3e 7bab 9e3c
00000260: 7ed8 e2bb e214 5bbd 0a06 393d 7c21 eabd
00000270: 6d9b 723c 2c80 98be 2d5c 2dbd 40b3 3ebe
00000280: a5a4 1f3d ad94 00bf c44f 9fbd d4f4 c23d
00000290: 746a 0e3d d9ff 84bd c385 293f 57a4 7c3d
000002a0: e856 53bd 28ad 833d 6226 033d 0973 923d
000002b0: fa52 cfbc 572a 5d3d c42d afbe 422b 61bd
000002c0: ec9f 17bd ece7 f33d f80f d83c b22c a9be
000002d0: 5218 b83b 9947 a93d aec3 3fbd 8327 eebc
000002e0: 68f0 57bc 1e34 febc a032 9a3c a4f5 d7bc
000002f0: 53fc 1d3e 37a0 c53d e40a 29bd 170d 95bb
00000300: 1e23 673c 8706 c9bd d2dd f93d 5e99 bebe
00000310: 8f74 58be cbf5 51bd ddbd e6bc 1256 5b3b
00000320: dd36 e33d fc74 a7bd 8f4a d3be d3a5 37bd
00000330: d747 06bd f705 6e3d 9332 a3bd c378 373d
00000340: cc44 883d 7ed2 94bd fcb8 c93d 014f a53d
00000350: 4c55 e5bd 3696 3abd df92 c43d 98e9 28bf
00000360: 1ac1 2bbe 7671 823e 9c3b d7bd bd32 263e
00000370: 1ae5 4a3d c916 263f c71f 33be 3722 9bbd
00000380: e68b 0abf 5019 52bc a602 13be 64d1 c63c
00000390: b5d7 663f 22d5 0dbe f32f 443e 46b9 1c3e
000003a0: 27e0 923d 9756 80bd 9c02 46be c026 893d
000003b0: 7315 b5bd aae0 19be 65b8 2d3d fd63 4138
000003c0: e33c cd3d bc38 f03d 2fdd 023d 5d5c 15bd
000003d0: 5d2d 053f 1ae3 193e 9351 563e 20ed 18bd
000003e0: e3f5 5fbe 4069 823b 396a 4abe fc03 b3bd
000003f0: 5e63 703d 4b6e 973c 9dd6 573d 5620 a2bd

p_u.bias f4 [120]
-0.04512767 0.00074848154 0.01983985 -0.11078577 0.08716321 -0.019271772 -0.0074220477 0.048495412
-0.03168473 -0.008940443 -0.051870957 0.036184233 0.16076149 -0.16523606 -0.048880935 0.03352355
-0.05851873 -0.07318365 0.21570902 -0.019778177 -0.054806963 -0.100426875 0.010046008 -0.09420646
-0.08722639 0.012792719 0.0066112615 0.0609372 -0.060328085 -0.010452802 -0.09377437 0.1232456
-0.012931918 -0.02927288 -0.053625043 -0.013842736 -0.01626323 0.029855452 0.009852343 -0.044625446
-0.049860645 -0.11216878 -0.018608171 -0.1325209 -0.0071594305 -0.11588547 -0.059605215 -0.10424927
0.06422262 0.061832298 0.22399613 -0.013741597 -0.028581575 0.12778024 0.1510663 0.037154946
-0.03227019 0.007801656 -0.06825642 -0.15842843 -0.29266977 -0.2764746 -0.3205683 -0.3044648
-0.13362363 -0.20808633 -0.21958102 -0.15457311 -0.14649168 -0.3079677 -0.27087757 -0.12472557
-0.13639292 -0.25099194 -0.270738 -0.23389217 -0.26235867 -0.23015235 -0.27043793 -0.1488524
-0.17628838 -0.29502517 -0.15920013 -0.30165967 -0.18626752 -0.27973273 -0.11736564 -0.15408452
-0.35070425 -0.0431607 -0.32376194 -0.2943804 -0.14466573 -0.18190111 -0.31110907 -0.33162898
-0.21149604 -0.2777521 -0.17726396 -0.17691508 -0.20263809 -0.2923809 -0.24000812 -0.29045832
-0.124040164 -0.28152582 -0.21017578 -0.20476118 -0.2047722 -0.19374028 -0.15424345 -0.20401727
-0.24853921 -0.24622755 -0.12300496 -0.29226902 -0.18937227 -0.3014534 -0.098328985 -0.08163831
00000000: cbd7 38bd bf35 443a 2e87 a23c a6e3 e2bd
00000010: a082 b23d d6df 9dbc a634 f3bb 20a3 463d
00000020: d9c7 01bd f07a 12bc a476 54bd eb35 143d
00000030: a99e 243e a433 29be 6037 48bd fd4f 093d
00000040: 56b1 6fbd 4fe1 95bd d3e2 5c3e d805 a2bc
00000050: 447d 60bd 9bac cdbd 0398 243c 51ef c0bd
00000060: c0a3 b2bd 8d98 513c 48a3 d83b 4999 793d
00000070: 951a 77bd 3b42 2bbc c70c c0bd 3068 fc3d
00000080: 65e0 53bc aecd efbc efa5 5bbd a5cc 62bc
00000090: 773a 85bc 6c93 f43c b96b 213c 2cc9 36bd
000000a0: ad3a 4cbd bfb8 e5bd 2a70 98bc 8fb3 07be
000000b0: a899 eabb 5c55 edbd 9924 74bd a480 d5bd
000000c0: 2687 833d dd43 7d3d 3e5f 653e 6f24 61bc
000000d0: e823 eabc d3d8 023e 20b1 1a3e c92f 183d
000000e0: bf2d 04bd 09a5 ff3b 06ca 8bbd 103b 22be
000000f0: d0d8 95be 148e 8dbe 8721 a4be cfe2 9bbe
00000100: a2d4 08be 9514 55be d9d9 60be 6a48 1ebe
00000110: ea01 16be f1ad 9dbe 77b0 8abe 1f70 ffbd
00000120: 96aa 0bbe 0482 80be 2c9e 8abe 6e81 6fbe
00000130: e053 86be 0fad 6bbe d776 8abe c36c 18be
00000140: f184 34be 8a0d 97be 5c05 23be 2373 9abe
00000150: eabc 3ebe 2139 8fbe 665d f0bd 55c8 1dbe
00000160: 828f b3be 46c9 30bd 20c4 a5be 07b9 96be
00000170: 4123 14be 4944 3abe b049 9fbe 46cb a9be
00000180: 6b92 58be 8635 8ebe af84 35be 3a29 35be
00000190: 5c80 4fbe f3b2 95be b0c4 75be f4b6 94be
000001a0: c508 febd 2724 90be 5238 57be eaac 51be
000001b0: ceaf 51be da63 46be fff1 1dbe e7e9 50be
000001c0: 1081 7ebe 1323 7cbe 06ea fbbd 49a4 95be
000001d0: ceea 41be 1a58 9abe b560 c9bd fc31 a7bd

q_z.weight f4 [120, 100]
0.08619179 0.054995865 0.017732244 0.08458508 -0.056221742 -0.01233994 0.06728332 0.008746288
-0.023707539 -0.03164064 -0.048478868 -0.10081966 0.0311047 -0.008027819 0.08358249 0.007689445
-0.063078016 0.08160514 0.02359922 -0.13333662 0.014804864 -0.056912236 -0.0065307086 0.06865148
0.10951024 -0.053166106 -0.032022633 0.052808456 0.039189186 -0.0776835 0.06625512 -0.03190229
-0.021120155 -0.031065742 0.03210098 -0.03506481 -0.055661224 -0.05293287 0.016784629 -0.056628846
-0.04728266 0.05761539 0.039907254 0.09119113 -0.02378043 -0.12409405 -0.10007827 0.13170043
0.008892718 0.08272872 -0.06357133 0.104044124 -0.062066678 0.02003251 0.0912443 -0.0053452007
0.019287398 -0.009381988 0.036937166 -0.018779881 -0.084378295 -0.041389946 -0.101206884 0.017380014
-0.024343478 -0.14325821 -0.08516162 0.033159543 -0.016448539 0.0016399657 -0.08168637 -0.005658567
0.03650823 -0.012965985 -0.020932904 -0.026560273 -0.035942964 -0.05720764 0.018642142 -0.026258891
-0.005875407 -0.017543007 -0.01962126 0.04145087 0.024225531 -0.009222737 -0.039496664 0.05428763
0.019020222 -0.06990785 0.028278386 -0.053855453 -0.023977393 -0.06476683 0.0710961 0.018275185
2.413677e-06 0.04368483 0.0710001 -0.050197102 0.03083717 -0.0058182687 0.06562677 0.013320735
-0.055380005 0.006327471 0.021907555 0.12459754 -0.02909232 0.026308605 0.04986274 0.065096326
0.0326287 -0.035690002 0.08532062 -0.0582206 -0.051761456 0.05635482 0.05597407 0.035899542
0.014988543 0.040707182 0.102051586 0.07764218 0.021477547 0.0001428572 -0.12933184 0.027137255
-0.016151993 -0.07714475 -0.115802124 0.0785558 0.017715123 -0.09814923 0.013834646 -0.0027657128
-0.10762939 0.06586892 0.016771875 0.075422235 -0.06846698 -0.031996403 -0.0021573904 -0.041238308
-0.01239087 0.11241037 -0.05353651 0.046884377 -0.064855084 0.008599023 -0.077387 -0.015942786
0.013642142 -0.010606687 -0.008714235 -0.041731663 -0.09981088 0.0947853 -0.009030247 -0.06089285
0.039844703 -0.0066802083 -0.010497989 -0.002349525 0.09962546 -0.039750006 0.040723044 -0.03668643
0.032526966 0.058234904 0.117058136 -0.041821446 0.04463711 0.0035189432 0.027838783 0.05930733
-0.055664994 0.09079823 -0.016611239 0.08318329 0.0403936 -0.020301139 -0.08789389 -0.06394545
0.069411054 -0.0568536 -0.032649655 0.04158092 -0.030826598 0.0395842 -0.0030949207 0.0015742023
0.00087778526 0.023484211 0.003138975 0.020509683 0.036024008 0.017635202 -0.00378269 -0.011387904
0.0040072165 0.04480166 -0.06346639 -0.036871687 -0.06305389 0.0716941 -0.0772157 -0.032936074
0.027971009 -0.0047654333 0.0038876599 -0.04137048 -0.108617105 -0.049436834 0.12266235 0.0443629
0.016085053 -0.03149417 -0.08649068 0.110906415 0.029972177 0.052616414 -0.025115367 -0.12419453
0.039475396 0.086089894 0.048625976 -0.025408762 -0.021275787 0.043953743 0.038153335 0.11860261
0.021665733 -0.031682637 -0.02711966 -0.038629778 -0.040504824 0.009097637 0.055470537 0.070516065
0.072556086 -0.0425159 -0.11019178 0.0018213273 0.013404917 -0.053206924 -0.07074579 0.041483045
-0.07850788 -0.020581448 0.11085141 0.12288878 -0.1465446 0.0653877 -0.073432595 -0.049499627
00000000: 5285 b03d 5843 613d 3643 913c f13a ad3d
00000010: c548 66bd 762d 4abc d6cb 893d 974c 0f3c
00000020: 5036 c2bc 9e99 01bd c791 46bd 8a7a cebd
00000030: 49cf fe3c 1d87 03bc 4c2d ab3d bdf7 fb3b
00000040: 0c2f 81bd 9820 a73d 2753 c13c 6589 08be
00000050: 1a90 723c ce1c 69bd 8eff d5bb 2699 8c3d
00000060: e846 e03d b4c4 59bd 2a2a 03bd ae4d 583d
00000070: d784 203d 8718 9fbd c4b0 873d faab 02bd
00000080: 2d04 adbc 957d febc 517c 033d 1ea0 0fbd
00000090: 06fd 63bd 23d0 58bd eb7f 893c a6f3 67bd
000000a0: 76ab 41bd 1dfe 6b3d ca75 233d 6ac2 ba3d
000000b0: 2dcf c2bc 0525 febd d6f5 ccbd 7adc 063e
000000c0: c3b2 113c ad6d a93d af31 82bd 1615 d53d
000000d0: a139 7ebd 381b a43c 4bde ba3d cb26 afbb
000000e0: 9b00 9e3c e9b6 19bc 6d4b 173d 44d8 99bc
000000f0: 87ce acbd 8188 29bd 8e45 cfbd 8860 8e3c
00000100: f96b c7bc 48b2 12be 3769 aebd 4dd2 073d
00000110: 16bf 86bc 1ef4 d63a 2f4b a7bd 806b b9bb
00000120: a789 153d 486f 54bc 7b7b abbc ee94 d9bc
00000130: ee38 13bd 8f52 6abd 68b7 983c e31c d7bc
00000140: 7c86 c0bb 5ab6 8fbc c4bc a0bc 63c8 293d
00000150: 9f74 c63c f61a 17bc 41c7 21bd b55c 5e3d
00000160: 4cd0 9b3c d92b 8fbd 13a8 e73c 8997 5cbd
00000170: 3d6c c4bc 79a4 84bd d59a 913d d7b5 953c
00000180: a8fa 2136 ddee 323d 8068 913d 7a9b 4dbd
00000190: 3c9e fc3c 2da7 bebb 5467 863d 363f 5a3c
000001a0: 25d6 62bd ad56 cf3b 7977 b33c ff2c ff3d
000001b0: 0453 eebc 2585 d73c df3c 4c3d 3951 853d
000001c0: aca5 053d ae2f 12bd 94bc ae3d b978 6ebd
000001d0: d203 54bd 50d4 663d 1145 653d 660b 133d
000001e0: 8192 753c 93bc 263d 6c00 d13d dd02 9f3d
000001f0: aef1 af3c f0cb 1539 916f 04be f34e de3c
00000200: 2f51 84bc 11fe 9dbd aa29 edbd dde1 a03d
00000210: 4e1f 913c 7702 c9bd b6aa 623c f640 35bb
00000220: cc6c dcbd 49e6 863d 2c65 893c f976 9a3d
00000230: 6a38 8cbd a90e 03bd 0163 0dbb 80e9 28bd
00000240: 1303 4bbc 6837 e63d 1949 5bbd d509 403d
00000250: bed2 84bd ebe2 0c3c 137d 9ebd 729a 82bc
00000260: 4a83 5f3c abc7 2dbc 27c6 0ebc d2ee 2abd
00000270: a669 ccbd cc1e c23d 9af3 13bc c86a 79bd
00000280: 3334 233d a6e5 dabb c2ff 2bbc 7dfa 19bb
00000290: 6f08 cc3d e7d0 22bd 35cd 263d 8344 16bd
000002a0: ff3a 053d b987 6e3d 2dbc ef3d f74c 2bbd
000002b0: 67d5 363d 129e 663b 290e e43c 3eec 723d
000002c0: fa00 64bd 6cf4 b93d 4b14 88bc 005c aa3d
000002d0: c273 253d 934e a6bc b601 b4bd d5f5 82bd
000002e0: 6227 8e3d 52df 68bd a5bb 05bd c150 2a3d
000002f0: 1088 fcbc 0b23 223d 27d4 4abb 7755 ce3a
00000300: 2c1b 663a f661 c03c 43b7 4d3b ec03 a83c
00000310: e98d 133d b377 903c 02e7 77bb 5594 3abc
00000320: f84e 833b f281 373d abfa 81bd c406 17bd
00000330: 6622 81bd 5bd4 923d 4423 9ebd fae7 06bd
00000340: 7523 e53c 5a27 9cbb 1cc8 7e3b 1874 29bd
00000350: a572 debd 477e 4abd 6636 fb3d dfb5 353d
00000360: cdc4 833c 0800 01bd 0722 b1bd e722 e33d
00000370: 3688 f53c 4f84 573d bebe cdbc b459 febd
00000380: f4b0 213d e64f b03d 082c 473d 0926 d0bc
00000390: 8f4a aebc d708 343d ac46 1c3d ede5 f23d
000003a0: 567c b13c a7c5 01bd 0d2a debc 423a 1ebd
000003b0: 63e8 25bd 410e 153c 1335 633d ba6a 903d
000003c0: 4998 943d 2725 2ebd 3aac e1bd 9ab9 ee3a
000003d0: 4ca0 5b3c 81ef 59bd 2be3 90bd 20ea 293d
000003e0: bdc8 a0bd 6d9a a8bc 1006 e33d 1dad fb3d
000003f0: ca0f 16be fde9 853d d463 96bd 1fc0 4abd

q_z.bias f4 [120]
0.107869886 -0.07863249 -0.013379894 0.04931941 -0.10214331 -0.0047642062 -0.06450569 0.075404435
0.08687265 0.07224444 0.022137871 0.025086273 0.037580032 0.07495238 -0.10772384 -0.07917697
-0.039431244 0.05635256 0.010329492 0.024390118 -0.060813177 0.049044486 0.049958773 -0.02886477
0.028372698 0.033891 -0.032948952 0.09228585 0.009637919 -0.060715113 -0.05202882 0.02751951
-0.08280443 0.07420786 0.0047772 -0.106609166 0.042870354 -0.070078105 0.11601313 -0.017794471
-0.0139492545 -0.10735853 -0.08612729 -0.004369909 -0.014942219 -0.066811465 -0.043728754 0.040067792
-0.026834758 0.04566076 0.025159445 0.030784838 -0.081309326 0.02397914 0.037703708 0.030322878
0.031910587 -0.100216225 0.01869099 -0.0402557 -0.06475295 -0.05193235 -0.0072060074 -0.075830325
-0.08731027 -0.04541377 -0.101107776 -0.105121404 -0.11049005 -0.02236721 -0.045089103 -0.07141207
-0.070592836 -0.036392443 0.008109452 -0.0671729 -0.08268284 -0.11037657 -0.11910716 -0.02088955
-0.041012414 -0.018917168 -0.076472186 -0.07305607 0.0030037612 -0.0013820467 -0.1254905 0.012533304
-0.07915974 -0.11552352 -0.013469025 -0.1192178 -0.14519815 -0.004220431 -0.08282803 -0.04810787
-0.051688794 0.006436609 -0.08130512 -0.12534983 -0.14406814 -0.078373425 -0.105017394 -0.06818321
-0.056290843 -0.08785237 -0.11378692 -0.1573785 -0.08042681 -0.06598957 -0.027422657 -0.07935566
-0.082287826 -0.018190475 -0.089056574 -0.09425359 -0.08338038 -0.07579593 -0.07292457 -0.050204817
00000000: e3ea dc3d 120a a1bd 5837 5bbc 2603 4a3d
00000010: 8330 d1bd 0f1d 9cbb 8f1b 84bd a46d 9a3d
00000020: 4aea b13d e5f4 933d 7b5a b53c ba81 cd3c
00000030: 85ed 193d a280 993d 519e dcbd 8927 a2bd
00000040: a882 21bd f1d1 663d 083d 293c c9cd c73c
00000050: 3d17 79bd dfe2 483d 92a1 4c3d cf75 ecbc
00000060: dc6d e83c 4ad1 0a3d 7bf5 06bd 5d00 bd3d
00000070: 5de8 1d3c 69b0 78bd 2c1c 55bd 9870 e13c
00000080: 5e95 a9bd 4afa 973d 0f8a 9c3b e855 dabd
00000090: d398 2f3d 1c85 8fbd 4b98 ed3d b6c5 91bc
000000a0: 6a8b 64bc cade dbbd 8163 b0bd 7431 8fbb
000000b0: 35d0 74bc 73d4 88bd ec1c 33bd 201e 243d
000000c0: 91d4 dbbc c706 3b3d 2e1b ce3c 7c30 fc3c
000000d0: 8185 a6bd e76f c43c 346f 1a3d af67 f83c
000000e0: adb4 023d 2a3e cdbd d91d 993c 29e3 24bd
000000f0: 329d 84bd 04b7 54bd 5f20 ecbb ee4c 9bbd
00000100: bacf b2bd ca03 3abd 9811 cfbd e449 d7bd
00000110: 9b48 e2bd 703b b7bc 5aaf 38bd 7e40 92bd
00000120: fa92 90bd 3e10 15bd 82dd 043c f291 89bd
00000130: 9f55 a9bd 1c0d e2bd 74ee f3bd 9020 abbc
00000140: a2fc 27bd 2df8 9abc 739d 9cbd 6c9e 95bd
00000150: c0da 443b cb25 b5ba 9580 00be 7d58 4d3c
00000160: 801e a2bd 9897 ecbd 2fad 5cbc 7628 f4bd
00000170: d3ae 14be 8b4b 8abb bea1 a9bd c20c 45bd
00000180: a1b7 53bd 31ea d23b 4c83 a6bd b55b 00be
00000190: 9986 13be 3f82 a0bd 5c13 d7bd a4a3 8bbd
000001a0: 3a91 66bd f2eb b3bd 1e09 e9bd d427 21be
000001b0: d0b6 a4bd 8a25 87bd 7ba5 e0bc 3885 a2bd
000001c0: 8586 a8bd 3104 95bc 4b63 b6bd 0708 c1bd
000001d0: 55c3 aabd e63a 9bbd 7a59 95bd 91a3 4dbd
