hosp_models/deploy_week_49_7/fnp_enc.pt (torch, 762335 bytes, 64 tensors)

cond_trans.0.weight f4 [100, 60]
000000 15 89 64 3d 56 c9 4d bd 30 9b 2a 3e 35 ec e5 bc
       0.055794794 -0.050240837 0.16660762 -0.028066734
000010 09 76 7a 3d 74 f9 0b be bd 7c 31 be 41 d9 f4 bd
       0.061147723 -0.13669378 -0.1733274 -0.119555004
000020 99 d3 6f bd 28 df 40 be da 62 02 3e 5e 8a 06 3e
       -0.058551405 -0.18835127 0.12733021 0.1313872
000030 14 c4 f6 bc 18 45 31 3e 80 12 0f 3e 6d ba a5 3d
       -0.030122794 0.17311513 0.13971901 0.080921985
000040 75 e2 d0 bd 66 3a 83 3d 18 02 06 3e 1a 2b 06 be
       -0.10199443 0.06407623 0.13086736 -0.1310238
000050 77 34 86 3d 14 ca fe bc 32 6e 4e 3d ad 06 5c bd
       0.065529756 -0.031102218 0.05039806 -0.053717304
000060 66 37 b7 bd 75 5c fb 3d f0 4e d5 3b c9 83 f5 3d
       -0.08946113 0.12273494 0.006509654 0.11988027
000070 cb 4a b3 3d f8 5e 09 3d 7d 1a d9 bc 28 bd e6 3d
       0.087545 0.033537835 -0.026501888 0.112665474
000080 da 0d 84 3d 84 37 17 be b8 2a 1d bd c1 f6 90 bd
       0.064479545 -0.14767271 -0.038370818 -0.070783146
000090 34 ed dc bd 22 41 67 39 85 ca 14 3e ce 29 b2 bd
       -0.107874304 0.0002205414 0.1453038 -0.0869938
0000a0 0a 8c a0 bd 18 30 e9 bd 58 07 09 3d d3 9c e1 3b
       -0.0783921 -0.11386126 0.03345427 0.00688515
0000b0 b5 65 d9 bd 39 dc ac bc 71 81 91 3d a6 f7 25 be
       -0.10615102 -0.021101104 0.07104767 -0.16207752
0000c0 79 19 06 3e 7d 29 1a ba ea c6 1d 3e f1 43 24 bd
       0.13095655 -0.0005880816 0.15407911 -0.040103856
0000d0 69 de 09 3c 26 94 25 3c 1d 0f 04 be be 94 8e 3c
       0.008414843 0.010106122 -0.1289639 0.01740491
0000e0 2e a8 4a bd 6b f9 95 3c b9 57 a2 3c 6b 19 b3 3d
       -0.049476795 0.018307408 0.01981722 0.087450825
0000f0 6c 9b 74 3d 8c cf 0d be d3 87 28 bd e5 08 d4 bd
       0.059718534 -0.13848704 -0.041145157 -0.10353259
000100 09 31 ae 3a f1 51 0b be 3a 18 e2 3d ac 84 08 be
       0.001328976 -0.13605477 0.11039777 -0.1333186
000110 50 34 29 be 63 c8 de bc 1b a3 c3 3d ca 6d c1 bc
       -0.16523862 -0.027195161 0.09552594 -0.023611922
000120 e7 50 48 bc df 96 f1 3d 7a fe b4 3d f8 6a b7 3d
       -0.01222632 0.117963545 0.088376 0.089559495
000130 22 36 df 3c 83 5c 3b 3d 9c 09 ef bd c7 8f b2 bd
       0.027247492 0.045742523 -0.11671755 -0.087188296
000140 9a de d0 bd 7b 1f 11 3d b9 89 88 bd 16 a8 bb 3c
       -0.10198708 0.035430413 -0.066668935 0.022907298
000150 8b db 9e 3d dc 04 eb 3c 3e 75 85 3b 20 ac f9 3c
       0.07756718 0.02868884 0.0040728142 0.030477583
000160 b0 25 56 bd ff 83 99 3c c8 8f d9 bc 6f 33 25 3e
       -0.052282035 0.018739698 -0.026557818 0.16132902
000170 3e ce 1f 3e d6 aa dc 3d ec 70 11 bd 52 84 98 3d
       0.15606019 0.10774772 -0.03550808 0.07447113
000180 23 36 cd 3d 0f 7f 84 bd cd b7 db 3d 31 6e 12 3c
       0.100200914 -0.06469547 0.107284166 0.0089374045
000190 88 b5 29 3e d8 9c e9 3d 75 24 9d 3d 6f db d3 3c
       0.16573155 0.11406869 0.07672969 0.02586147
0001a0 ff 6c b8 3d bd 0a 35 3d f0 de 42 be f8 f5 02 3e
       0.09005164 0.044199694 -0.19030356 0.12789142
0001b0 5b 40 2b be 0b c6 26 3e 44 fa 41 be ea 70 ca bd
       -0.16723768 0.16286485 -0.18943125 -0.09884818
0001c0 cd a2 cc bd 6c 2c b4 bb 94 0f 0e be 4b dd 18 3d
       -0.09991989 -0.0054984596 -0.1387313 0.037320416
0001d0 bd b8 5f 3d b9 a1 2a bd 07 4b 4c 3e 5c a0 95 bc
       0.05461954 -0.041658137 0.19950496 -0.018264942
0001e0 79 cb 89 3c 16 0a 7d 3e 07 d8 bc 3d d1 92 fc 3d
       0.016820656 0.24710879 0.092208914 0.123326905
0001f0 3e a7 4b be 1a da 83 bb cd 45 26 3d ac e3 7e 3d
       -0.19888017 -0.0040238025 0.04059391 0.062228844
000200 0a 4d 13 3e 46 be 9f bd 85 4d 0d 3d 65 c9 b6 bc
       0.14384857 -0.07799964 0.034497757 -0.02231283
000210 55 b9 c7 bc c4 0f 15 3e e2 84 0a 3d e2 60 eb 3d
       -0.024380365 0.14556795 0.033818133 0.11493088
000220 25 80 c2 3d f7 3a 10 be b3 24 1b 3c fc b6 46 3e
       0.09497098 -0.14084993 0.009469199 0.1940574
000230 79 23 d7 3b 15 0f bb bc d9 5d 45 be b3 b2 33 3e
       0.006565508 -0.02283434 -0.19274081 0.17548637
000240 56 4f 99 bd 38 32 8d 3e 61 1f 9f bd f5 8d ce 3d
       -0.07485835 0.27577376 -0.07769657 0.1008567
000250 0e 44 c1 3d 90 b9 41 3e ff d7 c3 3d eb 7d 8f 3d
       0.094368085 0.18918443 0.09562682 0.07006439
000260 bd cc 30 3e 9c ff 6f bd f2 84 a5 3d ee 48 b7 bd
       0.17265601 -0.058593377 0.08081998 -0.08949457
000270 9a e6 3f be 54 f0 de bd ba 7d e2 bd f7 29 24 3d
       -0.18740311 -0.10885683 -0.11059137 0.040079083
000280 f8 7b bb bd 25 f0 55 3d eb a2 55 3e fe 89 3e be
       -0.091545045 0.052230973 0.2086293 -0.18607327
000290 5d 5f c9 3d 94 f9 84 3e 2b 1c 54 bd 40 4e b4 bb
       0.09832642 0.25971663 -0.051784676 -0.005502492
0002a0 02 04 fa 3d 50 90 78 3d b6 15 98 bd d2 35 b3 bd
       0.12207796 0.060684502 -0.07426016 -0.087505
0002b0 c8 f4 62 3c b9 5a f0 3d d5 58 59 3d 02 1b 8e 3c
       0.013852306 0.11736054 0.053063232 0.017346863
0002c0 40 e6 23 be 4e 95 86 bd 30 6d 00 3e 74 e5 4b bd
       -0.16005802 -0.06571446 0.12541652 -0.04977937
0002d0 1b 0d f8 3c fd ed 0f bd 44 16 82 3d 3c b5 bb bd
       0.030279687 -0.035139073 0.06351903 -0.09165427
0002e0 a1 8c 50 bd ec d6 16 3e 03 2d 4c 3e 45 c2 ef bb
       -0.050915364 0.14730424 0.19939046 -0.00731686
0002f0 4b 9d 60 be 9c 17 b7 3c 29 26 00 3d 0e 0f 21 3d
       -0.21935003 0.022350125 0.031286392 0.039320998
000300 d5 fb 23 3d cb 0c 10 bd a0 d7 82 3d fa b4 9a bc
       0.040035088 -0.03516845 0.063887835 -0.018885124
000310 6b 34 20 3e de 56 8f 3c 8a ec 06 3e fa 54 78 3d
       0.15644996 0.017497476 0.1317617 0.060627915
000320 72 29 77 bd d7 a5 33 bd 51 14 b5 bd d4 22 90 3d
       -0.06034226 -0.04385933 -0.08841766 0.07037893
000330 c8 f5 11 be 8e cc bc 3d 1f 56 b6 bc e4 a6 93 bd
       -0.14253914 0.09218703 -0.022257863 -0.07209566
000340 0a 6a 6d bd d0 79 c5 3c 36 30 2f 3e 6c 1f b6 3d
       -0.057962455 0.024105936 0.17108235 0.08892712
000350 a8 8d 7f 3e 0e 71 13 3e a4 3d 64 3e 8d 7f 87 3d
       0.24956381 0.14398596 0.22289139 0.06616125
000360 ed 79 8f 3d 90 5c 70 bc ec ff 16 3d 8b eb e4 3d
       0.07005677 -0.014670506 0.03686516 0.11177739
000370 88 7c a6 bc 9f cf 75 3d 71 35 dc bc c2 e3 bf bd
       -0.020323053 0.060012456 -0.026880952 -0.09369613
000380 8d 72 20 3e 58 14 be 3d 7a b9 24 3e a2 62 96 3d
       0.15668698 0.09281224 0.16086379 0.073430315
000390 6e d0 21 3c 40 af 79 3b b6 e8 61 3d c3 05 92 be
       0.009876354 0.0038098842 0.05515357 -0.2852002
0003a0 fb 0c 92 bb c0 e0 23 3d ee c1 00 3e 9b 27 ec ba
       -0.004457114 0.04000926 0.12573978 -0.0018017174
0003b0 4f de 26 bc 76 92 4d 3d 57 b0 2e 3d 8b 0e 80 bd
       -0.010184838 0.050188504 0.04264864 -0.06252774
0003c0 b0 a8 1c 3e 33 24 53 3e df 74 ce 3d 4c fc 67 be
       0.15298724 0.20619278 0.10080885 -0.22654837
0003d0 39 f5 50 be 6e 20 d6 3a 9e 72 12 bd 4c 50 a3 3c
       -0.20406045 0.0016336569 -0.03575384 0.01993575
0003e0 10 c4 a9 3a d1 4c ee 3d 84 81 8d 3d 6c d5 3b 3d
       0.0012952108 0.11635745 0.06909469 0.04585783
0003f0 84 9a 86 be 36 c8 29 bd d9 d4 41 3e 0c f2 5b 3e
       -0.2628976 -0.0414507 0.18928851 0.21479052

cond_trans.0.bias f4 [100]
000000 80 43 16 3e da 50 78 be 27 97 1c be 15 ca 2f be
       0.14674187 -0.24249592 -0.15292035 -0.17166932
000010 59 2a 23 be f8 d3 13 3d 45 4d 29 be e6 46 40 3d
       -0.15934123 0.03609082 -0.16533382 0.046942614
000020 62 24 32 be 99 b0 be 3d fc 3f b7 bc 21 59 cd bd
       -0.17396691 0.09311027 -0.022369377 -0.100267656
000030 42 51 87 bb 89 94 18 be d8 a7 32 be 45 ba c9 bc
       -0.0041295597 -0.14900412 -0.1744684 -0.024624953
000040 30 f2 11 be aa 3a 38 be 26 89 29 be 17 1a ad 3c
       -0.14252543 -0.17991129 -0.16556224 0.021130605
000050 27 d1 29 be 57 13 26 3d 0d 29 b5 bd 94 51 b4 bd
       -0.16583692 0.040545788 -0.088457204 -0.08804622
000060 b6 b2 96 bd 59 da 3e be 8c 02 72 be da 6f 0b be
       -0.07358305 -0.1863798 -0.23633784 -0.13616887
000070 e2 24 4b 3d ff 47 0b be 18 bc dc bd 01 4a 3e 3d
       0.04959572 -0.13601683 -0.107780635 0.046457294
000080 80 15 25 3e 3f 58 0b be 44 34 38 be 5b 0c b2 3d
       0.16121483 -0.13607882 -0.17988688 0.08693763
000090 02 24 fa 3d 4b 2f cc 3d 8e be 53 bd df 4c 49 be
       0.12213899 0.09969958 -0.0516954 -0.1965823
0000a0 2c a1 41 be 59 64 13 be 66 db 29 be 01 da 15 bd
       -0.18909138 -0.14393748 -0.165876 -0.036584858
0000b0 56 f8 4d be 5c 62 a8 3c ee 4c 5b bd c1 49 ff bd
       -0.20114264 0.020554714 -0.053540163 -0.12465239
0000c0 ac 53 b1 bd dc 56 4b be 52 47 a1 3d 0b 3e 73 be
       -0.08658537 -0.19857353 0.078749314 -0.23754136
0000d0 43 c5 2a be a8 21 dd bd 84 21 18 be 79 a3 42 be
       -0.16676812 -0.10797435 -0.14856535 -0.19007672
0000e0 ba 52 08 bd 63 3f f6 bd 48 71 fd bd 62 3a 47 3d
       -0.03328202 -0.12023809 -0.12375122 0.048639663
0000f0 da 5e 83 bd 7d 29 1c be c0 d4 4c 3c 8c 3a 19 be
       -0.06414576 -0.15250202 0.012501895 -0.1496374
000100 59 c2 22 bd ac 01 cf bd b3 b3 1f be fb 3b 18 be
       -0.039736126 -0.10107741 -0.15595894 -0.1486663
000110 11 fd 2b be 0b 01 8e 3d 2b 08 04 be be 36 ae bd
       -0.16795756 0.06933793 -0.12893741 -0.08506535
000120 69 52 79 bc b9 fb b4 bd a4 33 5f be 2c 66 db 3b
       -0.015217402 -0.08837075 -0.21797043 0.0066955294
000130 a1 5a 9a bc a8 c0 b5 bd bd da 7c 3d 5f 61 22 be
       -0.018842043 -0.08874637 0.061732043 -0.15857457
000140 6d e0 2d be ff 28 39 be 2e 10 b1 bc 65 c2 19 be
       -0.16980143 -0.18082045 -0.02161416 -0.15015562
000150 32 26 8e bd aa 6f 63 bd fc 2c b5 bd 94 51 04 be
       -0.06940879 -0.055526413 -0.08846471 -0.12921745
000160 97 e4 f4 bc 74 67 9d bd c4 3b 22 be da 6f 7b be
       -0.029894156 -0.07685748 -0.15843111 -0.24554387
000170 a3 8e 5e be 25 36 06 3d f6 03 4d be 3b 47 94 bd
       -0.21734099 0.03276648 -0.20021042 -0.07240149
000180 7e 16 b2 3d d8 d3 9d bc 31 59 82 be ce 6f 3a be
       0.08695696 -0.019266054 -0.25458673 -0.18206713

cond_trans.2.weight f4 [100, 100]
000000 30 5f fd 3a 40 f4 f2 bd 8a ca bf 3d 84 78 9f bd
       0.0019330736 -0.11862993 0.09364803 -0.077866584
000010 ba 48 6c 3d 31 4d 1a be 78 f0 1f bc e8 f1 22 3d
       0.057686545 -0.15068509 -0.009761922 0.03978148
000020 a6 25 50 be 28 90 d7 bd c0 1b 1c bd e4 3e 6c 3d
       -0.20326862 -0.105255425 -0.038112402 0.057677165
000030 ae d8 5a bd 88 c8 7f bd 29 de b3 3d f7 35 9d bd
       -0.053429298 -0.0624471 0.08782608 -0.076763086
000040 e0 50 10 3e 7e 76 fb 3d dc 61 89 bc 24 9a 4d 3d
       0.14093351 0.1227846 -0.016770296 0.050195828
000050 d3 7a f6 bd 92 bb 70 3d cb 6e 21 bd cc 3d 91 bd
       -0.120351456 0.05877263 -0.0394123 -0.07091865
000060 05 d7 bd bc 89 98 32 be 60 6c b8 3c 53 df c5 bc
       -0.023173818 -0.17441 0.022512615 -0.02415434
000070 51 19 c8 bd f0 6e 80 3d 37 d3 ed 3d 95 ec fe 3d
       -0.09770454 0.0627116 0.11612552 0.12447468
000080 76 b8 1f bd 81 c8 11 3e 9b e8 81 3d 23 d5 21 be
       -0.038994275 0.14236642 0.06343194 -0.15803961
000090 24 04 c2 3d 9d c9 9b 39 c3 8b 5f bd 0d 32 9c 3d
       0.09473446 0.00029714117 -0.054576647 0.07626734
0000a0 8b e3 8e bd 0e f8 9a 3c de 26 69 3d c1 0b e9 bb
       -0.06976994 0.01891711 0.056921832 -0.007111997
0000b0 36 33 1d be f0 f7 ea bd 76 56 48 3c 35 a3 ab bd
       -0.15351567 -0.114730716 0.012227645 -0.08380739
0000c0 87 64 48 3d 4f 7e ac 3d 7f 76 26 bd 1a f2 fc bd
       0.048923995 0.08422529 -0.04064035 -0.12350865
0000d0 cc 21 82 3d 9f 12 68 3a c2 0e a3 3d 44 71 9f 3c
       0.063541025 0.00088528724 0.07961799 0.019463189
0000e0 a7 42 c5 3b 14 c1 87 3d e0 57 b9 bd cb a0 29 3d
       0.0060199085 0.066286236 -0.09049964 0.04141311
0000f0 ce ca 01 bb 41 54 a5 bd a2 1c dc bd d1 d5 2c bd
       -0.001980472 -0.08072711 -0.10747649 -0.0421961
000100 23 66 01 bd 04 69 16 be 70 98 71 bd bd 60 44 bd
       -0.031591546 -0.14688498 -0.058983266 -0.04794382
000110 48 a7 01 be 24 56 02 3c 48 c4 02 be 31 55 4b bd
       -0.12661469 0.007955108 -0.12770188 -0.04964179
000120 39 66 08 be 2c 5a 99 bd 35 42 24 be d9 53 b3 3c
       -0.13320245 -0.07487902 -0.16040881 0.021890568
000130 2d 90 a8 3d a7 75 61 bd b1 42 d8 3c 95 b1 28 3d
       0.08230624 -0.055043843 0.026398988 0.04118498
000140 37 cc 21 bc eb 95 25 3d 42 da 8e bd d3 ce 96 3d
       -0.009875349 0.040426176 -0.06975223 0.07363667
000150 c9 94 41 bd f9 14 ce bb 1f d2 d5 3d a9 d6 0a 3d
       -0.047261033 -0.006289121 0.10440468 0.033896122
000160 6f 39 2b 3e 28 42 90 bd f1 01 a1 bc 5d c4 56 3d
       0.16721128 -0.07043868 -0.019654246 0.05243336
000170 13 e1 59 bb f4 95 0b be 77 c2 19 3c 12 ea 4c bd
       -0.0033245727 -0.13631421 0.009384743 -0.050027914
000180 ea 53 a5 bc de b3 b7 bc 82 19 a7 bd 35 89 28 be
       -0.020181615 -0.022424635 -0.08159162 -0.1645859
000190 c8 87 a3 3d c9 3c 94 be fc 23 33 be 0b c6 cb 3d
       0.079848826 -0.28952625 -0.17494196 0.09949883
0001a0 a5 3a c3 bd db 87 49 3e 85 2a 5e be 39 76 76 bd
       -0.0953267 0.19680731 -0.21695907 -0.06017134
0001b0 b9 38 a8 bd 5e 81 8c bc 4e 17 29 3e ab 90 36 be
       -0.08213944 -0.01715153 0.16512796 -0.17828624
0001c0 4f 27 7d be 5f 6a a2 3d 9c 7a cc bd 18 12 fa bb
       -0.24722026 0.07930445 -0.099843234 -0.0076315515
0001d0 cd 33 5f bd a1 1f 8a bd 3c 8e c1 3d f3 77 4f be
       -0.05449276 -0.06744314 0.09450957 -0.20260601
0001e0 23 bb 2a be 8a 9c d0 bc 0a 8e f1 bd 6d 64 c7 bc
       -0.1667295 -0.025465269 -0.1179467 -0.024339879
0001f0 eb 75 1f 3d 32 40 70 bd 1d 00 ce bd 8e f0 20 bd
       0.038930815 -0.05865497 -0.10058615 -0.03929191
000200 cc 2d c9 3c 6b 73 78 3e 76 2a 05 3e ac 76 40 be
       0.02455797 0.24262778 0.13004479 -0.1879527
000210 97 21 70 bd 51 cf f3 bc 28 3d 9f 3d ae 32 87 bb
       -0.058625784 -0.029761942 0.077753365 -0.0041259145
000220 3e d2 2b be 27 69 da 3b 98 ca 18 be 4c 8c 11 3e
       -0.1677942 0.006665367 -0.14921033 0.14213675
000230 94 52 89 3c 49 e4 d5 bd 5d 6f ab bd 7b 12 7f 3d
       0.01676301 -0.104439326 -0.0837085 0.062273484
000240 01 ef 64 3e 11 13 8a bd 43 ea f2 bd 21 a7 a7 3e
       0.22356798 -0.06741918 -0.11861088 0.32744697
000250 24 6c bb bb 54 50 4e 3d 61 19 3b bd 2b 0f b6 3d
       -0.0057196785 0.050369576 -0.0456785 0.08889612
000260 0c 7d 41 be fe f0 25 3d 38 21 89 3d 3c 6f 20 bd
       -0.18895358 0.04051303 0.06695789 -0.03916858
000270 54 58 5b 3b 78 ad 6f 3e 15 ce e3 3c 0f 69 ca 3c
       0.0033469396 0.23406017 0.027808229 0.024708299
000280 b9 11 c0 3d e2 db 35 be a6 dd 6f 3d 11 b4 87 3d
       0.0937838 -0.1775966 0.05856099 0.06626142
000290 e7 2d 5e bc c6 b7 f2 bb b5 41 47 bc a1 c1 5e be
       -0.013560749 -0.0074071614 -0.012161662 -0.21753551
0002a0 05 12 90 3c 28 53 97 3d f4 4a 48 3e 10 1e e3 bc
       0.017586717 0.07388908 0.19559842 -0.027724296
0002b0 a8 a0 05 bd ad b0 2e bd 9d e3 c7 3d 22 bc 11 bc
       -0.032623917 -0.04264896 0.09760211 -0.008894952
0002c0 6e 32 a9 3d e2 cc 72 3c 1c d6 5b be f9 38 82 be
       0.08261572 0.014819356 -0.21468395 -0.25434092
0002d0 d5 ce ef 3d d4 91 6a 3e 56 84 f3 bd 2b 32 31 be
       0.11709372 0.22907192 -0.118904755 -0.17304294
0002e0 aa da 3a 3e dc d2 74 bc e9 1c c6 bc 56 63 97 3d
       0.18247476 -0.014942851 -0.024183707 0.07391994
0002f0 16 1b f4 3d 5c 83 c2 3d e2 c7 e2 bd e8 0c ba bd
       0.11919229 0.09497711 -0.11073281 -0.09084493
000300 27 42 6e be ed a6 98 bd 63 56 a3 bc ae 32 8d 3c
       -0.23267423 -0.074537136 -0.019938653 0.01723608
000310 62 15 37 3d da 99 26 3d 70 b0 8c 3d 73 65 43 3d
       0.044698127 0.040674068 0.0686959 0.04770417
000320 18 6c 4a be 0f 43 1a 3d 8e 6d 4e bd 50 91 c2 3c
       -0.19767797 0.03766161 -0.05039745 0.023750931
000330 97 01 31 3e 3d e8 d5 3d 4f 80 79 3e de 24 a8 3d
       0.17285763 0.104446866 0.24365352 0.08210157
000340 68 44 8a bc c2 55 dd bd 88 0d 00 3d bd 9b 78 bd
       -0.016878322 -0.10807373 0.031262904 -0.0606954
000350 b0 30 b3 bc b8 d7 83 3d cb b8 75 bb d3 3e 6d 3d
       -0.021873802 0.064376295 -0.0037494178 0.057921242
000360 1a a6 5a 3e e7 4c 62 bd 0a 9c 37 3e 45 59 23 bc
       0.21352425 -0.05524912 0.17930618 -0.009970014
000370 0f 94 a1 ba 18 4f 41 be be 36 e0 bd 5a c6 7c 3e
       -0.001232745 -0.18877828 -0.10947941 0.2468504
000380 4f 8c ad bd 95 a8 0e be ad 94 72 3d 8c d2 36 b9
       -0.08474027 -0.13931496 0.05922382 -0.00017435307
000390 6c 2d b4 3d 85 36 3c 3e f4 50 e5 3c 24 6e 0a be
       0.08797726 0.18380173 0.027992703 -0.13518578
0003a0 92 89 1a 3d cc fc 4b 3e ac aa a3 bd f9 f2 50 be
       0.037728854 0.19920653 -0.079915375 -0.20405187
0003b0 55 4a 18 3c 14 a5 7e bd 08 2a 3b 3d 93 4f 89 be
       0.009295066 -0.06216915 0.04569438 -0.26818523
0003c0 df ce a5 bd 45 db 7e bd d9 3f ef 3c ac d0 0c 3c
       -0.08096098 -0.06222083 0.02920525 0.008594673
0003d0 ff 51 60 3e e3 80 01 bd 34 59 45 3d 4b 4c 0b bd
       0.21906279 -0.031617057 0.048180774 -0.034008306
0003e0 6b 88 8a bc c6 4a 93 bb b8 14 af 3d a5 3f 5c 3d
       -0.016910752 -0.0044949977 0.08548874 0.053771634
0003f0 91 d0 17 3e a0 1f 5c bd 8b aa 86 3d b6 d8 ef bd
       0.14825656 -0.053741097 0.06575497 -0.11711256

cond_trans.2.bias f4 [100]
000000 5c 6b 9b bd 67 cc 12 3d 01 cb 1d be d9 11 d0 bd
       -0.075888366 0.035839465 -0.15409471 -0.10159654
000010 82 14 95 bd ae aa 81 3a 96 7e a1 bb ac 3c dd 3c
       -0.07279302 0.0009892785 -0.0049284203 0.02700647
000020 9e f1 99 bd cb 83 db 3d 12 2c e7 bd f8 83 e9 3d
       -0.07516788 0.10718497 -0.112877026 0.11402124
000030 d2 87 78 bd 53 9b 6e 3d c7 56 2d 3d 20 78 1e bd
       -0.060676403 0.058253597 0.042319085 -0.03868878
000040 84 96 e3 bd 45 db f4 bd 9d 9d 00 bb 04 a3 16 3d
       -0.11112693 -0.11955885 -0.0019625195 0.036776558
000050 61 78 69 bd 73 60 13 be cf c4 48 bd 0a 93 74 bd
       -0.056999568 -0.14392261 -0.049015816 -0.05971054
000060 4a 18 86 3c 45 9f 10 3c 18 83 e9 3b 34 ae e5 3c
       0.016369004 0.008827035 0.0071262233 0.028037168
000070 0c 20 1c 3d f2 39 bc bd 68 dc b2 3c 23 fc 1c 3b
       0.0381165 -0.0919074 0.021833614 0.0023953996
000080 27 e9 a2 bd 4a fe 8a bd 4f c1 a0 3b 0c e5 67 bd
       -0.079546265 -0.06786783 0.0049058567 -0.05661492
000090 44 c5 b5 39 62 26 de bd 4f 5b 1f 3e 53 fc 8a 3c
       0.00034669985 -0.10847165 0.15562175 0.01696602
0000a0 cd 0e 23 be 96 37 cd bd 2e 15 e5 bd 06 da 2b bd
       -0.15923615 -0.10020368 -0.1118568 -0.04195597
0000b0 8a ec fc 3d ba 78 ae 3d fb a0 0e be 98 f3 ec b9
       0.12349804 0.085191205 -0.13928597 -0.0004519492
0000c0 df 0c 52 bd e3 9c 83 3d 36 04 02 be 2e 64 8e 3d
       -0.051281806 0.06426408 -0.12696919 0.069527015
0000d0 63 fe 0f bd ff b1 f7 bd 14 e0 a4 bd 66 77 18 3d
       -0.03515471 -0.12094497 -0.08050552 0.037223242
0000e0 f8 93 28 3e ac b0 c3 bd 42 79 c3 bd e6 41 08 bc
       0.16462696 -0.09555182 -0.095446125 -0.008316493
0000f0 fd 2d 10 3e 0f 7b 5d bd 7a bb b3 3d 71 3f 00 bd
       0.14080043 -0.054072436 0.08775993 -0.031310502
000100 84 17 27 be be 84 e1 bd 01 e4 d7 bd 1f f5 ec bd
       -0.16317564 -0.11011647 -0.10541535 -0.11570191
000110 c2 55 df bc 6d 9d 10 be cb 8b 94 ba e7 a1 94 bd
       -0.027262572 -0.14122553 -0.0011333165 -0.07257443
000120 ed e8 5c 3d e6 59 95 bd 08 5c 44 bd a9 a3 83 bd
       0.053933073 -0.072925374 -0.04793933 -0.064277
000130 16 10 c7 bd 54 33 aa bd f0 fb 1e 3e ef a8 b7 3d
       -0.09719865 -0.08310571 0.15525794 0.089677684
000140 79 32 0a be 49 7c 32 bd 01 28 08 3e 3d 1f bb 3d
       -0.13495816 -0.04357556 0.1329651 0.091368176
000150 be 7a 2f bd c9 b7 28 3e f5 03 02 3e 3d 21 a5 bd
       -0.042841665 0.16476358 0.12696822 -0.0806298
000160 5d d5 9f bd e6 4b a2 bd 53 65 97 bd 4f b1 c2 3d
       -0.07804368 -0.07924633 -0.07392373 0.09506475
000170 08 9a 0e be 4c cc b8 bd 79 da 17 be aa 3a b3 bc
       -0.13925946 -0.090233415 -0.14829434 -0.02187856
000180 3b f2 e7 bc f2 ff 49 3d 5c 9d dc 3d 42 7b f9 3d
       -0.028313747 0.049316354 0.107722014 0.12181713

cond_trans.4.weight f4 [100, 100]
000000 db 25 6f 3d fd 80 79 3d 5b c0 fb bb c9 32 7e bd
       0.05838571 0.06091403 -0.0076828427 -0.06206015
000010 6f c0 7e bd 42 fc a6 3b cd 7b d2 3d 83 fd 09 be
       -0.062195238 0.0050959894 0.102775194 -0.13475613
000020 1f 91 9d 3d 88 48 31 bd c8 e3 92 3d 7e 43 d6 bd
       0.07693695 -0.04328206 0.07172352 -0.10462092
000030 0e 0b 0e bd 34 14 ca 3d cc 3c cc 3d 71 e6 94 bd
       -0.03467851 0.09867135 0.099725336 -0.07270516
000040 04 22 0b 3d 8c 8c ca 3d 04 52 7b bd cb d9 2a 3d
       0.033967987 0.098900884 -0.061357513 0.04171161
000050 21 e7 b5 bd 99 61 8f bc 70 a2 bf bd e5 56 5f 3c
       -0.08881975 -0.017502593 -0.09357154 0.013631557
000060 dd 89 a3 3d 50 fe 91 3d 9b e1 93 3c d6 5a 67 3c
       0.0798528 0.071285844 0.018051913 0.014120778
000070 dd 82 99 3d 0d 34 1c bd 2c f2 e7 3c 2e 4a 6a 3d
       0.07495663 -0.038135577 0.028313719 0.05719965
000080 90 8e 3a bd 95 df 8a 3d 4b c3 31 3d 97 38 57 bd
       -0.045546114 0.06780926 0.043399137 -0.052544203
000090 fd 9c cd 3d 6e b4 bc bc c1 c8 d8 bd 52 20 18 3d
       0.10039709 -0.023035254 -0.10585166 0.037140198
0000a0 1a be 79 3c 67 ec 14 bd 51 30 cf 3b 82 f7 94 bd
       0.015243078 -0.036358263 0.0063228984 -0.07273771
0000b0 44 1e 80 bd 26 63 1f bd 11 4c 8e 3d 02 b1 ae 3a
       -0.06255773 -0.038912915 0.06948102 0.0013327899
0000c0 3b a7 22 bd d0 39 cb bd ff 29 ba bd 10 40 e9 bd
       -0.039710265 -0.09923136 -0.09090041 -0.11389172
0000d0 c8 60 97 bd 0d 36 a0 3d 16 38 0f 3d bd 87 a9 bd
       -0.073915064 0.07822809 0.034965597 -0.08277843
0000e0 14 c1 6f bd 96 c7 aa bd cb 83 6d 3d d0 96 16 bd
       -0.058533743 -0.08338849 0.057987016 -0.03676492
0000f0 8c 83 01 3d c7 b4 7a bd 23 77 99 bc eb 0b c1 3d
       0.031619594 -0.06120756 -0.018733567 0.09426101
000100 a8 e1 ac bd 2f 5b 04 be 6c 67 ce 3c 30 44 39 3d
       -0.08441478 -0.12925409 0.0251958 0.045231044
000110 46 c8 d5 3d 86 26 cf bc f3 a0 c9 3c 47 7a 8e bd
       0.1043859 -0.025286924 0.02461288 -0.06956916
000120 d2 ed 7d 3d 1e a9 2c bd 53 25 8e bd 97 93 1b bd
       0.06199438 -0.04215347 -0.06940713 -0.03798255
000130 04 87 95 bd c1 86 a1 3d f3 94 09 bd 76 78 2c bd
       -0.07301143 0.078870304 -0.033589315 -0.042107068
000140 e0 98 a1 bb ab 61 08 bd bd 2f ff 3c 5d cf aa bd
       -0.004931554 -0.03329627 0.031150693 -0.08340333
000150 14 ce 6d bd ee 4d a2 bc 49 df 7a 3b b8 f2 84 3d
       -0.05805786 -0.01981255 0.003828006 0.064916074
000160 75 c7 10 3c 13 b3 85 3d e0 17 86 bc d4 5e 99 bd
       0.008836617 0.06528296 -0.016368806 -0.0748879
000170 dd fe 19 bc 40 bd 81 bd cb 94 c4 bd b9 21 9d bc
       -0.009399143 -0.06334925 -0.095986925 -0.01918112
000180 0a f5 93 bd 69 02 9f bc 6f 02 96 bd 71 89 b3 3c
       -0.07224472 -0.019410329 -0.07324683 0.021916123
000190 11 a8 47 bd 19 86 e1 bc ea 4a 23 bd 5f 30 63 bd
       -0.048744265 -0.027529763 -0.039866365 -0.055466052
0001a0 bf 84 75 bd cc 98 c6 bc 98 35 51 3d d4 45 34 3d
       -0.05994105 -0.024242781 0.0510765 0.044011906
0001b0 8d f6 dc bd 37 69 3b 3d 5b 52 02 be 99 57 8c bc
       -0.10789213 0.045754638 -0.12726729 -0.017131614
0001c0 c9 5e a5 3d 44 a5 2e 3d c2 5c 40 3c 8f 63 02 bd
       0.080747195 0.04263808 0.011740865 -0.031833228
0001d0 f1 f3 7e bd 2d 52 56 3d bc c5 aa 3c 8a 16 bc 3d
       -0.06224436 0.052324463 0.02084624 0.091839865
0001e0 84 6e 10 bd 5e 73 1d 3e 81 53 8d bc 46 68 d0 bb
       -0.035261646 0.1537604 -0.017251732 -0.0063600866
0001f0 f8 7c 30 bc a2 93 8c 3d 95 ae bb 3c fd 85 3d 3d
       -0.010771982 0.06864096 0.022910396 0.04627036
000200 b6 73 e3 3b 47 bf 20 3d f6 8d 15 3d 28 b1 01 bd
       0.006941284 0.039244916 0.036512338 -0.03166309
000210 56 20 6a 3c 75 f0 05 3d 4c a2 25 3c e3 26 ce 3d
       0.014289936 0.03270002 0.010109495 0.10066011
000220 b0 84 82 bd 42 32 ac 3d 8a 02 9a 3d a0 2a be bc
       -0.063729644 0.084080234 0.075200155 -0.023213685
000230 7b 36 3f 3d 59 f5 07 bd b5 36 26 3d 1d e7 0d 3d
       0.046682816 -0.033192966 0.040579516 0.034644235
000240 52 03 84 bc 60 21 aa bd c5 eb 25 bd 07 fd 16 3c
       -0.016114864 -0.08307147 -0.04050805 0.0092156
000250 31 a2 13 be 04 57 f8 3d e8 e5 b5 3d b7 5f d4 3d
       -0.1441734 0.12125972 0.08881742 0.10369819
000260 ad 62 ef bc 03 af 9e bc 4c 21 a7 3d df 0c 86 3d
       -0.029221857 -0.019370561 0.08160648 0.06545424
000270 32 d4 cc bb 42 77 e7 bd d0 28 0a 3d 96 5e 93 3d
       -0.0062508816 -0.113020435 0.033730328 0.07195775
000280 7e f8 b6 3d 71 17 82 3d 6f e4 c3 3d 65 e7 b9 3d
       0.08934115 0.06352127 0.095650546 0.09077338
000290 30 aa 83 bc 2d 14 0c 3d 7d 3d 6a 3c 15 9d c9 3c
       -0.016072363 0.03419893 0.0142968865 0.024611035
0002a0 91 58 d4 bc f0 f7 56 3d 8f e9 06 bc 25 3d b6 3b
       -0.025921138 0.052482545 -0.008234396 0.005561488
0002b0 ac 5d 4b 3d d3 fc c5 3c b2 81 a1 3c 2a 7d d7 bd
       0.04964988 0.024168408 0.019715164 -0.1052192
0002c0 1a 53 66 3d a0 7b 9a 3c f8 85 ea bc 4a 96 cc 3d
       0.056231596 0.018857777 -0.028628334 0.09989603
0002d0 bf b6 5c 3d 42 87 0e 3d 1a 2e eb 3c c0 e3 29 bd
       0.053885218 0.03479696 0.028708506 -0.041476965
0002e0 94 1a 01 3e 25 6f 4d be 7e b1 17 3e c6 f4 84 bc
       0.12607795 -0.2006193 0.14813802 -0.016229998
0002f0 6c 21 ad 3d 90 9d 3b 3d 6f 48 00 3e 2d 1d 00 3e
       0.0845364 0.04580456 0.12527631 0.1251113
000300 f0 49 2f bd 18 76 a3 3c 62 a1 37 bd 0c 9f 0e 3e
       -0.04279512 0.019953772 -0.04483164 0.13927859
000310 6c 9c 80 bd 8a 7f 7d bc 8c 8a d3 bd 04 35 8d 3d
       -0.06279835 -0.015472302 -0.1032916 0.068948776
000320 27 6c 2b 3d 0d b4 eb bc d3 7d da 3c 29 ec b4 3d
       0.04185119 -0.028772378 0.026671326 0.088341065
000330 55 bb ba 3c ae 74 c2 3d 0b 61 67 bd 9c c6 9b 3c
       0.022794405 0.09494911 -0.05648903 0.019015603
000340 cd 08 8a bd 5e 10 15 3d 8b 52 c8 3d 25 dd cb bd
       -0.0673996 0.036392562 0.09781369 -0.09954289
000350 6f 5e 20 bd 86 4a 9f bc ad 32 87 3d e5 ff 37 bd
       -0.03915256 -0.019444715 0.066014625 -0.044921774
000360 2d da 01 bd 86 85 46 bd 93 c7 83 3c a2 2d cb 3c
       -0.03170221 -0.04846718 0.016086375 0.024802033
000370 94 9e ff 3c dd 9b 8b 3c e8 4e 7d bd 2e 14 7f bc
       0.031203546 0.017042095 -0.06184283 -0.015568776
000380 de ba 87 bd ac 4a 33 bd 23 c6 bd bd e0 ae 23 bd
       -0.06627439 -0.043772385 -0.09266307 -0.039961696
000390 14 73 a8 3d a2 4d a7 3d 01 33 91 bd ad ce 08 3d
       0.082250744 0.08169104 -0.07089806 0.033400226
0003a0 18 2c c2 bd d4 73 a7 3d 4f 78 71 3d 5a 80 96 bc
       -0.094810665 0.08176389 0.058952626 -0.01837175
0003b0 d1 d6 a6 bc fe 44 cf 3c 93 6f 92 bd ca 9a b9 3d
       -0.020366104 0.025301453 -0.07150187 0.09062727
0003c0 13 6d 83 3c ef c9 fb 3c f4 b1 b8 bd 80 31 92 bd
       0.016043222 0.030735938 -0.09018317 -0.071383476
0003d0 2e e0 ad bc 37 60 c2 3c a9 17 60 3d 11 6c a8 3d
       -0.021225061 0.02372752 0.054710064 0.08223737
0003e0 b3 21 a4 3d 1b f3 d4 3c cf ff 29 3d 30 cf 5e 3d
       0.0801424 0.025994828 0.041503724 0.05439681
0003f0 34 0a 00 3d 0a dd 9a bd 33 74 4c 3d 52 25 ce 3c
       0.03125973 -0.07561691 0.049915504 0.02516428

cond_trans.4.bias f4 [100]
000000 f3 42 d2 3b f5 95 68 3e c7 89 3e bd cf de 1d 3e
       0.0064166724 0.22713454 -0.046518113 0.15417026
000010 99 b8 81 3e ea 17 7f 3d 40 e4 76 bd 30 a4 99 3e
       0.2533615 0.062278666 -0.06027627 0.30008078
000020 c6 c6 fc bd a7 ec 49 3e 0c e4 30 3e 7d 8f 1d bd
       -0.123426005 0.19719182 0.17274493 -0.03846692
000030 6c 25 59 bd b9 87 97 bd 24 e2 00 bd 31 ff 2b 3d
       -0.053014204 -0.07398934 -0.031465665 0.041991416
000040 9b c5 20 3e 6d 67 6e 3e c0 64 ef 3d 56 c3 e8 bc
       0.1570038 0.23281641 0.116891384 -0.028413456
000050 8a 5e 25 3d e2 b8 94 3d 6f fd fc bc 13 9d 8d bd
       0.040373363 0.07261826 -0.030882565 -0.06914725
000060 f4 79 8a 3d b7 44 ca bd 1e e1 c2 bc 8d 3c 86 bd
       0.06761542 -0.098763876 -0.023788985 -0.06554518
000070 14 07 dd bc 39 36 62 3e 03 37 27 bd 29 05 b9 3e
       -0.026980914 0.22090997 -0.040823948 0.3613675
000080 23 09 37 bd 24 95 99 3e 28 4e 85 3e 2d 68 90 bc
       -0.044686448 0.29996598 0.2603619 -0.0176278
000090 08 43 5c 3c b9 d5 3d 3e 21 3b dc 3d 86 e5 48 3e
       0.013443716 0.1853856 0.107534654 0.19618806
0000a0 f6 5c 8c bd 64 ff 72 3d 2d 43 ce 3d 6f 1e d1 bd
       -0.068536684 0.05932559 0.100714065 -0.10210883
0000b0 13 92 93 bc fc 32 e2 bd 44 a6 7c bd 0a 5e 06 be
       -0.01801399 -0.11044881 -0.061682 -0.1312181
0000c0 5a a4 ab 3c a1 85 3a 3e f0 03 fe 3b 3e 20 15 bd
       0.020952392 0.18215038 0.007751934 -0.0364077
0000d0 96 ff 24 bd 82 f9 07 bd a4 e8 94 3e 36 91 09 3e
       -0.04028281 -0.033196934 0.2908374 0.134343
0000e0 db ce ce bd 4a cf 98 3d b0 bb 16 3e 59 0d 70 3d
       -0.10098048 0.07461412 0.14720035 0.05860648
0000f0 82 9c 20 bd 44 22 72 bc 2f 2e bc bd e4 6b 87 3e
       -0.039211757 -0.014778677 -0.09188496 0.26449502
000100 e2 49 e2 3d c6 0e 88 3d 55 f3 46 bc cf a6 67 3d
       0.11049248 0.06643443 -0.012142976 0.056555565
000110 59 d3 d4 3e 8d 7d e4 bd cd 1f 23 3e a8 01 30 3e
       0.41567495 -0.111567594 0.159301 0.17188132
000120 0d 7d b0 bd 91 23 5c bd dc 6e 0f 3d 27 0c a0 bd
       -0.086176015 -0.053744856 0.035017833 -0.07814818
000130 42 8b bb bd 20 97 c6 bc d3 ce 50 bd 0b 49 26 3e
       -0.09157421 -0.024241984 -0.050978493 0.16238801
000140 06 81 6e bd 92 01 df bd dc 23 37 3d d9 53 34 bd
       -0.058228515 -0.108889714 0.044711933 -0.044025276
000150 12 23 de bd 0f 7f dd bd be 66 de bd 46 59 5a bd
       -0.10846533 -0.1081525 -0.1085944 -0.053307794
000160 ae 7b 78 3e 95 75 8b 3e 81 e1 cf bd d0 07 dc bd
       0.2426593 0.27238145 -0.10150433 -0.107436776
000170 c2 9d a0 bd 8f fa 40 bd ac 2c 90 3c 8e f6 cd 3d
       -0.0784259 -0.04711395 0.017599426 0.10056792
000180 a4 e0 3f 3e 0e 8d 62 3d 76 42 58 3e a0 a7 c3 3b
       0.18738037 0.0553103 0.21119103 0.00597091

p_u.weight f4 [120, 100]
000000 38 47 01 3d 4b 56 fa bb 99 b9 8c 38 94 3f 29 be
       0.03156206 -0.0076396815 6.7102905e-05 -0.1652816
000010 57 2a cc 3b b3 e0 95 3d 0d 0d dd bc 86 cb 53 bd
       0.0062306332 0.073182486 -0.026983762 -0.051707767
000020 9b db d7 3d f3 e0 13 be d6 51 b5 3d b0 9c c3 3d
       0.10539933 -0.1444128 0.088534996 0.0955137
000030 ca d1 4e be 6d e8 9c bd 07 b9 b9 bd bf 76 fa 3c
       -0.20197216 -0.07661519 -0.09068494 0.0305742
000040 d6 5e ea bd ca 25 d5 3a 74 77 76 3c 44 43 6d bd
       -0.1144387 0.0016261872 0.015043128 -0.057925478
000050 d8 44 25 3f f5 01 5c 3e 25 ca 23 3e 87 9e 28 bd
       0.6455817 0.21485122 0.15995081 -0.04116681
000060 41 ad 50 be 7a 69 59 3d a2 1a 00 bd df 6e f6 3d
       -0.20378591 0.053079106 -0.0312754 0.12032866
000070 6d 3d df 3c e3 a9 a7 bd 03 9b bf 3d 72 19 a9 3d
       0.02725097 -0.081867 0.09355738 0.082568064
000080 00 51 b8 3b 38 ab e4 bd ad fa aa 3c f4 74 6d bc
       0.0056248903 -0.1116547 0.020871485 -0.014493216
000090 12 7f b5 bd 84 77 ec bc f2 8c a6 bd e5 af ad bd
       -0.08862127 -0.028865583 -0.08132352 -0.08480815
0000a0 17 ed ce bd 78 4c 22 3e bc 44 28 be 69 64 06 3d
       -0.10103815 0.15849483 -0.1643247 0.032810602
0000b0 12 89 a3 3e a9 b8 c0 bd 45 42 9b bd 41 74 20 be
       0.31940514 -0.09410221 -0.07580999 -0.15669347
0000c0 cc 4e 7d 3c 65 0c c4 36 8f 95 e0 3d 5b e6 de bb
       0.015460681 5.842698e-06 0.10966026 -0.006802363
0000d0 83 25 a2 bc c4 d6 b2 3c b0 79 2e bd 4c 80 b5 3d
       -0.019793278 0.021830924 -0.04259652 0.08862361
0000e0 b2 6e 63 bc 3b 05 76 3e 04 31 a2 3d de ce c6 3e
       -0.013881372 0.24025433 0.07919505 0.38829702
0000f0 3c 40 4e bd a8 36 ac 3d 6e 61 55 3d d3 d6 74 bd
       -0.050354227 0.08408862 0.05209487 -0.059775185
000100 b2 6c d4 3d 11 60 84 3d bb f8 2e 3d fb 93 2c 3f
       0.103722945 0.06463636 0.042717677 0.674133
000110 01 11 94 bd a3 67 b9 bd 3f 07 ac be 06 c0 b6 bc
       -0.07229806 -0.0905297 -0.33599278 -0.02230836
000120 1a 9b 37 bc 99 00 65 be b4 18 e5 3d 17 04 a5 3d
       -0.011206413 -0.22363509 0.11186352 0.08057421
000130 43 68 62 3d d4 26 94 bd 1a ac 1f 3d 66 c3 ac 3b
       0.055275213 -0.072339684 0.03898249 0.0052723167
000140 aa 18 42 bd e5 af 01 bc 99 b5 d3 3d 85 5f 58 bd
       -0.047386803 -0.007915472 0.103373714 -0.05282547
000150 be 19 03 bd 2f ab 95 3d 0d 23 73 bd 74 c9 07 be
       -0.03200697 0.07308041 -0.0593596 -0.13260442
000160 3f e6 1b 3d 2a 0a 4f 3d ef 36 98 3d 58 93 09 be
       0.038061377 0.050546803 0.07432353 -0.13435113
000170 a0 cd 96 bd 14 a2 86 3d 34 a6 d0 3d b9 1d 88 bc
       -0.073634386 0.06573883 0.10187951 -0.016615735
000180 5d 1b 09 bf 0d 26 d7 3d 51 dd da bb d0 00 1c 3c
       -0.5355738 0.105053045 -0.006679215 0.009521678
000190 e8 46 3f bd 4d 82 4f 3b f8 0a d6 3c 31 85 e5 bd
       -0.04669848 0.0031663359 0.026128277 -0.11207045
0001a0 fa e2 4d bd d3 37 08 3e 5a a5 04 3c d5 f4 93 bd
       -0.05026529 0.13302545 0.0080960635 -0.072244324
0001b0 89 75 13 3d 05 26 00 be 24 61 8e bd 6e 50 17 3e
       0.036000762 -0.12514503 -0.06952122 0.14776775
0001c0 6d 28 06 be 8c e3 50 3d ba c2 c3 3c 5b 6c 39 3e
       -0.13101359 0.050998256 0.023896564 0.1810774
0001d0 1d 8a 17 be bc fe 83 bd b0 98 d3 3d 0e ad e8 3d
       -0.1479878 -0.06445071 0.10331857 0.113611326
0001e0 de 81 f9 3e 1c 82 98 3e b5 8f 4d 3d 0d a9 00 3c
       0.48731893 0.29786766 0.050185878 0.007852805
0001f0 22 eb 99 be 6c ca bb 3c dd ec 18 bd d6 7b 2f bd
       -0.30062205 0.02292367 -0.037335265 -0.04284271
000200 80 5c c4 bd e1 f1 d9 bc 90 fd 32 3d 2b ac b6 bd
       -0.095879555 -0.026604595 0.043698847 -0.08919557
000210 58 69 bc bd e8 d8 11 be 46 fe 8a bd f2 48 e7 3c
       -0.0919978 -0.142429 -0.0678678 0.028233025
000220 ce 1d b5 3d 6c bd f1 3d c0 7a e5 3d de cf a3 bd
       0.088435754 0.118037075 0.11205053 -0.07998632
000230 8f 6c 64 3c 07 bb 57 3e d4 bc b8 bd b1 5c c3 3c
       0.013941898 0.21067439 -0.09020391 0.02384791
000240 04 44 d5 3e 56 22 93 bd 9e 63 d0 3c 22 6c 49 bd
       0.41653454 -0.071842834 0.025438126 -0.04917539
000250 25 f4 3e bb 6a 94 90 bd 03 29 77 3e 62 f2 3e 3c
       -0.002913722 -0.07059558 0.24136738 0.011654468
000260 a8 85 6f 3d 76 e4 0d bd 38 f0 db 3c 08 eb 0b bd
       0.058477074 -0.034641705 0.026847944 -0.03415969
000270 3a b5 29 3d 7e 17 88 3d 96 1b e1 3d 00 b0 a1 3e
       0.041432597 0.06645106 0.1099159 0.3157959
000280 33 b9 42 3d b6 1a 58 bd 7e d9 cf bd cb 5c 5d 3d
       0.0475399 -0.05275985 -0.10148905 0.054043572
000290 c5 7e f7 3d 2a 6b b7 bc 7a 20 da 3d 97 6f ff 3e
       0.12084726 -0.022389967 0.10650726 0.49889824
0002a0 4c b2 37 bd 25 0b f1 3b 6a fc 64 bd 0a 69 24 bd
       -0.04484777 0.007356065 -0.055904783 -0.040139236
0002b0 fa 52 cf bc c5 12 dd bd 68 24 9e 3d 80 9a 11 bd
       -0.025308121 -0.10794596 0.07721788 -0.035547733
0002c0 9b df 1b 3c b4 b6 7e 3d bd bb 3d 3d c2 b2 2e bd
       0.009513761 0.062185958 0.04632162 -0.042650945
0002d0 b5 72 d3 bc e0 fe 00 bb da 66 00 bc f2 fa 93 3c
       -0.025811533 -0.0019683167 -0.007837022 0.018063996
0002e0 1b 1c 0f 3d 3b e1 94 bb 00 7b d5 3b 2e 94 2a be
       0.034938913 -0.004543451 0.006514907 -0.16658089
0002f0 b2 33 cd 3d cb 28 f0 3d 45 2c a5 bc 22 6f f4 bd
       0.10019626 0.11726531 -0.02016271 -0.119352594
000300 9d cb 2f 3b b7 99 3b bd 48 9b 23 3d f8 02 e7 bd
       0.0026824244 -0.04580089 0.03994301 -0.11279863
000310 84 af f7 be a4 3e 87 3c 18 3c 16 bd 1d 7a 78 bc
       -0.48376095 0.016509362 -0.036678404 -0.015165833
000320 f0 fc 71 3d 9c 3b 1d be ae f4 03 3e 04 8c 44 be
       0.05907911 -0.1535477 0.12886307 -0.19194037
000330 3b 92 e7 bd 8b 72 aa 3d 27 bd 3a 3c 9f 09 d9 bc
       -0.11307188 0.083226286 0.0113976365 -0.026493846
000340 95 27 20 bd 41 26 4b be ba 3d 90 3d ab 79 54 3d
       -0.03910025 -0.19838811 0.070430234 0.051873844
000350 43 b8 05 be 74 94 40 bd b5 e0 91 3c 85 6f 21 3d
       -0.13058572 -0.047016576 0.017807344 0.039412994
000360 61 ba 5a be 43 3f 2c bd c8 55 bb bd 8d 51 58 3d
       -0.2136016 -0.04205252 -0.09147221 0.052812148
000370 c3 69 ed 3e 40 b7 84 3e 34 43 04 3e 9a ef 53 bd
       0.46369752 0.2592106 0.12916261 -0.051742174
000380 f3 81 b7 be 22 72 31 bc 4e 63 9f bd 12 d1 89 3c
       -0.3584133 -0.010830434 -0.07782613 0.016823325
000390 4b 81 96 3d 1b 5f 5a 3d 18 ff d8 bc ec d5 b9 3d
       0.073488794 0.053313356 -0.026488826 0.090740055
0003a0 cd 31 98 3d 33 5f 69 bd 81 2f 9e 3c bf 5c f6 3c
       0.07431374 -0.056975555 0.019309761 0.030073522
0003b0 f7 0d 83 3d 5d 91 77 bb 22 e8 1a 3d 97 56 f5 bc
       0.06399148 -0.0037775852 0.037819035 -0.029948516
0003c0 bc ab b7 3d 88 44 6d 3e 97 e3 e8 bd b8 6e 3c bd
       0.089683026 0.23170674 -0.11371534 -0.046004027
0003d0 90 a6 6d 3e dc 2f a7 3d 4c ab 97 3d 08 52 3e be
       0.2320807 0.08163425 0.07405719 -0.1858598
0003e0 c8 c7 3b 3d 0e 97 9a bd 17 95 42 3d 06 29 2a bd
       0.045844823 -0.07548343 0.047505464 -0.04154303
0003f0 78 d1 1f 3d 10 be 8d 3b 47 fd 28 3d c3 22 ad bd
       0.039018124 0.0043256357 0.04125717 -0.08453896

p_u.bias f4 [120]
000000 ca 14 04 3c b7 f9 1b bd 79 ee 27 bd c3 f1 a8 bd
       0.008061597 -0.038079944 -0.04099891 -0.082492374
000010 31 d1 6a bd e7 ff ce bc 5b c0 bd bd ae 90 cf bc
       -0.057328407 -0.025268508 -0.092652045 -0.025337543
000020 2d e0 bf bb fc e5 26 3d 62 c8 4d 3d ec 7a 5b 3c
       -0.0058555813 0.040746674 0.050239928 0.013396006
000030 b2 5d 6d 3b ea 21 8b bd dc 1a ed 3c e5 66 09 be
       0.0036219177 -0.06793578 0.028943472 -0.13418157
000040 f2 06 01 bc 49 c9 75 bd 6e 4e 93 3d 3d 89 ca bc
       -0.007875191 -0.060006414 0.07192694 -0.024723643
000050 94 35 84 bd 84 d9 0b 3b f2 a0 2d bc 33 05 a7 bd
       -0.06455532 0.0021339366 -0.010597454 -0.081552885
000060 d5 43 45 3e e7 6a 36 b9 4e 1f 51 3c 9b f6 b2 3c
       0.19264157 -0.00017396697 0.012763811 0.021846106
000070 33 a3 cd bc 75 ad 7f bc cb 46 8a bd ee 9b e6 3d
       -0.025102234 -0.01560532 -0.06751784 0.1126021
000080 0a 8f 32 3c b8 91 a9 bc 33 da 42 bd 2f 09 8e 3d
       0.010898361 -0.020699367 -0.047571372 0.069353454
000090 d0 12 91 3d 6c 96 c8 bd 1c 26 e1 3a fb 2e 42 bd
       0.07083666 -0.09794316 0.0017177495 -0.047408085
0000a0 55 3d 2c bd 44 e4 11 3e de 01 b0 3d 71 62 ec bd
       -0.04205068 0.14247233 0.08594106 -0.11542214
0000b0 e2 6e fb bd 11 ee e9 bc c3 63 01 bd ed 93 f4 bd
       -0.122770086 -0.028555902 -0.03158928 -0.11942277
0000c0 8c 8f 75 bd 4b 0e 3b 3d 3e 78 1a 3e a7 73 2e be
       -0.05995135 0.045667928 0.15084931 -0.17036305
0000d0 a2 d1 bd 3d 41 5e a1 3d cc ad f6 3d b2 9e 2f bd
       0.092685 0.07879306 0.12044868 -0.042875953
0000e0 f3 89 ef 3d 7b 7b 62 3c a9 1b 8c bd af eb 67 be
       0.116962336 0.013823385 -0.06841213 -0.226485
0000f0 f7 6f 97 be da 1a 8b be ae dd 69 be 21 a2 a0 be
       -0.2957761 -0.27168924 -0.2283847 -0.31373695
000100 5d 77 fa bd 87 6b 46 be cd a1 36 be 5e 63 05 be
       -0.12229798 -0.19376956 -0.1783516 -0.13026187
000110 5f b8 99 bd ad 44 65 be cc 54 3d be b9 2d ce bd
       -0.07505869 -0.22389479 -0.18489379 -0.10067315
000120 19 3a 0a be 3a 93 00 be 87 bc 60 be 40 f7 52 be
       -0.13498725 -0.12556162 -0.21946917 -0.20602131
000130 b1 c6 7b be 2a 39 48 be f7 a1 86 be ea f3 4d be
       -0.24587514 -0.19553056 -0.26295444 -0.20112577
000140 b6 fa 3f be 1b 43 b0 be b5 02 48 be 93 40 8f be
       -0.18747982 -0.34426197 -0.19532283 -0.27978954
000150 1d c8 2a be 74 93 7a be c4 ec 0b be a4 3d 5f be
       -0.166779 -0.24470311 -0.13664538 -0.21800858
000160 84 c3 8e be e3 5f fd bd d2 fb 6b be d4 88 86 be
       -0.27883542 -0.123718046 -0.2304528 -0.26276267
000170 62 91 16 be b5 7b 7e be db 71 9d be 96 26 36 be
       -0.14703897 -0.24851878 -0.30750927 -0.17788157
000180 35 bc 45 be 1a 3f 31 be 02 dc 3c be aa 08 fd bd
       -0.19310077 -0.17309228 -0.18443301 -0.12355168
000190 0e 30 23 be 7e 28 46 be 07 45 4c be b7 ee 83 be
       -0.159363 -0.19351384 -0.19948207 -0.25768062
0001a0 67 86 05 be ed fe 7c be fc 96 c1 bd 91 5a 20 be
       -0.13039552 -0.24706621 -0.09452626 -0.15659548
0001b0 fd d1 7a bd f1 de 0b be b3 73 e1 bd c7 c5 49 be
       -0.061235417 -0.13659264 -0.11008396 -0.19704352
0001c0 ab af 5d be 85 18 5c be ba cc b4 bd 08 d8 59 be
       -0.21649043 -0.21493728 -0.08828111 -0.21273816
0001d0 90 b3 14 be 3b 00 a5 be 7c 10 19 be b1 a0 09 be
       -0.14521623 -0.32226738 -0.14947695 -0.13440205

q_z.weight f4 [120, 100]
000000 76 86 13 3e ce 14 da 3d d7 6e 0b 3d bd 19 b9 3d
       0.14406762 0.106484994 0.034041252 0.09038112
000010 28 d9 4a bd 4b 80 8e 3d 9d e2 ca 3d 41 cf ad 3d
       -0.049523503 0.06958064 0.09906504 0.08486796
000020 f7 f9 8a 3d 2f c7 3c 3d d6 a8 9d 3d 4b 13 7d bd
       0.06785958 0.046088394 0.076982185 -0.061785977
000030 fa 53 ba bc f3 14 70 b9 d0 2b 32 3d 05 2d 98 bc
       -0.022745121 -0.00022895988 0.043498814 -0.018576154
000040 21 ac 7f bd cd ed 79 3b 70 c6 b9 3d 44 cc 90 bd
       -0.062420014 0.0038136125 0.09071052 -0.070702106
000050 20 30 a5 3c 4f 53 d2 bd fe c7 00 bb 13 d6 2f 3d
       0.02016455 -0.10269796 -0.0019650455 0.042928766
000060 ca af 93 bc bb ab 92 bd c4 bc 24 3d c3 dc eb 3d
       -0.018028159 -0.07161661 0.040219083 0.11516716
000070 98 f7 c3 3c fb 34 b3 bd 15 24 11 3e 8d 8a f9 3c
       0.023921773 -0.087503396 0.1417392 0.030461574
000080 67 67 71 bb c6 1b 60 3c d5 57 fb 3b 21 e1 5a bd
       -0.0036835314 0.013678497 0.0076703825 -0.053437356
000090 26 19 5f 3d 7c 47 0f bc 21 72 91 3d f4 8f b5 3c
       0.054467343 -0.008745071 0.071018465 0.022163369
0000a0 09 32 ae bd 71 d0 59 3d e6 55 0f 3c b5 c2 c6 3d
       -0.08505637 0.0531773 0.008748507 0.09705106
0000b0 9f a6 89 bd 26 c5 fd bd 37 6e 34 bd de bc a0 3d
       -0.067212336 -0.12391119 -0.04405042 0.078485236
0000c0 da 97 a1 3c 50 0f 73 3d bf 02 8b bc 18 6f 4b 3d
       0.019725729 0.059340775 -0.016969083 0.049666494
0000d0 a7 92 8b bd b5 8c 9e 3d 69 c6 4a 3d e0 c3 11 3d
       -0.06815081 0.077416815 0.049505625 0.03558719
0000e0 db 2c 50 bc 30 cf 3a bc 39 7e 5d bc ee 5d 80 bd
       -0.012706007 -0.011401936 -0.013518863 -0.06267916
0000f0 8e 24 57 3d be 73 8e bd e7 b2 e8 bd 17 76 ed 3c
       0.052525096 -0.0695567 -0.11362248 0.028986974
000100 10 58 09 3d 68 f9 4a bd e9 08 86 bd d0 4b 88 3d
       0.03353125 -0.04955426 -0.06544668 0.06655085
000110 e9 15 68 3d 34 44 a3 3c 0e 15 84 bd 1a 6f 0a bd
       0.05666152 0.019929983 -0.06449328 -0.03379736
000120 a7 89 15 3d 80 d7 96 bd e6 3e 11 3c 00 b4 24 ba
       0.03650823 -0.07365322 0.008865094 -0.00062829256
000130 93 de 8c 3c 98 57 ad bc cd 1c 7f 3c a3 63 a7 bd
       0.017195975 -0.021159932 0.0155708315 -0.08173301
000140 65 71 6f bd 34 d9 61 bd a1 64 50 3d 12 58 8c 3d
       -0.05845775 -0.05513878 0.050877217 0.068527356
000150 e1 84 b0 3d 63 54 c2 3c 08 0f 44 bc 07 04 b5 3c
       0.08619095 0.02372188 -0.011966474 0.022096647
000160 14 f3 4b 3c 6c a3 06 bd 33 30 57 bc 94 5a 59 bd
       0.012448091 -0.032870695 -0.01313405 -0.053064898
000170 f2 b5 c1 3c 44 bd dd bd 25 74 7d 3b 3a 58 79 3c
       0.023646329 -0.10827115 0.0038673964 0.015218789
000180 96 13 37 bc 33 b4 a0 3b c8 a5 2f 3d 3b 15 02 bc
       -0.011174103 0.004904294 0.04288271 -0.007939632
000190 64 d6 b0 bc 95 90 2f bd ff 5c 83 3d 8f db 10 bd
       -0.021586604 -0.042862494 0.06414222 -0.035365637
0001a0 cd 59 42 bd 23 92 b9 3b a7 02 cd 3c c6 ac d9 3d
       -0.047448922 0.005663173 0.025025679 0.10628657
0001b0 2f df e2 3b ea f3 a0 3d 70 92 09 bc 03 23 ba 3a
       0.006923578 0.07859023 -0.00839673 0.0014201108
0001c0 10 99 69 3d 81 0c 38 bd c3 04 1a 3d 24 ac b5 bb
       0.057030737 -0.0449338 0.037602197 -0.0055442024
0001d0 22 d7 06 bd ed a6 84 3d 9d e2 c9 3d 95 f5 df bb
       -0.03292001 0.06477151 0.09857676 -0.0068346956
0001e0 99 6c b1 bc f9 89 c5 ba 8e 1a a5 3d da cb 59 3d
       -0.021658229 -0.0015071026 0.080617055 0.053172924
0001f0 72 f0 5d bd 4a 0c 2c bd 95 ca 2f bd 90 a9 79 3c
       -0.054184385 -0.042003907 -0.042917807 0.015238181
000200 b9 aa d3 bb ae cd 42 bc d6 63 cf bd b1 ed 38 3d
       -0.0064595607 -0.011889858 -0.10126464 0.045148555
000210 27 a2 34 3d 53 8c e1 bd ca 8b f8 bc b4 93 3c bd
       0.044099953 -0.11013093 -0.030340094 -0.0460393
000220 a5 2f cd bd 43 d9 b7 3d 9f 3f bb bc 68 0e fe 3b
       -0.10018853 0.08976986 -0.022857485 0.007753182
000230 1e ff c8 bd d6 d2 d3 bc 54 7e f1 ba 6a 9b a4 bd
       -0.09814285 -0.02585737 -0.001842449 -0.080374554
000240 ff d6 8f 3d 02 ce 8a 3d 35 f9 9a bd 88 7b a7 3d
       0.07023429 0.06777574 -0.07567064 0.081778586
000250 bf 26 9f bd 92 db 8d bd 70 89 98 bd 25 61 35 bc
       -0.07771062 -0.06926645 -0.07448089 -0.011070524
000260 79 e6 84 3c 41 30 1d bc ff 1f 21 3d 77 e9 f1 bd
       0.01622318 -0.009594024 0.039337154 -0.11812108
000270 38 9c df bd c9 84 35 3d e5 a3 d2 bc af 5b e6 bd
       -0.10918468 0.044316087 -0.025712917 -0.11247956
000280 dd ef 8a 3c 1b ea b4 3b b3 52 16 3d 50 a7 c1 3c
       0.016960079 0.0055210716 0.036699962 0.023639351
000290 41 46 d3 bc a2 51 5d bc ac 24 77 3d cd 79 76 3d
       -0.025790336 -0.013508232 0.060337707 0.060174752
0002a0 53 33 86 3d 57 49 b5 3d 4e 65 5d 3d 3e f9 0c 3c
       0.06552758 0.08851879 0.05405169 0.008604346
0002b0 67 d5 36 3d 03 88 3f bc ca 2c 85 bb c7 14 09 3d
       0.04463711 -0.011690143 -0.004064177 0.03346708
0002c0 10 c3 d7 bd 6f 0d ac 3d 13 8f d5 3c fa a2 25 bc
       -0.10535252 0.08401 0.0260692 -0.010109657
0002d0 d7 5a c9 bb da 95 80 bd a6 3a d9 bd 99 21 8f bd
       -0.006144862 -0.06278582 -0.106068894 -0.0698883
0002e0 11 7f 8b 3d 4e c0 80 ba b5 01 6e 3c 20 12 76 3d
       0.06811345 -0.0009822936 0.014526774 0.06007588
0002f0 32 6c fa 3c 27 62 79 3d 9c d5 c1 3c 94 4d b4 bc
       0.03056917 0.06088462 0.023661427 -0.022009648
000300 38 94 3e 3d d1 15 0d 3d 89 04 ca bc 91 98 e6 3b
       0.04652807 0.034444634 -0.024660366 0.0070372303
000310 70 c4 34 3c 90 58 b5 3c 63 fc 6b 3c 0b 58 14 3d
       0.0110331625 0.022136956 0.014403435 0.036216777
000320 af 43 b5 3c 19 60 1a 3d 97 1c 3d bd 32 eb 39 bd
       0.022127 0.037689302 -0.046169844 -0.045390315
000330 c6 76 80 bd e1 cf fb 3c 7f 46 8c bd 26 04 3b bd
       -0.06272654 0.030738773 -0.068493836 -0.045658253
000340 84 c1 34 bd 02 36 8a bd e4 c3 56 bd fa c6 7c 3d
       -0.044129863 -0.067485824 -0.05243291 0.061713196
000350 cc 62 69 bd 15 41 e5 bc e7 d8 ad 3d 84 12 e9 3b
       -0.056978986 -0.027985135 0.084886365 0.007112803
000360 11 9a 15 3d b2 fe 2f bd 44 e0 92 bb 9b ab 8c 3d
       0.036523882 -0.042967506 -0.004482301 0.06868669
000370 6b 56 76 bc 4a cc 76 3d 47 d6 48 3d 0a cb c9 bd
       -0.015035252 0.06025342 0.049032476 -0.0985318
000380 18 bb 17 3e 2c 83 2a 3d a0 04 cf 3d 47 8c 22 bd
       0.14817464 0.041629 0.10108304 -0.03968456
000390 17 39 38 bb 3d 91 79 bc 37 29 0f 3e 8e ae 55 3d
       -0.00281102 -0.015232381 0.13980566 0.05216842
0003a0 a7 a5 63 bc 97 4b b2 3b 64 0e 09 bd 3e 78 8d 3b
       -0.013894475 0.00544114 -0.03346099 0.0043173125
0003b0 19 b8 70 bd 22 46 97 bd 14 be b3 3d c9 15 87 3c
       -0.05876932 -0.07386424 0.08776489 0.01648988
0003c0 c7 fa a5 3d 6a c1 54 bd 4a 6a aa bc bf 4d 63 3c
       0.081044726 -0.051942267 -0.020802636 0.013873517
0003d0 6f c9 8a 3d 39 a1 3d 3c 73 af 88 bd 26 b5 56 3c
       0.06776702 0.011574083 -0.06674089 0.013104713
0003e0 cc 8c ff bd 7c 5f 88 bc 91 8e 30 3d 67 7f 6e 3d
       -0.12478027 -0.016647093 0.043104712 0.05822697
0003f0 19 7f d8 bd e5 c6 73 3d 2e 45 98 bd 2c 79 82 bd
       -0.10571117 0.059515852 -0.0743507 -0.06370768

q_z.bias f4 [120]
000000 d7 29 bb 3d 2b 3a fb bd bf 67 82 bc dd 9c d5 3d
       0.0913884 -0.12266954 -0.01591861 0.1043031
000010 97 24 c7 bd c7 4b b8 3d dd 98 b9 bc db 24 89 3d
       -0.09723776 0.089988284 -0.022655899 0.06696483
000020 d6 c6 c6 3d a4 a7 9b 3d 03 c9 a4 3b 7f 70 7a 3d
       0.09705894 0.07600334 0.0050288453 0.06114244
000030 77 11 17 3e 05 78 a4 3d a8 52 18 be cb 68 3c bd
       0.14752756 0.080307044 -0.14875281 -0.045998376
000040 9e a3 53 bc b9 bb a4 3d 03 34 9c 3d 66 17 20 3d
       -0.012917427 0.08043618 0.07627108 0.039084814
000050 a1 f8 af bd 7a 8f 2a 3b f7 e9 cd 3d e9 b4 9a bd
       -0.08592344 0.002602546 0.10054391 -0.07554037
000060 4d 8f c1 bc f2 6a f0 3d 44 7d e0 bd 8b da aa 3d
       -0.023627901 0.11739148 -0.109613925 0.08342465
000070 d3 18 62 3d 09 f1 cc 3c c5 00 96 bd 78 36 a2 3d
       0.055199455 0.025017278 -0.073243655 0.07920545
000080 5d 8a ce bc e5 d6 9f 3d f4 9b e3 3c 59 c6 43 3c
       -0.025212461 0.0780466 0.027784325 0.011949145
000090 89 67 07 bd c1 38 09 bd 9e 5d 35 3d e0 db 74 bd
       -0.033057723 -0.03350139 0.044278733 -0.05978
0000a0 98 25 8f bd c3 77 cb bd 50 15 41 bc 72 28 49 bd
       -0.06989592 -0.09934952 -0.011784866 -0.049110837
0000b0 7d 12 ea 3c 18 8f a6 bd 60 02 5c bd a1 56 a8 3d
       0.028573269 -0.08132762 -0.053713202 0.08219648
0000c0 d0 53 48 bd 47 a4 64 3c e3 12 60 bd 5a e3 38 3c
       -0.048908055 0.013955182 -0.05470551 0.011284674
0000d0 d3 a8 b6 bd 26 31 fb 3d c6 de ce 3c d4 b2 26 bc
       -0.089189194 0.12265234 0.025252711 -0.010174472
0000e0 4b ef cd 3c b3 14 b6 bd 5f 3a 82 bc ed 3e a6 bd
       0.025138518 -0.08890667 -0.015896974 -0.08117471
0000f0 e6 89 b4 bd ea 29 58 bd 33 e1 cb bc 03 1d e8 bd
       -0.088153645 -0.052774347 -0.024887657 -0.113336585
000100 7b 0e 00 be 00 eb 9e bd a9 6d e9 bd b1 42 d4 bd
       -0.12505524 -0.077596664 -0.11397869 -0.10364283
000110 b3 79 26 be 2d 27 d0 bd ec 48 1e be 97 fd 22 be
       -0.16257362 -0.10163722 -0.15457505 -0.1591705
000120 38 e1 fa bd 06 5c b0 bd ee 4b 3e bc 29 16 9b bd
       -0.12249988 -0.08611302 -0.011614783 -0.07572586
000130 0a 26 ae bd ff ea 0c be 2a 6b 0e be 7d 98 88 bd
       -0.08503349 -0.13761519 -0.13908067 -0.0666971
000140 24 6a 95 bd 5b f7 43 bd dc 9c 00 be 77 d0 d6 bd
       -0.07295635 -0.04784332 -0.12559837 -0.1048898
000150 05 47 20 bd f3 00 7f bd bf 76 1d be d1 ed 90 bd
       -0.03913023 -0.062256765 -0.1537733 -0.0707661
000160 fe 5a 98 bd 22 72 f3 bd d0 43 c4 bd ed 8c 09 be
       -0.074392304 -0.118870035 -0.09583247 -0.13432665
000170 81 2e 3b be be 82 c4 bd 36 6e 0e be 00 95 83 bd
       -0.18279459 -0.095952496 -0.1390923 -0.06424904
000180 47 65 8c bd 06 68 99 bd f0 c5 59 bd 5c 70 0e be
       -0.068552546 -0.07490544 -0.053167284 -0.13910049
000190 db d4 fd bd 4a 7a de bd a4 e7 79 bd 3f 0c a9 bd
       -0.123941146 -0.108631685 -0.061011925 -0.08254289
0001a0 a7 ba f7 bd 7d d2 cb bd fb f3 ea bd 69 d8 1b be
       -0.12096148 -0.09952257 -0.11472317 -0.15219273
0001b0 8e 9b a7 bd 03 5b 04 be 2c 2b 24 bd f8 06 d4 bd
       -0.081839666 -0.12925343 -0.040080234 -0.10352892
0001c0 d9 5a 25 bd f8 38 b6 bd 05 54 d0 bd 1e 5b c1 bd
       -0.040369842 -0.08897585 -0.101722755 -0.09441207
0001d0 dd dd 21 be a0 4a 65 bd 89 4d df bd 17 bb 95 bd
       -0.1580729 -0.05597937 -0.109034605 -0.07311075
