hosp_models/deploy_week_41_30/seq_enc.pt (torch, 46379 bytes, 4 tensors)

gru.weight_ih_l0 f4 [180, 1]
00000000: 9bfe d3bd 712c d63d 262a 38bc 8f24 a1bd
00000010: 0021 b1bc c44b 433c 6d57 c8bd 47c3 78bd
00000020: e764 59bd 540d 883d fa15 bebc 7557 72bd
00000030: 9fc9 34be 852a 1bbe 99b1 06be c329 8dbd
00000040: 6824 51bb 7ff9 db3c a909 bc3c 527d e3bd
00000050: 74ed eabc a7a5 783d 537c 49bd 5083 49bc
00000060: 23e4 003d 2e35 c83d af04 3ebd f733 1bbe
00000070: 869d 01be 6aeb 9ebd 719b e53d 75e2 09be
00000080: d245 17be a1e4 8ebd 6297 663d 87e5 413e
00000090: a90d 0abe 7d0d d9bd 9bf1 223d 0558 6a3d
000000a0: 2a64 263e bc5a 3cbe 97e5 cf3d fc87 003d
000000b0: 8072 0fbe 7bb5 9dbe 1129 4cbe 4421 ba3c
000000c0: 1f8f 4b3d 0926 33be 9dd3 483c e619 bebd
000000d0: 4582 bd3d fe03 afbc 9392 8bbd c829 13be
000000e0: 8282 503d 0a67 c23d d364 7fbe ba29 aabd
000000f0: 3acb c23c c9d0 243d 535f 4ebc 37e8 473d
00000100: 6e66 12bd 7ebf 6bbd 3035 c6bc 4fb7 23be
00000110: cb55 a9bd a184 d1bb 256e e13c e510 1e3d
00000120: a39d 89bc c1c3 c3bd 92be dd3c 8886 8239
00000130: 9719 39bd 4f83 0ebe c9ef 183d 973b dfbd
00000140: fadd 71bd 4add 183e 5725 17be c2bf 853d
00000150: 3d01 763c 3eda debd 1b75 e6bd 1e84 db3d
00000160: 0640 47bb 43d8 b93c ff4b 3dbe 633d 9b3d
00000170: 6ed2 c9bd 7ee4 13bc 74c8 b93c b1cc 023c
00000180: 6b91 1c3e fda9 20be cd28 dc3d 92e0 5cbc
00000190: f861 86bc a73d 8ebd b407 f03d 06d9 333d
000001a0: 75f2 6dbd 3388 263d b9df 0abe 1ee9 bf3c
000001b0: 81ab 7c3c 7d58 50bd 0602 7fbb 3c0d da3c
000001c0: ddd9 593d 775f 683d ced3 b83d f300 c93d
000001d0: f551 ddbd 6116 d5bd 6fe7 c8bd dcef 6fbd
000001e0: d394 0a3e 3cf5 58be 59d4 9d3c 77e2 97bd
000001f0: 2cd6 493d e829 3c3d dca3 0e3c 79b9 14be
00000200: d2c1 453d 302c b13d 94c1 5cbd 4f2b 0cbe
00000210: d835 d63d bd8d de3d 7736 cfbd 3d3f ccbd
00000220: 1f77 e9bd 23e2 c13d 3c7c 3a3e 1d09 d6bd
00000230: ddd6 ec3d f153 343c 1a82 073e a298 d53c
00000240: 40f2 3abd cd57 0bbe 901a 58be b0e9 303e
00000250: 1e0b 9d3d f499 f1bd c011 2ebe 33a7 103d
00000260: 6d50 39be 7fa0 00bd 291c 2dbe 6852 38be
00000270: 1b98 69bd 6541 16be 1923 8fbd 63f1 f83d
00000280: b7fd f0bd c9be d13d 2550 0f3e 4c98 2e3e
00000290: e4ec 403d 2f6e f4bd 3c12 223e 1fcb 4bbe
000002a0: dd74 bf3d 2ea7 a8bd a486 063c bd87 adbd
000002b0: d3c4 f63c d871 433c 0f45 bfbd 0d7d a3bc
000002c0: aea4 f8bd 31fb d73d e6f5 d33d 5544 65bd
-0.103512965 0.10457695 -0.011240518 -0.07868301 -0.021622181 0.011919919 -0.097823 -0.060733106
-0.053074744 0.06643167 -0.023203839 -0.059165437 -0.17655037 -0.15152939 -0.13153686 -0.06892731
-0.003191257 0.026852367 0.022953825 -0.11107887 -0.02867768 0.060704853 -0.04919083 -0.012299374
0.031467568 0.09775768 -0.046391185 -0.15156542 -0.12657747 -0.077597454 0.11211289 -0.13465293
-0.14772728 -0.06977201 0.056296714 0.18935214 -0.13481773 -0.10598276 0.039781194 0.05721285
0.16249147 -0.18393987 0.10151213 0.031379685 -0.14008522 -0.3080252 -0.1993754 0.02272094
0.049697038 -0.17494978 0.012257484 -0.092822835 0.092533626 -0.021364208 -0.06815066 -0.14371407
0.050905712 0.094923094 -0.24940805 -0.0830874 0.023778547 0.040238176 -0.012595969 0.04880544
-0.035742216 -0.057555668 -0.024195284 -0.15987895 -0.08268317 -0.0063939844 0.027518341 0.03859033
-0.0167988 -0.095588215 0.02706841 0.00024895766 -0.04519042 -0.13917278 0.037338052 -0.10900038
-0.059049584 0.14928165 -0.14760338 0.065307155 0.015014944 -0.1088147 -0.11252805 0.10718559
-0.0030403151 0.02268613 -0.18486021 0.07580068 -0.098545894 -0.009026645 0.022678591 0.007983373
0.15289848 -0.15689845 0.1074997 -0.013481276 -0.016404137 -0.06945353 0.11720219 0.04390814
-0.058092553 0.040657233 -0.13561906 0.023426589 0.015421749 -0.05086564 -0.0038911118 0.026617639
0.053186286 0.056731667 0.090247735 0.09814634 -0.10806648 -0.10404659 -0.098097675 -0.058578357
0.13533334 -0.211873 0.019266294 -0.074162416 0.049276516 0.045938402 0.008706059 -0.14523877
0.048280545 0.08651006 -0.053895548 -0.13688396 0.10459489 0.10866878 -0.1011781 -0.09972999
-0.11399674 0.0946696 0.18211454 -0.10450957 0.115644194 0.011006341 0.13233224 0.026073758
-0.045641184 -0.13607712 -0.21103883 0.17276645 0.07668136 -0.11796942 -0.16998959 0.035315704
-0.18097086 -0.03140306 -0.16905273 -0.18000185 -0.057029825 -0.14673384 -0.06989116 0.12155416
-0.11767142 0.102414675 0.13995416 0.17050284 0.047100917 -0.11935078 0.15827268 -0.19901703
0.09348462 -0.08235012 0.008210812 -0.08473156 0.03012315 0.011928998 -0.09339344 -0.01995709
-0.12140785 0.10545958 0.10349636 -0.05597337

gru.weight_hh_l0 f4 [180, 60]
00000000: 127a d8bd 6beb ac3d 5cac b7bd b7ef c63c
00000010: bb60 05be b486 e73d 688c c83d ef67 323e
00000020: fc5e adbd 8c4b b2bd 996a c23d 9273 383e
00000030: 30ef 2cbe 7313 113e b159 9b3d ca79 063e
00000040: 9e26 963d 0342 73be 5c1e 1dbe 9743 a93c
00000050: 66da 7fbe 9cdf d53c c584 3f3d be73 2f3d
00000060: 87be 473e f4f1 be3d 22fd 9a3d a349 40be
00000070: a206 44be d671 d93c 132d 103d ce40 1e3e
00000080: 25fb fe3d 2a32 063d 8c6e ed3d 7683 0e3e
00000090: 95cc a83d 9b4a 063e 3166 0c3e 6b6e 3e3d
000000a0: 33ac bf3d 95db 4abd c91d 1dbe 9145 123c
000000b0: 9275 cdbb d39b e53d fe31 ea3c 9e19 053e
000000c0: 2175 18be a4e2 983c a558 093e 3d47 98bc
000000d0: f421 2b3e ff74 81bb ac87 0bbe 0e47 263e
000000e0: de5e f23d 974b ff3d 7a58 d63d c6fe 973b
000000f0: 0944 713d 9a70 343e 9f24 1ebe 1e5c 0a3c
00000100: a788 32bd 0605 9fbd aa65 933d 7b24 fb3d
00000110: 719d 2bbd ef9d 5ebd b6b7 af3d 6ae6 78bd
00000120: 98a2 c7bc a4ef a03d 8f61 943d cd7f 39be
00000130: 6df7 3abd 26e4 97bd 914a febc b4c3 ffbd
00000140: 9ae2 02bc 54f8 553d 817c b23c 3c94 38bd
00000150: 9621 f43c 70e5 853d 6f10 85bd a2cf 213e
00000160: 6ff6 f43c 73b5 683d 9a26 d6bb 1e14 c7bc
00000170: 5c35 bdbd 11c6 843e 656d 803c 7dba b2bb
00000180: 3302 72bc add8 093d 6291 133e 5f10 443e
00000190: d349 8e3d 39b6 123e e701 083e 2954 133d
000001a0: 2e72 00be 4cae 60bc d7b2 8e3d 36d0 de3d
000001b0: d3f0 46be ab63 04be 3944 c63d dc03 9dbd
000001c0: 7939 dfbc b701 433e daeb 04be 6b12 133e
000001d0: 184a 11be d219 ddbb 28ad 053e 154e 473b
000001e0: 1138 e3bd 429d f33d d565 25bd ef83 fe3d
000001f0: 84e8 89be c43f 70bc 1c97 e53d ba0d b33d
00000200: 84d9 1fbe 1dfc c33d b7e4 b63d 0d84 4f3e
00000210: 4cc9 9cbd 7f2a 5c3e 532d 323d 80c8 8d3d
00000220: 4276 38bd 77ed 0abe 7d07 f13a baab a8bd
00000230: 55fd 13be 97e3 e0bc d31d 8a3d bf04 cdba
00000240: 55e9 343e 17e9 a93d f78f 133e cfda 1cbb
00000250: 776d 64bd 3ba9 4c3e 4edd 8d3d 715b d33d
00000260: 420d bdbc c44a 873d 34c2 86bd 38ff 883e
00000270: c4ee 5a3d 25d6 5c3d 79d3 3c3e 8134 8d3d
00000280: 2217 f73b 27b0 613a acb0 853d cec8 12be
00000290: c7d3 88bc 05e7 f13d 8882 0bbe 1f83 3f3c
000002a0: 6384 cbbd 5f75 c7bd dde1 703e 2bf4 c23c
000002b0: baac 033e 91fa 373e accc a73c 7f72 c9bd
000002c0: e4b7 863d be7a 0c3d 5c97 443e e301 853e
000002d0: 74da bdbd 4ed8 a03d d63a 7abd ac1e debd
000002e0: 18e0 93be dd5a f23d 365b ed3c 7513 8b3e
000002f0: 978e 77be 1288 f53d 22b3 c03d 62f8 273e
00000300: b7aa d5bd 48c5 88bd f15a 963e 70a6 c1bb
00000310: a3e3 213e dff6 70be 5eed 3fbe 04cc 833c
00000320: c3cc 37be e7a8 dbbd c1b4 df3c 02e3 313d
00000330: 3a88 fd3d 8dac 033d 1bb6 863e 704c 5abe
00000340: 7a54 58be 5450 e63d 5c66 d63d 52fa 123e
00000350: 18b9 233d fb5e ad3d 248d 38bd c25d 8e3d
00000360: 3c34 503e e90d b13d 53d1 8b3e 752a e7bc
00000370: 43aa f23d 4cac 20bc 5d20 0abd 3ab5 06bd
00000380: 5aaa b1bd fa27 3e3e e939 57be 63bb 4d3e
00000390: 276e 7bbe 68fa a13d df9a df3d 0354 dc3d
000003a0: 67d0 19bd 96ab 813e c6e7 80bb 4a80 78bd
000003b0: 6853 70bd e84a 183e 1c0a ac3d 755e 8b3e
000003c0: 0afa f73c 0635 113d 3583 74bc 552c b53d
000003d0: 1f21 e53a 8fd6 2a3e 58d8 7e3e e5b0 3b3e
000003e0: 4bb6 0dbe 0904 413e ab60 c7bc 1552 623e
000003f0: 6063 a9bd a295 4e3d 8280 093e c2e4 5abc
-0.10570158 0.0844334 -0.08968422 0.024284227 -0.13025181 0.113049895 0.09792405 0.1742246
-0.084653825 -0.08705816 0.09492988 0.18012837 -0.16888118 0.14167576 0.07585467 0.13132396
0.073315844 -0.2375565 -0.15343612 0.020662112 -0.24985656 0.026107602 0.04675748 0.04283499
0.19506274 0.09323493 0.075678125 -0.1877809 -0.19143155 0.026543539 0.035199236 0.15454409
0.12450246 0.032762684 0.11593351 0.13917336 0.08242146 0.13114397 0.13710858 0.04649202
0.09359016 -0.049525816 -0.15343393 0.008927719 -0.006270119 0.11211362 0.028588291 0.12998053
-0.14888431 0.018662758 0.13412721 -0.018588657 0.16712171 -0.0039507146 -0.13625973 0.16238043
0.11834501 0.124655895 0.10466094 0.0046385257 0.058902774 0.17621079 -0.15443657 0.008444814
-0.043587353 -0.0776463 0.07197125 0.122628175 -0.041898195 -0.054349836 0.08579962 -0.060766615
-0.024369523 0.07858208 0.0724517 -0.18115158 -0.04564612 -0.07416563 -0.031041415 -0.12488499
-0.007988596 0.052238777 0.021787884 -0.045063242 0.029801171 0.06537902 -0.06497275 0.15801862
0.029902665 0.05681367 -0.0065353634 -0.024301585 -0.09238693 0.25932363 0.015677163 -0.00545436
-0.014771032 0.033653904 0.14410928 0.1914687 0.069476746 0.14327325 0.13281976 0.035968933
-0.12543556 -0.013713431 0.06967705 0.10879557 -0.19427805 -0.12928645 0.09680981 -0.07666752
-0.027249085 0.19043623 -0.12980595 0.14362495 -0.14188421 -0.006747463 0.13054335 0.003041153
-0.11094678 0.11895229 -0.040380318 0.12427508 -0.26935208 -0.01466364 0.112104625 0.087428525
-0.1561032 0.09569571 0.08930343 0.20265217 -0.07655582 0.21500586 0.043500256 0.06923008
-0.045034654 -0.13567148 0.0018389073 -0.08235879 -0.14452107 -0.027452273 0.0674397 -0.0015641673
0.17667134 0.082964115 0.14410387 -0.002393413 -0.055768456 0.19986431 0.06926976 0.103201754
-0.02307761 0.06606057 -0.0658001 0.26757216 0.05345036 0.05391516 0.18440045 0.0689478
0.0075405994 0.00086093176 0.06527838 -0.14334413 -0.016702546 0.118116416 -0.13624012 0.011688977
-0.0993736 -0.09739184 0.2352366 0.023798069 0.12858859 0.17966677 0.020483337 -0.098362915
0.06578043 0.034296744 0.19198364 0.25978002 -0.09270182 0.07853757 -0.061091267 -0.10845694
-0.28881907 0.11833737 0.028974157 0.27163282 -0.24175487 0.11988844 0.09409167 0.16403344
-0.10432952 -0.066782534 0.29366258 -0.0059097335 0.15809493 -0.23531674 -0.18742892 0.016088493
-0.17949204 -0.10725575 0.02730787 0.043429382 0.12379499 0.03214698 0.2631081 -0.21318221
-0.21125975 0.1124579 0.10468742 0.14353302 0.03997144 0.08465382 -0.045056477 0.06951477
0.20332426 0.08645231 0.2730814 -0.028218487 0.11848881 -0.009806704 -0.03372227 -0.032887675
-0.0867507 0.18569937 -0.21018185 0.20091014 -0.24553739 0.07909089 0.10918211 0.107582115
-0.037552264 0.25326222 -0.0039338795 -0.06066922 -0.058673292 0.14872324 0.08400366 0.27220502
0.030270595 0.035450958 -0.01492386 0.08846346 0.0017481184 0.1668341 0.24887216 0.18329199
-0.1383907 0.18849196 -0.024338087 0.22101624 -0.082709074 0.05043567 0.13427928 -0.013360204

gru.bias_ih_l0 f4 [180]
00000000: a5c7 c7bd 1e2b 33bb a3a8 03be 880a 7bbd
00000010: 577b 3bbe cec7 dbbd 4e57 013e 538e 8a3a
00000020: c5e3 2f3c 7b32 3abe d81e a6bd 38fd 80be
00000030: 1b43 48bd 6071 b3bd 8df5 babe cfe8 03be
00000040: bcc8 5dbe 8c7f 00be 95e0 0cbe 9936 223d
00000050: 2d08 4fbe a603 e63d 3169 83bd 2d2c d53b
00000060: 81b9 40be c646 12be df5f 30bd f94f 83be
00000070: 54fd 20bd db6c b33b f3ff 783d 8f69 e4bc
00000080: 8cc1 52be d96f 96bd 412e 78bd e554 76bd
00000090: bb4f 8e3d 0c51 9fbd a75b 37be 3c86 94bd
000000a0: 57a7 9f3d d4ca 973d bf58 2a3c 8e0d c7bd
000000b0: 5b9c 003d 1034 d0bc 9dd3 09be c8fc 76bb
000000c0: 2476 423d 6a24 ecbc 1ddb c3bc 815e 76bd
000000d0: 6a5a ad3d 0d1b 833d acf2 98bd 616f 463b
000000e0: 9e61 c1bd 2198 a1bc 1ae3 2c3d 861b e53d
000000f0: 103c ab3d 5790 ff3b 46af 163e 73ef 453d
00000100: 55cb 1a3e b425 343e f50e c0bb 33ff eb3d
00000110: cea1 94bd 10c6 12bc f6db 6f3e 94bd 8fbd
00000120: e117 0a3d 6699 91bd 56ad e3bd 20c8 7a3d
00000130: 3ef7 773d 00bb afbd 087f ab3d bac9 103e
00000140: b3b9 cd3d c7a8 0b39 cf1d 313d 5e9e c2bc
00000150: e207 bf3d 46c1 b2bd af54 273e 9c64 733c
00000160: 721c 8a3d 5b25 68bc fce3 2bbd f685 483d
00000170: 05c6 8fbd b29d a3bc 6373 96bd dc06 483d
00000180: fdd9 b9bc b567 21bd 085d ec3d b084 4f3d
00000190: 2856 3fbd 18e3 65bb 1ed4 6ebc c718 653c
000001a0: 6806 0cbd 028a d5bc 8084 8b3d 320c 9f3c
000001b0: a8bb 1c3d b0db 06bd 6b8b cd3b 4086 da3d
000001c0: 6a91 e3bd c58d 263e 5869 a1bc 9b8e d93d
000001d0: 7095 d5bd 82e8 933d 48ee 8d3d a35b 063c
000001e0: 4da0 a6bc 19c9 60b9 ef2f 823d b669 443c
000001f0: cebc 103e 8b70 3a3b 468d adbd 5210 d63c
00000200: b2e1 00bb 4e19 1cbe d946 9e3d b54b d0bd
00000210: 5992 df3d f33d 1dbe dbf7 ecbd 3a6b 953d
00000220: 5239 a63d 8df8 cd3d d977 84bd a294 863c
00000230: fc02 013d 38a0 813d bc01 19bc 9a46 e5bd
00000240: ea31 36bd 698f d13d ad7c fabc 7b5f ddbc
00000250: 4410 a63d 74aa c33b 6723 b23d 3181 8dbd
00000260: b720 133c d85d b03c 704b a63d c5bb 313c
00000270: 479c 31bd ffb9 6fbc ec61 32bd c819 1ebd
00000280: f5e4 413b cc73 a1bd e337 703d 9397 d4bd
00000290: 3d61 043d 1bda afbd b024 803d 6b68 003d
000002a0: 0bb8 413d e301 81bd 902e bdbc 5bf8 cb3d
000002b0: c594 8a3d 0b79 00be 1865 a93d c209 ae3b
000002c0: 7fdd ea3d f73c 0abd 9c4f d4bd 3a97 95bc
-0.09754876 -0.0027338932 -0.12857299 -0.06128934 -0.18308769 -0.10731469 0.1263096 0.001057098
0.010735457 -0.1818332 -0.08111352 -0.2519319 -0.04889212 -0.08761859 -0.36515465 -0.12881778
-0.21658605 -0.12548655 -0.13757546 0.03960285 -0.20217963 0.11231165 -0.06416548 0.0065055103
-0.18820764 -0.1428481 -0.04306018 -0.25646952 -0.039304093 0.005475623 0.060790967 -0.027882366
-0.20581645 -0.07345552 -0.060590986 -0.060139555 0.06948801 -0.0777913 -0.17906056 -0.07252166
0.077955894 0.07411733 0.010397135 -0.09719382 0.031399112 -0.02541545 -0.1345963 -0.003768729
0.04747595 -0.028825957 -0.023908192 -0.06014872 0.08464511 0.06401644 -0.07468161 0.003027879
-0.09442447 -0.019725861 0.04220877 0.1118689 0.083610654 0.007799189 0.14715299 0.04832406
0.15116628 0.17592508 -0.005861158 0.11523285 -0.07257424 -0.008958355 0.23423752 -0.07018581
0.03371418 -0.071093366 -0.111170456 0.06122601 0.060538523 -0.08580589 0.08373839 0.14139453
0.10045185 0.00013318947 0.04324132 -0.023757156 0.093276754 -0.0872827 0.16340898 0.01485553
0.06743707 -0.0141690625 -0.04196547 0.04895588 -0.07020191 -0.019972656 -0.07346227 0.048834667
-0.022686953 -0.039405543 0.11541182 0.05066365 -0.046713024 -0.0035077985 -0.01457694 0.013982958
-0.034185797 -0.026066784 0.06812382 0.019414995 0.0382649 -0.032924354 0.0062727234 0.106701374
-0.1111172 0.16265018 -0.019703552 0.10622903 -0.104288936 0.07222082 0.06930214 0.008200559
-0.02034011 -0.0002143722 0.06356799 0.011988094 0.14134523 0.0028448428 -0.084742114 0.026130829
-0.0019665775 -0.15244028 0.07728357 -0.1017069 0.109165855 -0.15355663 -0.11570712 0.072958425
0.08116402 0.10057173 -0.064681716 0.016428296 0.031496987 0.063293874 -0.009338792 -0.11195107
-0.044481196 0.102324314 -0.030577028 -0.027023068 0.08108571 0.0059712473 0.08698159 -0.06909407
0.008979968 0.021529123 0.08119857 0.01084799 -0.04336193 -0.014631747 -0.043550417 -0.038598806
0.0029585932 -0.078834146 0.058647048 -0.10380473 0.032319296 -0.08586522 0.062569976 0.03134958
0.047294658 -0.06299188 -0.023093492 0.099594794 0.06766657 -0.12546174 0.08271235 0.005311222
0.11468028 -0.033749547 -0.10366747 -0.018260587

gru.bias_hh_l0 f4 [180]
00000000: 5e28 6d3b ddf0 35be 64ef 40be c5f7 83bd
00000010: 7687 7abd c130 11be 7331 eb3b 85d6 893d
00000020: cbb6 e2bc 2e3c 31be 5426 24be 67d8 ebbc
00000030: fe0f febd 8f20 54be ce03 84be cb07 30bd
00000040: ddc8 a9bd 0879 e7bd 1a08 3fbe 5904 39bd
00000050: 177e dbbd 8f5b 313c be0b e7bd 6e4c b1bd
00000060: bdc7 99be ab26 37be 9035 18be 1ede 37be
00000070: f75b 05be 91d2 a1bd 2176 87bd aa40 943d
00000080: 7df5 aebd 9c82 56bd 31a7 1cbe 1c6a 8ebd
00000090: 21af 20bd 7715 ec3c d700 bebd 2721 ab3d
000000a0: 5ef5 363c 27df ac3c 3d18 29be 8ea1 01be
000000b0: a2b1 b6bd d71b abbc 85d5 56bd d6c4 7dbc
000000c0: 1094 21be ab74 593c b569 aebd b64f bbbd
000000d0: 434e 8fbd ca5d 2fbd 33cd 593c ae5f 823c
000000e0: 1ddc 64be 9d0a 3b3d 86eb 0bbe 5aad e43c
000000f0: 2ab2 113e 8b9f a839 6829 023e 1d83 96bb
00000100: bb0d de3d af20 8f3d d93f 563c ba46 013d
00000110: 4f67 ef3d ff95 ef3c 85ef 2b3e f5d2 fe3c
00000120: 758b 3e3d baca 96bd 110e 243c 1868 823d
00000130: 3585 11bd 9fe0 cdbd 29f2 fa3d 7417 24bd
00000140: f739 203e 6707 523b 8b40 f83d 53b4 0bbd
00000150: 4c07 b13c ebeb 28bd f4b2 f33d 6c64 063e
00000160: d1d6 a03d 4956 1b3d bc2e 293e d6dd 7cbd
00000170: 87f7 69bd ab69 983d ebee c0bc a2b9 263c
00000180: e395 703d a65d eb3d b916 003e 809b bf3d
00000190: b0e0 1d3d a358 043d d60b 183e 61c5 103e
000001a0: cbc0 983c 8035 bebd bf56 cdbb 52c8 af3d
000001b0: a901 5bbd 7ea8 1fbc 1bf2 90bd cfd3 193e
000001c0: b292 91bd 5297 003e e611 d33d b9cc 66bd
000001d0: bd86 debd c580 62bd a2a2 65bd b06e cf3c
000001e0: e89d 04bd 8a9b cebc c1d3 04b9 9cc0 dfbc
000001f0: 8f20 69bd 0114 62bd 40e8 89bd e4be f2bd
00000200: eb2a 8f3d ab67 d4bd 4735 c4bd 46a3 6c3a
00000210: 9e1e c0bd 82a1 273d a933 843d 27db d83c
00000220: db05 95bd 3faa b43d 4298 f5bd 5d21 0e3e
00000230: 8e09 c2bb f644 0c3c fa65 f6bd 8025 543d
00000240: 194d 3bbd 83e4 17bc 931d 86bd eb53 8fbd
00000250: 6964 273d aa37 4a3d d16b b93d f481 1abd
00000260: 0b17 903d b337 01be b354 863c 0bef 853c
00000270: d7a8 a8bb 20b6 663d 7eda 20bd e340 d1bc
00000280: 38e6 fc3d ebd3 26be 2b77 93bd 469b 11bd
00000290: 3f79 d33d fd61 2dbd 4a5a 2fbd 5922 b83b
000002a0: fc38 f13d 72c2 e73d 24fb a5bd 6383 fd3c
000002b0: 61c4 f0bd bbc1 bdbd c378 debd ca1e abbc
000002c0: bb1b 613c 2fd9 a3bd 4520 dbbd 9c0b 9bbd
0.003618739 -0.17767663 -0.1884132 -0.06443743 -0.061164342 -0.14178754 0.0071775257 0.067303695
-0.027675053 -0.17308113 -0.16030246 -0.028789712 -0.12405394 -0.20715545 -0.25784153 -0.042976182
-0.08290265 -0.11302382 -0.18655434 -0.045170162 -0.10717409 0.010825052 -0.112815365 -0.08657156
-0.300352 -0.17885844 -0.14864182 -0.17955825 -0.13023363 -0.079014905 -0.06614328 0.07238896
-0.08542917 -0.052370653 -0.15298153 -0.069538325 -0.039229516 0.028818829 -0.09277504 0.08355933
0.0111668985 0.021102501 -0.16513152 -0.12659284 -0.089205995 -0.020887299 -0.05244972 -0.015488824
-0.15779138 0.013272445 -0.08516256 -0.09146063 -0.06997349 -0.042814054 0.013293552 0.015914764
-0.22349592 0.04566442 -0.13664064 0.027914692 0.1422812 0.00032162326 0.12711108 -0.0045932666
0.10842463 0.06988656 0.013076746 0.03156159 0.116896264 0.029246328 0.16790588 0.031106452
0.046519715 -0.07362886 0.010013119 0.063675106 -0.035527427 -0.10052609 0.1225322 -0.04006143
0.15647112 0.003204787 0.121216856 -0.034107517 0.021609925 -0.041240614 0.11899367 0.13124245
0.07853473 0.037924085 0.16521734 -0.061734997 -0.057120826 0.074420296 -0.023551425 0.010176094
0.058736693 0.114924714 0.12508668 0.09355831 0.038544357 0.032311093 0.14848265 0.14137794
0.018646618 -0.09287548 -0.0062664445 0.0858313 -0.05346838 -0.0097447615 -0.07077428 0.15022205
-0.07108058 0.12557724 0.10306148 -0.056347582 -0.10865543 -0.055298585 -0.0560633 0.025321335
-0.032377154 -0.025220651 -0.00012667385 -0.027313523 -0.056915816 -0.05519486 -0.06733751 -0.11852816
0.06990608 -0.103713356 -0.09580474 0.0009027015 -0.0938084 0.04092551 0.06455166 0.026471687
-0.072765075 0.08821534 -0.119919315 0.13879915 -0.005921549 0.008561363 -0.12031169 0.051793575
-0.045727823 -0.00927079 -0.065486096 -0.06998428 0.040867243 0.04936949 0.090537675 -0.03772159
0.07035645 -0.12618904 0.01639781 0.016349336 -0.0051470804 0.05632603 -0.03927087 -0.025543636
0.12348598 -0.16291778 -0.07200464 -0.03554847 0.1032586 -0.042329777 -0.042810716 0.005619329
0.11778447 0.113163844 -0.08104542 0.03094644 -0.11756206 -0.09265467 -0.10862877 -0.020888705
0.013739522 -0.08000409 -0.10699514 -0.07570574
