hosp_models/deploy_week_41_13/feat_enc.pt (torch, 56491 bytes, 4 tensors)

gru.weight_ih_l0 f4 [180, 15]
000000 dd 9b 1b be 7b 25 b6 3e 85 cb 57 be fc ef 16 be
       -0.15196176 0.3557547 -0.2107373 -0.14739984
000010 70 fd 0b be f0 e5 0d 3e 70 1f 01 3e f4 a2 d1 3d
       -0.13670897 0.13857245 0.12609649 0.10236159
000020 55 b5 3b bc b3 91 d7 bb 01 4d 41 bd b1 65 cd 3e
       -0.011456807 -0.006578648 -0.047192577 0.40116647
000030 c6 36 de 3c 82 18 94 be aa 97 8e be a9 dd 12 3e
       0.027125727 -0.28924948 -0.27850085 0.14342369
000040 e3 35 02 3d dd 61 1a 3e b0 cd a5 bd 82 e7 f1 bd
       0.03178967 0.15076394 -0.080958724 -0.11811735
000050 94 2c ea bc e1 b2 0a 3e 94 a6 d9 bc b3 d9 c5 3d
       -0.02858571 0.135448 -0.026568688 0.096606635
000060 aa 7d c7 3d a3 46 db bb 69 ce ee bc ea 10 f1 bd
       0.097407654 -0.00669177 -0.029151158 -0.11770804
000070 3e 2f 04 3d b2 fe b7 3d 6c e6 49 bc f0 1b 02 3e
       0.032271616 0.08984126 -0.012323003 0.1270597
000080 b2 6b 65 3d d0 f4 2c 3e 22 27 ec 3d 54 3c 9b be
       0.05601091 0.16890264 0.115309015 -0.30319464
000090 a2 52 82 be 24 46 e3 3d d7 f4 6b 3d 3e 2b 55 3e
       -0.2545367 0.11097363 0.057606544 0.20817277
0000a0 af 72 b6 3c 57 7e 9c bd 16 37 5b 3d 59 c5 c7 bd
       0.022271482 -0.07641285 0.05351933 -0.09754438
0000b0 4b 30 13 bd c0 8a 23 be 02 9c e2 3e a9 27 c4 3d
       -0.035934728 -0.15970898 0.4425965 0.09577877
0000c0 91 2e 87 3c 73 85 df 3d b6 b5 a8 3c b3 5c 2c 3e
       0.016501697 0.10914125 0.020594459 0.16832237
0000d0 2b de 51 3d 32 df 8e 3c 60 28 14 3e 70 79 9b 3d
       0.051237267 0.017440412 0.14468527 0.07591522
0000e0 24 28 c6 3e 0a 16 24 be 74 78 01 be 2c e4 d6 3c
       0.387025 -0.16024032 -0.12643605 0.026231848
0000f0 db 51 49 3d c8 41 6c 3e ba 64 39 3e b0 5c 1e 3e
       0.04915033 0.23071969 0.1810483 0.15465045
000100 23 88 45 be e4 e4 81 bc 2b 49 9a bd 00 0c f5 3c
       -0.19290213 -0.015856214 -0.07533487 0.029912949
000110 5e 06 a4 3d f2 96 73 3e ac d8 7f be 68 23 23 bf
       0.08009027 0.2378805 -0.24984998 -0.637259
000120 7e ff 18 be 5e db 13 3c 2f 3b 00 3d 4c 9f 62 3d
       -0.14941213 0.009024469 0.031306442 0.0553277
000130 f1 33 7d 3c 58 d6 85 be 45 da 37 3e 0f e9 52 be
       0.015454278 -0.26140094 0.17954357 -0.20596717
000140 00 77 9c 3d 0e ae de 3d 2c 09 c9 3d fc de 03 be
       0.07639885 0.10873042 0.098162025 -0.1287803
000150 d4 4a 3d 3e 5e 31 40 3c 3f 10 ac bd e7 e0 89 be
       0.18485576 0.01173052 -0.08401536 -0.269294
000160 ca 80 c1 3d fa fe c6 bd b7 2c be 3e 9c 1d 1b 3e
       0.09448393 -0.09716602 0.3714349 0.15148014
000170 9d 25 24 3e 39 27 c9 bd 6a 94 80 be 6c ff 55 3d
       0.16029973 -0.09821934 -0.2511323 0.052245542
000180 cd 77 9e 3d 7d 5a dd 3c 36 40 ce bd 3e 20 1e be
       0.07737694 0.027020687 -0.10070841 -0.15441987
000190 87 4f b6 bc 7a 71 3c be e6 44 13 be f2 43 59 bd
       -0.022254718 -0.18402663 -0.14381751 -0.053043313
0001a0 43 82 3c bd 81 fe 21 bd 39 e2 3d 3e b4 7d a8 bd
       -0.046022665 -0.039549354 0.18543328 -0.08227101
0001b0 a5 f5 e7 bd 14 38 f1 bd 04 45 9e bc ae 64 e6 3d
       -0.1132615 -0.11778274 -0.019320019 0.11249672
0001c0 25 e5 a0 bd 9b e7 ef 3d b1 82 7e 3e c6 20 24 bc
       -0.07856206 0.11714097 0.24854542 -0.010017579
0001d0 00 90 e8 bb 95 1a f3 bd 39 98 8b 3d af 98 c0 3d
       -0.0070972443 -0.118703045 0.068161435 0.09404122
0001e0 40 b7 59 3e 09 6a 0a 3e 9c 93 fe bb d8 e2 3c 3e
       0.2126131 0.13517012 -0.0077690613 0.18445909
0001f0 db 8a 0e be 6c 54 95 be a0 10 e4 bd 69 ca 80 bd
       -0.13920157 -0.2916597 -0.111359835 -0.06288607
000200 25 fd 38 bd 8d ff 5e be f3 b3 a3 bd 6b 4e 04 bf
       -0.045163292 -0.21777172 -0.07993307 -0.51682156
000210 4f 29 92 bb 9e 9b 86 bd 97 ba 95 3c 6d 34 33 be
       -0.004460491 -0.065726504 0.01827745 -0.17500468
000220 03 e6 eb bd c3 c4 8d 3e d1 96 04 3f 24 0e 9e 3b
       -0.11518481 0.2768918 0.5179263 0.004823463
000230 50 fb a4 3e 5d 7f f7 3e 54 05 fb 3d e5 f8 18 bc
       0.32222986 0.48339358 0.12256876 -0.009336685
000240 29 1a 0c be 59 6d 17 3e 18 cf a0 be 14 8a 47 bc
       -0.13681854 0.14787807 -0.31408 -0.0121789165
000250 e7 2c 47 bd d9 29 59 be c7 bd 8d be 03 b5 2f be
       -0.048626807 -0.2120737 -0.2768385 -0.17158894
000260 3e 33 7f be 04 55 1b 3d a6 30 95 3d 86 4b 94 bd
       -0.24921891 0.037922874 0.072846696 -0.072409675
000270 fa 47 2e 3f 61 e4 ce bd 77 95 df bc 80 72 66 3b
       0.6807858 -0.101021536 -0.02729295 0.0035163462
000280 c0 16 a7 3e 25 8b 06 bf 91 da 4e be 1b 23 59 bc
       0.32634544 -0.5255607 -0.20200564 -0.013252999
000290 07 57 f6 3d a7 14 d0 3d a6 b1 b4 3d 8a b2 0a 3f
       0.12028318 0.10160189 0.08822946 0.5417868
0002a0 fe 39 34 be cc b9 b5 3e 94 fc 10 be 5e df 53 be
       -0.17600247 0.35493314 -0.14158851 -0.20690677
0002b0 07 c0 ee 3d f7 80 3f 3d 25 9a 7a be 7e 74 27 be
       0.1165772 0.04675385 -0.24472864 -0.16353032
0002c0 58 2c 87 3e a5 d6 06 3e 30 ed 37 bc b7 cd 77 be
       0.2640102 0.13167818 -0.0112259835 -0.24199568
0002d0 2d 0d f8 3c 11 a6 ad 3d 77 93 99 3e f7 4b 9c 3d
       0.03027972 0.0847894 0.2999532 0.07631677
0002e0 9f 0e ae bc 96 93 a1 3c 70 5f 75 bd 57 6a de bc
       -0.021247206 0.019723695 -0.05990547 -0.027150316
0002f0 30 e2 d9 bd c6 d5 40 3d c8 20 66 bc 74 10 e4 be
       -0.10638845 0.04707887 -0.014045902 -0.44543803
000300 f9 c9 ea bd 90 2e 79 bd be 6c b1 bd ee 14 76 3d
       -0.114643045 -0.06083542 -0.08663319 0.060078554
000310 ef 11 71 be 04 98 b2 bd b4 f1 ea bd 87 a7 94 bd
       -0.23541997 -0.08720401 -0.114718825 -0.07258516
000320 09 b3 94 3d bf e8 e9 bd ab dc c7 bd c7 82 b5 bd
       0.07260711 -0.11421346 -0.09758886 -0.088628344
000330 dc 7d 3d 3d c7 1c b2 3e 5c 43 ac be bc c1 82 3e
       0.046262607 0.3478758 -0.3364514 0.25538433
000340 62 2e bf 3d d1 64 51 3d 75 b1 41 3d 8d d6 39 be
       0.09335019 0.051121537 0.047288377 -0.18148251
000350 aa b9 24 be fd 32 89 be 97 b8 76 3e d8 46 b4 3d
       -0.1608645 -0.26796713 0.24093853 0.08802575
000360 a1 08 1c be fd 93 8a bd 61 7f d5 3d 46 b6 3f be
       -0.15237667 -0.06766508 0.10424686 -0.18721876
000370 66 99 48 bc 99 97 07 3f 64 b2 76 bb b5 a2 ff 3d
       -0.012243604 0.52965695 -0.003764295 0.12482206
000380 07 fb 0a 3b e7 f1 25 3e bf 7f 05 bd c2 65 0e 3c
       0.0021206753 0.1620556 -0.03259253 0.008691253
000390 92 dd e0 3b cf 3b 5a 3e d5 2a 84 bd 0d 5e c4 3d
       0.0068623507 0.21311878 -0.06453482 0.09588251
0003a0 02 07 84 3c 3a d1 ec 3d ea ea 3d 3e 1f a3 9b 3e
       0.016116623 0.11563344 0.18546644 0.3039789
0003b0 88 57 ad be ef 07 9f be e3 84 82 bc dd d6 07 3d
       -0.33855844 -0.3106074 -0.015932506 0.033163894
0003c0 9d 19 bf 3e aa 33 29 3e cc 72 d5 bd 1d 8b 48 bd
       0.3732423 0.16523615 -0.104222864 -0.048960794
0003d0 6e 11 71 bd 91 61 a6 3d 74 bc 18 3e 7c a2 da bd
       -0.058854513 0.08124078 0.14915639 -0.10675523
0003e0 d8 37 e9 3a 94 79 8d bc c6 51 29 be b2 fa 51 3e
       0.0017793132 -0.017269887 -0.165351 0.20505789
0003f0 52 65 46 3e 04 6a f1 3d c2 48 a2 3d 76 61 36 be
       0.19374588 0.11787799 0.07924034 -0.17810616

gru.weight_hh_l0 f4 [180, 60]
000000 bc b1 53 3e 9b 42 60 3c aa 0f 64 bd c4 89 05 be
       0.20673269 0.013687755 -0.055679 -0.13040835
000010 c6 89 6b bd 40 b3 ac 3d 1c 5b 2b bb 94 d1 c3 bd
       -0.057504438 0.08432627 -0.0026146835 -0.09561458
000020 00 e1 1d 3e 1b 87 9b 3e f8 fd a8 ba 12 a3 93 3b
       0.15417862 0.30376515 -0.0012893071 0.0045055235
000030 32 3c 8b bd be 0a 26 3d 7a 90 a4 bd 85 a2 85 3d
       -0.06798591 0.04053759 -0.08035369 0.06525139
000040 cd 00 c6 bd b6 62 45 be 61 46 c8 3d 79 34 24 be
       -0.096681215 -0.19275936 0.09779049 -0.16035642
000050 83 6e c0 be 90 08 1a 3e e3 28 3f 3e 4b 93 17 3e
       -0.37584314 0.15042329 0.18667941 0.14802282
000060 47 3c be 3e 8a 2d 92 be ca 2c 3c be 5f 23 50 3d
       0.37155363 -0.2855037 -0.1837646 0.050814983
000070 cf 11 52 be d2 d7 7a 3d 98 0a 80 3d 3b 27 7a be
       -0.20514606 0.06124098 0.062520206 -0.24429028
000080 c7 df 18 3e 04 6a 1b be 16 09 1c 3e 46 c3 bd bd
       0.14929114 -0.1517716 0.15237841 -0.09265761
000090 85 37 1f bd 4b 66 88 be c8 14 98 3d 96 c2 95 3d
       -0.038871307 -0.26640543 0.07425839 0.07312505
0000a0 f7 b8 88 3d 36 a2 ff be 74 75 1c be 3d e8 fb bb
       0.06675904 -0.49928445 -0.1527918 -0.007687597
0000b0 14 ea 3e 3d d9 8e f6 bd a6 11 45 be b1 4a 70 be
       0.046609953 -0.12038965 -0.19245014 -0.23465993
0000c0 71 e5 2c 3e e1 13 d4 bd 82 32 93 3e d9 45 6f 3d
       0.168844 -0.10355354 0.28749472 0.05841622
0000d0 6f 7e e7 bd 9a 67 17 bd a6 aa 5c be ce de 5c 3c
       -0.11303412 -0.036964037 -0.21549472 0.013480855
0000e0 42 e3 9f bd db e2 aa 3a a7 e0 b4 bd 38 a9 f0 bd
       -0.07807018 0.0013037579 -0.088319115 -0.11751026
0000f0 0a cc 53 3e 3d 04 38 be 46 57 0a 3e 9e 8d 1b bd
       0.20683303 -0.17970367 0.13509855 -0.037976854
000100 94 f2 b1 3d 89 18 6a 3d bd 27 0e 3e 70 c1 e2 3d
       0.08688846 0.057152305 0.13882346 0.110720515
000110 9c 70 4a 3e 8c f5 d3 bd 61 bb 35 bd 94 df d6 3d
       0.1976952 -0.10349569 -0.04436815 0.10491863
000120 6a 73 e4 3d 5d f2 93 3d c8 c5 95 bd 1d f9 bc 3d
       0.11154826 0.072239615 -0.073131144 0.09227202
000130 c5 00 40 3e a8 d5 50 3d 4a 9b 87 3d e8 c3 ca bc
       0.18750294 0.05098501 0.06621416 -0.024751619
000140 66 97 82 bc 24 7e 96 3c 66 93 97 3d 6b 07 33 3e
       -0.015941333 0.018370695 0.07401161 0.17483298
000150 78 f6 48 bc 68 66 43 bd bb b0 33 be 23 63 06 3d
       -0.012265794 -0.047705084 -0.17547886 0.032809388
000160 83 31 b2 be 16 7d f5 bd c3 2b db 3d 46 3e 32 3e
       -0.348034 -0.11986749 0.10701706 0.17406568
000170 f9 19 12 be c7 f0 4d be 66 b3 a2 bd b1 74 d0 3d
       -0.1426772 -0.2011138 -0.07944374 0.10178507
000180 11 88 c6 bd 85 b0 49 bc 93 bd af 3d 58 44 ff bd
       -0.09693921 -0.012310152 0.0858108 -0.124642074
000190 04 f3 ca bd 08 fb b9 bd b8 9b 86 3d 38 2c 39 3e
       -0.09909633 -0.090810835 0.0657267 0.18083274
0001a0 d3 38 d0 3b 21 b2 8c 3d 05 2f 49 3e de ac e0 bd
       0.00635443 0.06869913 0.19646843 -0.10970472
0001b0 2c e1 1b 3e d8 54 f2 bd 89 2e 2b 3d 80 11 c2 bd
       0.15222615 -0.11832589 0.041792426 -0.09475994
0001c0 95 c4 a6 bd 97 76 ba bc 8d d4 73 bd 4a 28 bc bd
       -0.08142964 -0.022761626 -0.059528876 -0.09187372
0001d0 ed 9f 20 bc e2 a8 5d be 5e b4 07 3d ae 69 05 3d
       -0.009803754 -0.21646455 0.033130996 0.032571487
0001e0 fc a0 88 3e 02 4a 94 3b d0 20 38 3e 99 31 24 3e
       0.2668532 0.004525424 0.17981267 0.16034545
0001f0 83 cd 11 be 9d a7 fb bc 1a 1d 7e 3e 9a 19 8e 3e
       -0.14238553 -0.030719573 0.24815789 0.27753907
000200 17 d3 da 3d 01 9e c3 be 5a e7 2a 3e 29 ec 4f 3e
       0.106847934 -0.38206485 0.16689816 0.20304932
000210 7b 13 96 3e 69 b0 d7 3e 69 a6 a5 3e 74 a7 73 3e
       0.29311737 0.42126778 0.32353523 0.23794347
000220 b8 1b 0d 3e ca 5d 67 bd 93 eb b3 3d e0 92 18 3c
       0.13780105 -0.05648593 0.087851666 0.0093123615
000230 04 05 ea 3e 9e 20 f7 be d1 02 50 bd 46 1b 63 be
       0.45706952 -0.48267072 -0.050783936 -0.22178373
000240 14 ed 84 bd 9d 35 11 be 4b 60 4b be 2e de 7a 3e
       -0.064905316 -0.14180608 -0.19860952 0.24498817
000250 d4 83 3f be 93 45 1a 3e 60 08 20 3e d9 64 f5 3d
       -0.18702632 0.15065603 0.15628195 0.11982126
000260 65 67 42 bd bc 16 e6 bb b3 d1 32 3f e3 04 7f 3d
       -0.047461886 -0.007021753 0.69851226 0.06226052
000270 0d 77 ac 3c ea 54 d9 be fe c7 b8 3d 11 b1 15 3e
       0.021052862 -0.42447597 0.090225205 0.14618327
000280 61 29 6a 3d 56 89 0d 3e 71 a5 10 3e 20 1e 9a bd
       0.05716837 0.13821921 0.14125611 -0.07525277
000290 7d de c4 3d 18 28 53 be bd 8f ac bc a0 e4 49 be
       0.09612749 -0.20620763 -0.021064634 -0.1971612
0002a0 5c ea d8 3c 40 98 48 be 27 df 62 bc 92 f4 10 be
       0.026478939 -0.19589329 -0.013847149 -0.14155796
0002b0 04 a4 d7 3c 05 7c 15 3d 13 77 9b 3e d6 f5 c3 bd
       0.026323326 0.036495227 0.30364284 -0.09568374
0002c0 dc 54 bc 3e 76 e1 89 bd 84 1a e4 3e 89 7f 9f 3c
       0.36783493 -0.067324564 0.4455148 0.019469993
0002d0 ed 47 5b 3b 1f 0a db bd db 66 d0 3e f9 33 9b 3d
       0.003345962 -0.1069529 0.40703472 0.07578272
0002e0 a0 6c 99 3c fa 24 bd 3d 22 57 0a be 43 c7 a9 3c
       0.018728554 0.09235568 -0.13509801 0.020724898
0002f0 47 0c ea 3d 1f 8b da bc 16 27 b4 3d 69 c6 03 3e
       0.11428123 -0.026677666 0.087965176 0.12868656
000300 5d 03 1c b9 7c 87 fc 3d b2 2a e9 bd 5a bb 29 3d
       -0.00014878572 0.12330529 -0.113850966 0.041438438
000310 03 62 a4 3d b8 fe ef bd 9c 7f 0e 3e 96 61 8d 3d
       0.08026507 -0.117185056 0.13915867 0.06903379
000320 b9 17 de 3d 66 cb 51 3e 23 a2 f1 3d 5c c6 63 be
       0.108443685 0.20487747 0.11798503 -0.22243637
000330 50 2a 88 3e e8 3a c5 be 5e 96 68 3d 3d 99 0e 3e
       0.26594782 -0.38521504 0.056784026 0.13925643
000340 70 c2 64 3c 70 2b 15 3e c8 fa 17 3e eb 8f 8a be
       0.013962373 0.14567351 0.14841759 -0.27062926
000350 1b 2c 6c bc 56 1d 3d be 1a c7 c8 bc 89 54 f2 bd
       -0.014414812 -0.18468222 -0.024509002 -0.1183253
000360 14 f8 d2 bd e3 4c 9a ba e6 73 d0 bd 28 1c 1c be
       -0.103012234 -0.0011772182 -0.10178356 -0.15245116
000370 59 5b 9d bd ee f5 34 be 1b 48 1a 3e 55 e4 fd bc
       -0.07683439 -0.1767194 0.15066569 -0.030992666
000380 31 9a 26 bd 9b 6d 93 be 44 c5 8c be bc 04 57 3c
       -0.040674392 -0.2879456 -0.27494252 0.013123687
000390 5b fc 1f 3e d8 ec 7f bd f8 99 23 3e 0f 3a 95 3d
       0.1562361 -0.06248173 0.15976703 0.072864644
0003a0 b0 f2 2a 3e de e3 b7 3d f2 c9 cf bc 1a 12 80 bd
       0.1669414 0.08979009 -0.02536485 -0.062534526
0003b0 12 03 cd 3b 21 73 45 bd 32 f6 a1 3d e8 02 06 3d
       0.0062564695 -0.0482055 0.07908286 0.032717615
0003c0 5d d9 8b 3e 86 34 dc 3c 64 49 d1 3a 58 4c 9f 3e
       0.27314273 0.026880514 0.0015967307 0.31112933
0003d0 5e fe a9 bc 27 8b 97 bd 1f 6d 89 3e bb d6 ec 3d
       -0.020751175 -0.07399588 0.26841065 0.11564394
0003e0 e5 ba 29 3d ea ac 89 be 84 e2 ed 3d 1e 57 77 3c
       0.041438002 -0.26889735 0.1161547 0.015096454
0003f0 fb 65 14 3e 50 6a de bc 8a 9b be 3d 36 70 40 3d
       0.14492027 -0.027150303 0.093070105 0.046982013

gru.bias_ih_l0 f4 [180]
000000 46 3a a0 3d 76 76 ae bd d2 f7 06 be 95 27 95 3d
       0.07823615 -0.085186884 -0.13180473 0.0728294
000010 b6 7f 1f bd 5d 46 44 bd 5e b7 31 bd 0d f8 f8 3d
       -0.038940154 -0.047918666 -0.043387763 0.12156687
000020 61 c6 20 3e 5c 5e 5b 3d d4 56 06 3e 04 92 0c bd
       0.15700676 0.053556785 0.1311906 -0.03431894
000030 53 e7 03 3d b7 92 10 3b 9f 4d 8e 3d b6 ec 1d bd
       0.03220303 0.0022060105 0.06948399 -0.038555823
000040 a7 2f a2 3c d8 fe 9e bd aa d3 ad 3d 3d 73 f0 3d
       0.019798113 -0.07763451 0.08487637 0.1174073
000050 46 34 8a 3d 7c c6 3c 3d 3b 14 2d 3c 83 84 67 bd
       0.067482516 0.046087727 0.010563905 -0.056522857
000060 fe 4d 8c 3d ad c7 b5 bc 7d 4e d1 b9 39 80 ae bc
       0.06850813 -0.02218994 -0.00039922065 -0.021301376
000070 1f 56 a1 3d 92 6f 4f 3e e5 93 00 be 80 c6 99 bc
       0.078777544 0.20257404 -0.12556417 -0.01877141
000080 a8 6c 80 bd 14 6b c1 3d fc 45 19 bc 7e 02 44 3d
       -0.062707245 0.09444252 -0.0093550645 0.04785394
000090 72 f8 6a 3c 41 94 ba bd cf 9c 0e 3e 9f 5f cd 3c
       0.014341461 -0.091103084 0.13927005 0.02507001
0000a0 c5 aa 04 3e 4e 98 4b 3d 52 00 ed 3d 8c e2 15 3e
       0.12955768 0.049705796 0.11572327 0.14637202
0000b0 c2 64 d2 bd 85 13 87 3e aa ce b2 3d fa 76 50 3c
       -0.10273124 0.2638208 0.08730824 0.012723679
0000c0 28 4f 55 3d 96 bb 55 bd 16 33 94 3c b5 ae 0c 3d
       0.052077442 -0.05218085 0.018090766 0.0343463
0000d0 8b 9b 26 bc 73 ad bf bb df 9a 5e 3d 5b 2f 14 3e
       -0.01016892 -0.005849534 0.054346915 0.1447119
0000e0 a1 40 dc bd 5e b5 57 3c 72 96 b4 3c 5c 49 44 3b
       -0.107545145 0.0131658 0.022044394 0.0029950952
0000f0 1f 27 f6 bd d4 79 09 3e 76 f0 4c 3d 35 c8 4c 3c
       -0.120191805 0.1342538 0.05003401 0.012498905
000100 26 fc 83 3e ef fb 20 3e 16 ba b1 3d 1e 9e 8f 3e
       0.25778311 0.15721105 0.08678071 0.2805032
000110 ae 69 67 3d 2b e7 db 3d 30 bf 18 3e 7d ce 0d bd
       0.05649727 0.10737451 0.14916682 -0.03462075
000120 f5 55 32 3e 5d ec 0d 3e 41 24 b3 3e 8b 92 c8 3c
       0.17415603 0.13859697 0.34988597 0.02448394
000130 c9 a8 4a 3e 8f 57 2f 3c 5b 13 a3 3d 68 38 85 3e
       0.19790949 0.010702028 0.07962676 0.26019597
000140 dd 0e 09 be 91 87 41 3e a3 50 3b 3e ef ab 0d 3d
       -0.13384576 0.1889937 0.18292479 0.034587797
000150 7e fd 07 3e 60 1a ff bd e1 28 8e 3e 9c 72 9e bd
       0.13280293 -0.124562025 0.27765563 -0.07736704
000160 de 25 8d 3e 50 72 98 3e 64 41 a6 3e 27 c9 b2 3c
       0.27567953 0.29774714 0.32471764 0.021824433
000170 af 84 5f 3d a4 d4 01 3e 52 2d 20 bc 67 52 86 3e
       0.054569896 0.12678772 -0.00977643 0.26234743
000180 b7 9f 38 3d f4 a6 ea bd 1e f5 a6 3e 68 7e 0e 3d
       0.04507419 -0.11457625 0.32608885 0.03478852
000190 ad 0b b5 3d 82 05 b9 bd 16 8b 3c 3e 23 3f 6b 3e
       0.088401176 -0.09034254 0.18412432 0.22973303
0001a0 39 cb 00 3b 06 17 5e bd b1 15 56 3e 69 82 44 3e
       0.001965238 -0.054221176 0.20906712 0.19190373
0001b0 48 21 36 3e 0c 81 a0 3e c6 97 6b 3e d7 9d 30 3e
       0.17786133 0.31348455 0.23007116 0.17247711
0001c0 b5 8c 1a be 58 6d e7 bc d3 da 77 3c 77 88 a7 3e
       -0.15092738 -0.028250381 0.015127855 0.32721302
0001d0 92 14 ba bc b7 8a e6 3d d0 87 50 be f0 8e 01 3e
       -0.022714887 0.112569265 -0.20364308 0.12652183
0001e0 80 3d 68 3d 37 8d 3f bd 78 b3 c7 3d ac fa eb 3d
       0.056699276 -0.046765532 0.09751028 0.11522421
0001f0 38 cf fd 3d 9b 3c 8b 3d 3e 76 07 be 4e 09 e8 bd
       0.123930395 0.06798669 -0.132287 -0.113299
000200 15 71 84 3d 41 f9 98 3c a5 9b c9 bd e7 ed cb 3d
       0.06466881 0.018673541 -0.0984414 0.09957486
000210 29 ec 9d 3c 8d b5 ef bd 46 ec cc bd 62 30 e2 bd
       0.019277649 -0.1170455 -0.10006003 -0.110443845
000220 67 51 cf bd 22 5e e1 3b c7 60 41 bc 5f 01 82 bc
       -0.10122948 0.0068776766 -0.011802859 -0.015869794
000230 f0 32 22 bd 32 4b 12 3e 0e 4e e6 3d 80 35 fb bd
       -0.03959936 0.14286497 0.112453565 -0.12266064
000240 d9 b5 5a 3d 8b e8 ac bd ad b9 23 bd 79 9f cf bc
       0.05339608 -0.084427916 -0.039971996 -0.025344597
000250 98 53 f4 bd 57 55 5e bd 99 5f cb bd ec df b0 bd
       -0.11930007 -0.054280605 -0.09930343 -0.0863646
000260 89 a3 a9 bc 36 c4 16 be bc 68 19 3d 76 a6 be bd
       -0.020707862 -0.14723286 0.037453398 -0.09309094
000270 08 bc 6e bd 1c 3e 50 3d 26 c3 db 3d e8 f3 05 3d
       -0.05828479 0.050840482 0.10730581 0.03270331
000280 fb 7d 0b be f6 82 ea 3d 9c 92 f9 3b ed b1 24 3d
       -0.13622276 0.1145076 0.007616354 0.040208746
000290 5a 6a 21 bd ca 25 86 3d 00 6a d9 bd 1b e7 8a 3d
       -0.039408065 0.065501764 -0.10615921 0.06782361
0002a0 0b 53 e9 3d ac 67 23 3b aa 1f eb 3d 5e e3 9d 3d
       0.11392792 0.002493362 0.11480649 0.077093825
0002b0 2c 62 b4 bc e3 46 73 3c 9a 22 bf 3b 32 09 26 bc
       -0.022019468 0.014848444 0.0058329822 -0.010134028
0002c0 17 d2 d8 bd bd fd 8a 3d 4e 0a e5 bd df d6 d5 3c
       -0.105869465 0.06786678 -0.11183606 0.026103435

gru.bias_hh_l0 f4 [180]
000000 ba df 7d 3c 62 42 2d 3c fe 90 8f be 01 91 b7 3c
       0.015495235 0.010574909 -0.28040308 0.02240801
000010 84 81 47 bc 4a 31 03 be 61 f0 a7 bd 90 99 76 3d
       -0.012176875 -0.12811771 -0.082001455 0.060205042
000020 c5 1c 2d 3e 87 a6 8e bd 94 71 b9 bc 7d 34 b4 bc
       0.16905506 -0.06965356 -0.022637166 -0.021997685
000030 ca 7e 60 bd f5 f6 36 3b 07 71 89 3d 05 cf a4 3d
       -0.054808415 0.0027918194 0.067110114 0.08047298
000040 6f 12 b9 bd 0d 23 37 be b7 37 a7 3c 62 28 09 3e
       -0.09036719 -0.17884465 0.02041231 0.13394311
000050 4b b4 b0 3d 9c a3 e9 3d e3 cc 32 3c 91 68 c5 3d
       0.08628138 0.11408159 0.010913107 0.09639085
000060 7c 3b d7 bd 59 70 3e 3e 5b 70 b2 3d 7c 83 0a be
       -0.105093926 0.18597545 0.08712836 -0.1352672
000070 40 23 d1 bc 27 72 78 3e 7f 68 71 bd 5d d1 43 be
       -0.025529504 0.24262296 -0.058937546 -0.19122835
000080 1d 6b 2d 3e 02 e6 30 3d b9 10 04 3e 82 bf 03 bd
       0.16935392 0.043188103 0.12897004 -0.032165058
000090 f3 1c e1 3d e9 88 2e 3d 6c 71 c2 bc 5b 29 ef bb
       0.1099185 0.042611036 -0.023735724 -0.007298631
0000a0 e8 d0 4f 3e af 5f 9a bd d4 a9 d9 3c e8 c3 f9 bc
       0.20294535 -0.075377814 0.026570238 -0.030488923
0000b0 41 95 9f 3d a0 e6 71 3e a2 69 27 3d 36 6a b3 bc
       0.0779214 0.23623133 0.040872224 -0.021901231
0000c0 4f a1 e8 3d 44 03 fd bc 8b b6 1d 3e fd c2 97 3d
       0.11358892 -0.030885346 0.15401666 0.07410238
0000d0 5b 34 71 bd 86 ac f7 bd cc a8 2e bc d1 e2 16 bd
       -0.05888782 -0.12093453 -0.0106603615 -0.036837403
0000e0 af d6 47 bd 1a 0d 18 3e 86 2b 25 3e f8 28 71 bd
       -0.048788723 0.14848748 0.16129884 -0.05887696
0000f0 d7 e8 ca bd b9 8d c8 3d b7 16 f5 3d 7a f9 55 bc
       -0.09907692 0.097926565 0.11967223 -0.013059968
000100 9c 7a 9d 3e bc b7 a4 3d 50 fa 76 3d c5 fc a3 3e
       0.30757606 0.08042857 0.06029731 0.32028785
000110 55 28 dc 3d bb dc c9 3d bf 7f 93 bd 85 74 db bd
       0.1074988 0.09856554 -0.072021 -0.10715584
000120 8f a5 4e 3e 12 67 16 bd aa fb a6 3e 74 9d 05 bd
       0.20180343 -0.03671939 0.3261388 -0.032620862
000130 ca 43 f9 3d 91 3e 01 3e 68 3c 13 3c 20 48 a9 3e
       0.12171133 0.12621523 0.00898657 0.3306284
000140 71 32 1c bd 3c 78 04 bd 26 cc 0c 3e d8 57 ef 3d
       -0.038134042 -0.032341227 0.13749751 0.11686677
000150 ce 7b a0 3c 55 e3 9a bc 15 f1 ec 3e eb 90 1c be
       0.019590285 -0.018907228 0.4627768 -0.15289657
000160 f1 55 b9 3e 1c d0 a8 3e ef 2c da 3d 46 9d 30 3e
       0.3619838 0.32971275 0.10653102 0.17247495
000170 9c 24 82 3e eb f6 d6 3d 92 6a f6 3c 41 33 83 3e
       0.25418556 0.104963146 0.030080114 0.2562504
000180 ba 33 24 3e e8 bf 4d bd 1f 36 e2 3e 67 1b 6c 3e
       0.16035357 -0.050231844 0.44181916 0.23057328
000190 4a 71 64 3e 15 c5 8a be 7a bb e3 3d 9c 19 5c 3e
       0.22308841 -0.27103487 0.11119743 0.21494144
0001a0 18 32 7a bd 17 b2 00 3d 0d db 18 3d bb c8 0b 3e
       -0.06108293 0.03141984 0.037318278 0.13650791
0001b0 32 ae 99 3e e2 8e b7 3d 7d 27 fa 3d 85 2f 3c 3e
       0.30015713 0.089627996 0.12214563 0.18377502
0001c0 bb 82 b7 b9 6d 12 94 ba 27 51 a1 bc bc 73 a9 3e
       -0.00035001882 -0.0011296995 -0.019692017 0.3309611
0001d0 0a 46 a4 3c 15 59 87 3d 63 a6 ee bd 0b 2e 8a bd
       0.020052928 0.06608788 -0.116528295 -0.06747063
0001e0 14 e6 24 be 5c 4b 8f bd 43 e9 30 3d 88 e6 bd 3d
       -0.16103393 -0.069967955 0.043191206 0.09272486
0001f0 56 cd 11 bd 1e b1 e5 bd 60 a0 fa bd 0c ec b0 bc
       -0.035596214 -0.11215423 -0.1223762 -0.02159693
000200 b8 a2 f3 bd a1 6e 89 bd f0 8e 99 bd 68 db 74 3d
       -0.118962705 -0.06710554 -0.07497966 0.059779555
000210 b6 a8 02 bd f1 e5 c2 bd 45 51 c3 3b 92 9e fe bc
       -0.031899177 -0.09516514 0.005960616 -0.031081472
000220 90 70 ce 3c 74 8c c4 39 6a 5a 5b 3d a7 b0 42 3d
       0.025200158 0.0003748868 0.053553022 0.04753175
000230 d5 6f bd bd 87 5f 0b 3e 03 9a 3d 3d 34 b8 12 bd
       -0.09249846 0.1361066 0.046289455 -0.0358202
000240 15 d8 de 3c 28 d0 e9 3d 29 13 ab 3d 45 cf f4 3d
       0.027202645 0.11416656 0.08353264 0.11953596
000250 83 f1 e5 bd 30 36 c8 bc 3b 01 94 3d 6d 4e 56 bd
       -0.11227705 -0.024439901 0.07226797 -0.052320886
000260 14 ec b5 bc be c2 8f 3d 3d 46 9a bd 55 97 a7 bd
       -0.022207297 0.07019566 -0.07532928 -0.08183161
000270 c2 7e 13 bc a4 00 55 bd 94 d3 c1 bd 59 60 06 be
       -0.009002389 -0.052002564 -0.094641834 -0.13122691
000280 92 47 20 3d 5a 28 22 bd f9 8d 37 3c 87 49 94 3d
       0.039130755 -0.039589263 0.0112032825 0.07240587
000290 e8 1e ae bd 38 1d 85 bd a3 47 b2 bd 20 62 ec bd
       -0.08501989 -0.06499714 -0.0870507 -0.11542153
0002a0 52 a9 25 3c b4 c5 ed 3c 44 ae ca 3d 8b b8 09 3e
       0.01011117 0.029024936 0.0989652 0.13449304
0002b0 0a f6 64 3d 14 49 55 bb 0b c2 a4 bd dd 42 3f bc
       0.055898704 -0.0032544779 -0.08044823 -0.011673656
0002c0 3f 5b e9 bd ef 5e 00 be f2 1b b4 bd 74 b4 6f 3d
       -0.11394357 -0.12536214 -0.08794393 0.058521703
