hosp_models/deploy_week_49_10/fnp_enc.pt (torch, 762335 bytes, 64 tensors)

cond_trans.0.weight f4 [100, 60]
00000000: 989b b33d b078 c8bd 3ebd 203e d9ed 0ebd
00000010: 8629 653d 1e3f bdbd 090d d4bd 6c8a dcbc
00000020: 694f c8bd 19fd 3dbe ffdb 51bc bf0b 0d3e
00000030: 7595 1ebd 99bf 603d b48f b6bd 54d1 ca3d
00000040: b873 d6bd 1475 eeb9 7c2c ac3d 3a69 a8bd
00000050: 1d4a 633d 70e6 0f3d e225 c93d f805 92bd
00000060: ba80 c4bd 0081 b73d 5899 db3d 1a38 9e3c
00000070: 287b 98bc f0f8 b83c 89c8 a3bd aab7 d73d
00000080: 641a 753d bd3e eabd 60aa aabd baad 23bd
00000090: e913 1fbe ba9c 45bd 620b 393e 8540 b4bd
000000a0: e594 6fbd 9e50 f63d e1e6 cc3c 32a1 8b3d
000000b0: 2d89 db3c 9c44 cfbb 4b6f 593d 6a24 c0bd
000000c0: 35e8 9d3d a67b 443c 4035 923d 750e a7bc
000000d0: 7c00 99bd 148d bd3d 8060 d5bd 4141 1a3d
000000e0: 790d bdbd 2504 ac3b f3f1 34bc 2a5b ae3d
000000f0: dfd0 c0bc df8b 8cbc 5735 3c3d 218f c7bc
00000100: aec0 c4bd 5112 96bd 4781 5dbd 5aa5 f1bd
00000110: d305 ab3d 9c47 06bd 7e2d 1b3e 306e 15be
00000120: 5b14 d4bd c6fd a43c cf7e 4c3e 04c1 7e3e
00000130: 0b16 a5bb 803d 163b 3214 b5bd c1d5 29be
00000140: 462d 30bd 4498 a1bc 9270 cc3d e6bc fb3d
00000150: 3129 833d 5b1c df3d ec41 ae3c c58b 2ebd
00000160: a551 093e c6cb 223b ade4 99bd bf1d 1b3e
00000170: 2d7e ac3d 3ba7 ddbd f59e 46bd b826 b03c
00000180: 2d37 fe3d 5101 983c 1094 3c3d a4a8 9a3c
00000190: 6d94 213e 03f4 2abe aad7 cf3a b1e5 3a3e
000001a0: 5813 a13d 85cd 843d e36f 04be 10fe 1f3d
000001b0: 8fae 32bd 5772 09be 838a f7bd 99b2 98bc
000001c0: 49b3 aa3c c218 2dbc ac30 c7bd a2c6 013e
000001d0: 2b0f 113e b7f1 74bd 9d04 433d 209c c9bd
000001e0: 256d 62bd 4be3 cc3d 5587 a83c 04a2 d9bc
000001f0: 1525 7c3c dd47 283d 34d7 ae3c 8309 73bd
00000200: 04b3 aa3d f1e8 2fbe cea8 043e e16b 35be
00000210: 0a5a dfbc a970 c9bc 696a b13c 8694 6c3e
00000220: 9522 ad3d 1fd3 99bd d5b3 dabd b98c 463c
00000230: 81bb 10be 4c41 983c b702 20be 1600 283e
00000240: d905 dfbd f948 053e c131 15be 5432 dcbc
00000250: e39c 373d 605b b93c 7daa 093d 02ab 0d3e
00000260: f51a cf3d 8cb5 833d 8f22 86bd 578e 86bd
00000270: 9321 57bc 3bf8 96bd 05b2 ecbb cf5c 04bc
00000280: af6e 04be 661d 143d 7196 a53d c073 10be
00000290: 42bb f43c be4c 1e3d 9cbf e03b 7ef5 ea3d
000002a0: 474c f73d 5c9f 683d 80d3 3abe f4a6 123c
000002b0: 3e3b 623d 1839 5f3d 13fc 87bd ec61 4dbe
000002c0: e894 96bd f379 1abd 31ce 513b feb3 68bd
000002d0: c851 6b3d ce79 aa3c 5b77 acbd 1843 14bd
000002e0: fc1a 0bbe 0654 8c3d 22f0 4a3e 17b8 03bd
000002f0: 7e02 ebbd 6b08 593d aa0a 383d 9114 b73d
00000300: 6ec4 d5bd 8823 0cbd 98e8 6fbd 72df a9bd
00000310: d77a 193d 1afb 593d a028 f33d 5a11 503d
00000320: be28 20bd c7af dfbd 1399 d5bd 858a ef3c
00000330: 4c3c 353d 3e62 813d 60ec ce3c f5ca d13d
00000340: 1cc1 8f3d 168f 51bc e368 3b3e 9005 d23d
00000350: f262 113e b851 a53d 490b b23d aa21 1fbd
00000360: b66f 4e3d 4894 a0bd 2486 d5bd 767f 4c3d
00000370: 5437 303d c4fc 35bb 1b82 8ebd 7b92 18bc
00000380: 2704 063e c374 0bbe 0b78 f63d 7d3e b6bd
00000390: 1809 91bd 07ec 9ebd 07b2 d63d 7663 f6bd
000003a0: 138a d3bd 3af6 f53c f6c8 81bb 2958 68bd
000003b0: 4564 703d 4bf0 4abe 9ee3 483e 18fa 34bd
000003c0: ce29 093e 7c83 c93d dcbf 813e 1dbe 56bd
000003d0: aa86 05be 68f4 303d a7ba 3cbd 0a97 83bd
000003e0: 749e b53d 98b3 0c3d 5cdb ffbd 05a8 113e
000003f0: f586 3bbd cff1 abbc 99e8 f83d 1a5b 31bc
0.087699115 -0.09788644 0.1569719 -0.034894798 0.055947803 -0.09240554 -0.10354049 -0.026921473
-0.09780771 -0.1855358 -0.012808799 0.13774012 -0.038716752 0.05487022 -0.08914128 0.099032074
-0.1047129 -0.00045482127 0.08406922 -0.082231954 0.0554906 0.03513187 0.09821679 -0.07130045
-0.09594865 0.08960152 0.107226074 0.01931386 -0.018613413 0.02257964 -0.079972334 0.10533078
0.05983962 -0.11437748 -0.08333278 -0.0399606 -0.15534939 -0.04824517 0.18070748 -0.088013686
-0.058491606 0.12027095 0.025012435 0.06817855 0.026798809 -0.0063253175 0.053084653 -0.093819454
0.077103056 0.011992371 0.07139063 -0.020392636 -0.074707955 0.09255424 -0.104187965 0.037659887
-0.09231085 0.0052495175 -0.011044013 0.08513482 -0.023537097 -0.01715654 0.045949306 -0.024360241
-0.09607063 -0.07327712 -0.054078367 -0.117991164 0.0835072 -0.032783136 0.15154073 -0.14592814
-0.10355445 0.02014054 0.19970249 0.24878317 -0.005038028 0.002292484 -0.088417426 -0.16585447
-0.043011926 -0.019725926 0.099824086 0.12291889 0.06404341 0.1089408 0.021271668 -0.042613763
0.13410051 0.0024840697 -0.075143196 0.15148066 0.084225036 -0.10822912 -0.048491437 0.021502838
0.12412868 0.018555315 0.04603964 0.018879242 0.15779276 -0.16694646 0.001585712 0.18251683
0.07865018 0.06484512 -0.12933306 0.039060652 -0.043623503 -0.13422523 -0.12086966 -0.01863985
0.020837443 -0.010564985 -0.0972608 0.12673429 0.14165942 -0.05980083 0.04761182 -0.098442316
-0.05527987 0.1000429 0.020572344 -0.026566513 0.0153897 0.04108416 0.021342851 -0.059335243
0.08334926 -0.17178704 0.12955019 -0.17716934 -0.027264614 -0.024589853 0.021657186 0.23103532
0.084538616 -0.07510971 -0.106788315 0.012118512 -0.14134027 0.018585823 -0.15626036 0.16406283
-0.10889787 0.13016118 -0.14569761 -0.026879467 0.044827353 0.022626579 0.033609856 0.13834766
0.101125635 0.06431112 -0.0654956 -0.06570118 -0.013130563 -0.07371565 -0.00722337 -0.008078768
-0.12932847 0.03616085 0.08085335 -0.14106655 0.029874448 0.038647406 0.006858779 0.11472605
0.120750956 0.056792602 -0.18244743 0.008950938 0.05523228 0.05449781 -0.06639876 -0.20056885
-0.0735262 -0.037713956 0.0032013769 -0.05681228 0.05745104 0.020810034 -0.08421203 -0.036196798
-0.13584512 0.06851964 0.19818166 -0.032157984 -0.11475085 0.052986544 0.044932045 0.089394696
-0.104378566 -0.034213573 -0.058571428 -0.08294572 0.037470665 0.053217985 0.11872983 0.050797798
-0.039101355 -0.10922199 -0.10429587 0.029240856 0.044246957 0.06317566 0.025259197 0.10243789
0.070192546 -0.012790462 0.1830173 0.10254967 0.14197901 0.08072227 0.08693559 -0.038850464
0.050399505 -0.078407824 -0.10425976 0.049926244 0.043021515 -0.0027769068 -0.069584094 -0.009312267
0.13087521 -0.1361876 0.12034615 -0.088986374 -0.070818126 -0.077598624 0.10483175 -0.120306894
-0.1032907 0.030024637 -0.003960724 -0.0567247 0.058689374 -0.19818227 0.19618079 -0.04418382
0.13394853 0.09839532 0.2534169 -0.0524274 -0.13039652 0.043201834 -0.046076443 -0.06425293
0.08868113 0.03435096 -0.12493011 0.1422425 -0.045783002 -0.020989327 0.121537395 -0.010824943

cond_trans.0.bias f4 [100]
00000000: 05f7 4f3e bf46 59be 0cb8 32bd bcf6 3bbe
00000010: 44ab 4ebc a229 e33c d711 30be 5e80 a73d
00000020: c74e fabd 58f7 043e 4bf6 2c3e 3f46 11bd
00000030: daa0 e1bb fa3b 9abd e58d c1bd ac96 54bd
00000040: 6f03 5dbd e5d5 31be f3df ebbd f459 ab3d
00000050: 464d 39be 3ae3 de3d 3182 27bd f7f5 c4bd
00000060: 87fd 383d 84e7 f8bd a92e 20be cabb 83bc
00000070: 0fa4 b13c eb22 b33c d8fc a5bd 48d3 033e
00000080: 07d6 383e aded 95bd b3e4 13be 013e 0a3e
00000090: a64e c0bc bf28 fd3b 56b8 173e 33e4 f0bd
000000a0: 4a48 25be 8e75 06be 6507 19be 8770 d13d
000000b0: f3cf 02be bae5 023e 7d6a 1fbe b4f4 b2bd
000000c0: 1702 b7bd 9e4d 30be edd3 293e 45c9 3bbe
000000d0: 0941 f4bd c04d b0bd c8d9 1ebd ea43 af3b
000000e0: 8ec2 143e 4c7b a83b cf36 0abd 06c7 d83d
000000f0: 1f8e 3abc ccfe 41be 54f7 e13c d404 a3bd
00000100: a29f f4bc ee5e 34bd 6b4c febc db51 c0bd
00000110: 44eb f7bd 13de f33d 5502 acbd ff93 a23d
00000120: e1a4 ea3d f3d8 79bd aee7 0abe 14ad ccbd
00000130: a7fc da3c a3ce 1fbd 835c 163e 4536 46be
00000140: 08df 2abe b8b9 d6bd 547b bc3c 2730 98bc
00000150: 770b 8dbd eda4 ea3c 8fe1 ccbd 0ae2 2cbe
00000160: cb9f 303d c206 8bbb e520 ebbc cfed 0bbe
00000170: afa4 a9bd 5645 74bc e6bc d2bd bf9a 89bd
00000180: bf26 763d 2a73 b73d 5c18 49be 7f58 10be
0.20309074 -0.21218394 -0.043632552 -0.1835584 -0.012614075 0.027729813 -0.17194305 0.08178781
-0.12222057 0.12984979 0.16890828 -0.035467383 -0.00688563 -0.07530971 -0.09450892 -0.051901504
-0.053958353 -0.1736675 -0.11517324 0.083667666 -0.18095884 0.10883184 -0.040895645 -0.096172266
0.045163658 -0.12153533 -0.156428 -0.016080756 0.021684675 0.021867236 -0.08104867 0.12873566
0.18050395 -0.07320724 -0.1444271 0.13500215 -0.023475002 0.0077258046 0.14816412 -0.117622755
-0.16140857 -0.13130781 -0.14944227 0.10226541 -0.12774639 0.12782946 -0.15567966 -0.0873808
-0.089359455 -0.17217109 0.1658475 -0.18338497 -0.11926467 -0.0860858 -0.03878191 0.005348672
0.14527342 0.0051416513 -0.033743676 0.10584836 -0.011386423 -0.18944854 0.027583756 -0.07959905
-0.029861275 -0.044035845 -0.031042298 -0.09390613 -0.1210542 0.11907592 -0.08398882 0.07938384
0.114572294 -0.060997915 -0.13564941 -0.099939495 0.026731802 -0.039015424 0.14683728 -0.1935664
-0.16686642 -0.10484642 0.023008026 -0.018577648 -0.06886952 0.028643096 -0.100039594 -0.16883102
0.04312114 -0.004242749 -0.028702209 -0.13664936 -0.08283364 -0.014909109 -0.10289936 -0.067189686
0.060095545 0.08957513 -0.19638199 -0.14096259

cond_trans.2.weight f4 [100, 100]
00000000: 1d0f de3d 91c4 86bd 4e93 cebc 34a1 163b
00000010: cf0d 1b3e b3f2 fdbc 06f2 763d 332f 903d
00000020: 1822 20bd 2a70 cfbd 17d6 45bd f51d 713d
00000030: 954d 1dbe a69f 6cbd b264 073d 4657 5639
00000040: a14e 343d 9635 753d 975f 85bd 5e7f 4e3d
00000050: 2ac9 b33d ce00 c93d a6c0 57be 8273 9abd
00000060: d87e 0b3d cc9a 1ebe 17dd ecbc 20f5 17be
00000070: 9c8a ae3d 8bf9 893d 5cfc a43d 8ed8 4bbd
00000080: cc55 40be 5052 4abc 4393 153d 56bd 1bbe
00000090: 8a14 3e3d 278b d93d 1dd5 cb3b 0682 b13d
000000a0: 7441 ff3d 5772 d73d bcc1 9bbd 2732 84bd
000000b0: 6ed2 c6bd 2c0f 0fbe 50bb 3eba 742d ef3b
000000c0: d88c 7e3d 7e41 af3d 4e6d 9cbd ba45 d4bc
000000d0: bc89 2b3d f824 adbd 3d53 723c 38ca 8dbd
000000e0: 7916 5b3c bb80 e33d a196 d9bd 866f 283e
000000f0: fd86 d83c d031 66bd 9d73 263d d91d ddbc
00000100: 7d0f 293c 680e 06bd 0a3b a73d 7d03 9cbd
00000110: cbf9 f4bd d142 d93d eb51 39bd 3470 acbd
00000120: 827c cd3c 48f2 b1bd 8167 eebc 8348 bfbd
00000130: 8b8c 0fbd 54f3 dabc 1de4 24be a77d 913d
00000140: 3be3 5a3d f01e 89bd a8ef b03d ab76 8ebc
00000150: 93fc b2bb b73b e63c c5e4 ca3c a311 b53d
00000160: 1274 ed3b 00f0 afbd 0874 053e 0d86 ed3d
00000170: 5c74 853d 7157 373d 5125 a3bc 906f c03d
00000180: 2768 813d 8bcd 1dbd 1dab cfbd 106e a73d
00000190: 3fe9 a43d 5d25 d13b 5185 973c c907 b93c
000001a0: 0fdc f43c 08e7 453d 1324 8f3d 2291 df3c
000001b0: 36f4 ffb9 3330 aabd 2c31 0abd f9fa 2c3c
000001c0: 0a87 1abe efc3 5abc 7825 87bc d4cc 6c3c
000001d0: 7c74 69bc 367f f8bb facc 1dbd ad8f 2f3c
000001e0: 16cd a23d 72d4 95bc 1e4c cdbd 9ec5 91bd
000001f0: fbfd 81bc 5896 c63b 05b5 c4bd bd0a dcbc
00000200: db0c d73c 1c27 bf3d b6f0 7fbd b76a c7bd
00000210: f15c 67bd 42fd 49bc b086 c2bc 7fda b7bd
00000220: 87a5 05bd 46eb 12bc d431 5bbd 824e 3d3d
00000230: 5f10 23bd b1a1 83bd c49d 24bd 87dd f6bc
00000240: 7b1d 01be ccfa b2bd 7732 febc ee97 863d
00000250: a88e a93d f499 723d 7d98 9dbd 2b01 b2bc
00000260: 3552 bc39 d195 0f3d 0794 b93c a7fc 1ebe
00000270: 91e6 053e 36db ad3d 8935 343d f3b0 ad3d
00000280: b4b3 8e3c e8c1 acbc fb29 3f3d dc7e 5c3c
00000290: 1331 6cbd cec1 81bd 5548 783c 88d9 b8bd
000002a0: 0a82 093d cf96 563d bdf1 2a3c da09 7abd
000002b0: 156c 9abc a2bd bd3d 90c0 913d 1864 d7bc
000002c0: abb3 06bd c718 a43d ae17 07be 0930 cdbd
000002d0: 006d 863d 9dc1 ce3d aa2f dabc d68f c2bd
000002e0: 4fae 553c 4378 383c 355d 573a c994 a53d
000002f0: 0093 c4bc ffca f5bc acb6 e53d 727b 393c
00000300: 847e fabc 3b03 673d 938c ccba e2ed ac3d
00000310: 479b 1c3d 718d c3bd 54d7 0dbd 8619 c63d
00000320: 9b74 583d 1f36 593d 560a fc3c 0499 fe3b
00000330: 5a9b 503d 907e 303d 3b3d b93d 94cc 133b
00000340: 7eee 34bd b093 75bd 47e1 b3bd 35b1 66bd
00000350: aefc 053c 6b5b 00bb 2961 6fbd af8f 543d
00000360: aa54 663d 3ffc b0bd 4d6a ddbb 2832 083d
00000370: e206 54bd 64c5 efbd 0056 323d aac3 b03c
00000380: 31d9 84bd 4706 aebd 5f74 5c3d 4ce9 c5bd
00000390: 1d3c 5a3a 5040 ad3d a245 883d a2b4 f4bc
000003a0: 1f71 30bd 2480 f53c e2a9 97bd 95df 83bd
000003b0: 040f 59bd d8a5 60bd d38b a53b 5b0f 593d
000003c0: cd63 3d3c 5dae bfbd 530d ca3c 7112 653d
000003d0: e5d3 263d 2722 f7bc e384 0fbd c5f7 abbd
000003e0: b23c 453c d16f 1a3d 0ee9 60bc de60 043d
000003f0: e1a2 a83c 69c0 89bc 3bcb 64bd f83a 10bd
0.108427264 -0.06580461 -0.025216725 0.0022984268 0.15141986 -0.030999517 0.060289405 0.070402525
-0.039095014 -0.101288155 -0.048299875 0.05886646 -0.15361626 -0.05776944 0.033055015 0.00020441142
0.0440203 0.059865557 -0.06512373 0.050414436 0.087786034 0.098146066 -0.21069583 -0.075415626
0.034056515 -0.15488738 -0.028914018 -0.14839602 0.085225314 0.0673705 0.08055946 -0.04976707
-0.18782729 -0.012348726 0.036517393 -0.15208945 0.046406306 0.10622244 0.0062204734 0.08667378
0.12463656 0.105198555 -0.07605311 -0.06454878 -0.09708105 -0.13970631 -0.00072758365 0.0072991196
0.062146038 0.085574135 -0.07638036 -0.025912154 0.0418794 -0.08454317 0.014790353 -0.06923336
0.013372057 0.11108538 -0.10624433 0.16448793 0.026431555 -0.05619985 0.0406376 -0.026991772
0.010318634 -0.032728583 0.08165558 -0.07617853 -0.11961707 0.10608447 -0.04524414 -0.084198385
0.025083784 -0.086887896 -0.029102089 -0.093400024 -0.03504614 -0.026727356 -0.16102643 0.071040444
0.05343936 -0.06695354 0.08639461 -0.01739057 -0.005462238 0.028104646 0.024767289 0.088412546
0.0072465027 -0.08590698 0.13032544 0.11597834 0.065163344 0.044761125 -0.019915255 0.09396279
0.063186936 -0.0385261 -0.10140059 0.0817529 0.08052301 0.006382628 0.018496187 0.02258672
0.029890088 0.04831603 0.069893025 0.027290884 -0.00048819341 -0.083099745 -0.0337383 0.010557883
-0.15090576 -0.013352378 -0.016497359 0.014453132 -0.014248963 -0.007583524 -0.03852556 0.010715407
0.07949273 -0.018289778 -0.10024284 -0.071177706 -0.015868178 0.006060403 -0.09604839 -0.02686059
0.026251247 0.093336314 -0.06248542 -0.09737151 -0.05648512 -0.012328448 -0.023745865 -0.08977222
-0.032628562 -0.008967226 -0.053514317 0.04621745 -0.039810535 -0.064273246 -0.04018952 -0.03013493
-0.12608902 -0.08739242 -0.031029923 0.06571947 0.08279163 0.059228852 -0.076951005 -0.021729073
0.00035919403 0.035054985 0.022653593 -0.15526067 0.13076235 0.08489077 0.043996368 0.08481016
0.017419674 -0.021088555 0.046670895 0.01345798 -0.05766399 -0.063357934 0.015153964 -0.09025866
0.03357128 0.052389916 0.010433611 -0.06104455 -0.018850366 0.09264685 0.071168065 -0.026292846
-0.03288619 0.080125384 -0.13192627 -0.100189276 0.06563759 0.100955226 -0.026634056 -0.09500091
0.013042047 0.011259141 0.0008215488 0.08085019 -0.023995876 -0.030004023 0.112164825 0.011320936
-0.030577905 0.056399565 -0.0015605859 0.0844381 0.03823402 -0.09548462 -0.03462918 0.09672837
0.05284558 0.05303013 0.030766647 0.0077697057 0.050929405 0.04308945 0.09044882 0.0022552358
-0.044172756 -0.0599553 -0.087832026 -0.05632134 0.008177919 -0.001958574 -0.05844227 0.05189484
0.056233086 -0.08641862 -0.006757057 0.033250958 -0.051764376 -0.11707571 0.043539047 0.021577675
-0.064867385 -0.08497291 0.053821918 -0.096636385 0.00083249976 0.08459532 0.066539064 -0.029871289
-0.04307663 0.029968329 -0.074054495 -0.06439129 -0.052992836 -0.05484566 0.0050520687 0.05299316
0.011559439 -0.09359429 0.024664557 0.05592579 0.040729422 -0.030167652 -0.03503884 -0.08396868
0.012038397 0.037704293 -0.01372744 0.032318942 0.02058548 -0.016815381 -0.05585788 -0.035212487

cond_trans.2.bias f4 [100]
00000000: b468 d73c d469 db3b fb74 dcbd 472b 51bd
00000010: 6ba9 d4bc f654 713d 328a 85bd f038 09bc
00000020: 6f63 92bd b7d9 aa3d 1261 95bd b03e c83d
00000030: c4dd febd 7c30 893d d223 333d e024 26bd
00000040: 405a 03be 872b 32bd 4a0e 783e c5b9 4e3d
00000050: a401 a2bd b5de 84bd 8de8 efbc 4a3b 1cbd
00000060: 5530 643b 7c5e a43d 2524 4dbd 38e3 5f3e
00000070: 3311 d93c 216b 4cbd 0300 7fbc 141a 873e
00000080: 2979 9fbd f721 32bb b68b a93c 3cb1 cebc
00000090: e1f5 813c 4cc4 7ebd cd81 083e 3874 2b3e
000000a0: bc4a 04be 6479 d7bd 4da0 bfbd ed46 01bd
000000b0: 2ac1 643b e7c5 2e3e 2a8d f7bd 32c6 7dbd
000000c0: 95ef 0dbd beb7 083d e463 a2bd 4ab1 a13d
000000d0: be9b dbbc c029 e0bd 40a4 97bd 4d37 3a3c
000000e0: e4f6 f13d 236d a4bd c5ff d9bd 4855 9fbb
000000f0: 14c2 be3d d14c 6fbd ba03 083e f03b 08bc
00000100: dffd c6bd 3b37 c9bd 0cea dcbd 1cce c3bd
00000110: 298a 303d 3a0b e4bd f424 e73a d103 c4bd
00000120: 48b8 8a3d 661b 12bd b49d 4d3d c5b3 42bd
00000130: 8bf4 85bd ec20 77bd f1b5 003e f968 db3d
00000140: d418 b6bd c335 9a3d 611b 093d b650 f1bc
00000150: b95c cf3d 9fc5 363d 0648 653d 049f 8dbd
00000160: eede b7bd 3826 87bd 6f47 cdbc bade 683d
00000170: 1cf2 3abc 1d18 e03c c206 09be 1e18 cebb
00000180: c0c8 f13b a97f 84bd 0a6b 583d 3ea1 4a3e
0.026295044 0.0066959653 -0.107645 -0.051066663 -0.025959691 0.058918916 -0.06520499 -0.008375391
-0.07147872 0.08342307 -0.07293905 0.09777582 -0.12444642 0.06698701 0.043735333 -0.04056251
-0.12827396 -0.043498542 0.24224201 0.050470132 -0.07910469 -0.064877905 -0.029285694 -0.03814248
0.0034818847 0.08025834 -0.0500833 0.21864021 0.026497459 -0.049906854 -0.015563968 0.26387084
-0.07786781 -0.002718089 0.020696502 -0.025230996 0.015864315 -0.062198922 0.13330765 0.16743553
-0.12919134 -0.105212 -0.09356747 -0.03156178 0.0034905174 0.17067681 -0.12087472 -0.061956592
-0.03465231 0.033378355 -0.07929209 0.07895143 -0.026807662 -0.10945463 -0.07404375 0.011365724
0.11814669 -0.08028629 -0.10644487 -0.0048624612 0.09314361 -0.058422867 0.13282672 -0.008315071
-0.09716391 -0.098249875 -0.107868284 -0.095607966 0.04310051 -0.11134954 0.0017634914 -0.095710404
0.0677343 -0.03567066 0.050199226 -0.047534723 -0.065407835 -0.06033413 0.12569405 0.10713381
-0.08891454 0.075297855 0.033473376 -0.029457431 0.10125107 0.04462206 0.05597689 -0.069150954
-0.08978067 -0.065990865 -0.025058476 0.056853034 -0.011410262 0.027355248 -0.13381484 -0.006289496
0.0073786676 -0.06469662 0.052836455 0.19788072

cond_trans.4.weight f4 [100, 100]
00000000: 22e3 253e 0001 893d b1e8 e5bc d6d9 a2bd
00000010: 379d b3bc cf7d 9a3d dc69 a03d 7670 cbbd
00000020: fc33 663d 9b3c 213e bc69 223d dbfc 10be
00000030: 9a7d 423c 9302 483e 8051 233e 1923 cdbd
00000040: 1ecd b93c c45b a53d 1fd9 99bb c09d 403e
00000050: 8556 9cbd 621a 0abd ef01 2ebe f467 743c
00000060: e214 633d 4e27 963d 27bc 2f3d 45b5 003d
00000070: 76db 803d e991 1a3c 9c64 843c 0162 7f3d
00000080: 0e5b 91bc ac50 253e a15c 753d 9738 57bd
00000090: 5a17 bc3d a898 863c b389 0dbe 342e efbc
000000a0: 1abe 793c 53fe f2bc a633 7abb 3c62 86bd
000000b0: e5e9 a9bd 130b 4a3c 4bd0 a53d c47a ba3c
000000c0: a9cc 3dbd 73ec c7bd c89c a1bd 75d0 cabd
000000d0: 981f e9bd 5f41 ad3d aed8 523d ef8f f7bd
000000e0: 90e2 c6bd ca48 83bd 05a4 a73d d817 8cbd
000000f0: bf4e 163e 075d 75bd 4c68 04be f6b1 163e
00000100: ff2f 3ebd a323 c9bd 5337 7f3b cbed 753d
00000110: 2bef 503e 22cb f1bc 9ef3 d33d 077c a2bd
00000120: dac0 fe3d 2813 2fbc 3964 0ebe 3ecc 72bd
00000130: 7855 8fbd 270d 853d 154b ba3c 8cb4 b6bd
00000140: e0e4 a13d a230 dcbd c60f 543d dad9 3cbd
00000150: 5c0e 20be a713 49bc 39de 59bd 6f83 803d
00000160: e118 5d3a 220c 6a3d 82f1 32bd 4937 dbbb
00000170: 84d4 9ebd 8bba 4fbe 62bb 96bd 7700 13bd
00000180: 2cb9 cd3a 5171 24bd dce2 733b 17b3 b23d
00000190: 83d7 01bd dccb c7bb 525d bebd 88d6 09bd
000001a0: 24cb 82bd e32a 58bd 34a6 84bd 7e7b d6bb
000001b0: 90d4 b6bc 7ec7 a5bc 9b71 8abd 1faa 6dbd
000001c0: 1b74 083d a8e2 8ebc e10d 1b3d 19cb 2dbd
000001d0: 13cf 6fbc 8577 963d aca1 833d 74b0 39bd
000001e0: 1762 6cbc b66e f03c a42a 383d cc5b e0bc
000001f0: 0f5c 10bd 2922 1cbd 7efc 76bd dadd e93d
00000200: eecd a93d 6790 e83c 73f3 9d3d 8a14 ea3d
00000210: 294c 16bd 7840 263b 60f3 063a da43 9c3d
00000220: e4fb 97bd 8152 593d 43f0 f93c 9354 653c
00000230: ce11 243d f4dc 4f3d 4272 ed3b 065e 423d
00000240: 1f74 0c3d d649 303c 9137 293c b420 c23d
00000250: 25a9 b1bd b73c bb3d e39f 3f3d edab d03d
00000260: ffaa 8bbd 28b6 363b ddd9 9a3d f892 9b3d
00000270: c773 543d d8b0 80bd 66a9 9d3d 26ef 563d
00000280: 485e 503d 66c1 91b9 e884 d23d bfbe e83c
00000290: 8e10 383d 27fe f73c 8e71 48bd 544c 06bc
000002a0: 6288 14bd 63e2 5f3d 3fd9 4dbd 2f88 21bd
000002b0: 09c8 85bb 3d69 863d d15c 5bbb 3d64 57bd
000002c0: 27e1 6e3d f93c 7b3b 2197 8f3c 8d40 d93d
000002d0: 41a6 143d df8f cc3b c0fd c7bc 0cd1 94bd
000002e0: d266 913d f4f5 2dbc bba3 933d b50d 733a
000002f0: 35b7 543d 9cbb 353d 3d20 a13d bf60 273d
00000300: 5283 00be 98fa c43d c3ae de3a 558a c83d
00000310: 6ba0 2dbd f74c 9cbd a94e 4bbd 93a9 f9bb
00000320: ca50 9a3d e528 34bb 8f19 dd3c b813 d73d
00000330: a5d6 8bbc b682 ea3d 50ba 3cbd 770f 103d
00000340: 8cfd 54bd 4fcc 523d 88df 513d 1e8d 55bd
00000350: bc15 62bd 5e87 d13b 51bb c13d 83d9 08bd
00000360: 6fb8 6cbd db7c 25bd 8153 dd37 64f6 1e3d
00000370: 9806 d63c fc12 123a f9c4 60bd acb1 7d3b
00000380: 3c84 5abd 0fab 583c 9b90 91bd 81b1 ef3c
00000390: dad1 853d 0d78 9b3d 9aa1 98bd d000 a53d
000003a0: 46a2 adbd 233d c23d 4b28 823d 86bc 203c
000003b0: b5d2 20bd 3a04 b53c 5f59 78bd e0bc 493d
000003c0: ecce 363d e694 3e3d d369 babd dbff 1bbd
000003d0: 0a13 ecbc 2dcf 1e3d bc18 de3b f2e3 85b8
000003e0: bacd b73d 9cad e23c 65f1 e63c fc8a 9f3d
000003f0: 4d6a a43c 4cb9 4cbd 9359 153d 502b a13c
0.16199926 0.06689644 -0.028065057 -0.07951705 -0.021925552 0.07543527 0.07832691 -0.099335596
0.05620192 0.15745775 0.039651617 -0.14158957 0.011870766 0.19532232 0.15949059 -0.1001646
0.022680815 0.080741435 -0.0046950723 0.18810177 -0.0763369 -0.033716567 -0.16992925 0.0149173625
0.055439837 0.073317155 0.042904045 0.031422872 0.06291859 0.009434202 0.016161256 0.062349323
-0.017743614 0.16144055 0.05990279 -0.052544203 0.091841415 0.016430214 -0.1382206 -0.029196836
0.015243078 -0.029662287 -0.0038177758 -0.065617055 -0.08296565 0.012331742 0.08096369 0.022763617
-0.046337757 -0.09761896 -0.07891232 -0.09903041 -0.11382979 0.08459734 0.051476173 -0.12088
-0.09711182 -0.06410368 0.08185581 -0.06840485 0.14678477 -0.05990317 -0.12930411 0.14716324
-0.04643249 -0.0982125 0.0038942888 0.06004123 0.20403735 -0.029515807 0.10349201 -0.079338126
0.12439127 -0.01068572 -0.1390542 -0.05927681 -0.06998724 0.06496649 0.02274088 -0.08921155
0.079049826 -0.107514635 0.051772855 -0.046106197 -0.15630478 -0.012272752 -0.053190444 0.06275069
0.0008434188 0.057140477 -0.04368735 -0.00668994 -0.07755378 -0.20286004 -0.07359959 -0.035889115
0.0015695444 -0.04014713 0.0037214076 0.08725565 -0.03169967 -0.0060973 -0.09295143 -0.03365186
-0.06386402 -0.052775275 -0.06477013 -0.006545483 -0.022318155 -0.020236727 -0.0675995 -0.05802357
0.03331385 -0.017442062 0.037855033 -0.042430017 -0.014636773 0.07347015 0.06427321 -0.045334294
-0.014427683 0.029349666 0.04496254 -0.027387522 -0.035244044 -0.038118515 -0.06029939 0.11419268
0.08291231 0.028389169 0.0771245 0.11429699 -0.036693726 0.0025368016 0.000514796 0.07630129
-0.07421091 0.053057197 0.030510074 0.013997215 0.040056042 0.050747827 0.0072462866 0.04745295
0.03429043 0.010759791 0.0103281895 0.09478894 -0.0867484 0.0914244 0.04678334 0.10189042
-0.06819724 0.002787957 0.075610854 0.075963914 0.051868226 -0.0628373 0.07698326 0.052474163
0.050871164 -0.00027800648 0.10279256 0.028411267 0.044937663 0.030272556 -0.04893642 -0.008196909
-0.036262877 0.05465926 -0.05025601 -0.039436515 -0.004082684 0.06563041 -0.003347207 -0.05258583
0.05832019 0.0038335903 0.017528119 0.10608015 0.036291365 0.0062427367 -0.02441299 -0.07266435
0.070996895 -0.010617722 0.072089635 0.0009271757 0.051932532 0.04436837 0.07867477 0.04086375
-0.12550095 0.096181095 0.0016989339 0.0979201 -0.042389315 -0.076318674 -0.049635563 -0.007619092
0.075349405 -0.0027490195 0.026989726 0.10501808 -0.017070124 0.114507124 -0.04607612 0.035171
-0.051999614 0.051464375 0.051238567 -0.052136533 -0.05519651 0.006394311 0.09459556 -0.03341056
-0.057793077 -0.040402275 2.6384138e-05 0.038809195 0.026126191 0.0005572287 -0.054875348 0.0038710637
-0.053348765 0.013224377 -0.071076594 0.029259445 0.06534167 0.07591257 -0.07452698 0.080567956
-0.08478217 0.09484317 0.063553415 0.0098105725 -0.039263446 0.022096742 -0.060632106 0.04925239
0.04463093 0.04652872 -0.091022156 -0.0380858 -0.028817672 0.038771797 0.006777851 -6.384392e-05
0.08974786 0.027670674 0.028191278 0.07790181 0.02007022 -0.0499814 0.036462378 0.019673973

cond_trans.4.bias f4 [100]
00000000: 48bf 8d3d 4479 093e 227b e73c c52a 033e
00000010: 2a11 a53b 4ac8 413e 556d a9bd ca7b 263e
00000020: 8695 f0bd f8ab d93d c4d4 833e c7b2 86bd
00000030: 4ccd 52bd a410 75bd 4650 0b3d 3383 c03d
00000040: 860c 943e 5c55 a63d ac23 7e3e 5c1f edbb
00000050: 6611 9abd 88f3 7c3d bec7 2d3e 6298 96bd
00000060: 34d5 1a3e aee6 d4bd bc0a c6bb 4fbf 6cbd
00000070: 272a 143b 8d67 083d 570c 503d ce9a 2e3e
00000080: 8f11 56bd a7f2 983e 9275 2b3e 47e4 12bd
00000090: 6807 e93c 3bca 2f3e f8f6 e13d 5dd0 543e
000000a0: f582 c3bc 6cfb 103e b922 f43d d47c e2bd
000000b0: 4ae1 e2bd 730a aebd 8d67 733d dcc9 ebbd
000000c0: e2af 263e 2a91 7f3e c491 363e f025 47bc
000000d0: a0b0 2abd 85e8 27bd d183 333e af36 703e
000000e0: 4dce 07be dcda 693e 57b1 4a3e 5744 3cbb
000000f0: c029 dcbc 8f1f 633c 16fb b8bd ccb3 d73d
00000100: d96d 513e ae3a 273e e695 273e 04e2 f5bc
00000110: d682 e53d 0ee9 17bd 15d0 cebb bf5e 133e
00000120: 0d7d b0bd 79b2 3bbd aef2 3b3e 8219 c1bd
00000130: 90b9 83bd 218a bcbc 0297 7ebd 9c67 9d3d
00000140: aa0b 7cbd 0219 673d 0d81 d33b e493 5e3d
00000150: db78 c2bd 193e 4a3d 23d7 cbbd c9aa 51bd
00000160: c5d6 1d3e 2f89 bf3d f6bf 9fbd e415 bcbd
00000170: e123 d3bd cd2f 53bd 5f7f bb3d 6022 fb3d
00000180: a110 293e 830e 3d3e f592 743e 0f55 2b3e
0.0692125 0.13425165 0.028256956 0.12809284 0.0050374465 0.1892406 -0.082728066 0.1625816
-0.11747269 0.106285036 0.25748265 -0.06577068 -0.051465318 -0.059830323 0.0340121 0.09400024
0.28915805 0.0812175 0.24818295 -0.0072364043 -0.0752285 0.061755687 0.16970727 -0.073532835
0.15120393 -0.10395561 -0.00604376 -0.057799634 0.0022608133 0.03330188 0.05079302 0.17051241
-0.05226284 0.2987263 0.16744068 -0.035862233 0.028445914 0.17166989 0.11033434 0.2078261
-0.023866156 0.1415841 0.11920685 -0.11058965 -0.11078127 -0.08498087 0.059424926 -0.11513111
0.16278031 0.2495772 0.17829043 -0.012155041 -0.04167235 -0.040993232 0.17530753 0.2345836
-0.13262291 0.22837394 0.19794212 -0.0028727257 -0.026875377 0.013862505 -0.09032266 0.105323404
0.2045206 0.16330978 0.16365775 -0.030015 0.112065956 -0.037087493 -0.0063114264 0.14391612
-0.086176015 -0.0458245 0.18354294 -0.09428693 -0.064318776 -0.023015084 -0.06215573 0.076857775
-0.06153456 0.056420334 0.006454593 0.05434026 -0.094957076 0.049375627 -0.099531434 -0.051188264
0.1541396 0.093523376 -0.078002855 -0.09183863 -0.10309578 -0.05155926 0.091551535 0.12262416
0.1651025 0.18462567 0.23884185 0.16731666

p_u.weight f4 [120, 100]
00000000: 0a06 613e e3fc 08bd 0375 a8bc ea36 6ebd
00000010: efbd 533d ab78 94bd 1366 d3bc ee40 0ebe
00000020: a70d 563c 90ef 2abe 8b49 13bd 511b 8b3d
00000030: fa64 d6bd cf30 ddbc 5bb8 80be 82f7 44be
00000040: 2218 4bbd 42dd 1d3e 99fa 2fbd 52ed d0bd
00000050: 4b2e c03d 4129 123d 36a4 9c3c 3be0 bebd
00000060: dda7 243c 9928 31bc 2427 e9bc 5b2e 1f3e
00000070: bd8c 673d 875d 83bd cc2e 8c3e 276e 5a3a
00000080: c60c 15bc 2025 cebd 7d56 abbd 6582 11bd
00000090: 5710 d4bd 146b c1bd 7d66 10be f5f1 02be
000000a0: 9b8e 5ebd 0283 8fbd a7b0 8abe 531a 083d
000000b0: eb50 a73c d2f8 c4bd 0213 a0bd 3669 00bd
000000c0: 7589 663d bae2 bbbb 2660 d9bd 1e0f 96bc
000000d0: 7125 84bc 19df 903c 9067 aebd aaf1 1ebd
000000e0: 864d 7cbd a805 ec3c bb4e 77bd f908 203d
000000f0: 6bf4 97bd 3815 8a3d 8f7a f7bb 2dfa 48bc
00000100: 7933 d2bc 73a9 8fbb 1d90 63bd 504c e53d
00000110: d555 07be c7aa 1ebe 6e78 d93d ee7b c5bb
00000120: 1a9b 37bc de50 0abe 25ab 3fbe 9f79 813d
00000130: 23a5 063d cca2 32bd 8e22 a93c 78ac 08bd
00000140: 0464 cbbd f7a7 cebe 96b3 033d 2c7b e9bd
00000150: 0269 89bd a650 523d 0a2f 83bd fbd0 19bd
00000160: f00a 303b e2a9 8ebd 02ba f83d eae4 d4bd
00000170: cfb4 04be 84a9 52bc 1aa4 113e ea48 993c
00000180: 7aeb 0cbe abb3 fc3a bac2 debd 09b0 72bd
00000190: ca4a b73d b51a c1bc de59 963d efe6 e8bc
000001a0: d608 2cba 7397 173b 0b13 89bc 6eb0 b1bd
000001b0: 27f4 63bd 27cb 06be 7ab0 f6bd 9efc ec3d
000001c0: 615e 8bbc 11af ac3d 2517 963d 3373 313d
000001d0: 59d2 e5bc 8181 5e3c 9845 5d3d aa44 343e
000001e0: f919 843c 6bd4 fe3d 20a7 1cbd 4b78 043c
000001f0: 4ddb a13d c10f 733d 4568 9ebd dcae bbbc
00000200: 1cfe cbbd c9e6 333c 48be 813e 9abf 82bd
00000210: 1035 88bd b7bb d6bd 9464 d7bd a873 f03b
00000220: 5e24 c03d 4d2d d13d 4cec a23d c765 75bd
00000230: 1635 663d 887d 7c3d 270d b0bc 5f99 213d
00000240: 0680 813d 3d5c 90bd 3da5 66bd 229f cb3d
00000250: 6813 6a3d 35cc b9bd e28f 8e3d 9af7 bab9
00000260: 3ba7 853d 67fe 3ebd 5527 073d 9dc6 b4bd
00000270: 2635 49bc aa54 86bd 17ca 7e3d 2fa5 af3d
00000280: eb87 a33d 164c 98bd de42 10bd 4a4a 073e
00000290: 20bb 843d f32d 1cbc dadf ac3d 47e9 e63d
000002a0: e342 61bd 0918 01be 7138 663d 02d1 dd3c
000002b0: fa52 cfbc d76a d33c 1678 35bd d4e8 c0bc
000002c0: 2762 59bc a944 0f3d 7745 833d 92a5 94bd
000002d0: 70f7 0bbd 401c 37be 2c4b 6dbd c9db 78ba
000002e0: cd47 b73c 4849 b2bc 9a70 363b a34a 9abd
000002f0: de29 a53d 10ce 073e 7ef2 5d3d ebf0 29bd
00000300: 75e2 b5bc 1b73 e9bd d3f6 573d 1374 603d
00000310: eec3 7abc bc8f 54bd 798f 57bd 3ece 6cbd
00000320: 3f45 07be f713 7cbc f73d 8e3d 807b b23c
00000330: 9ec6 60bd 1f34 e83b 0e8a 38bc 3311 013e
00000340: a1c9 453c 448b c73e 5e54 7f3e da77 be3d
00000350: 2b55 fbbc 8ce4 41bc 61bd 773e a7be 343e
00000360: fbc6 e03b 55eb 11be 9cc3 a7bd 4cc2 a23d
00000370: 76b7 963d 61f2 84bd 2d99 483e fa0a 75bb
00000380: 58d3 75bd 1e47 643d 36bf 94bd 77d0 9cbc
00000390: b98d b63d 1986 7f3d 4045 74be fef8 443e
000003a0: 7043 893d 464f 083e 9aad 3e3e b54b 873d
000003b0: 2e58 403d 2d32 083e 90a4 013e d75d 173e
000003c0: 088a b8bc c303 833d 0c0d 8b3e 0081 35bd
000003d0: f7df 69bd cb9f b23d b43f 2b3d a6e4 9abd
000003e0: dd4e f83c 2c3d a3bd 7151 1f3e b9fb 5fbd
000003f0: 19fd a83c 4ace e2ba db4d 293e e05c c33c
0.2197496 -0.033444297 -0.020563608 -0.05815784 0.051694807 -0.07249578 -0.025805509 -0.13891956
0.013064778 -0.16692948 -0.035958808 0.067923196 -0.104684785 -0.027000813 -0.25140652 -0.19235042
-0.04958356 0.15416434 -0.042963598 -0.10201515 0.0938383 0.035683874 0.01912127 -0.09320112
0.010049787 -0.010812902 -0.028461047 0.15545027 0.056530703 -0.06414323 0.27379453 0.0008332454
-0.009097284 -0.10065675 -0.08366106 -0.035524745 -0.10354679 -0.09444252 -0.14101596 -0.12787612
-0.054335218 -0.0700741 -0.270879 0.03322823 0.020424327 -0.09617771 -0.078161255 -0.031350337
0.056283433 -0.005733815 -0.10614042 -0.018317755 -0.016131135 0.017684506 -0.08515847 -0.038804688
-0.06159737 0.02881129 -0.060377818 0.039071057 -0.07419666 0.067423284 -0.007552452 -0.012266678
-0.02565931 -0.0043842136 -0.05555736 0.11196196 -0.13216336 -0.15494834 0.10618673 -0.0060267365
-0.011206413 -0.13507411 -0.1871763 0.063220255 0.03287233 -0.043612286 0.02064636 -0.033367604
-0.09931186 -0.40362522 0.03215369 -0.11400446 -0.06709482 0.051346444 -0.06405456 -0.037552815
0.0026861988 -0.06965996 0.12144853 -0.103952244 -0.12959598 -0.0128577985 0.14222756 0.018711526
-0.13761702 0.001927962 -0.10876985 -0.05924991 0.08949812 -0.023572305 0.073413596 -0.02843043
-0.0006562596 0.0023131042 -0.016732713 -0.086762294 -0.055652764 -0.13163434 -0.12045379 0.115716204
-0.017012777 0.08431829 0.07328633 0.043322753 -0.028054403 0.013580681 0.054021448 0.17604318
0.016125666 0.12442859 -0.03824532 0.008085321 0.079031564 0.059341196 -0.077347316 -0.022910528
-0.09960577 0.010980316 0.25340486 -0.06384201 -0.06650746 -0.104850225 -0.10517231 0.007338006
0.093819365 0.102137186 0.07955226 -0.059911516 0.05620297 0.061643153 -0.021490647 0.039452907
0.06323247 -0.07048843 -0.056309927 0.099424616 0.057147413 -0.090721525 0.06961037 -0.00035661162
0.06526037 -0.046629336 0.032996494 -0.08826945 -0.012280738 -0.06559117 0.062204447 0.08576428
0.07984909 -0.07436387 -0.03522002 0.13211933 0.06481004 -0.0095324395 0.08441134 0.11274963
-0.05499543 -0.12606825 0.05620617 0.027077202 -0.025308121 0.025807781 -0.044303976 -0.023548521
-0.01326803 0.03497759 0.06409734 -0.072581425 -0.03417152 -0.1788187 -0.057933018 -0.00094932
0.022373104 -0.021763459 0.0027838112 -0.07533767 0.08064626 0.132622 0.054186337 -0.041489523
-0.02220271 -0.11398908 0.052725624 0.054798197 -0.015305502 -0.05189489 -0.05262706 -0.057813875
-0.13210009 -0.015385619 0.069454126 0.021787405 -0.054876916 0.0070862914 -0.011263384 0.12604217
0.012071998 0.3897344 0.24934527 0.093002036 -0.03068026 -0.011834275 0.24193336 0.17650853
0.006859658 -0.14249928 -0.081916064 0.079472154 0.07359211 -0.064915426 0.19589682 -0.0037390576
-0.060016006 0.055731885 -0.07263033 -0.019142373 0.0891375 0.062383745 -0.23854542 0.19235608
0.06702316 0.1331149 0.18620911 0.06606237 0.046959095 0.1330039 0.12660432 0.14781891
-0.022526756 0.06397202 0.2715839 -0.044312477 -0.057098355 0.08721884 0.0418088 -0.075631425
0.030311042 -0.07970652 0.15558411 -0.05468342 0.020628499 -0.001730391 0.16533606 0.023847997

p_u.bias f4 [120]
00000000: 8bc4 033d dd96 6b3c 0fab eabc 3eab 77bd
00000010: 6199 873d 8a9c 92bc 1f7e 66bd 5387 4ebd
00000020: 0750 a03d b2b0 ad3d 0e09 af3c 7b0b ab3d
00000030: a477 333d 0eaa febb df81 24bd 2168 5ebd
00000040: 8533 fe3c 05c0 c6bd c860 af3d 80c2 b0bb
00000050: 20db debd 3e30 553d eace 4abd 32ad 08be
00000060: 945a 6f3c c353 123d e805 503c f1a6 58bd
00000070: 2bde d2ba bb62 c73c 261a 0e3c 5d5f 9ebb
00000080: 88df 2dbd 2a70 3f3d e8f8 b1bd 7c01 c8bc
00000090: ac76 ae3d ebf8 02bd e80c ca3d b8f9 5bbd
000000a0: 285a bb3c 87b9 423d 7b95 e03d 9fc5 d3bd
000000b0: 3561 22bd 5a00 10be 64c8 f13b 3603 c7bd
000000c0: d10c 3bbd 2944 50bd 1476 f13d 1556 42bd
000000d0: c8f7 2f3d 32a2 b43d 6ca8 aa3d 20e1 aebc
000000e0: 514a 0d3e 3216 6bbc e299 d1bd fd86 c3bd
000000f0: f2a2 62be 80e1 27be 838b 18be 357c 54be
00000100: 6002 84bd 4985 09be f834 dfbd 02b7 bbbc
00000110: d471 80bd 446d 43be 4cc8 43be d224 6abc
00000120: 69c3 b3bd 0326 40be 649c 29be e099 ccbd
00000130: f76f 49be 8787 c0bd be16 4bbe 2822 fdbd
00000140: cd2d bfbd 5527 63be 1539 88bd 6fd8 5bbe
00000150: eb7c b0bd 9fde 5ebe 64c9 9bbc 155a 34be
00000160: 0f4a 49be 3887 31bd 91f5 40be 0c92 45be
00000170: 4a4e 63bd 8ea8 43be 8127 57be 1833 4dbe
00000180: d00e 23be 753b 07be 3aa5 2abe faca e7bd
00000190: cf74 ebbd 588d e3bd 995d 3bbe a40b 74be
000001a0: b28b b0bc 09c9 47be 8aee 6dbd 1c24 0ebe
000001b0: e842 79bd eca4 09be 36a4 33bd 572a 19be
000001c0: 0d9e 2fbe 17fd 19be fbc3 e3bd 1226 fbbd
000001d0: 837b a3bd 32bf 6cbe b7ff 7cbd 8ebe 87bd
0.03216986 0.01437923 -0.02864602 -0.060466044 0.066210516 -0.01789691 -0.056272622 -0.050422024
0.07827764 0.084809676 0.021366622 0.08351799 0.04381527 -0.007771737 -0.040162917 -0.054298524
0.031030426 -0.097045936 0.085633814 -0.00539428 -0.108816385 0.05204796 -0.049513735 -0.13347319
0.014608998 0.035724413 0.012696721 -0.052893583 -0.001608794 0.02433907 0.008673226 -0.0048331455
-0.042449504 0.046737827 -0.08690053 -0.02441477 0.085187286 -0.031975668 0.09865743 -0.053704947
0.022870138 0.047540214 0.10966011 -0.103404276 -0.039643485 -0.14062634 0.0073786248 -0.09717409
-0.04566652 -0.050846253 0.117901 -0.047445375 0.042960912 0.08819999 0.08332905 -0.021347582
0.1379788 -0.0143485535 -0.10234429 -0.09547231 -0.22132471 -0.16394615 -0.1489697 -0.20750506
-0.064457655 -0.1342975 -0.10898775 -0.022914413 -0.06271711 -0.1908465 -0.19119376 -0.014291005
-0.08777506 -0.187645 -0.16563565 -0.09990287 -0.19671617 -0.0940085 -0.19832894 -0.123600304
-0.09334908 -0.22182973 -0.066515125 -0.21469282 -0.08617576 -0.2176461 -0.019016929 -0.17612489
-0.19657157 -0.043341845 -0.18843676 -0.19293994 -0.055494584 -0.19107267 -0.21011163 -0.20039022
-0.1592362 -0.13206275 -0.16664591 -0.113180116 -0.11496889 -0.111109436 -0.18297423 -0.23832566
-0.021550987 -0.19510283 -0.058088817 -0.13880962 -0.060854822 -0.13441819 -0.043857776 -0.14957558
-0.17150135 -0.15037952 -0.11121365 -0.12263121 -0.07982542 -0.2311981 -0.061767306 -0.06628142

q_z.weight f4 [120, 100]
00000000: 4206 253d 943d 4c3d 13ee a7bc 717a 613c
00000010: fab0 86bd 327d 5f3d e47b 963d 55b7 a53d
00000020: c960 243c 8c30 5e3d cb01 a13c 5f18 9ebd
00000030: 9eee ef3c 0599 7c3c 48d9 85bc 7dc5 aabb
00000040: 7001 a0bc 0b15 263c f08e 303d cb9d 20be
00000050: ce1a 193d d876 0dbe ffe2 25bb e5f9 953c
00000060: 047a 3c3d b9e7 80bd 4579 673d 8714 2f3d
00000070: 08fa 433d 3d77 b2bd 0aa7 283d 95c7 583d
00000080: d4c6 dfbc 092f 12bd b01a adbc 7c19 c4bd
00000090: 69b6 443d 2a29 213d 9889 443c 25a0 243b
000000a0: 23d1 04be 7c29 b33d 4f8b a03d c5b5 973d
000000b0: 48ff dcbd b045 cbbd 15ce d4bd f9cd f33d
000000c0: aa4a 443d b09f a63c 3884 893c 95d9 a33d
000000d0: f563 c7bd 05f3 bb3d 1674 843d fddc b03c
000000e0: 0b01 b0bc f2de 053b 2aa3 3e3d 6f18 b0bd
000000f0: 50b2 223d e3e0 6ebd 9cc5 aebd 4452 9e3b
00000100: 9618 dfbc 8610 b9bd e9ed b2bd dd73 533d
00000110: ecb0 833d 7205 04bd 8a95 bbbd b758 98bc
00000120: a789 153d 8029 31bd 7889 84bd 76f1 efbc
00000130: 8d95 11bc 063a a8bc 12d5 72bb 6019 a0bd
00000140: 7a88 50bd 67b6 6cbc 4bb2 983b b4cb 3d3d
00000150: a1be 1d3d 417f 453d 6346 85bd 644b 893d
00000160: f159 433c 3017 59bd bb78 063d 3575 0ebd
00000170: 7307 6a3c 92ee cebd db63 5cbc 2512 c0bc
00000180: 52d7 d23b b136 1c3c ee7a 903d fb39 43bd
00000190: 6ba5 433d bf8c 573d 9dac b63d 7a2a 813b
000001a0: 4ea3 40bd f92e 4bbd 1e98 7bba 00a7 fc3d
000001b0: 9b73 6ebb 9eec aa3d 3d2f 373d eedc 923d
000001c0: 2965 fc3c 5460 5bbd 9331 ce3d f168 20bd
000001d0: 27dd 0e3c 9812 553d 2c5a cf3d cab7 8cbb
000001e0: 8248 153c d88f b63d add7 523d d702 c73d
000001f0: b7ea 31ba 5b4f 4dbc 66ec bbbd d557 0ebc
00000200: 6b4e 74bc 7ac8 89bd a121 5dbd 5f5f dc3d
00000210: 21c9 ba3c 395a a1bd 4acd 45bd c96f 7cbb
00000220: ce5f a6bd d65a 363c 2786 8c3d 4329 c23c
00000230: baed adbc 5af2 88bd bb84 dc3b 9723 6ebd
00000240: 97be 863d 70c5 be3d 2b36 a5bb 11d4 b53d
00000250: 74c1 60bd 042e 463c 74f9 b2bd 10a5 9d3c
00000260: 9ecf 233c 06d5 00bd 3e15 823d 8a88 ccbd
00000270: 7cd3 b8bc 5644 a73d a79e 88bd f8e6 9bbd
00000280: 032b 2e3d 972b 3abd c7f8 7b3c 439b 743d
00000290: 5ef5 913c 7a33 ce3a e61d bdbb 7017 383d
000002a0: 5cc0 ca3d 7128 4a3d b831 ba3d e157 f53b
000002b0: 67d5 363d 8db7 be3c 03b7 c23c c504 5f3d
000002c0: 6f8f a1bd c942 a13d 7137 ff39 557b ff3b
000002d0: cdd1 a13c ec7d dcbd 77e3 adbd 6a21 76bc
000002e0: f2b7 a13d 3a0f 5c38 336c e9bb 530c db3c
000002f0: a2cb 193d 35cc 363c 16ee 0e3d 3d5e 0fbd
00000300: 389e 6ebc c3db a53c 4cce d23c 598e 593d
00000310: 9c30 f6bc fec5 44bc d1ed 8ebd f206 253d
00000320: 27cf 17bc 600d 743d f47e 1fbd 1325 04bd
00000330: 6218 56bd b637 cf3c bf51 28bd 5c3e 983c
00000340: e6e7 283d 89e0 97bd 0569 d8bc 6c36 8b3c
00000350: c5ae e5bd e1bd 49bd 1c3b 603d ac6d 953c
00000360: 9ec0 153d 1a46 5cbd df02 40bc 1aba bc3d
00000370: 9eac e4bb 8f2b 7b3d b0bb 533d 8b9b 80bd
00000380: 8c89 a13d f0ef ba3c 9097 9f3d ee37 993a
00000390: c817 fcbc 2e2e 97bc e496 893d 2554 a63d
000003a0: 5ba0 f7ba 53fe 33bc d7a5 dd3b c01f ba3c
000003b0: 2c2c b3bd 8754 473a d6a9 913d 32be 6e3a
000003c0: 3a23 923d eb5c 3fbd e9e7 2dbc 5917 79bc
000003d0: 987b 733c 27bd 5cbc 1c9e 003c 9420 c33c
000003e0: 9dc5 96bd f44a 0b3c e79f a73d 46ca b23d
000003f0: 7d07 9bbd 950e 713d 2946 94bd 129f 2dbd
0.04028917 0.049863413 -0.020499265 0.013762102 -0.06576724 0.054562755 0.07347849 0.080916084
0.010032841 0.054245517 0.019654175 -0.07719492 0.029288586 0.015417342 -0.01633896 -0.0052115307
-0.019531935 0.010136853 0.043105066 -0.15685193 0.03737908 -0.13814867 -0.0025312302 0.018307636
0.0460148 -0.062941976 0.056512136 0.042744186 0.04784587 -0.08714149 0.041174926 0.05292471
-0.027316488 -0.035689387 -0.02113089 -0.09575173 0.048025522 0.039345898 0.0119956955 0.0025119868
-0.12970404 0.08748147 0.07839071 0.07407717 -0.107908785 -0.09925401 -0.103908695 0.119045205
0.047922768 0.020339817 0.01678668 0.08000485 -0.09735862 0.09177212 0.06467454 0.02158975
-0.021484872 0.0020427075 0.046542324 -0.0859841 0.039720833 -0.058319937 -0.08533785 0.004831584
-0.027233403 -0.09036355 -0.08736784 0.051624168 0.064302295 -0.032231756 -0.09159382 -0.01859699
0.03650823 -0.043252468 -0.064715326 -0.029289942 -0.008885753 -0.02053548 -0.003705327 -0.0781734
-0.050911404 -0.014447785 0.004659926 0.046336845 0.038511876 0.048217062 -0.06507566 0.06703833
0.011923299 -0.05300063 0.03282998 -0.034779746 0.014284003 -0.101040974 -0.013451542 -0.023446152
0.0064343596 0.009534524 0.07054697 -0.047662716 0.047765177 0.05262446 0.08919642 0.003941831
-0.04703074 -0.049605343 -0.00095975574 0.1233654 -0.0036384824 0.083459124 0.044722784 0.07171045
0.030809956 -0.053558663 0.10068049 -0.03916258 0.008719719 0.052019686 0.10124621 -0.0042943703
0.0091115255 0.08914155 0.051475216 0.097173385 -0.00067869894 -0.012531127 -0.09175949 -0.008687933
-0.014911274 -0.06727691 -0.05398715 0.10760378 0.022800984 -0.07878537 -0.048291482 -0.0038518778
-0.08123742 0.011130055 0.06861525 0.023701316 -0.02123152 -0.0668685 0.00672969 -0.05813941
0.06579321 0.09315002 -0.0050418577 0.08878339 -0.05487199 0.012095932 -0.08738986 0.019243747
0.00999823 -0.031453155 0.06351708 -0.0998698 -0.022561781 0.08167331 -0.066708855 -0.07612413
0.042521488 -0.045451727 0.015379137 0.05971838 0.017817196 0.0015731894 -0.0057713864 0.044944227
0.09899971 0.049354974 0.09091514 0.0074872826 0.04463711 0.023280883 0.023768907 0.054447908
-0.07888686 0.078740664 0.00048678697 0.0077966847 0.019753361 -0.10766205 -0.08490651 -0.015022615
0.07896413 5.246627e-05 -0.007123494 0.026739275 0.037547715 0.011157085 0.034895025 -0.035001982
-0.0145640895 0.020246392 0.025733136 0.05311427 -0.030052476 -0.012010096 -0.06978954 0.040289827
-0.009265698 0.059583068 -0.03893943 -0.03226192 -0.052269347 0.02529512 -0.041093584 0.018584423
0.04123678 -0.074158736 -0.026417265 0.016993724 -0.11214975 -0.04925335 0.05474387 0.018240772
0.036560647 -0.05377779 -0.0117194345 0.092151836 -0.0069785854 0.061320838 0.051692665 -0.062796675
0.07887563 0.02281949 0.0779258 0.0011689642 -0.030773059 -0.018454637 0.06718233 0.08121518
-0.0018892394 -0.010985929 0.0067641544 0.022720218 -0.087486595 0.0007603843 0.07112472 0.0009107321
0.07135625 -0.046719473 -0.010614374 -0.01520332 0.01486101 -0.013472832 0.007850196 0.023819245
-0.073619105 0.008501757 0.08184796 0.08729987 -0.07569788 0.058851797 -0.072399445 -0.04238803

q_z.bias f4 [120]
00000000: 42bc 063e 4c3a 7fbd abf9 f13b 0c7d 563d
00000010: 6081 68bd dae3 023d 1634 8ebd a3c4 be3d
00000020: 01bd ee3d 11eb 913d b286 90bc 8fd3 983d
00000030: dcef 973d bf4f 013c bf38 5dbd 8508 b6bd
00000040: 3c94 62bd 7a49 5e3d b7a6 7eba 4d1c e7bc
00000050: 3b40 19bd 68d5 aa3d 4751 1d3d 97b7 dfbd
00000060: e6bd 5abd e3a1 2a3d fbe0 a2bc 8485 673d
00000070: 8a76 013d b250 30bd 3961 39bd c4e9 423c
00000080: 054f 7cbd 3947 5a3d 930e df3c b49c 2abd
00000090: 4991 113c 75ac b83a 5907 803d f765 7c3c
000000a0: 1e83 2abd 1c7a eabd a7b7 a037 bac8 1cbd
000000b0: 7c15 003d 2b05 29bd 5711 64bd 5c11 783d
000000c0: 2889 86bc f7fa 9e3d ba97 2bbd bb00 a8bb
000000d0: af69 f4bc e53c 1d3d 56da 7d3d 251c ac3c
000000e0: f229 423d 9187 71bd 07bf 083c f2ba 4abd
000000f0: fe7c bbbc 91a1 a83c 5dab fd3c 00f4 5abd
00000100: 92f2 4dbd 0f7b 05bd b0ab adbd ff9e 1dbd
00000110: ba3d f6bd ca90 2dbd b651 9dbd b306 0fbd
00000120: 81dc 04bd be02 bfbd 1005 443d 5c44 3fbd
00000130: b0cb b8bd 1027 cfbd bdea d7bd 4b10 763a
00000140: 169b 0dbd 06dc fb3c 6512 b6bd e2c2 90bd
00000150: 888a 7e3c 36db d0bc 816c b9bd 1ebe d63a
00000160: cbb1 08bd c930 c1bd 26df 493d 48ed e7bd
00000170: a188 e2bd 47c7 36bd 3b30 2fbd 87ab babb
00000180: 42f6 273b df6e c2bc 61f1 ee3c 21c4 94bd
00000190: 1e51 a5bd 51ca eebd 2071 33bd d53d 17bd
000001a0: 539a b5bd 5e38 6dbd 4da2 54bd df75 10be
000001b0: a4c8 8dbd 5e90 4dbc 6713 0ebc 4101 cebd
000001c0: 1125 893c 4c03 6fbc 2423 a1bc 0bd1 73bc
000001d0: 4acb 00be 5ba0 1abd 9746 2dbd c65f 3dbc
0.13157752 -0.062311456 0.007384499 0.052365348 -0.056764007 0.031955577 -0.06943528 0.09314849
0.116571434 0.071249135 -0.017642353 0.074622266 0.074187964 0.007892548 -0.054009195 -0.08888344
-0.05531715 0.05426929 -0.00097141735 -0.028211737 -0.03741477 0.08341485 0.03840759 -0.10923689
-0.053403758 0.041658293 -0.01988267 0.056523815 0.03160719 -0.043045707 -0.045258734 0.011896554
-0.061598796 0.05329058 0.02722863 -0.04165335 0.008884736 0.0014089482 0.062514015 0.01540517
-0.04162895 -0.11449072 1.9159006e-05 -0.038277365 0.03127049 -0.041264694 -0.0556806 0.06056343
-0.016422823 0.077627115 -0.041892745 -0.00512704 -0.02983555 0.03838815 0.0619758 0.021009514
0.047403283 -0.058967177 0.008346326 -0.04949469 -0.02288675 0.020584853 0.030965501 -0.053455353
-0.05028016 -0.03258806 -0.084800124 -0.03848171 -0.12023492 -0.04237441 -0.07681601 -0.0349185
-0.03243685 -0.09326695 0.04785639 -0.046696052 -0.09023225 -0.101148725 -0.1054282 0.0009386583
-0.03457173 0.030744564 -0.08890227 -0.07068421 0.015535958 -0.025495153 -0.090538986 0.0016383564
-0.03337268 -0.09433133 0.049285077 -0.11324555 -0.11061216 -0.04462364 -0.042770606 -0.005696717
0.0025628959 -0.023734508 0.029167833 -0.07263971 -0.080721125 -0.116596825 -0.043809056 -0.036924202
-0.08867326 -0.057915084 -0.051912595 -0.14107464 -0.06923035 -0.012546627 -0.008671618 -0.10058833
0.016741307 -0.014588188 -0.019670077 -0.014881383 -0.12577549 -0.037750583 -0.042303648 -0.011558479
