hosp_models/deploy_week_44_20/seq_enc.pt (torch, 46379 bytes, 4 tensors)

gru.weight_ih_l0 f4 [180, 1]
0	0xbdb5a01e	-0.088684306
1	0x3dba0e37	0.090847425
2	0x3de4f9c3	0.11180451
3	0x3dcab15c	0.0989711
4	0x3daa7e18	0.08324832
5	0x3dbcc6c5	0.092176
6	0xbe154723	-0.14577918
7	0x3bdea04c	0.006794011
8	0xbc7a9669	-0.01529465
9	0x3d1d5a17	0.038415994
10	0x3dfd8126	0.12378149
11	0xbd6fd2af	-0.058550533
12	0xbd725f87	-0.059173133
13	0xbe0e4783	-0.13894467
14	0xbdd54ba5	-0.10414819
15	0xbe03471d	-0.12820096
16	0x3dad963a	0.08475919
17	0x3d5cff78	0.05395457
18	0x3e069925	0.13144358
19	0x3db45a06	0.08806233
20	0x3d87441d	0.066047885
21	0x3d2b40c9	0.04180983
22	0x3c0e6a22	0.008692296
23	0xbcd6fa7f	-0.026242493
24	0x3d35574f	0.044272717
25	0x3e0ee73b	0.13955395
26	0x3d6dc366	0.058047675
27	0xbe00cce6	-0.12578163
28	0xbe3b9ad7	-0.18320785
29	0xbd20bbaf	-0.03924149
30	0x3e6f17cf	0.23348926
31	0x3d715ebb	0.058928233
32	0xbd847356	-0.06467311
33	0xbd6bb158	-0.057542175
34	0x3e182be8	0.14860499
35	0x3e3ffa47	0.18747817
36	0xbdfdfd4a	-0.12401827
37	0xbe1dc972	-0.15408877
38	0x3e02283a	0.12710658
39	0x3df49562	0.11942555
40	0x3df41ecf	0.11919939
41	0xbdfc2755	-0.123121895
42	0x3e60ef9b	0.21966402
43	0xbe56c580	-0.20973778
44	0xbcf233c9	-0.029565709
45	0xbdc7e98b	-0.09761342
46	0xbcf62a3e	-0.03004944
47	0x3de722e7	0.11285954
48	0x3e46ac0b	0.19401567
49	0xbe4da0f3	-0.20080929
50	0xbdc727fa	-0.09724422
51	0xbdf23696	-0.11826818
52	0xbcf9a315	-0.030473271
53	0x3dc6eb7e	0.09712885
54	0xbcac72fe	-0.021050926
55	0xbd8e74a0	-0.06955838
56	0x3d7a6378	0.061130017
57	0xbce1caab	-0.02756246
58	0xbe102287	-0.14075671
59	0x3d9db6b9	0.07700867
60	0x3de73117	0.1128866
61	0x3cf86fe0	0.030326784
62	0xbe1109d3	-0.14163904
63	0x3dd2773f	0.10276651
64	0x3d01f90c	0.03173165
65	0xbe645543	-0.2229815
66	0x3d317f06	0.04333403
67	0xbe1fde07	-0.1561204
68	0xbe019f14	-0.1265834
69	0x3d6034ba	0.054737784
70	0xbd7b7ad2	-0.061396427
71	0x3d73a010	0.05947882
72	0xbde038ac	-0.10948309
73	0xbe16b48e	-0.14717314
74	0x3c4274c5	0.01186866
75	0x3d2ac268	0.041689306
76	0xbbef07c3	-0.0072946264
77	0xbd92cb27	-0.071676545
78	0x3d446866	0.047951125
79	0xbcf316c2	-0.029673938
80	0xbd470185	-0.048585434
81	0x3e471ab7	0.19443785
82	0xbda2856e	-0.07935606
83	0x3d8a0cf6	0.06740753
84	0x3bb340ef	0.005470387
85	0xbd9d3c1b	-0.0767748
86	0xbd9561aa	-0.072940186
87	0x3e423749	0.18966402
88	0x3d617702	0.055045135
89	0xbc511ace	-0.012762738
90	0xbdd466ec	-0.10371193
91	0x3d499dca	0.049222745
92	0x3c4c609b	0.012474204
93	0x3d33f5a7	0.043935444
94	0x3da998f8	0.082811296
95	0xbd18dd92	-0.03732068
96	0x3d5672d3	0.0523556
97	0xbd6b38c8	-0.057427198
98	0x3db95883	0.090500854
99	0xbcadef2f	-0.021232216
100	0x3cf903d8	0.03039734
101	0xbd854efb	-0.06509205
102	0x3cb56a8b	0.02214553
103	0x3df16a03	0.11787798
104	0x3c958c8f	0.0182555
105	0xbd2b5ab7	-0.04183456
106	0xbcb6848b	-0.022279998
107	0x3db33f40	0.08752298
108	0xbd02bf73	-0.03192086
109	0xbd8d8d56	-0.06911723
110	0xbde061aa	-0.10956128
111	0xbbc09a57	-0.0058777737
112	0x3e2bdf7e	0.16784474
113	0xbd0c0802	-0.034187324
114	0x3e2c97d7	0.16854797
115	0x3dd7408d	0.10510359
116	0xbd653305	-0.05595686
117	0xbde12514	-0.109934
118	0xbe0bfff5	-0.13671859
119	0xbdac0065	-0.08398513
120	0x3e6018d2	0.21884468
121	0xbe397a93	-0.18113165
122	0x3d1eb2a0	0.03874457
123	0xbd97b239	-0.0740704
124	0x3b2c4af6	0.0026289797
125	0x3d109085	0.035294075
126	0xbc31a2ac	-0.010842007
127	0xbe4ac029	-0.19799866
128	0x3e037e73	0.12841205
129	0x3d9a3388	0.0752936
130	0xbe46a45c	-0.19398636
131	0xbe63df72	-0.22253206
132	0x3e18c8e2	0.1492038
133	0x3e533e06	0.20629129
134	0x3a3248a8	0.0006800988
135	0xbe46f0a8	-0.1942774
136	0xbe57a206	-0.21057901
137	0x3d91df18	0.0712263
138	0x3e39f7b7	0.18160902
139	0x3d6d18f0	0.05788511
140	0x3e4dd45d	0.20100541
141	0x3dabfd62	0.08397938
142	0x3d393f14	0.04522617
143	0xbd8097b8	-0.06278938
144	0xbd6a0fb1	-0.05714387
145	0xbdbf30c3	-0.093354724
146	0xbe5e22f4	-0.21693021
147	0x3e4a2948	0.1974231
148	0x3ddfaa91	0.10921205
149	0xbe56c162	-0.20972207
150	0xbbc33ff7	-0.005958553
151	0xbe0dcda8	-0.13847983
152	0xbe0ec3ed	-0.13941927
153	0xbd362199	-0.044465635
154	0xbdf274c6	-0.11838679
155	0xbe43222a	-0.19056001
156	0xbe4e8747	-0.20168792
157	0x3c45a12a	0.01206235
158	0xbe1c99cf	-0.15293048
159	0x399aa12d	0.00029493254
160	0x3de9010a	0.11377151
161	0x3d1cc7d2	0.0382765
162	0x3d344f1d	0.04402076
163	0x3e054ff2	0.13018778
164	0x3ac22c9e	0.0014814322
165	0xbd82f661	-0.06394649
166	0x3d9d001e	0.07666038
167	0xbe32c2d0	-0.17457128
168	0x3db0b1c2	0.086276546
169	0xbe0e2ada	-0.13883534
170	0x3e114884	0.14187819
171	0x3dbed5f2	0.093181506
172	0xbc3d516e	-0.011555059
173	0xbca3b01e	-0.01998144
174	0xbe5985b2	-0.21242407
175	0xbd4ce9b7	-0.050027575
176	0xbda22173	-0.07916536
177	0x3e307131	0.17230679
178	0x3e283fdc	0.1643061
179	0xbd795f13	-0.060881685

gru.weight_hh_l0 f4 [180, 60]
0	0xbe068691	-0.1313727
1	0x3d645810	0.055748045
2	0xbd522f1e	-0.051314466
3	0x3d2520f0	0.040314615
4	0x3d28745a	0.041126586
5	0x3c993b82	0.018705133
6	0xbd7893b9	-0.060687754
7	0x3e75f2c7	0.24018393
8	0xbdfab14e	-0.122408494
9	0xbda5fb64	-0.081045896
10	0x3d9904c7	0.07471614
11	0x3e3ba0f0	0.18323112
12	0xbe5e17ec	-0.21688813
13	0x3d178d7a	0.037000157
14	0xbd751249	-0.05983189
15	0x3e428fe6	0.19000205
16	0x3d90ba19	0.07066745
17	0xbd8c3584	-0.06846145
18	0xbe38eea4	-0.18059784
19	0xbdd196a1	-0.10233808
20	0xbe6010f4	-0.21881467
21	0x3e21ce58	0.1580137
22	0x3d900bc1	0.07033492
23	0xbd10c777	-0.035346474
24	0x3e066747	0.13125335
25	0x3da4646a	0.08026965
26	0x3db4ebdb	0.08834048
27	0xbe4fd3b2	-0.20295599
28	0xbe4552c6	-0.19269857
29	0xbbebecad	-0.007199845
30	0xbca26727	-0.019824577
31	0x3e5ec176	0.21753487
32	0x3da8eaf3	0.08247938
33	0x3cdfef88	0.027335897
34	0x3e0b2c46	0.13591108
35	0x3e21c4c0	0.1579771
36	0x3ccd06a7	0.025027586
37	0x3dbcd6e1	0.092206724
38	0x3df0cfbf	0.117583744
39	0x3d2fcf91	0.04292256
40	0xbda410f6	-0.080110475
41	0xbd9f62d0	-0.07782519
42	0xbd3df108	-0.046372443
43	0x3d25b774	0.040458158
44	0x3e352340	0.17689228
45	0x3e09754a	0.13423648
46	0x3d84ed0b	0.06490525
47	0x3e45b1b4	0.1930607
48	0xbe272a7d	-0.16324802
49	0x3e12bf47	0.14330779
50	0xbbadb1cf	-0.0053007375
51	0xbdd3178d	-0.10307226
52	0x3dab636c	0.083685726
53	0xbd4db9a2	-0.05022586
54	0xbd2edb24	-0.042689458
55	0x3e6cc3de	0.23121592
56	0x3e24876f	0.16067289
57	0x3cd237a3	0.025661295
58	0x3a8bb616	0.0010659124
59	0xbdf5c4c8	-0.12000424
60	0x3d0b4616	0.034002386
61	0x3e2d539d	0.16926427
62	0xbd8986f0	-0.067151904
63	0x3d13b57c	0.03606175
64	0x3d6fef46	0.0585778
65	0xbe4799dd	-0.19492288
66	0xbc8a5fa5	-0.01689131
67	0x3de02cbc	0.109460324
68	0xbd81b339	-0.06333012
69	0xbd9a9931	-0.0754875
70	0x3df0a632	0.11750449
71	0xbd53aa2e	-0.051675968
72	0xbcfd0c30	-0.0308896
73	0xbc9b5d67	-0.018965436
74	0x3cd62f13	0.026145494
75	0xbda1fa23	-0.07909038
76	0xbcc911bf	-0.024544595
77	0xbc87f937	-0.016598327
78	0xbdc698ca	-0.09697111
79	0xbdb198ae	-0.086716995
80	0xbce3a478	-0.027788386
81	0x3e388243	0.18018441
82	0xbd8d233d	-0.06891487
83	0xbdacefec	-0.08444199
84	0x3de44cf8	0.11147493
85	0x3de8a976	0.11360447
86	0xbdca787d	-0.098862626
87	0x3dd9b16d	0.106295444
88	0x3d81a642	0.06330539
89	0x3d92eafd	0.07173727
90	0x3b0569d8	0.0020357277
91	0xbbf1cc45	-0.007379087
92	0xbd915f41	-0.07098246
93	0x3e60331b	0.21894495
94	0x3d047e68	0.032347113
95	0xbd8ee232	-0.06976737
96	0xbd4cb27b	-0.0499749
97	0x3d6a38d4	0.0571831
98	0x3ddf5bd7	0.10906189
99	0x3e172fb1	0.14764287
100	0xbd5de708	-0.054175407
101	0x3da5a8eb	0.08088859
102	0x3e02d77d	0.12777515
103	0x3d53a4a1	0.051670674
104	0x3dd16a73	0.10225382
105	0xbd66538c	-0.05623202
106	0x3d39a137	0.045319762
107	0x3daafeb6	0.083493635
108	0xbe445ae6	-0.191753
109	0xbb657bce	-0.003501642
110	0xbd18bedd	-0.037291396
111	0xbd00ff29	-0.03149334
112	0xbdd0d510	-0.101968884
113	0x3e39c8d3	0.18143015
114	0xbdea9859	-0.11454839
115	0x3dff90e7	0.1247881
116	0xbdd6c2f9	-0.10486407
117	0xbdfb9236	-0.12283747
118	0x3c744d57	0.014911017
119	0xbda18bcf	-0.078879945
120	0xbc8853b3	-0.016641473
121	0xbcce193d	-0.025158519
122	0xbdc2a088	-0.09503275
123	0x3e3b5920	0.18295717
124	0xbe550e16	-0.20806155
125	0xbd6fa928	-0.05851093
126	0x3d94cd5b	0.07265731
127	0xbc31e32a	-0.010857383
128	0xbd1f4979	-0.03888843
129	0xbd3c1fcd	-0.045928765
130	0xbd056835	-0.032570083
131	0x3d9f1803	0.07768252
132	0xbc220da1	-0.009890945
133	0x3e10af1f	0.14129303
134	0xbcba4049	-0.022735732
135	0x3d622cca	0.055218495
136	0xbdade7d7	-0.084914856
137	0xbddf7703	-0.109113716
138	0x3d8808a4	0.06642273
139	0xbe367f5d	-0.17822023
140	0xbcad6523	-0.02116639
141	0xbcfb63c0	-0.030687213
142	0x3e0c8388	0.1372205
143	0xbcb6dcdd	-0.022322113
144	0x3e3ef5d1	0.18648459
145	0x3c7e5f54	0.015525658
146	0x3d2877c1	0.04112983
147	0x3dd079d7	0.10179489
148	0x3dd9cad1	0.10634387
149	0x3dc32428	0.09528381
150	0xbc80ed03	-0.015738016
151	0x3d6aab63	0.057292353
152	0xbbc7912f	-0.0060903053
153	0x3c6a67c3	0.014306965
154	0xbdcbc694	-0.09949985
155	0x3e07b7c0	0.13253689
156	0xbc1538b3	-0.009107756
157	0xbddfcef4	-0.10928145
158	0xbc586832	-0.013208436
159	0x3e0e75d2	0.13912132
160	0xbda58aea	-0.080831364
161	0xbd9d5790	-0.07682717
162	0x3d927694	0.07151523
163	0xbc2bd69f	-0.010488181
164	0x3db9983c	0.090622395
165	0xbd547857	-0.051872578
166	0xbdc46b67	-0.09590798
167	0xbdc5ad56	-0.09652202
168	0xbd69d222	-0.057085164
169	0xbdbc9c32	-0.092094794
170	0x3e3f001a	0.18652382
171	0x3dbbc39b	0.09168168
172	0x3e5b9ae5	0.21445806
173	0x3dd0493d	0.10170219
174	0x3a2eee4f	0.0006673084
175	0xbe06f1a1	-0.13178112
176	0x3da857bd	0.0821986
177	0x3ca3cd1d	0.019995267
178	0x3df4e8ae	0.11958443
179	0xbcc490fb	-0.023994913
180	0x3d716b9f	0.058940526
181	0xbdb6089b	-0.0888836
182	0xbdae18da	-0.08500834
183	0xbd8cd191	-0.06875909
184	0xbe3965f0	-0.18105292
185	0x3dcdf2b7	0.1005606
186	0x3c17bfbb	0.009262021
187	0x3de64483	0.11243536
188	0xbdb00d0d	-0.08596239
189	0x3dcbc4f0	0.09949672
190	0xbd220e0e	-0.039564185
191	0xbc0fc108	-0.00877405
192	0x3d0f2701	0.034949306
193	0xbd86bcd8	-0.06578988
194	0x3e4be661	0.19912101
195	0xbd81dc2b	-0.06340822
196	0x3d2ceda9	0.042218838
197	0xbe0e3119	-0.13885917
198	0xbd28dc06	-0.041225456
199	0xbbefee59	-0.0073221144
200	0xbc7d5969	-0.015463212
201	0xbe0ba154	-0.1363576
202	0x3de1c3cc	0.110236734
203	0x3ddb13e7	0.106971554
204	0xbd03469a	-0.032049753
205	0xbd90f98b	-0.070788465
206	0x3dc58386	0.09644227
207	0xbd5f4798	-0.054511636
208	0x3bb761cb	0.0055963746
209	0xbd1595fe	-0.036519997
210	0xbca20e79	-0.019782292
211	0x3e275890	0.16342378
212	0xbc9e2e3d	-0.019309158
213	0x3d38d1c4	0.045121923
214	0xbe613601	-0.21993257
215	0xbdc4dd27	-0.09612494
216	0x3d393ef7	0.045226064
217	0xbd7c7f52	-0.06164486
218	0x3d424a5b	0.047434192
219	0x3db7e84a	0.089798525
220	0xbd54c9bb	-0.051950198
221	0x3b17c8d5	0.0023160477
222	0x3db79965	0.089648046
223	0x3e105468	0.14094698
224	0x3cdfa43f	0.027299998
225	0x3d3d9b43	0.046290647
226	0xbe0b3597	-0.13594662
227	0x3d9994dc	0.07499096
228	0xbe1f7543	-0.15572076
229	0x3d63fca6	0.055660866
230	0x3d07586e	0.033043317
231	0x3d81aec4	0.06332162
232	0xbc6bd06a	-0.0143929515
233	0x3e5d3d29	0.21605362
234	0x3d2499e6	0.04018583
235	0xbdc1430a	-0.09436615
236	0xbde3de14	-0.111263424
237	0x3e187a6a	0.14890447
238	0x3daa79ee	0.083240375
239	0xbb8db180	-0.004324138
240	0x3daa6a13	0.08321013
241	0xbc9da554	-0.019243874
242	0xbdd13203	-0.10214617
243	0x3d0d1c73	0.03445096
244	0xbce30e0e	-0.027716663
245	0x3e0857f5	0.13314803
246	0x3eafc867	0.34332582
247	0x3de7a023	0.113098405
248	0xbd9c35fe	-0.07627486
249	0x3de0e149	0.1098047
250	0xbe3fa2e9	-0.18714489
251	0x3e051235	0.12995227
252	0xbd995c4b	-0.074883066
253	0x3dfe34bc	0.12412402
254	0x3e44f1e9	0.19232906
255	0xbd9e737d	-0.077368714

gru.bias_ih_l0 f4 [180]
0	0x3c97665f	0.018481432
1	0x3c87a5ee	0.016558614
2	0xbd5d64d6	-0.054051243
3	0xbc0fb843	-0.008771959
4	0xbe8bc23c	-0.27296627
5	0xbd9f33d6	-0.07773559
6	0x3e1bacc9	0.15202631
7	0xbd14b6b1	-0.03630704
8	0xb8f2906a	-0.000115663584
9	0xbdba5d48	-0.09099823
10	0xbe30af7e	-0.17254445
11	0xbe4442bb	-0.1916608
12	0xbd9a4981	-0.07533551
13	0x3ccb992e	0.024853315
14	0xbe9a3371	-0.30117372
15	0xbe19f47f	-0.15034674
16	0xbdbe2c8a	-0.09285839
17	0xbded51d3	-0.11587872
18	0x3bdc76c0	0.0067280233
19	0xbc77b381	-0.015118481
20	0xbec00900	-0.37506866
21	0x3d1e4bca	0.038646497
22	0xbdef9808	-0.116989195
23	0xbd9071d8	-0.07052964
24	0xbe2a4fc0	-0.16631985
25	0xbe16dcb4	-0.14732629
26	0xbd35fd1f	-0.04443085
27	0xbe060383	-0.13087277
28	0xbc9bcc19	-0.01901822
29	0xbb1888d5	-0.0023274918
30	0x3cdce7c3	0.026965981
31	0xbe0c0aed	-0.13676043
32	0xbd2430c7	-0.04008558
33	0xbdb2f6b5	-0.08738462
34	0x3b1266c5	0.0022339087
35	0xbd564e69	-0.05232087
36	0x3c4141e8	0.011795498
37	0xbe0cb6e5	-0.13741644
38	0xbe3ce5cb	-0.18447034
39	0xbdb84ef5	-0.08999435
40	0xbd885ad0	-0.06657946
41	0x3c5674e8	0.013089396
42	0x3d965853	0.07341065
43	0xbe1ec5e4	-0.15505177
44	0x3d55027f	0.052004334
45	0x3be2589a	0.006907535
46	0xbe6c4241	-0.23072149
47	0xbdce07b6	-0.100600645
48	0x3d7c7b2a	0.061640896
49	0xbaf331ca	-0.0018554267
50	0x3ca6ab2e	0.020345297
51	0xbd8a4e39	-0.06753201
52	0x3dbd7184	0.09250167
53	0x3d8aba8b	0.067738615
54	0xbdd22406	-0.10260777
55	0x3dc950b3	0.09829845
56	0xbdca38ba	-0.09874101
57	0xbe0641cc	-0.13111037
58	0x3da4dadc	0.080495566
59	0x3cc55aeb	0.024091205
60	0x3d4ddb58	0.05025801
61	0xbcd6a7f2	-0.02620313
62	0x3d04f999	0.032464597
63	0xbd3ac8da	-0.045601703
64	0x3e33e421	0.17567493
65	0x3dd968fa	0.10615726
66	0x3e4663b1	0.19373967
67	0xbd345c11	-0.044033114
68	0xbe02acb0	-0.12761188
69	0xbe01f584	-0.12691313
70	0x3da0b506	0.078470275
71	0xbd84d268	-0.06485444
72	0xbdace4fb	-0.08442112
73	0xbdaa3a28	-0.08311874
74	0xbd9e2e7a	-0.077237085
75	0xbc3f0756	-0.011659464
76	0xbcf4e824	-0.02989585
77	0x3ddc1273	0.107457064
78	0xbbcf7ed7	-0.006332259
79	0x3c6b8a02	0.014376165
80	0x3d7821f8	0.06057927
81	0x3d0bafb5	0.034103114
82	0x3d9f9bf4	0.077934176
83	0xbdad3ef1	-0.08459271
84	0x3dbd821e	0.092533335
85	0xbdc42cfe	-0.09578894
86	0x3d797727	0.06090465
87	0xbc9e871f	-0.01935154
88	0x3df5a58e	0.11994468
89	0xbda3fe9a	-0.08007546
90	0xbc99c821	-0.018772187
91	0x39319341	0.00016934892
92	0xbe536443	-0.20643716
93	0xbd8f93ff	-0.0701065
94	0xbd6d3e03	-0.057920467
95	0xbc335e13	-0.010947722
96	0xbd5d8940	-0.05408597
97	0xbe0e3c20	-0.13890123
98	0xbcb015ea	-0.021494824
99	0xbac1194e	-0.0014732273
100	0xbe299357	-0.16560112
101	0x3cab7f8f	0.020934848
102	0xbdc28ca8	-0.09499484
103	0xbccf0c8a	-0.025274534
104	0x3df5ee3c	0.1200833
105	0x3ce6368b	0.02810218
106	0x3e127280	0.14301491
107	0x3dc8acc8	0.097985804
108	0xbdd746f4	-0.1051158
109	0xbe1e306c	-0.15448159
110	0xbdb0b919	-0.086290546
111	0xbd7028a0	-0.058632493
112	0xbde6b765	-0.112654485
113	0xbb53820e	-0.0032273564
114	0xbc60de7d	-0.01372492
115	0x3e4eaf91	0.20184161
116	0xbd8e9e37	-0.06963771
117	0xbdb280d5	-0.08715979
118	0x3cbcc59b	0.023043444
119	0xbc74a009	-0.0149307335
120	0xbd0a6e4e	-0.0337966
121	0xbd46fa26	-0.048578404
122	0x3df32a13	0.118732594
123	0x3b347eea	0.0027541467
124	0x3e02ccb6	0.12773404
125	0xbbe048e7	-0.006844628
126	0xbde888f3	-0.11354246
127	0x3b4feaed	0.003172572
128	0xbc4acbb1	-0.012377665
129	0xbdf3fe54	-0.119137436
130	0x3df5acc5	0.11995844
131	0xbddf5565	-0.109049596
132	0x3e27496e	0.16336605
133	0xbe2416ed	-0.1602437
134	0xbe0475c6	-0.12935552
135	0x3ded3c70	0.11583793
136	0x3d9c9480	0.076455116
137	0x3dd5226e	0.104069576
138	0xbd4a4398	-0.04938087
139	0xbc816656	-0.015795868
140	0x3bc541d5	0.0060198107
141	0x3d9c1359	0.07620878
142	0xbc28e7bb	-0.010309155
143	0xbe334e32	-0.17510298
144	0xbc98af37	-0.018638236
145	0x3dbf9ab7	0.093556814
146	0xbc5d14ba	-0.013493711
147	0xbd89780d	-0.06712351
148	0x3ca55053	0.020179903
149	0xbd4e9b61	-0.05044115
150	0x3d9d179b	0.07670518
151	0xbda98e76	-0.082791254
152	0xbd305433	-0.04304905
153	0x3cdeaaa7	0.027180983
154	0x3dd1abf6	0.10237877
155	0xbcbc8142	-0.023010854
156	0xbdb0fb19	-0.08641643
157	0xbce9880f	-0.02850726
158	0x3c956dd9	0.018240856
159	0xbd536c78	-0.051617116
160	0xbb69c8f8	-0.0035672765
161	0xbce345e9	-0.027743297
162	0xbbda149b	-0.0066552884
163	0xbe057be9	-0.13035549
164	0x3cd66e0a	0.026175518
165	0xbdb947e4	-0.09046915
166	0x3e1733b4	0.14765817
167	0xbc01c559	-0.0079205865
168	0x3d8235a7	0.063578896
169	0xbdbc433e	-0.09192513
170	0xbd0aa075	-0.03384443
171	0x3e0cff01	0.13769151
172	0x3d076b59	0.03306136
173	0xbdf3af03	-0.11898615
174	0x3e0eaa57	0.13932167
175	0xbd107537	-0.035268035
176	0x3e03eeca	0.1288406
177	0xbcc37089	-0.023857372
178	0xbd954f0d	-0.07290468
179	0x3df09a04	0.11748126

gru.bias_hh_l0 f4 [180]
0	0x3df50a86	0.11964898
1	0xbe222f5c	-0.15838379
2	0xbde93ffc	-0.11389157
3	0xbc434c61	-0.011920066
4	0xbe1aab38	-0.15104377
5	0xbde5cdb8	-0.11220878
6	0x3d06bc72	0.03289456
7	0x3cf54405	0.02993966
8	0xbd1dcd96	-0.03852614
9	0xbda870ac	-0.082246155
10	0xbe80e345	-0.25173393
11	0x3d00f2ce	0.031481557
12	0xbe1a1bec	-0.15049714
13	0xbdc1e967	-0.09468346
14	0xbe468396	-0.19386134
15	0xbd841b65	-0.064505376
16	0x3d273883	0.04082538
17	0xbdd3cbd6	-0.10341613
18	0xbd2d0f4e	-0.042250924
19	0xbdcc93c2	-0.0998912
20	0xbe8f646e	-0.2800631
21	0xbd80b225	-0.062839784
22	0xbe299d3e	-0.1656389
23	0xbe27885d	-0.16360612
24	0xbe8e92e8	-0.27846456
25	0xbe3bbc99	-0.18333663
26	0xbe199ccc	-0.1500122
27	0xbd5d0631	-0.053960983
28	0xbde12c55	-0.10994784
29	0xbdb1cded	-0.08681855
30	0xbdccbc18	-0.099968135
31	0xbd157585	-0.03648903
32	0x3da47563	0.08030202
33	0xbd87c82a	-0.06629975
34	0xbdb8a423	-0.090156816
35	0xbd7ccdb8	-0.061719626
36	0xbdc67f21	-0.09692217
37	0xbcfc5e17	-0.030806584
38	0xbdc91545	-0.0981851
39	0x3d87586b	0.06608661
40	0xbe0891bf	-0.13336848
41	0xbd23890a	-0.039925613
42	0xbdd12335	-0.10211793
43	0xbe3ce0b2	-0.1844509
44	0xbd8c7e9a	-0.06860085
45	0x3c3b5cb6	0.011435678
46	0xbe182417	-0.14857517
47	0xbde60870	-0.11232078
48	0xbe1312d8	-0.14362657
49	0x3d24d5d3	0.04024298
50	0xbd279024	-0.040908948
51	0xbdca6eca	-0.098844126
52	0xbd7e6e2e	-0.062116794
53	0xbd201ed3	-0.039091896
54	0xbc6fbee1	-0.014632911
55	0x3de3b521	0.11118532
56	0xbe6947af	-0.22781251
57	0xbd86983d	-0.06572006
58	0xbdc96dba	-0.09835382
59	0xbd7532c4	-0.059862867
60	0x3ddf15ff	0.10892867
61	0xbd09f4d2	-0.033680744
62	0x3c4b8910	0.012422815
63	0xbdc9c456	-0.09851901
64	0x3e081fbb	0.13293354
65	0x38f87353	0.00011847042
66	0x3e59c826	0.21267757
67	0xbe02c4e9	-0.12770428
68	0x3d7d5f58	0.061858505
69	0xbdb5acd1	-0.08870853
70	0x3c46e37d	0.012139198
71	0x3d153fd2	0.036437817
72	0xbd92ab31	-0.071615584
73	0xbdaf6b7f	-0.08565425
74	0x3d340127	0.04394641
75	0xbc16e728	-0.009210385
76	0xbe00fc11	-0.12596156
77	0x3dbdecd1	0.09273685
78	0x3d04f67a	0.03246162
79	0xbe2b1708	-0.16708004
80	0x3deecae0	0.11659789
81	0x3d18447c	0.037174687
82	0x3e1fa6d8	0.1559099
83	0xbdc2718a	-0.09494312
84	0x3caaf00d	0.020866418
85	0xbd4bc34f	-0.049746808
86	0x3c871536	0.016489606
87	0x3dc6ba8b	0.09703549
88	0x3e062ff3	0.13104229
89	0xbce53b44	-0.027982362
90	0x3e40eeb8	0.18841064
91	0xbde2591c	-0.110521525
92	0xbe45ff14	-0.19335586
93	0x3cc6f467	0.024286462
94	0xbc033a93	-0.008009571
95	0xbd4b2ffb	-0.049606305
96	0x3cdff2b1	0.027337404
97	0x3c7cc952	0.015428858
98	0xbc41a855	-0.011819919
99	0x3d29a97a	0.04142139
100	0xbda48b45	-0.08034376
101	0x3d6876d1	0.056753937
102	0x3d8b657c	0.06806466
103	0x3dd124c7	0.10212093
104	0x3e3110dd	0.17291589
105	0xbd1e8b10	-0.03870684
106	0x3d8c8b06	0.06862454
107	0x3e2858e5	0.1644016
108	0xbe4992a8	-0.19684851
109	0xbe06740b	-0.13130204
110	0xbe2741eb	-0.1633374
111	0xbc77984f	-0.015111997
112	0xbd94b89f	-0.07261776
113	0xbd251162	-0.04029978
114	0x3ddf507f	0.10904025
115	0x3d20d460	0.039265037
116	0xbd978f8f	-0.074004285
117	0xbe5bd4bd	-0.21467872
118	0xbdd18e0f	-0.10232174
119	0x3b0f8690	0.0021900274
120	0xbd618cff	-0.055066105
121	0xbda7397e	-0.08165263
122	0x3d2a0148	0.04150513
123	0xbd29f787	-0.041495826
124	0xbd88cb62	-0.06679417
125	0xbd6c5d5d	-0.057706226
126	0xbdc08e9a	-0.09402199
127	0xbe0b2c05	-0.13591011
128	0x3d779053	0.060440373
129	0xbd8a113a	-0.06741567
130	0xbd54812e	-0.051881008
131	0xbb2e5397	-0.0026600116
132	0xbd601dd0	-0.05471593
133	0x3d13f59c	0.036122903
134	0x3d71d67f	0.05904245
135	0x3d6e2725	0.0581428
136	0xbdb04c04	-0.08608249
137	0x3dc0f71f	0.094221346
138	0xbdca9297	-0.09891241
139	0x3dcaebac	0.09908232
140	0xbcf4554b	-0.029825827
141	0x3c634319	0.013870978
142	0xbdef361c	-0.116802424
143	0xbbc193b0	-0.0059074983
144	0xbc90e9ac	-0.017689548
145	0xbc51198a	-0.012762437
146	0xbd58eebd	-0.052962054
147	0xbdde08d7	-0.1084153
148	0xbc810c0e	-0.015752818
149	0x3a2249b3	0.00061907916
150	0x3db56b1f	0.08858322
151	0xbd2e6e69	-0.042585764
152	0x3c9fa1b9	0.019486295
153	0xbdf0920e	-0.11746608
154	0x3cef6d55	0.029226938
155	0xbcbc1c7a	-0.022962797
156	0xbd37ef2a	-0.04490582
157	0x3d523d9d	0.05132829
158	0x3cd79cf8	0.026319966
159	0xbd3659ae	-0.04451912
160	0x3e02af54	0.12762195
161	0xbde8831d	-0.11353133
162	0xbe0cb3e4	-0.13740498
163	0xbd855d36	-0.06511919
164	0x3dc4723a	0.095920995
165	0xbd3e753c	-0.046498522
166	0x3d1e6633	0.038671684
167	0xbcf755fe	-0.030192371
168	0x3e04f998	0.12985837
169	0x3db7d0eb	0.08975395
170	0xbdb54894	-0.08851734
171	0x3d77311f	0.06034958
172	0xbe1b9d46	-0.15196714
173	0xbdb52943	-0.08845761
174	0xbd7d666c	-0.061865255
175	0xbd812e7e	-0.06307696
176	0x3ce6e1ac	0.02818378
177	0xbd812ce4	-0.0630739
178	0xbd93795c	-0.07200882
179	0x3d48ab1a	0.0489913
