hosp_models/deploy_week_44_2/fnp_enc.pt (torch, 762335 bytes, 64 tensors)

cond_trans.0.weight f4 [100, 60]
0.03411599 -0.10142016 0.13074805 -0.027296282 -0.012918786 -0.09615405 -0.08997676 -0.051917296
-0.142465 -0.115674816 0.115511194 0.14816517 -0.055818208 0.13514169 -0.022757806 0.0437648
-0.11046619 0.045128293 0.058750357 0.039631102 0.10407628 -0.04183037 0.07475298 0.012488505
-0.15338844 0.060557656 0.06828443 0.0775508 0.03533983 0.022328554 -0.04830675 0.15496832
-0.1071057 -0.11400769 -0.12558086 -0.06781863 -0.09871616 -0.013775844 0.03651425 -0.03420083
0.00092126924 0.04588236 0.030640183 -0.05305954 -0.13183871 -0.039531544 0.056493003 -0.11166209
0.13112323 -0.0019672897 0.122077085 -0.040579267 0.027344825 0.0343053 -0.18447687 -0.00092628045
-0.040997703 -0.046093624 0.035676382 0.09786438 -0.07198515 -0.041411035 0.087936826 0.06089726
0.037113067 -0.09568991 -0.034180507 -0.056569833 0.1269015 -0.052457493 -0.013595213 -0.22886099
-0.09477396 0.029111486 0.21265233 0.109998 -0.13543087 -0.044025514 -0.1525804 -0.14895296
-0.02865506 -0.004874364 -0.0076712156 0.063137665 0.035289317 -0.05862556 0.058916878 0.044622015
-0.06399677 -0.038811844 -0.092324436 0.02194843 0.038357213 -0.096232034 0.005839583 -0.0070055528
0.08121591 -0.0070445547 0.13324414 -0.101581 0.12754712 -0.19226572 -0.017817466 0.1699834
0.17076464 0.029248659 -0.079522446 0.07140225 -0.14346832 -0.13693051 -0.18562321 -0.00985436
0.025188457 -0.048622552 -0.064660534 0.030393671 0.25440606 -0.103176996 0.040223066 -0.08066772
-0.059085805 0.13363086 0.03479937 0.012266737 -0.121180564 0.20087482 -0.02135768 0.098850615
0.15368141 -0.15421377 0.028934667 -0.09201624 -0.067305125 0.26202708 0.023320667 0.21099432
0.059528034 -0.08785388 0.017482188 0.33404082 -0.06265099 0.057063304 -0.07930014 0.06733415
-0.18740892 0.13063312 -0.18832955 0.09839778 0.04412126 0.10358999 -0.04985166 0.062302455
0.12990375 0.11000111 -0.030192774 -0.11595995 -0.11710659 -0.0810384 0.22678001 0.018412692
-0.030995633 0.15540208 0.005484176 -0.16447724 0.15569435 0.13523391 -0.14278463 0.11985989
0.05651429 0.17773323 -0.05879828 0.031197738 -0.0093869865 0.06510433 -0.101753004 -0.10637906
-0.0701262 0.046599723 -0.059672777 -0.07133657 0.11575076 0.061492752 -0.147761 -0.10597585
-0.1978535 0.10581855 0.24839501 -0.0077989534 -0.0037182504 0.036633406 -0.003157671 -0.06503498
-0.035601538 -0.02380847 0.045590542 0.0115144625 0.10792729 0.11914844 -0.082646355 -0.065753
-0.016649961 0.0031126651 0.06358442 0.0828848 0.07420135 0.10757286 0.012747694 0.08523124
-0.11963027 0.053705443 0.22955962 0.13146767 0.00071738416 0.038068015 0.1501074 -0.16282834
0.15262537 -0.17546734 0.1014604 0.08161728 -0.032414466 0.02732875 -0.026949365 -0.20926407
0.12482952 -0.00041617267 0.11953309 -0.11926027 -0.0902036 -0.19919065 -0.009924873 -0.15750717
0.08592166 -0.01719659 0.033882014 -0.17295386 0.10556254 -0.1418489 0.105661474 -0.08731937
0.023983162 0.18706374 0.025137966 -0.1484388 -0.124868974 0.082325846 -0.11936166 0.018350482
0.117723435 0.059169162 -0.020148449 0.061733957 -0.09750649 -0.031693794 0.045719232 0.025864512
00000000: 35bd 0b3d 5fb5 cfbd d1e2 053e 749c dfbc
00000010: 51a9 53bc 6aec c4bd bc45 b8bd 3ba7 54bd
00000020: 58e2 11be ebe6 ecbd 2291 ec3d 9cb8 173e
00000030: a2a1 64bd 9562 0a3e 946e babc b842 333d
00000040: 193c e2bd 72d8 383d 37a4 703d 3954 223d
00000050: f225 d53d 5256 2bbd 1718 993d 969c 4c3c
00000060: dc11 1dbe 4e0b 783d b5d8 8b3d f4d2 9e3d
00000070: 7fc0 103d 5fea b63c 4cdd 45bd 04b0 1e3e
00000080: 3c5a dbbd dd7c e9bd 4598 00be 7ee4 8abd
00000090: b32b cabd 14b4 61bc f78f 153d 2b16 0cbd
000000a0: 5581 713a 24ef 3b3d 1f01 fb3c f654 59bd
000000b0: ba00 07be d4eb 21bd 3565 673d 18af e4bd
000000c0: 2b45 063e a5ed 00bb 8d03 fa3d 7236 26bd
000000d0: 4102 e03c b783 0c3d 81e7 3cbe a1d1 72ba
000000e0: 35ed 27bd abcc 3cbd 6621 123d 1f6d c83d
000000f0: f36c 93bd 9e9e 29bd 3918 b43d 686f 793d
00000100: df03 183d 12f9 c3bd dc00 0cbd c5b5 67bd
00000110: 78f2 013e abdd 56bd 75be 5ebc 895a 6abe
00000120: da18 c2bd 367b ee3c 88c1 593e a246 e13d
00000130: 64ae 0abe 1954 34bd 093e 1cbe 2087 18be
00000140: 04be eabc 21b9 9fbb d25e fbbb 524e 813d
00000150: 888b 103d 5b21 70bd d352 713d 93c5 363d
00000160: bd10 83bd 2bf9 1ebd 9814 bdbd 32cd b33c
00000170: 741c 1d3d 4d15 c5bd f959 bf3b d68e e5bb
00000180: 8754 a63d 02d6 e6bb 2771 083e b309 d0bd
00000190: b69b 023e 4ee1 44be eff5 91bc 2110 2e3e
000001a0: eddc 2e3e e29a ef3c aadc a2bd 583b 923d
000001b0: 5ce9 12be 8337 0cbe 0314 3ebe 2e74 21bc
000001c0: 0658 ce3c 7128 47bd be6c 84bd 26fc f83c
000001d0: 8341 823e 764e d3bd f1c0 243d 1e35 a5bd
000001e0: f503 72bd 87d6 083e c989 0e3d 6dfa 483c
000001f0: 842d f8bd 21b2 4d3e 4df6 aebc 3172 ca3d
00000200: a95e 1d3e 37ea 1dbe 6508 ed3c 0373 bcbd
00000210: 45d7 89bd 6a28 863e fc0a bf3c e50e 583e
00000220: abd3 733d bcec b3bd ce36 8f3c 6607 ab3e
00000230: 2a4f 80bd 36bb 693d 1d68 a2bd 7de6 893d
00000240: 20e8 3fbe b0c4 053e 76d9 40be c684 c93d
00000250: 7fb8 343d fd26 d43d 4131 4cbd dc30 7f3d
00000260: 7d05 053e 4348 e13d d656 f7bc 697c edbd
00000270: 94d5 efbd 76f7 a5bd 0539 683e 37d6 963c
00000280: 8eea fdbc b921 1f3e 9ab4 b33b b96c 28be
00000290: 576e 1f3e c27a 0a3e 2236 12be 1a79 f53d
000002a0: 877b 673d b3ff 353e 77d6 70bd 6692 ff3c
000002b0: e0cb 19bc 6b55 853d e163 d0bd 44dd d9bd
000002c0: 539e 8fbd 5adf 3e3d 716b 74bd e818 92bd
000002d0: bc0e ed3d d3df 7b3d a94e 17be de09 d9bd
000002e0: 1c9a 4abe 65b7 d83d 435b 7e3e 5d8e ffbb
000002f0: e4ad 73bb e90c 163d eef0 4ebb 0f31 85bd
00000300: ebd2 11bd fb09 c3bc 26bd 3a3d 28a7 3c3c
00000310: fc08 dd3d 1904 f43d 7e42 a9bd 82a9 86bd
00000320: 8065 88bc dbfd 4b3b 8c38 823d 82bf a93d
00000330: e1f6 973d 294f dc3d b4db 503c b78d ae3d
00000340: b700 f5bd 3dfa 5b3d ad11 6b3e 769f 063e
00000350: d60e 3c3a 35ed 1b3d c1b5 193e 79bc 26be
00000360: d349 1c3e b6ad 33be 78ca cf3d f626 a73d
00000370: 08c5 04bd 8be0 df3c eac4 dcbc 5249 56be
00000380: 9fa6 ff3d c031 dab9 c4cd f43d ba3e f4bd
00000390: aabc b8bd a2f8 4bbe ef9b 22bc 8f49 21be
000003a0: b2f7 af3d dddf 8cbc dec7 0a3d d11a 31be
000003b0: 2c31 d83d d740 11be 0b65 d83d 7fd4 b2bd
000003c0: 5678 c43c a38d 3f3e 23ee cd3c 5700 18be
000003d0: 4ebb ffbd 749a a83d e373 f4bd c053 963c
000003e0: fc18 f13d 5d5b 723d 5c0e a5bc bfdc 7c3d
000003f0: 7cb1 c7bd 5ad1 01bd 1744 3b3d d0e1 d33c

cond_trans.0.bias f4 [100]
0.12372665 -0.18585111 -0.091495045 -0.15985356 -0.029370612 0.010152193 -0.14590019 0.09339986
-0.14968984 0.13007042 0.09191736 -0.05033806 -0.0636355 -0.10074718 -0.124777585 -0.08788916
-0.092840426 -0.17235892 -0.122167595 -0.015066476 -0.18329239 0.008008241 -0.12031692 -0.050513383
0.04020316 -0.20514415 -0.16480854 0.014557861 0.06554464 -0.010506004 -0.10056387 0.12940802
0.08997522 -0.13423756 -0.16245753 0.07656183 0.09273661 0.012404981 0.09729678 -0.16886099
-0.15816933 -0.042756665 -0.1325101 0.059657354 -0.23071218 0.07154541 -0.1842431 -0.1904474
-0.07818621 -0.11775269 0.14094879 -0.1639684 -0.16480576 -0.10591925 -0.053222194 -0.04779266
0.18608296 -0.068065025 -0.09580716 0.13755144 -0.110235564 -0.15132485 0.042893145 -0.046735328
-0.053356305 0.014573161 -0.057428908 -0.17966795 -0.06894699 0.10111228 -0.10773326 0.08327504
0.05832981 -0.061999675 -0.15575044 -0.15349527 0.037289422 -0.0549454 0.009032893 -0.20662475
-0.23406847 -0.12306711 0.07180712 -0.224514 0.039961126 -0.059160646 -0.15775305 -0.18345928
0.010020169 -0.10087753 -0.04034604 -0.17793465 -0.17546047 0.057005685 -0.13993451 -0.092296734
-1.1890515e-05 0.037621442 -0.18758999 -0.18939218
00000000: 6664 fd3d c14f 3ebe c161 bbbd a7b0 23be
00000010: a39a f0bc 6255 263c dc66 15be 6d48 bf3d
00000020: 4b48 19be 2e31 053e 2b3f bc3d 482f 4ebd
00000030: 5453 82bd 8a54 cebd 648b ffbd 3bff b3bd
00000040: 1f23 bebd db7e 30be 0133 fabd 61d9 76bc
00000050: 00b1 3bbe ff34 033c b868 f6bd 1fe7 4ebd
00000060: 12ac 243d 4f11 52be 92c3 28be 1884 6e3c
00000070: 453c 863d 6021 2cbc 6ef4 cdbd 8983 043e
00000080: ee44 b83d 9275 09be 445b 26be 73cc 9c3d
00000090: b1ec bd3d 433e 4b3c 8943 c73d e5e9 2cbe
000000a0: 24f7 21be 9d21 2fbd bab0 07be 455b 743d
000000b0: d03f 6cbe 6686 923d 39aa 3cbe a504 43be
000000c0: 1720 a0bd 5328 f1bd e154 103e 55e7 27be
000000d0: d7c2 28be 31ec d8bd 84ff 59bd 3cc2 43bd
000000e0: 888c 3e3e ad65 8bbd 8b36 c4bd 49da 0c3e
000000f0: 2fc3 e1bd e7f4 1abe b9b0 2f3d 8b6d 3fbd
00000100: 248c 5abd 44c4 6e3c 933a 6bbd e0fa 37be
00000110: 1434 8dbd f413 cf3d 41a3 dcbd 1b8c aa3d
00000120: 3deb 6e3d 5ff3 7dbd 0b7d 1fbe dd2d 1dbe
00000130: cbbc 183d 6e0e 61bd b3fe 133c 7095 53be
00000140: a5af 6fbe 9c0a fcbd 9d0f 933d ffe6 65be
00000150: 47ae 233d 6f52 72bd 048a 21be c0dc 3bbe
00000160: a32b 243c e198 cebd e441 25bd 8034 36be
00000170: e9ab 33be cb7e 693d fe4a 0fbe 1206 bdbd
00000180: 607d 47b7 f118 1a3d 9717 40be 06f0 41be

cond_trans.2.weight f4 [100, 100]
0.089665234 0.012468538 0.09765232 -0.077988654 0.062022228 -0.046729457 -0.085174955 0.016940959
-0.09832105 -0.05416174 0.043955833 0.077193454 -0.06397375 0.0057696435 -0.040658657 0.11514896
0.06961928 0.11083554 0.04555658 -0.013129856 0.050673116 0.06818221 -0.09411781 0.06558081
0.037785813 -0.18661477 -0.25314054 -0.030510515 -0.030031333 0.006041041 0.03237949 0.055158157
-0.031227684 0.07172376 0.10109802 -0.09024051 0.12164464 0.07248133 0.0719464 0.06619571
0.08587698 0.050105017 -0.016715843 0.030799504 0.025796264 -0.055939905 -0.25426 0.023803921
-0.009098553 0.118785806 0.0060032434 -0.0035644618 -0.06468958 0.054074734 0.06281876 -0.1047111
-0.008769405 0.049971335 -0.04572069 0.10912724 0.033701785 -0.0040949057 0.0064683724 0.03291178
0.023074973 -0.05026365 -0.11929853 0.088163204 -0.111638315 0.093228474 -0.24048097 0.012270972
-0.03024422 -0.036234062 -0.061241474 -0.16829078 0.056253444 -0.018693363 0.0058507174 0.109914675
-0.15191677 -0.119333416 0.08551733 0.20850536 -0.05020439 -0.05347905 -0.026064843 -0.10385419
0.05889993 -0.04463568 0.016723296 0.16794893 0.16425863 -0.055855755 0.055128556 -0.008533514
0.094505124 0.06540258 0.012234184 0.0040425826 0.04503983 -0.026081383 0.10580155 -0.18832204
-0.23049964 -0.033454742 -0.29762912 0.026282195 -0.07004234 -0.17319858 0.031271655 -0.06481472
-0.4737094 0.043989576 -0.13796133 0.070589215 -0.05317664 -0.06882653 0.089428335 -0.021974249
0.34708342 -0.17469734 -0.44088 0.06584118 -0.016223134 -0.42117286 -0.09168506 0.05522725
-0.03177041 0.094888285 -0.07426738 -0.06462462 -0.022774834 0.15223345 0.031164376 -0.052135374
0.013472043 -0.07946433 -0.067328446 -0.009136193 -0.04516607 -0.3337839 -0.11958082 -0.046691317
-0.22998312 -0.21875228 -0.082497455 0.24658422 -0.019523522 0.12650362 -0.11271955 -0.047918815
-0.07121571 0.18962766 0.04680695 -0.15516327 0.04068441 -0.003318542 0.06002514 0.048750468
-0.033950705 -0.04066398 0.02415489 -0.06246008 -0.035238225 -0.095736094 -0.07889469 -0.005770552
0.080968894 0.033802465 -0.30226758 0.003681006 0.008812557 0.22294511 0.059367903 -0.114273906
0.0016617056 0.069496505 -0.01790056 -0.060273133 -0.1404592 -0.001390618 0.0025027266 -0.13230799
0.21169576 -0.19806136 -0.02017685 0.117037475 -0.39993984 -0.15680805 -0.004027471 0.0194766
-0.109496206 0.045803897 0.068467714 0.16637868 -0.0075523974 -0.029269729 0.07622931 -0.034703128
0.066997714 0.028717905 0.020048697 0.0073651196 0.076648556 0.04524705 0.071911834 -0.004903006
-0.051242046 -0.06032772 -0.10506062 -0.030340075 0.00032324195 -0.01866103 -0.048490595 0.030239372
0.07495315 -0.1031286 -0.039147895 0.061851706 -0.013529169 -0.094008155 0.001988185 0.054201104
-0.081767164 -0.08497291 0.05939833 -0.11026225 0.01058446 0.062259644 0.055234615 0.00024383068
-0.06315016 0.0041399295 -0.059492372 -0.085903026 -0.04712516 -0.067863956 0.018641617 0.06612552
-0.013462379 -0.07042795 0.009370538 0.07463193 0.055867292 -0.020796252 -0.010946119 -0.084262125
-0.0006615414 0.024467757 -0.0021535347 0.019517463 0.025890922 -0.0034569502 -0.04733546 -0.06522881
00000000: 68a2 b73d d748 4c3c f1fd c73d 84b8 9fbd
00000010: 050b 7e3d 6367 3fbd 3570 aebd c4c7 8a3c
00000020: 8c5c c9bd b3d8 5dbd 080b 343d 9a17 9e3d
00000030: ab04 83bd 470f bd3b b189 26bd 38d3 eb3d
00000040: 8e94 8e3d befd e23d 8999 3a3d 9c1e 57bc
00000050: 9d8e 4f3d 1da3 8b3d d7c0 c0bd 3b4f 863d
00000060: 4cc5 1a3d f117 3fbe a39b 81be 30f1 f9bc
00000070: 4504 f6bc edf3 c53b 5ba0 043d 85ed 613d
00000080: 33d1 ffbc e8e3 923d 7b0c cf3d 04d0 b8bd
00000090: d320 f93d 1771 943d a258 933d 9e91 873d
000000a0: 45e0 af3d eb3a 4d3d aaef 88bc 3e4f fc3c
000000b0: b052 d33c 3e21 65bd 5e2e 82be 7100 c33c
000000c0: 1912 15bc f945 f33d dbb6 c43b bf99 69bb
000000d0: f87b 84bd 787d 5d3d 1fa7 803d c672 d6bd
000000e0: 8dad 0fbc beae 4c3d 9e45 3bbd 1a7e df3d
000000f0: e20a 0a3d 8f2e 86bb a4f4 d33b 81ce 063d
00000100: ba07 bd3c 42e1 4dbd ca52 f4bd e98e b43d
00000110: a1a2 e4bd 92ee be3d a540 76be 300c 493c
00000120: bac2 f7bc 2b6a 14bd 57d8 7abd 6b54 2cbe
00000130: 036a 663d d322 99bc 60b7 bf3b f21a e13d
00000140: 1290 1bbe 1465 f4bd b623 af3d 6e82 553e
00000150: 1ea3 4dbd d90c 5bbd f085 d5bc 81b1 d4bd
00000160: 0e41 713d e7d3 36bd 4bff 883c cefa 2b3e
00000170: 6a33 283e 01c9 64bd 7bce 613d 27d0 0bbc
00000180: e78b c13d caf1 853d e371 483c a477 843b
00000190: af7b 383d a0a8 d5bc 7cae d83d 7ed7 40be
000001a0: 1908 6cbe d707 09bd d862 98be c24d d73c
000001b0: 5c72 8fbd f85a 31be b516 003d 94bd 84bd
000001c0: 0a8a f2be 6a2e 343d bc45 0dbe 1491 903d
000001d0: c0cf 59bd ecf4 8cbd 3426 b73d 5703 b4bc
000001e0: ebb4 b13e dce3 32be 06bb e1be bed7 863d
000001f0: 61e6 84bc f8a3 d7be 60c5 bbbd f835 623d
00000200: b021 02bd ca54 c23d 7f19 98bd ea59 84bd
00000210: 4a92 babc 16e3 1b3e 6f4c ff3c e78b 55bd
00000220: d8b9 5c3c 32be a2bd 7fe3 89bd f9af 15bc
00000230: 0f00 39bd b9e5 aabe cae6 f4bd 653f 3fbd
00000240: b280 6bbe 9900 60be 6df4 a8bd 9380 7c3e
00000250: cbef 9fbc 2a8a 013e 82d9 e6bd 8546 44bd
00000260: 8bd9 91bd c12d 423e a5b8 3f3d 1fe3 1ebe
00000270: b2a4 263d e57b 59bb ecdc 753d 92ae 473d
00000280: e50f 0bbd 468f 26bd 7ae0 c53c 24d6 7fbd
00000290: f555 10bd 4911 c4bd 8a93 a1bd e616 bdbb
000002a0: 05d3 a53d 7474 0a3d d1c2 9abe 083d 713b
000002b0: 8b62 103c b94b 643e c22b 733d 7008 eabd
000002c0: 96cd d93a 2f54 8e3d 32a4 92bc f6e0 76bd
000002d0: 89d4 0fbe 6645 b6ba c904 243b bf7b 07be
000002e0: c6c6 583e 99d0 4abe ec49 a5bc 58b1 ef3d
000002f0: eac4 ccbe 4a92 20be e0f8 83bb 648d 9f3c
00000300: 8c3f e0bd de9c 3b3d cd38 8c3d 2c5f 2a3e
00000310: 1a7a f7bb 12c7 efbc 1d1e 9c3d de24 0ebd
00000320: 1936 893d d041 eb3c 2a3d a43c 1a57 f13b
00000330: ebf9 9c3d f854 393d 8346 933d 65a9 a0bb
00000340: 2ee3 51bd 331a 77bd 062a d7bd c08b f8bc
00000350: cd78 a939 04df 98bc 139e 46bd 8fb8 f73c
00000360: 0981 993d 1635 d3bd 8b59 20bd 3758 7d3d
00000370: 73a9 5dbc 5987 c0bd 364c 023b fa01 5e3d
00000380: 8b75 a7bd 4706 aebd aa4b 733d 2dd1 e1bd
00000390: 716a 2d3c f803 7f3d b13d 623d cdac 7f39
000003a0: df54 81bd 3fa8 873b 46ae 73bd eded afbd
000003b0: 5006 41bd 42fc 8abd 4eb6 983c d16c 873d
000003c0: 4f91 5cbc 873c 90bd e386 193c a0d8 983d
000003d0: 1ad5 643d e75c aabc 5a57 33bc 9f91 acbd
000003e0: 4b6b 2dba 9b70 c83c 5122 0dbb 16e3 9f3c
000003f0: 3319 d43c 008e 62bb d4e2 41bd af96 85bd

cond_trans.2.bias f4 [100]
0.032081757 0.033266265 -0.098804235 -0.08566528 0.024662279 0.03483618 -0.049094375 0.04343222
-0.085244566 0.10060727 -0.054344356 0.04911924 -0.1186255 0.036442336 0.0378616 0.0055424753
-0.10778344 -0.054643802 0.110599324 0.077379815 -0.09428143 -0.011610528 -0.057862192 -0.041417826
0.039886966 0.1369225 -0.056400616 0.05864797 0.09148251 -0.023705686 -0.030217672 0.084657095
-0.06246141 -0.07960466 0.060580537 -0.02157284 0.033081293 -0.102270596 0.07253998 0.10989748
-0.11970347 -0.08994891 -0.11389822 -0.058962747 0.049642205 0.13553256 -0.12091156 0.002742082
-0.014691552 0.03122172 -0.0071744095 0.11784017 0.030306734 -0.12786257 -0.071550064 0.014176763
0.122895055 -0.0074662385 -0.09620615 -0.008595692 0.10586643 0.025235549 0.1312535 -0.033640116
-0.104401246 -0.13242516 -0.12026497 -0.10282882 0.07051617 -0.1283674 -0.05731292 -0.012269854
-0.03906648 0.044844612 0.048640773 -0.027839018 -0.073606044 -0.02584523 0.11263909 0.11797521
-0.11455004 0.044741526 0.08398672 -0.037690822 0.07444653 0.12808938 0.012923602 -0.08032656
0.0051222164 -0.022347892 0.04733828 0.1041603 -0.11809962 -0.07235237 -0.101448044 0.033417687
0.018233033 -0.056383826 0.09891052 0.13878453
00000000: 2968 033d 3542 083d e059 cabd 4771 afbd
00000010: 8c08 ca3c 62b0 0e3d 2f17 49bd fce5 313d
00000020: b494 aebd 2f0b ce3d 3098 5ebd 4231 493d
00000030: edf1 f2bd 8f44 153d c414 1b3d a79d b53b
00000040: 90bd dcbd 2ed2 5fbd e681 e23d 4f79 9e3d
00000050: 9f16 c1bd 163a 3ebc e800 6dbd bda5 29bd
00000060: 8460 233d 6935 0c3e 5504 67bd db38 703d
00000070: 2f5b bb3d 6d32 c2bc 0d8b f7bc b360 ad3d
00000080: 89d7 7fbd c507 a3bd 4c23 783d 86b9 b0bc
00000090: 4080 073d 3f73 d1bd d78f 943d ee11 e13d
000000a0: 1827 f5bd 2237 b8bd 7843 e9bd ec82 71bd
000000b0: a055 4b3d 0cc9 0a3e 7ba0 f7bd 81b4 333b
000000c0: d6b4 70bc b1c4 ff3c 4f17 ebbb 3056 f13d
000000d0: d445 f83c 68ee 02be d788 92bd a745 683c
000000e0: 67b0 fb3d 59a7 f4bb bb07 c5bd f2d4 0cbc
000000f0: 80d0 d83d c8ba ce3c 5167 063e 38ca 09bd
00000100: 52d0 d5bd 769a 07be 7b4d f6bd eb97 d2bd
00000110: c86a 903d be72 03be f4c0 6abd 7f07 49bc
00000120: 2c04 20bd fcae 373d 8c3b 473d a70e e4bc
00000130: c4be 96bd 60b9 d3bc 53af e63d fd9c f13d
00000140: 3699 eabd e442 373d 3b01 ac3d b161 1abd
00000150: 6c77 983d dd29 033e 84bd 533c 4082 a4bd
00000160: 44d8 a73b ed12 b7bc c9e5 413d ff51 d53d
00000170: 37de f1bd 7b2d 94bd fec3 cfbd fce0 083d
00000180: 715d 953c baf2 66bd 9991 ca3d 881d 0e3e

cond_trans.4.weight f4 [100, 100]
0.030783007 0.10364024 0.009967699 -0.07040763 -0.12732808 -0.06656298 0.1116164 -0.046607427
0.0686468 -0.07414918 0.115054384 -0.15561555 0.037242703 0.06453701 0.06850904 -0.099376634
0.046861943 0.027793638 -0.0021168585 -0.27425578 -0.08612381 -0.104806006 -0.07442635 0.26586673
0.27761105 0.045101695 0.050293315 0.016363712 0.14440645 0.059091 -0.15180743 0.15527315
-0.033222344 0.06656272 0.059097107 -0.049797036 0.03371312 -0.021385564 -0.10412628 0.010491477
0.016242903 -0.17011276 0.008637428 -0.063624084 -0.03091869 -0.0307556 0.09095258 0.266695
0.109645076 -0.14228617 -0.24892582 -0.13572255 -0.044949874 0.07822809 -0.16144438 -0.08480979
-0.06485506 0.10774493 0.06073736 -0.023265729 0.106784 -0.11691777 -0.06800644 0.015960647
-0.04242537 -0.09178742 0.010347232 0.020762054 0.068583444 -0.034074683 -0.01711836 -0.045941472
-0.060176782 -0.00783805 -0.019192085 -0.16012594 -0.07441192 0.11088731 -0.017532235 0.008900951
-0.2595755 -0.14919867 0.020670852 -0.30324966 -0.08702426 0.08275436 -0.33900508 0.03838714
-0.014883006 0.016809413 0.20537151 -0.06354283 -0.069679774 -0.03116503 -0.095986925 0.056474324
-0.016267966 -0.0023965393 0.09703704 0.032010842 0.01608754 0.013638049 -0.051487193 -0.04444832
-0.0132909855 0.022284105 -0.10475973 0.022467116 -0.036216237 0.034088425 -0.040820234 -0.0060733524
0.06075054 -0.01644118 0.04236934 -0.021826023 -0.025888687 0.074111186 -0.014448493 0.092067234
0.016540224 0.04986084 -0.017817145 -0.14983915 -0.0010635533 0.00035796015 0.0027265747 0.08632582
-0.059915982 -0.10142459 0.10520612 -0.020547522 -0.020252286 0.058941644 -0.02357571 0.07016175
0.010729214 0.03801653 0.035375945 0.02990941 0.025603134 0.13103558 -0.025678663 0.010309816
-0.014454657 -0.041364063 -0.010519311 -0.077896915 -0.14961828 0.22863784 0.08034481 0.15910004
-0.06716457 0.016096052 0.11306662 0.041608628 -0.0026917714 -0.08707169 0.018885938 0.081129774
0.032929275 0.04821503 0.13906686 0.015383425 0.034917083 0.03669617 -0.06668615 0.057675537
0.061380725 0.054357883 -0.21326704 -0.010964222 -0.018817734 0.04285078 0.034208424 0.106346436
0.052317955 -0.00034310308 -0.055308513 0.11867045 0.19150884 -0.061409473 0.0036697935 -0.027592465
0.10039963 0.026879182 0.16664337 -0.09171964 0.0857212 0.060793504 -0.0088159265 0.08015705
-0.012781112 -0.027369937 -0.07116518 0.05236946 0.007165077 -0.08318699 -0.035095014 0.053059928
0.06947943 0.09316673 0.028538974 0.08902584 0.0745451 0.14340149 -0.061942704 0.008366297
-0.06573639 -0.23974746 0.11022325 -0.11507732 -0.038775403 0.06438571 0.08344003 0.0171334
-0.03488022 -0.053488176 0.061942298 -0.21705778 0.014164948 0.01600594 -0.063661925 0.1803608
-0.1152778 0.016021527 -0.11311299 0.028371919 0.11336399 0.10038966 -0.14602122 0.09458572
-0.08232047 0.12077293 0.17162973 -0.015004555 -0.13480619 0.045191888 -0.045987163 0.12142155
0.036252413 0.06175699 -0.09367119 -0.027704617 -0.25365478 0.0913958 0.03866982 0.16980006
0.2812978 0.054594032 0.024378892 0.109754056 0.015262792 -0.045824353 -0.018768774 0.05968733
00000000: a52c fc3c 5641 d43d 8f4f 233c e031 90bd
00000010: 4b62 02be 2c52 88bd 2497 e43d 6ee7 3ebd
00000020: b296 8c3d 86db 97bd a2a1 eb3d af59 1fbe
00000030: ce8b 183d fb2b 843d 784e 8c3d fa85 cbbd
00000040: 4ff2 3f3d 7caf e33c feba 0abb 416b 8cbe
00000050: ae61 b0bd 88a4 d6bd d86c 98bd af1f 883e
00000060: 0923 8e3e 8ebc 383d 5d00 4e3d 310d 863c
00000070: 49df 133e 6809 723d 6873 1bbe edff 1e3e
00000080: 2714 08bd 0952 883d cf0f 723d faf7 4bbd
00000090: c516 0a3d c730 afbc 2940 d5bd 72e4 2b3c
000000a0: d60f 853c 0a32 2ebe 0084 0d3c 584d 82bd
000000b0: 3149 fdbc 2bf3 fbbc 5945 ba3d 3f8c 883e
000000c0: 998d e03d 77b3 11be 69e6 7ebe dafa 0abe
000000d0: 5c1d 38bd 0d36 a03d ad51 25be c1b0 adbd
000000e0: bbd2 84bd 60a9 dc3d bdc7 783d c597 bebc
000000f0: 92b1 da3d 9572 efbd f646 8bbd e7bf 823c
00000100: 3ac6 2dbd 0bfb bbbd 7087 293c 2f15 aa3c
00000110: 7a75 8c3d e591 0bbd ce3b 8cbc 202d 3cbd
00000120: ee7b 76bd 2a6b 00bc b838 9dbc 0ef8 23be
00000130: 4765 98bd e318 e33d c39f 8fbc 4bd5 113c
00000140: 14e7 84be 89c7 18be eb55 a93c 8a43 9bbe
00000150: c639 b2bd 1e7b a93d 1392 adbe d53b 1d3d
00000160: dad7 73bc e5b3 893c e94c 523e be22 82bd
00000170: 45b4 8ebd ce4d ffbc cb94 c4bd 9f51 673d
00000180: 6644 85bc 420f 1dbb 5bbb c63d cd1d 033d
00000190: 04ca 833c 2072 5f3c 3ce4 52bd 710f 36bd
000001a0: 6fc2 59bc 288d b63c 458c d6bd f50c b83c
000001b0: 7a57 14bd 4ea0 0b3d 1e33 27bd f902 c7bb
000001c0: 8fd5 783d a7af 86bc 798b 2d3d 7dcc b2bc
000001d0: 8314 d4bc 9bc7 973d 5fb9 6cbc bf8d bc3d
000001e0: 5d7f 873c e13a 4c3d 43f5 91bc 6f6f 19be
000001f0: ed66 8bba 99ac bb39 55b0 323b 97cb b03d
00000200: 766a 75bd b2b7 cfbd 4e76 d73d 4753 a8bc
00000210: 1fe8 a5bc cb6c 713d d921 c1bc f7b0 8f3d
00000220: 96c9 2f3c 39b7 1b3d 5ee6 103d 9404 f53c
00000230: aabd d13c 312e 063e 0f5c d2bc 81ea 283c
00000240: 3ad3 6cbc 5d6d 29bd 3059 2cbc 6b88 9fbd
00000250: 8935 19be 0a20 6a3e d28b a43d 1feb 223e
00000260: 948d 89bd dedb 833c 798f e73d cf6d 2a3d
00000270: 6e68 30bb a452 b2bd afb6 9a3c 5e27 a63d
00000280: d9e0 063d 207d 453d 8b67 0e3e c30a 7c3c
00000290: 3705 0f3d b94e 163d c092 88bd 2f3d 6c3d
000002a0: 5b6a 7b3d 5fa6 5e3d ad62 5abe 48a3 33bc
000002b0: a627 9abc 4d84 2f3d 221e 0c3d 29cc d93d
000002c0: 5a4b 563d 84e2 b3b9 2e8b 62bd 7e09 f33d
000002d0: e51a 443e 8088 7bbd eb80 703b 9809 e2bc
000002e0: 529e cd3d bb31 dc3c 8fa4 2a3e 82d7 bbbd
000002f0: 998e af3d 9c02 793d ad70 10bc 6129 a43d
00000300: df67 51bc eb36 e0bc 0dbf 91bd 5c81 563d
00000310: 06c9 ea3b f15d aabd cabf 0fbd 5e55 593d
00000320: 3b4b 8e3d 33ce be3d 91ca e93c 2e53 b63d
00000330: 1aab 983d d7d7 123e a2b7 7dbd cb12 093c
00000340: cda0 86bd 5c80 75be babc e13d a8ad ebbd
00000350: f5d2 1ebd a8dc 833d 9be2 aa3d 585b 8c3c
00000360: 90de 0ebd 6b16 5bbd 35b7 7d3d 6544 5ebe
00000370: 1914 683c e41e 833c 2f61 82bd 80b0 383e
00000380: c416 ecbd 943f 833c c9a7 e7bd 3a6c e83c
00000390: 612b e83d 1899 cd3d 9686 15be 28b6 c13d
000003a0: a297 a8bd cc57 f73d b4bf 2f3e aad5 75bc
000003b0: a20a 0abe 211b 393d 095d 3cbd ddab f83d
000003c0: 697d 143d e6f4 7c3d aed6 bfbd cbf4 e2bc
000003d0: 0adf 81be b92d bb3d 3f64 1e3d 11e0 2d3e
000003e0: 4406 903e fe9d 5f3d 3eb6 c73c bcc6 e03d
000003f0: ca10 7a3c 51b2 3bbd f9c0 99bc b47a 743d

cond_trans.4.bias f4 [100]
0.09400662 0.12972766 -0.015332138 0.057912637 0.102438666 0.15708831 -0.09039675 0.1048144
-0.10782168 0.074813165 0.20174566 0.05567051 -0.025108922 -0.07089769 -0.053713184 0.096662536
0.294569 -0.009617239 0.12701516 -0.050683454 -0.074106 -0.001180395 0.009006767 -0.082760274
0.07750912 -0.10240556 0.061085813 -0.06562863 -0.0018926859 0.1100616 0.036603075 0.08857043
-0.044686448 0.16437809 0.09541646 -0.035433166 0.11956672 0.07652989 0.07523279 0.1638073
-0.053421415 0.08919523 0.0012092147 -0.09334879 -0.10921927 -0.08498087 -0.05234729 -0.10824495
0.26093552 0.17443854 0.11340511 0.04541227 0.05738231 -0.053961936 0.13601257 0.119538195
-0.09922844 0.1138072 0.0998821 -0.008798052 -0.063194536 0.07710212 -0.09057587 0.12362202
0.08147978 0.11776754 0.04330606 -0.04021724 0.1263429 -0.10134912 -0.024374716 0.10005571
-0.116022184 -0.028307246 0.12652609 -0.09502357 -0.064318776 0.033657953 -0.023720963 0.12506771
0.003173995 -0.10768523 0.09053463 0.005350713 -0.088962905 -0.085852005 -0.12494554 0.037599977
0.16354807 0.108452596 -0.06695073 -0.08069392 -0.10008183 0.051026262 0.15235716 0.08063473
0.14939259 0.07974755 0.108594805 0.096919745
00000000: 8b86 c03d 54d7 043e a633 7bbc cd35 6d3d
00000010: 5dcb d13d c2db 203e ee21 b9bd efa8 d63d
00000020: 9dd1 dcbd a537 993d 6a96 4e3e c306 643d
00000030: 3ab1 cdbc cf32 91bd 5b02 5cbd 02f7 c53d
00000040: bfd1 963e a091 1dbc 4310 023e 7499 4fbd
00000050: e3c4 97bd 7cb7 9aba 1e91 133c 387e a9bd
00000060: 1abd 9e3d 02ba d1bd 1e35 7a3d 4e68 86bd
00000070: 0014 f8ba fa67 e13d 1bed 153d 6a64 b53d
00000080: 2309 37bd bb52 283e b469 c33d 5e22 11bd
00000090: 66df f43d b4bb 9c3d a613 9a3d 1abd 273e
000000a0: 6ad0 5abd fdab b63d 837e 9e3a a72d bfbd
000000b0: 5aae dfbd 730a aebd 1d6a 56bd 87af ddbd
000000c0: 5799 853e 04a0 323e f040 e83d 3702 3a3d
000000d0: b709 6b3d 3107 5dbd e146 0b3e 71d0 f43d
000000e0: 4838 cbbd c013 e93d fd8e cc3d b425 10bc
000000f0: 236c 81bd b7e7 9d3d d77f b9bd 8b2d fd3d
00000100: dfde a63d 1c30 f13d b261 313d d5ba 24bd
00000110: 0860 013e 2190 cfbd 7cad c7bc 02ea cc3d
00000120: 0a9d edbd 99e4 e7bc 0e90 013e b89b c2bd
00000130: 90b9 83bd ecdc 093d 7752 c2bc c011 003e
00000140: cd02 503b 138a dcbd 386a b93d 0955 af3b
00000150: 2f32 b6bd 2dd3 afbd 73e3 ffbd 6f02 1a3d
00000160: 2579 273e 651c de3d 771d 89bd db42 a5bd
00000170: b4f7 ccbd ea00 513d 8403 1c3e d223 a53d
00000180: 5ffa 183e af52 a33d f466 de3d dc7d c63d

p_u.weight f4 [120, 100]
0.21064904 -0.022415688 0.1676649 -0.20828722 -0.099960946 -0.11776038 -0.007770261 -0.195
0.016514648 0.07911347 0.09419628 -0.14665367 -0.10302829 -0.053422973 -0.057298716 -0.22016336
0.047771428 0.14055412 0.08148653 -0.07862123 0.08568435 -0.018101374 0.15878831 -0.05404524
-0.086040705 0.09355123 -0.20551547 0.06258109 0.08377951 0.17321688 0.33693156 0.25645733
0.0056248903 -0.13791841 -0.09547253 -0.03041948 -0.2514075 0.14249718 -0.2044045 -0.10671158
-0.14445683 -0.031170113 -0.15900761 0.03964856 0.047316954 -0.09617771 -0.06846795 -0.03845242
0.039846025 -0.037271537 -0.15588926 0.2372327 -0.23908484 0.03101376 0.07587823 0.23364069
-0.053303756 0.298279 0.16668613 0.06349347 -0.09380976 0.24028467 0.06589725 0.10309975
0.15242724 0.24918011 0.20381957 0.008158541 -0.13910896 -0.010191204 0.06064219 0.1911092
-0.04018094 -0.094886065 -0.13149838 0.09445211 0.03287233 0.11050204 0.008836442 0.01519975
-0.22922327 -0.07804926 -0.10183102 0.14438671 -0.04513886 0.045144856 -0.06322376 -0.22892907
-0.013028502 -0.14583738 0.08075183 -0.1175949 -0.09611871 -0.18752638 0.15222317 0.27228215
0.16155136 0.19070415 0.053957883 0.13893814 0.17257328 -0.024530085 0.19315463 -0.1707209
-0.12594418 -0.050463047 0.022905353 -0.17769289 -0.102293335 0.018037831 -0.07303145 -0.105574
-0.02412154 0.070169345 0.04589379 -0.06986102 0.02972512 0.022626553 0.17130555 0.11242649
0.014645657 0.06295297 0.0537466 0.016980479 -0.046106987 0.061448634 -0.24823523 -0.051762797
-0.09962589 0.20693336 0.27039823 0.06838324 -0.0919978 -0.17431818 -0.17923294 0.013828786
-0.029816383 0.2329972 -0.005834026 -0.09421053 -0.024579115 0.055868447 -0.06737048 0.0323462
0.09494723 -0.07048843 0.02228122 0.07438389 0.009406578 -0.09130589 -0.018527018 0.22628465
-0.13664734 -0.014695098 0.11231229 0.07051708 0.0073788534 0.13938145 0.17124954 0.074792005
0.065829866 0.05385134 -0.08650917 0.20411003 0.14665405 0.13323349 0.23344441 0.058894094
-0.05712912 0.08148124 0.04039347 0.13485216 -0.053659428 0.033724125 -0.105892055 -0.022148678
-0.01326803 0.20847386 -0.0001820368 -0.020744476 -0.17243157 -0.07016524 -0.16189906 0.20288278
0.02332543 -0.031164488 0.0034800635 -0.26637834 0.041959427 -0.059355702 -0.007005999 -0.08612301
-0.026879888 -0.2540758 0.13428788 0.12344429 0.1417708 0.060653824 0.0130937565 0.10728467
-0.17182082 -0.04821668 -0.02448112 0.09675118 0.039931253 -0.025060352 -0.0004184204 0.05649563
0.028151102 -0.06650506 0.06189369 0.21761563 -0.040582262 -0.03330446 0.004274744 0.053138983
-0.05933423 0.048977293 -0.1634635 0.07865947 0.058902636 0.08127395 0.051723376 -0.063665986
-0.0011925136 -0.039048795 0.06039707 -0.009418401 0.09468219 -0.11284191 -0.15230526 0.0071241725
0.07431374 0.10455175 0.16129187 0.05371677 0.121697284 -0.077063665 0.15140244 0.054131087
0.1048284 -0.0018574352 0.038252026 -0.036465038 -0.04470698 0.08721884 0.07672637 -0.049549226
0.016713925 -0.05393101 0.06497152 -0.2757377 0.1696547 -0.021090599 0.040750008 -0.18958473
00000000: 62b4 573e 1ba1 b7bc 59b0 2b3e 3f49 55be
00000010: 53b8 ccbd 5b2c f1bd ac9d febb 14ae 47be
00000020: ba49 873c 3e06 a23d fbe9 c03d 612c 16be
00000030: 7f00 d3bd 0cd2 5abd 0fb2 6abd 8172 61be
00000040: f9ab 433d 6bed 0f3e 69e2 a63d 2b04 a1bd
00000050: 477b af3d 5549 94bc 6799 223e 8b5e 5dbd
00000060: 1c36 b0bd ca97 bf3d a672 52be 842a 803d
00000070: 9794 ab3d c45f 313e 4b82 ac3e 604e 833e
00000080: 0051 b83b 7c3a 0dbe 1a87 c3bd 4632 f9bc
00000090: 7cb8 80be c8ea 113e 6a4f 51be 9a8b dabd
000000a0: 7eec 13be 7758 ffbc e4d2 22be 8766 223d
000000b0: 6ccf 413d d2f8 c4bd ed38 8cbd 4980 1dbd
000000c0: 9635 233d 0aaa 18bd 6fa1 1fbe 21ed 723e
000000d0: a8d2 74be 9210 fe3c 0c66 9b3d 813f 6f3e
000000e0: 0a55 5abd 06b8 983e c5af 2a3e dd08 823d
000000f0: 551f c0bd 2f0d 763e 23f5 863d f625 d33d
00000100: e315 1c3e 1229 7f3e 14b6 503e 67ab 053c
00000110: 9472 0ebe 02f9 26bc f263 783d 21b2 433e
00000120: c594 24bd a053 c2bd 83a7 06be 1c70 c13d
00000130: 23a5 063d e54e e23d b9c6 103c 5f08 793c
00000140: 81b9 6abe 4ad8 9fbd c88c d0bd 1cda 133e
00000150: 86e3 38bd d0e9 383d 757b 81bd 626c 6abe
00000160: 8075 55bc 6556 15be 3761 a53d 98d5 f0bd
00000170: e3d9 c4bd ea06 40be 64e0 1b3e 9168 8b3e
00000180: b86d 253e f347 433e f102 5d3d cd45 0e3e
00000190: 0db7 303e 51f3 c8bc 54ca 453e 76d1 2ebe
000001a0: 83f7 00be 57b2 4ebd 02a4 bb3c 20f5 35be
000001b0: 2b7f d1bd 13c4 933c 8391 95bd 2e37 d8bd
000001c0: 899a c5bc f2b4 8f3d 20fb 3b3d 4b13 8fbd
000001d0: 1882 f33c 525b b93c b96a 2f3e dc3f e63d
000001e0: 56f4 6f3c 7ded 803d 6525 5c3d a51a 8b3c
000001f0: aeda 3cbd 90b1 7b3d 6031 7ebe 3a05 54bd
00000200: a908 ccbd 57e6 533e a371 8a3e 830c 8c3d
00000210: 5869 bcbd 7780 32be d788 37be 2292 623c
00000220: 7d41 f4bc d196 6e3e 5b2b bfbb 73f1 c0bd
00000230: 245a c9bc 50d6 643d 89f9 89bd 737d 043d
00000240: b173 c23d 3d5c 90bd 1b87 b63c 9556 983d
00000250: 0c1e 1a3c 95fe babd f9c5 97bc 2ab7 673e
00000260: 48ed 0bbe b5c3 70bc fc03 e63d 426b 903d
00000270: 4fca f13b 03ba 0e3e 0a5c 2f3e 8d2c 993d
00000280: cfd1 863d 3993 5c3d b82b b1bd 3802 513e
00000290: 7b2c 163e 5c6e 083e 0d0c 6f3e ef3a 713d
000002a0: 3900 6abd a3df a63d a073 253d af16 0a3e
000002b0: fdc9 5bbd 4f22 0a3d efdd d8bd 2571 b5bc
000002c0: 2762 59bc 2c7a 553e 22e1 3eb9 52f0 a9bc
000002d0: e791 30be cbb2 8fbd dec8 25be 81c0 4f3e
000002e0: f914 bf3c ab4c ffbc c711 643b be62 88be
000002f0: a6dd 2b3d f71e 73bd 9492 e5bb 4361 b0bd
00000300: 3633 dcbc 3916 82be c382 093e 5cd0 fc3d
00000310: 5d2c 113e 2570 783d 3287 563c 11b8 db3d
00000320: ccf1 2fbe da7e 45bd a18c c8bc 7c25 c63d
00000330: f48e 233d 5e4b cdbc 6f5f dbb9 f667 673d
00000340: 249d e63c ce33 88bd 3d84 7d3d a2d6 5e3e
00000350: 9639 26bd 426a 08bd 2713 8c3b 43a8 593d
00000360: 7308 73bd 6a9c 483d fa62 27be 3718 a13d
00000370: e443 713d f572 a63d e4db 533d 5063 82bd
00000380: 1e4e 9cba a1f1 1fbd eb62 773d a34f 1abc
00000390: bce8 c13d a919 e7bd e9f5 1bbe e471 e93b
000003a0: cd31 983d 3a1f d63d b229 253e 1e06 5c3d
000003b0: 6d3c f93d 8ed3 9dbd 3e09 1b3e 8fb8 5d3d
000003c0: 46b0 d63d 2f75 f3ba 28ae 1c3d 5d5c 15bd
000003d0: ab1e 37bd cb9f b23d b722 9d3d 21f4 4abd
000003e0: a4eb 883c c3e6 5cbd ca0f 853d 7e2d 8dbe
000003f0: f6b9 2d3e 31c6 acbc 7be9 263d 8022 42be

p_u.bias f4 [120]
0.026269825 1.1172932e-05 -0.030310206 -0.054920327 0.018165937 0.0152628375 -0.112058915 -0.063952595
0.007259639 0.05307056 0.062212422 0.08240412 0.009924562 -0.03141494 -0.021791805 0.10088689
-0.12928946 -0.012662619 0.10794003 -0.04188089 -0.14240249 0.02765388 -0.0028815293 -0.024447812
0.12445749 -0.012998015 -0.06681814 0.04221626 0.030117981 0.043209042 -0.1978685 0.02378071
-0.054944474 0.031401247 -0.035879474 -0.024977189 -0.0026607634 -0.0024869924 0.06469498 -0.09827809
-0.05079925 0.09325277 0.06943939 -0.12617111 -0.081575505 -0.061121956 -0.12245415 -0.055252492
-0.04992759 0.021309797 0.07376207 -0.077717595 -0.043056384 0.13287407 0.05622972 -0.005285436
0.19877031 0.06294805 -0.053120732 0.0148100285 -0.33224437 -0.2728851 -0.21212411 -0.32575423
-0.07599224 -0.12940279 -0.2030169 -0.12804759 -0.10069313 -0.27254888 -0.22252077 -0.13869898
-0.120287456 -0.22474863 -0.22807436 -0.17008254 -0.19153526 -0.20905216 -0.3361109 -0.24413544
-0.17153269 -0.33058146 -0.18707226 -0.2599066 -0.13605142 -0.32003623 -0.077509604 -0.2054071
-0.19915624 -0.15044242 -0.2588402 -0.27163053 -0.1387142 -0.27848247 -0.2654869 -0.29028216
-0.22332355 -0.22000115 -0.15706593 -0.18433936 -0.16277988 -0.18541457 -0.24687429 -0.33397663
-0.16089696 -0.29843011 -0.1176137 -0.1757746 -0.10373707 -0.1868764 -0.12162454 -0.21839404
-0.17987905 -0.20608519 -0.15526691 -0.2393541 -0.11791377 -0.26994377 -0.16246362 -0.12493034
00000000: d133 d73c 6173 3b37 1c4d f8bc 23f4 60bd
00000010: bbd0 943c fb10 7a3c 257f e5bd 94f9 82bd
00000020: 44e2 ed3b 8460 593d 74d2 7e3d 7ec3 a83d
00000030: a19a 223c f4ac 00bd ba84 b2bc c99d ce3d
00000040: 7564 04be e076 4fbc aa0f dd3d 4c8b 2bbd
00000050: f5d1 11be 648a e23c 0ad8 3cbb c746 c8bc
00000060: 92e3 fe3d a0f5 54bc f3d7 88bd f5ea 2c3d
00000070: fcb9 f63c f7fb 303d 0a9e 4abe c3cf c23c
00000080: 750d 61bd 989e 003d 5bf6 12bd f69c ccbc
00000090: 3460 2ebb cffc 22bb cd7e 843d 0646 c9bd
000000a0: e012 50bd 4ffb be3d 3d36 8e3d 0033 01be
000000b0: 0f11 a7bd 045b 7abd 3ec9 fabd 7050 62bd
000000c0: df80 4cbd e291 ae3c 9110 973d 672a 9fbd
000000d0: e45b 30bd 2410 083e 2351 663d 7331 adbb
000000e0: 728a 4b3e e8ea 803d 2095 59bd c3a5 723c
000000f0: ef1b aabe 99b7 8bbe 1037 59be 42c9 a6be
00000100: d2a1 9bbd 2a82 04be aae3 4fbe e81e 03be
00000110: 3338 cebd 878b 8bbe 7cdc 63be 1b07 0ebe
00000120: 4559 f6bd 8124 66be 538c 69be 1e2a 2ebe
00000130: d221 44be c511 56be ba16 acbe a4fe 79be
00000140: 44a6 2fbe f941 a9be df8f 3fbe 7a12 85be
00000150: 1051 0bbe cadb a3be 5bbd 9ebd 3d56 52be
00000160: 9def 4bbe 940d 1abe b486 84be 2813 8bbe
00000170: 180b 0ebe 4195 8ebe e6ed 87be dd9f 94be
00000180: eeae 64be fb47 61be e4d5 20be 75c3 3cbe
00000190: c5af 26be 51dd 3dbe 9dcc 7cbe fcfe aabe
000001a0: 2cc2 24be d5cb 98be 74df f0bd 42fe 33be
000001b0: 1a74 d4bd 875c 3fbe 4916 f9bd b0a2 5fbe
000001c0: 3732 38be ff07 53be 4afe 1ebe 3e19 75be
000001d0: c67c f1bd 1236 8abe dd5c 26be 7adb ffbd

q_z.weight f4 [120, 100]
0.077107474 0.042002164 -0.006543266 0.07195812 -0.02848663 0.0878491 0.12083042 0.057509277
0.026347362 -0.013301993 -0.005947136 -0.07515272 0.019267606 0.013499842 0.023304181 -0.057255354
-0.10285895 0.050463937 0.052125078 -0.08522457 0.052194443 -0.09826546 -0.0328014 0.056402776
0.07074812 -0.039728127 0.09006197 0.1412658 0.030985266 -0.07257652 0.060331535 0.007612733
-0.0036835314 -0.0625054 -0.0023146248 -0.09383251 0.04184838 -0.005344306 0.016168699 0.010572891
-0.055491187 0.03639213 0.10085873 0.09119113 -0.08098611 -0.09925401 -0.052982096 0.07549765
0.064732365 0.051852036 -0.02971758 0.013660113 -0.091337964 0.065826476 0.06740358 0.019028636
0.018329924 0.001591129 0.0117954565 -0.08475385 0.037006002 -0.11755374 -0.0941493 -0.012062179
-0.0029056761 -0.109854825 -0.087433375 0.10165163 0.052368976 -0.0068178484 -0.08638578 -0.046660602
0.065670915 -0.027872773 -0.026646052 -0.013963638 -0.008885753 -0.042254474 0.00727016 -0.09042218
-0.046700373 -0.0052468562 -0.000274495 0.036366552 0.04448193 0.065930635 -0.0656516 0.06963264
0.044747826 -0.03903583 0.010232009 -0.07013058 0.028333962 -0.07807635 -0.0070132785 -0.0035560182
-0.011777251 0.0064989757 0.04808362 0.00036935406 -0.006777512 -0.020027695 0.05985189 -0.026125303
-0.058405012 -0.029929345 0.052095372 0.07803299 -0.012362355 0.07304552 0.024471667 0.083844066
0.034600466 -0.008605625 0.028668677 -0.053239327 0.049064077 0.106467836 0.063799776 0.0008227425
0.007286876 0.08191875 0.071916 0.06675908 0.028704112 -0.0043217083 -0.008700071 0.030449795
-0.06158454 -0.0545792 -0.07693423 0.08518333 0.044099953 -0.055445466 -0.021444723 -0.004991875
-0.05029258 0.060180187 0.019187061 0.068125606 -0.08368781 -0.017364297 0.06907653 -0.041238308
0.08009814 0.09315002 -0.07885037 0.07656313 -0.060147993 -0.037243843 -0.032701604 0.025132405
0.03610285 -0.045801155 0.0201088 -0.059441186 -0.056092735 0.07870274 0.04967104 -0.07868924
0.060328983 -0.037178062 0.02879443 0.02298237 0.020272968 0.0024503053 0.069070876 0.094791085
0.049421698 0.03830253 0.057412505 -0.0663443 0.015061591 -0.0059493743 0.03924333 0.04347769
-0.07888686 0.068737306 0.020166202 -0.050872948 0.029013623 -0.06357613 -0.07373542 -0.019580035
0.08496529 -0.059325393 -0.009789675 0.058391158 -0.022184823 0.09312047 0.030473145 -0.036306035
-0.0013774853 0.05157513 0.0007873444 0.0057901363 -0.00025690524 -0.00069427845 -0.00836914 -0.019820374
-0.011768306 0.022904355 -0.031487092 -0.0143850045 -0.053918466 0.0016265264 -0.04196577 0.0018999877
0.032064535 -0.062282596 -0.003610508 -0.0110648405 -0.09790834 -0.039761927 0.11732231 0.045866273
0.014016727 -0.02047705 -0.015087499 0.07277147 0.014776644 0.06380683 -0.001356182 -0.08528326
0.06463802 0.024825683 0.07039804 -0.032283396 -0.040064573 -0.015274141 0.08918866 0.12407669
-0.013894475 -0.015116545 -0.03564658 -0.031774294 -0.075887665 -0.019268475 0.070666805 0.00071407185
0.07762793 -0.0199319 -0.034713004 0.0018213273 0.035463944 -0.013472832 -0.08023128 -0.011680175
-0.08338806 -0.05396959 0.12236087 0.10900072 -0.07666793 0.079398945 -0.07289173 -0.046518687
00000000: 86ea 9d3d 760a 2c3d e568 d6bb c75e 933d
00000010: cb5c e9bc 3bea b33d f075 f73d d98e 6b3d
00000020: 6cd6 d73c 9af0 59bc 31e0 c2bb abe9 99bd
00000030: 19d7 9d3c 712e 5d3c 69e8 be3c 9784 6abd
00000040: b7a7 d2bd 46b3 4e3d 1b81 553d 388a aebd
00000050: d7c9 553d 673f c9bd c35a 06bd 9906 673d
00000060: 64e4 903d f6b9 22bd 6972 b83d fba7 103e
00000070: d0d4 fd3c 00a3 94bd 331e 773d 3c74 f93b
00000080: 6767 71bb d502 80bd f6b0 17bb 422b c0bd
00000090: 3569 2b3d 4a1f afbb 3874 843c eb39 2d3c
000000a0: ba4a 63bd ea0f 153d 068f ce3d 6ac2 ba3d
000000b0: 0cdc a5bd b045 cbbd c103 59bd 839e 9a3d
000000c0: 6792 843d cd62 543d 4872 f3bc abce 5f3c
000000d0: 660f bbbd 08d0 863d e30a 8a3d f1e1 9b3c
000000e0: a328 963c 6e8d d03a bb41 413c 6d93 adbd
000000f0: 9b93 173d 04c0 f0bd 59d1 c0bd 72a0 45bc
00000100: 286d 3ebb 91fb e0bd 4510 b3bd bb2e d03d
00000110: da80 563d 4268 dfbb 07eb b0bd 301f 3fbd
00000120: 797e 863d 7155 e4bc d248 dabc bec7 64bc
00000130: 8d95 11bc 0713 2dbd 863a ee3b 442f b9bd
00000140: e448 3fbd d2ed abbb 18ea 8fb9 18f5 143d
00000150: af32 363d a406 873d 5974 86bd 8f9b 8e3d
00000160: 7f49 373d 09e4 1fbd 28a4 273c 9fa0 8fbd
00000170: a01c e83c 7ee6 9fbd a5cf e5bb 160c 69bb
00000180: 5ff5 40bc 5cf5 d43b 54f3 443d dda5 c139
00000190: e415 debb 1f11 a4bc 4127 753d bb04 d6bc
000001a0: 183a 6fbd 632e f5bc f561 553d c3cf 9f3d
000001b0: 7a8b 4abc e498 953d ce78 c83c 70b6 ab3d
000001c0: 38b9 0d3d 9bfe 0cbc 93da ea3c 7b11 5abd
000001d0: 6af7 483d cf0b da3d 75a9 823d 51ad 573a
000001e0: bfc6 ee3b 05c5 a73d b248 933d fcb8 883d
000001f0: e324 eb3c 1e9d 8dbb be8a 0ebc d971 f93c
00000200: 1240 7cbd 708e 5fbd b28f 9dbd 9974 ae3d
00000210: 27a2 343d c91a 63bd d8ac afbc e292 a3bb
00000220: 98ff 4dbd 807f 763d 2f2e 9d3c 7085 8b3d
00000230: 8464 abbd 923f 8ebc ff77 8d3d 80e9 28bd
00000240: 7e0a a43d 70c5 be3d 4e7c a1bd 21cd 9c3d
00000250: be5d 76bd 008d 18bd 1ef2 05bd 79e2 cd3c
00000260: 95e0 133d fe99 3bbd 36bb a43c 9a78 73bd
00000270: 7fc1 65bd e72e a13d dc73 4b3d d327 a1bd
00000280: 861b 773d 0648 18bd 4ce2 eb3c 8645 bc3c
00000290: 7f13 a63c 4d95 203b 0875 8d3d d421 c23d
000002a0: 686e 4a3d 1de3 1c3d 6029 6b3d 85df 87bd
000002b0: e4c4 763c f8f2 c2bb 9dbd 203d aa15 323d
000002c0: 6f8f a1bd 25c6 8c3d 9733 a53c 2760 50bd
000002d0: faad ed3c 3434 82bd 9902 97bd 4f66 a0bc
000002e0: 4802 ae3d 2fff 72bd df64 20bc 912b 6f3d
000002f0: f2bc b5bc f2b5 be3d d1a2 f93c a3b5 14bd
00000300: bd8c b4ba 7240 533d ca65 4e3a 2fbb bd3b
00000310: 3db1 86b9 3d00 36ba b81e 09bc 565e a2bc
00000320: dacf 40bc eaa1 bb3c 9cf8 00bd 15af 6bbc
00000330: 9cd9 5cbd 2b31 d53a 4de4 2bbd 0209 f93a
00000340: 1a56 033d 091c 7fbd 469e 6cbb 4e49 35bc
00000350: 2b84 c8bd 67dd 22bd ae46 f03d 46de 3b3d
00000360: 6aa6 653c 7dbf a7bc 8f31 77bc 3509 953d
00000370: bd19 723c 28ad 823d ebc1 b1ba fda8 aebd
00000380: f060 843d 3b5f cb3c d92c 903d 983b 04bd
00000390: c01a 24bd 6440 7abc 8ba8 b63d eb1b fe3d
000003a0: a7a5 63bc 63ab 77bc 2602 12bd c325 02bd
000003b0: fe6a 9bbd ecd8 9dbc c2b9 903d 8d30 3b3a
000003c0: 64fb 9e3d 3948 a3bc 392f 0ebd 9ab9 ee3a
000003d0: a442 113d 27bd 5cbc 4c50 a4bd 345e 3fbc
000003e0: 5cc7 aabd 380f 5dbd 5698 fa3d c53b df3d
000003f0: 1304 9dbd ea9b a23d 4248 95bd 618a 3ebd

q_z.bias f4 [120]
0.043844394 -0.13149872 -0.027520558 0.114902265 -0.10026033 0.05867001 -0.119123414 0.14319421
0.081042334 0.0445888 -0.014319336 0.09643854 0.097894415 0.064098634 -0.14075036 -0.03602006
-0.06044637 0.079866216 -0.044358775 0.0051645525 -0.05566547 0.11025995 0.08171868 -0.10852038
-0.08362525 0.14085916 -0.07090981 0.08495053 0.10432966 -0.01690441 -0.045042004 0.0461192
-0.053269025 0.04350938 0.055465367 -0.028669557 0.05529464 -0.09409865 0.0760714 -0.085320614
0.0023093547 -0.057369314 -0.024746995 0.016701778 0.07200671 -0.13603806 -0.081641346 0.07538993
-0.0008011438 0.111647435 -0.06606845 0.045965802 -0.07108631 0.1046594 0.016870093 -0.006922137
0.07017484 -0.09221522 0.06949643 -0.040085297 -0.14605539 -0.13308606 -0.10509817 -0.16875397
-0.15812986 -0.14939788 -0.18806277 -0.16334173 -0.20822857 -0.16538225 -0.16598651 -0.18453023
-0.16821961 -0.18446937 -0.13277304 -0.1811884 -0.17369576 -0.20216857 -0.20676589 -0.104539104
-0.20140724 -0.11402354 -0.18690288 -0.16155742 -0.124271855 -0.14817934 -0.19919793 -0.15077995
-0.15740559 -0.18295734 -0.13320807 -0.18812475 -0.20156005 -0.16359271 -0.18553355 -0.09886778
-0.16905105 -0.14995824 -0.143347 -0.21507956 -0.20683675 -0.1797831 -0.15049765 -0.15708333
-0.20915537 -0.13901779 -0.19752374 -0.2379233 -0.15855978 -0.15113251 -0.13236517 -0.2111855
-0.12626775 -0.18262401 -0.1528523 -0.1370049 -0.213244 -0.093948536 -0.14559922 -0.17351712
00000000: 2e96 333d 9aa7 06be cb72 e1bc e151 eb3d
00000010: 4a55 cdbd f74f 703d faf6 f3bd 81a1 123e
00000020: 86f9 a53d bfa2 363d a69b 6abc 9281 c53d
00000030: de7c c83d 2546 833d dd20 10be c589 13bd
00000040: 9d96 77bd e690 a33d 8cb1 35bd 683b a93b
00000050: 7a01 64bd f8cf e13d 205c a73d ef3f debd
00000060: b743 abbd 623d 103e 2a39 91bd 8bfa ad3d
00000070: caaa d53d 1e7b 8abc f77d 38bd 7ce7 3c3d
00000080: 9f30 5abd e436 323d a72f 633d 6bdc eabc
00000090: a27c 623d cbb6 c0bd 52cb 9b3d 93bc aebd
000000a0: 8b58 173b 16fc 6abd 36ba cabc 2bd2 883c
000000b0: 4178 933d 904d 0bbe 9433 a7bd 0966 9a3d
000000c0: da03 52ba 69a7 e43d e54e 87bd a346 3c3d
000000d0: b395 91bd ab57 d63d 2633 8a3c 18d3 e2bb
000000e0: d4b7 8f3d 55db bcbd 2554 8e3d 7b30 24bd
000000f0: 8b8f 15be b647 08be b63d d7bd d7cd 2cbe
00000100: cbec 21be c2fb 18be 8793 40be 0e43 27be
00000110: df39 55be f759 29be 5ef8 29be 7ef5 3cbe
00000120: c341 2cbe 8ae5 3cbe a8f5 07be 7489 39be
00000130: 4ddd 31be 4705 4fbe 70ba 53be 9918 d6bd
00000140: b33d 4ebe 2c85 e9bd 7863 3fbe 4f6f 25be
00000150: 3e82 febd 53bc 17be 8bfa 4bbe 0f66 1abe
00000160: ee2e 21be 2b59 3bbe b267 08be c6a3 40be
00000170: c265 4ebe d984 27be 82fc 3dbe 317b cabd
00000180: b81b 2dbe a78e 19be 8ec9 12be d13d 5cbe
00000190: 03cd 53be 1019 38be 0e1c 1abe 74da 20be
000001a0: d32c 56be ae5a 0ebe aa43 4abe 2aa2 73be
000001b0: 7f5d 22be 7bc2 1abe bc8a 07be 0341 58be
000001c0: 554c 01be ca01 3bbe 5085 1cbe 034b 0cbe
000001d0: a35c 5abe 1768 c0bd f617 15be 79ae 31be
