hosp_models/deploy_week_44_16/feat_enc.pt (torch, 56491 bytes, 4 tensors)

gru.weight_ih_l0 f4 [180, 15]
0.07940465 -0.20453893 0.2768534 -0.046895437 -0.26890203 0.20390698 0.12591535 -0.02365654
0.02285161 -0.06830212 0.06633908 -0.072263114 -0.31037638 -0.14163664 -0.12189457 0.04485284
-0.11581773 0.16291067 0.035465565 0.0026801135 -0.11126106 -0.038672585 0.03356738 0.20360504
-0.06517746 -0.12642722 0.13887332 -0.091147095 -0.1975075 -0.2253016 -0.22850175 0.14700195
-0.13507938 -0.2148092 -0.2384353 -0.061036672 -0.16974764 0.3913124 0.18649645 0.13659786
-0.0467351 -0.31411025 0.059470106 0.08788361 0.06846468 -0.03318293 0.10082622 0.033625077
-0.044841975 -0.11351565 0.10114488 0.22089545 0.20785925 0.14189118 0.3209543 -0.2063659
-0.14075603 -0.08902855 0.0033154034 -0.02215046 0.16139387 -0.16937236 -0.19110939 -0.055076897
0.11402169 -0.03782731 0.070156306 0.17134851 0.11042346 0.23683989 -0.096803114 -0.45406082
-0.06518814 -0.104292415 -0.12770101 -0.015076292 -0.2270012 0.0789743 -0.22065777 -0.31163144
-0.069661774 0.43584856 -0.17825666 -0.036130916 -0.19060077 -0.06436491 -0.017882815 -0.17550781
0.29955918 0.15510617 0.09268459 -0.05135811 0.040098667 -0.056609537 -0.21550305 -0.03182449
0.14631633 0.07765576 -0.041083407 -0.07950119 0.15718423 0.18323785 -0.056626182 0.020098856
-0.13826013 -0.18633914 -0.28829962 -0.08293534 -0.0616312 -0.12384624 -0.117138095 0.1807929
-0.037549544 0.26868695 0.12682888 -0.14048778 0.15781419 -0.22264983 0.10193054 0.065203354
0.045929585 -0.08136844 -0.092799544 0.022153782 -0.28324428 0.004249205 -0.015118966 -0.030516408
0.029953407 -0.14431073 -0.04214507 -0.05543789 -0.09521102 0.18635663 0.30229244 0.13408987
0.047607526 -0.022795273 -0.12729903 0.08690116 0.31715134 0.27411824 0.27101633 0.22149108
-0.043048855 0.07375789 0.3423477 -0.16337962 0.034901414 0.06596083 -0.25309393 -0.09089543
-0.22717352 -0.06478419 0.011601626 -0.02544196 0.18998575 0.011245037 -0.12236371 -0.019102136
0.003678386 -0.122142375 -0.5264485 0.045467712 0.116895735 0.20007508 -0.09020904 0.19493285
-0.059475172 0.18116798 0.1547352 0.07348283 0.07361836 0.12830257 -0.34538415 0.17179371
-0.18160155 0.17289452 0.14893584 -0.18524167 0.051465973 0.10544814 0.15400678 -0.05480792
-0.08108146 0.046877682 -0.13316703 0.09682695 0.13347986 0.22804125 0.02513157 -0.24923167
-0.18519534 0.19417876 0.032955837 -0.17705435 -0.23049036 -0.062041845 -0.10047508 0.07591045
0.028919995 0.057625204 0.03821523 -0.044150226 0.0067758877 0.21209662 -0.32465547 0.18669198
0.0018545147 0.0469622 -0.11418963 -0.15802881 0.057472557 0.09640812 -0.0125380615 0.059813257
-0.06814524 0.008215234 0.15081021 -0.093684725 -0.18056515 -0.3571714 0.0779161 0.14498594
-0.026996972 0.24031739 -0.049286 0.051749676 0.18816435 0.13659318 -0.18224788 0.22439002
0.20891616 0.1914226 0.21115594 -0.017173728 0.2923636 -0.16806117 0.058203634 0.18338372
0.08575382 0.052990742 -0.05822578 0.049056895 0.007871623 -0.061463274 0.0800735 0.10415252
0.1344426 0.05497556 -0.06704566 0.36162803 0.12804717 0.08037426 0.04767548 -0.44794953
00000000: e89e a23d a772 51be bbbf 8d3e 6e15 40bd
00000010: 87ad 89be fecc 503e f4ef 003e 5ccb c1bc
00000020: 4d33 bb3c fbe1 8bbd c9dc 873d affe 93bd
00000030: a7e9 9ebe 3209 11be dca3 f9bd 9db7 373d
00000040: d931 edbd 0ed2 263e 5744 113d d8a4 2f3b
00000050: d7dc e3bd 2567 1ebd f37d 093d d77d 503e
00000060: c37b 85bd 2376 01be cf34 0e3e 54ab babd
00000070: 683f 4abe 76b5 66be 5dfc 69be ae87 163e
00000080: 4052 0abe f1f6 5bbe 6228 74be 9701 7abd
00000090: 53d2 2dbe 195a c83e edf8 3e3e 4fe0 0b3e
000000a0: 4e6d 3fbd 0fd3 a0be ed96 733d 52fc b33d
000000b0: 3637 8c3d d3ea 07bd fa7d ce3d 73ba 093d
000000c0: 38ac 37bd e57a e8bd 0c25 cf3d 6b32 623e
000000d0: 0ed9 543e ec4b 113e 1f54 a43e 9551 53be
000000e0: 5922 10be 9a54 b6bd 3d47 593b e274 b5bc
000000f0: 6f44 253e f36f 2dbe 2eb2 43be 5098 61bd
00000100: 3484 e93d cff0 1abd 1cae 8f3d fc75 2f3e
00000110: b225 e23d 2886 723e b640 c6bd a97a e8be
00000120: 5c81 85bd 4397 d5bd 0ec4 02be 8d02 77bc
00000130: 0173 68be 47bd a13d 1cf4 61be 288e 9fbe
00000140: d5aa 8ebd 8b27 df3e ea88 36be 03fe 13bd
00000150: d92c 43be c0d1 83bd fb7e 92bc 52b8 33be
00000160: d25f 993e 27d4 1e3e 6bd1 bd3d e25c 52bd
00000170: 803e 243d 67df 67bd d5ac 5cbe 655a 02bd
00000180: f3d3 153e fc09 9f3d 1347 28bd 85d1 a2bd
00000190: e7f4 203e b4a2 3b3e dbf0 67bd 5ba6 a43c
000001a0: 1094 0dbe b0cf 3ebe 029c 93be 01da a9bd
000001b0: ff70 7cbd 19a3 fdbd 19e6 efbd c621 393e
000001c0: 8dcd 19bd 5691 893e 6edf 013e 07dc 0fbe
000001d0: 0b9a 213e 51fe 63be f5c0 d03d 5689 853d
000001e0: a920 3c3d 7fa4 a6bd b00d bebd d97b b53c
000001f0: 6505 91be ea3c 8b3b 8ab5 77bc 8cfd f9bc
00000200: d960 f53c 31c6 13be 4fa0 2cbd d712 63bd
00000210: fffd c2bd 46d4 3e3e 13c6 9a3e db4e 093e
00000220: 1c00 433d 27bd babc ad5a 02be 3cf9 b13d
00000230: a961 a23e 3a59 8c3e a7c2 8a3e 8fce 623e
00000240: ff53 30bd 600e 973d 3348 af3e fd4c 27be
00000250: c9f4 0e3d 7916 873d 8795 81be 6227 babd
00000260: 2da0 68be 93ad 84bd bf14 3e3c a86b d0bc
00000270: a08b 423e 1b3d 383c d399 fabd 157c 9cbc
00000280: 1411 713b c825 fabd 54c5 06bf 5a3c 3a3d
00000290: 0867 ef3d 7be0 4c3e 84bf b8bd 7a9c 473e
000002a0: 3d9c 73bd 1984 393e e772 1e3e 2a7e 963d
000002b0: 39c5 963d c061 033e 31d6 b0be b1ea 2f3e
000002c0: c2f5 39be 430b 313e a382 183e feaf 3dbe
000002d0: fccd 523d 32f5 d73d f4b3 1d3e 457e 60bd
000002e0: 090e a6bd d002 403d f05c 08be 354d c63d
000002f0: f2ae 083e a583 693e b9e0 cd3c 9636 7fbe
00000300: d9a3 3dbe ccd6 463e b3fc 063d bc4d 35be
00000310: aa05 6cbe 971f 7ebd e1c5 cdbd f076 9b3d
00000320: a0e9 ec3c 6808 6c3d 9387 1c3d ded6 34bd
00000330: 4408 de3b db2f 593e 3e39 a6be 2f2c 3f3e
00000340: 3013 f33a 705b 403d 41dc e9bd 4ed2 21be
00000350: 5868 6b3d 9f71 c53d 716c 4dbc bffe 743d
00000360: bb8f 8bbd 3099 063c fe6d 1a3e c7dd bfbd
00000370: 12e6 38be 2bdf b6be 7a92 9f3d 3277 143e
00000380: c128 ddbc c315 763e 1ee0 49bd 78f7 533d
00000390: 28ae 403e 15df 0b3e 309f 3abe 7fc6 653e
000003a0: 1eee 553e 4904 443e 4339 583e ebaf 8cbc
000003b0: afb0 953e 3a18 2cbe ef66 6e3d f1c8 3b3e
000003c0: b39f af3d d20c 593d 287e 6ebd e2ef 483d
000003d0: fbf7 003c eac0 7bbd 93fd a33d eb4d d53d
000003e0: 52ab 093e 0e2e 613d 3c4f 89bd 4f27 b93e
000003f0: cc1e 033e 439b a43d 5d47 433d a459 e5be

gru.weight_hh_l0 f4 [180, 60]
-0.03563238 -0.035082787 0.008091266 -0.33653724 -0.18268915 0.109959304 -0.0019035008 0.063924395
-0.04903084 0.090410866 0.07035905 -0.07128979 -0.14939526 0.059351206 -0.28471333 -0.098597854
-0.11429425 -0.17376038 0.13097233 -0.13806973 -0.21935174 0.19872303 0.10280069 0.19622776
0.07275265 -0.05260614 -0.103101306 -0.025164347 0.2032748 0.21394837 -0.21222211 -0.03158237
-0.08110537 0.13272823 -0.21941604 0.04306902 0.08267136 -0.109857306 0.23055977 0.041336607
0.09014536 -0.26143757 0.26575482 0.06943023 0.06305124 0.02767563 -0.07634421 -0.023470288
0.15475836 -0.10123821 -0.030921698 -0.01511873 -0.011358454 0.08887525 -0.16950342 0.24774125
-0.22280823 -0.052924626 -0.041328754 0.15458842 -0.19919215 -0.2693268 -0.08427736 0.06600099
0.24156173 -0.20467557 -0.0033573243 0.18070741 -0.2432712 0.21819086 0.007332527 -0.11789389
-0.31870064 0.34836295 -0.31823036 0.29900166 -0.01701659 0.28803122 0.2081463 -0.19092134
-0.087336645 0.14648509 -0.35140517 -0.14099444 -0.36622432 0.048985526 0.11550626 0.035869613
-0.016280107 0.23262262 0.15122357 -0.3191077 -0.08333212 -0.2472419 0.13193095 0.5942314
-0.20522256 0.4448932 -0.06370728 -0.21747877 -0.20017068 -0.22329934 0.24203518 -0.49950388
0.2620706 -0.0019383802 0.06223074 0.0057110125 -0.20395704 0.102786936 0.10912867 0.09548594
-0.0613926 0.1840491 -0.21705222 0.20111205 -0.18077138 -0.030972192 -0.0700377 -0.31202164
-0.011597866 -0.023723712 -0.1718881 0.14731756 0.21776909 -0.0054140473 -0.10845489 0.056160584
-0.029909732 -0.03382716 0.105697975 -0.032217085 -0.052350353 0.19587862 -0.0055579613 0.15900706
-0.08472142 0.13747397 0.09938569 -0.098189145 0.123728395 -0.088535085 -0.09698395 0.009949973
-0.095216 -0.17209725 -0.18978475 -0.005838205 -0.10036455 -0.101910375 -0.056081347 0.06189032
-0.23760149 0.13001485 -0.13174754 0.11215348 -0.07701489 0.022703923 0.045304976 0.004129133
0.015485127 0.14065954 -0.26952568 -0.02801776 0.14602834 -0.03733264 0.2408942 0.0056321947
-0.16850175 -0.03959287 -0.19651769 0.0024938027 -0.065461956 0.0660052 -0.18807864 -0.19670692
-0.18859918 -0.011055314 0.016022403 -0.09129894 0.1795495 -0.011730628 0.12634586 0.1976359
0.119967885 0.2712247 0.046362728 0.017585082 0.11991228 -0.10740986 0.19479363 0.14107694
0.06880754 0.09543949 -0.05388499 0.14534262 -0.07291715 -0.04120455 0.08105047 0.02354118
0.085356615 0.055032063 0.2825704 0.0056159496 0.11256068 -0.27444273 -0.11071449 -0.025192386
-0.20347536 0.060189325 0.17825684 -0.12449499 -0.11505694 -0.116646044 0.03620266 0.118651494
-0.2375741 0.24528787 -0.11138889 -0.09304652 0.16721979 -0.25673082 -0.15057817 -0.08944592
-0.062364444 -0.2218822 0.30414414 0.24871394 -0.017778529 -0.1626289 -0.15643205 -0.05666149
0.28643322 0.16545856 -0.06200797 -0.22434638 0.058297217 -0.27472642 0.22512302 0.07719195
-0.16869189 -0.110539235 -0.02645566 0.23309536 0.1107982 -0.23931198 0.0070632948 0.16177951
-0.10102439 0.13088386 0.111144416 0.14364018 0.14126973 0.09089601 -0.022945086 0.1730713
00000000: 42f3 11bd f8b2 0fbd 3b91 043c 9c4e acbe
00000010: dd12 3bbe 5832 e13d e37e f9ba cbea 823d
00000020: 90d4 48bd 5529 b93d 6818 903d 6200 92bd
00000030: 12fb 18be 401a 733d f2c5 91be aced c9bd
00000040: 1b13 eabd 3eee 31be 9c1d 063e 2762 0dbe
00000050: be9d 60be 0d7e 4b3e 2b89 d23d eeef 483e
00000060: 57ff 943d 8979 57bd c726 d3bd 7625 cebc
00000070: 4527 503e 4815 5b3e c150 59be 845c 01bd
00000080: 921a a6bd e9e9 073e 99ae 60be 2469 303d
00000090: 9a4f a93d defc e0bd dc17 6c3e 9350 293d
000000a0: 219e b83d 25db 85be 0411 883e 7031 8e3d
000000b0: 0221 813d 01b8 e23c 5a5a 9cbd c344 c0bc
000000c0: fa78 1e3e fb55 cfbd 804f fdbc 8db4 77bc
000000d0: cf18 3abc 3a04 b63d 4e92 2dbe e2af 7d3e
000000e0: d727 64be 7ec7 58bd 5748 29bd 6d4c 1e3e
000000f0: 07f9 4bbe 34e5 89be 9c99 acbd 872b 873d
00000100: f55b 773e 7996 51be 8e06 5cbb 5d0b 393e
00000110: 161c 79be 6d6d 5f3e b245 f03b 5a72 f1bd
00000120: bb2c a3be a15c b23e 17ef a2be bf16 993e
00000130: 6066 8bbc d478 933e 4e24 553e e280 43be
00000140: 8edd b2bd 3000 163e 61eb b3be d960 10be
00000150: c181 bbbe 0ca5 483d 8c8e ec3d 04ec 123d
00000160: dc5d 85bc a034 6e3e 5ada 1a3e 1662 a3be
00000170: 08aa aabd fb2c 7dbe e818 073e 8d1f 183f
00000180: dd25 52be 0bc9 e33e f678 82bd c1b2 5ebe
00000190: 8bf9 4cbe 95a8 64be 12d8 773e f9be ffbe
000001a0: 1e2e 863e 3f11 feba a9e5 7e3d 7223 bb3b
000001b0: 1dda 50be f581 d23d da7e df3d 228e c33d
000001c0: cf76 7bbd 5e77 3c3e f042 5ebe 51f0 4d3e
000001d0: 221c 39be 65b9 fdbc ed6f 8fbd 4dc1 9fbe
000001e0: fa04 3ebc 3b58 c2bc 6f03 30be 6ada 163e
000001f0: dcfe 5e3e 5268 b1bb 991d debd a408 663d
00000200: 4105 f5bc 598e 0abd 2e78 d83d 10f6 03bd
00000210: 536d 56bd 6894 483e 8f1f b6bb bfd2 223e
00000220: 6d82 adbd fac5 0c3e ba8a cb3d 6417 c9bd
00000230: 5065 fd3d e251 b5bd 859f c6bd 3605 233c
00000240: 9b00 c3bd 433a 30be ef56 42be 6a4e bfbb
00000250: ee8b cdbd 63b6 d0bd 8eb5 65bd b480 7d3d
00000260: ce4d 73be 9d22 053e d4e8 06be b9b0 e53d
00000270: fcb9 9dbd 94fd b93c b691 393d ae4d 873b
00000280: 55b5 7d3c 0e09 103e 45ff 89be 8085 e5bc
00000290: 7488 153e 1cea 18bd f8ac 763e 468e b83b
000002a0: b98b 2cbe 222c 22bd ef3b 49be 116f 233b
000002b0: eb10 86bd bc2d 873d b097 40be 8a6d 49be
000002c0: 2520 41be 5921 35bc 6a41 833c f0fa babd
000002d0: d3db 373e d231 40bc cf60 013e 1161 4a3e
000002e0: b9b1 f53d f7dd 8a3e d8e6 3d3d 970e 903c
000002f0: 9294 f53d b3f9 dbbd fb77 473e 7976 103e
00000300: f8ea 8c3d c875 c33d 82b6 5cbd b2d4 143e
00000310: 9655 95bd 1ac6 28bd cafd a53d 6fd9 c03c
00000320: 73cf ae3d 4d69 613d 11ad 903e 0006 b83b
00000330: 3786 e63d c283 8cbe 47be e2bd 4360 cebc
00000340: d85b 50be 1589 763d f688 363e 3bf7 febd
00000350: f9a2 ebbd 1fe4 eebd 3e49 143d 8eff f23d
00000360: a046 73be be2c 7b3e dc1f e4bd 2d8f bebd
00000370: aa3b 2b3e 3972 83be 2a31 1abe 6c2f b7bd
00000380: dc71 7fbd 1635 63be c8b8 9b3e deae 7e3e
00000390: 47a4 91bc 3188 26be b92f 20be e115 68bd
000003a0: 60a7 923e f86d 293e 12fc 7dbd 0fbb 65be
000003b0: 10c9 6e3d f1a8 8cbe a686 663e d016 9e3d
000003c0: 91bd 2cbe 6562 e2bd 8ab9 d8bc 8db0 6e3e
000003d0: 2bea e23d 330e 75be 3673 e73b 87a9 253e
000003e0: e0e5 cebd 6b06 063e af9f e33d 6916 133e
000003f0: 03a9 103e b027 ba3d 55f7 bbbc 9a39 313e

gru.bias_ih_l0 f4 [180]
-0.012223676 -0.22932707 0.10275779 -0.021061055 -0.073636994 -0.01988424 -0.0381864 0.009788594
0.0946523 -0.027958019 0.09347356 -0.021441914 0.0028397616 -0.09998676 -0.0409068 -0.104644395
0.047682967 -0.06917563 0.14569493 0.018065179 0.071695276 0.044631734 0.027627489 -0.031232696
0.09550629 -0.07052251 -0.1379015 -0.03916346 0.003772043 0.13644712 -0.11943945 0.025739154
-0.120323814 0.103111625 -0.14078514 0.1223035 0.12944596 -0.05340231 0.065798394 0.03410882
0.029752849 0.23776627 0.19636954 0.12382223 -0.16052553 0.0802001 0.12278427 -0.051250678
-0.022311393 -0.04866912 0.006644907 0.01049813 -0.13161404 0.037850708 0.06835336 0.10525592
-0.11763202 0.038127452 -0.049590822 0.05165942 0.08525133 0.102242775 0.12638253 0.34182143
0.19829601 0.13704418 0.24693435 0.19676143 0.090615906 0.22175281 0.32994807 -0.022762526
0.04001783 0.15165907 0.35744166 0.37200361 0.004472218 -0.17514586 0.08619985 -0.0021725616
0.15280126 0.36081836 0.06830687 0.016069153 0.27159423 0.00736499 -0.1063331 -0.026336692
0.15612711 0.04119024 0.0834491 0.1396341 0.083638206 0.036595143 0.31636074 0.3678126
-0.12925838 0.01015916 0.14460455 0.17475581 0.17865431 0.18627143 0.12710707 0.2807524
0.103691496 -0.014794163 0.20292562 0.024326868 -0.041777544 0.18817265 -0.054634314 0.43509254
-0.1058232 0.1371911 0.38526598 0.13331337 0.17130353 -0.027259607 0.0025369497 -0.011238582
0.0958142 -0.03601913 0.1121045 0.12004652 0.07669136 0.077242374 -0.124067016 -0.08886086
0.09866399 0.01100214 -0.11676857 0.08712856 0.018603629 -0.110949904 -0.04335701 -0.095971026
-0.088309735 -0.0072344495 -0.08082829 -0.0053653154 -0.015048824 0.13402136 0.06472606 -0.13170606
0.030398002 -0.06253221 0.0036815014 -0.081579365 -0.107452884 -0.043177314 -0.13766094 -0.114300996
-0.008054665 -0.13872848 0.07825537 -0.07922942 -0.047383588 0.055762127 0.14268014 0.07804228
-0.12247729 0.07382488 -0.015820881 0.06603014 -0.06632559 0.121468425 -0.089235015 0.07281491
0.09255898 -0.009240908 0.09445711 0.03762872 -0.05310362 0.013037242 0.020529566 -0.023241041
-0.048022732 0.038067844 -0.082775444 0.04140069
00000000: d045 48bc b7d4 6abe ad72 d23d 3c88 acbc
00000010: fece 96bd 46e4 a2bc 5869 1cbd 5760 203c
00000020: 11d9 c13d 3708 e5bc 116f bf3d f4a6 afbc
00000030: 4b1b 3a3b dcc5 ccbd e48d 27bd cd4f d6bd
00000040: 374f 433d f4ab 8dbd 0d31 153e 6dfd 933c
00000050: f9d4 923d c4cf 363d 0b53 e23c b6db ffbc
00000060: cd98 c33d 1b6e 90bd 0d36 0dbe dd69 20bd
00000070: 6134 773b cbb8 0b3e ac9c f4bd ebda d23c
00000080: 556c f6bd 302c d33d fb29 10be 427a fa3d
00000090: 7b8d 043e 61bc 5abd 4fc1 863d b1b5 0b3d
000000a0: 3fbc f33c 0079 733e 1915 493e 8296 fd3d
000000b0: ce60 24be f33f a43d 5276 fb3d 3bec 51bd
000000c0: 62c6 b6bc 4559 47bd 85bd d93b 5900 2c3c
000000d0: d5c5 06be 5809 1b3d d9fc 8b3d 6a90 d73d
000000e0: 0ee9 f0bd 882b 1c3d bf1f 4bbd d498 533d
000000f0: 4098 ae3d a964 d13d 6c6a 013e 3803 af3e
00000100: 1c0e 4b3e 4f55 0c3e 5cdc 7c3e d47b 493e
00000110: d594 b93d 2b13 633e f4ee a83e 7a78 babc
00000120: bce9 233d 844c 1b3e 9802 b73e 4277 be3e
00000130: af8b 923b 7059 33be 8c89 b03d 8961 0ebb
00000140: ef77 1c3e 2fbd b83e 79e4 8b3d 75a3 833c
00000150: 660e 8b3e 0456 f13b 2bc5 d9bd 0cc0 d7bc
00000160: c9df 1f3e 19b7 283d 5de7 aa3d 3efc 0e3e
00000170: 824a ab3d cae4 153d 09fa a13e ef51 bc3e
00000180: 4f5c 04be 9b72 263c 3713 143e 30f3 323e
00000190: 28f1 363e f0bd 3e3e 5b28 023e c7be 8f3e
000001a0: 355c d43d 3863 72bc bccb 4f3e 2449 c73c
000001b0: ee1e 2bbd 55b0 403e 3bc8 5fbd 73c4 de3e
000001c0: d5b9 d8bd d37b 0c3e 9541 c53e 4d83 083e
000001d0: 316a 2f3e 8a4f dfbc f442 263b 0822 38bc
000001e0: 3c3a c43d cc88 13bd 0b97 e53d f3da f53d
000001f0: 5c10 9d3d 4031 9e3d d916 febd affc b5bd
00000200: 5910 ca3d 5242 343c 5c24 efbd 7570 b23d
00000210: a366 983c b439 e3bd 1f97 31bd 758c c4bd
00000220: bcdb b4bd f60e edbb 4d89 a5bd 87cf afbb
00000230: 588f 76bc e53c 093e 198f 843d f4dd 06be
00000240: 3b05 f93c e310 80bd 5845 713b 1513 a7bd
00000250: 4210 dcbd b2da 30bd fdf6 0cbe a416 eabd
00000260: b7f7 03bc d70e 0ebe 5a44 a03d 0943 a2bd
00000270: 4b15 42bd d466 643d be1a 123e a2d4 9f3d
00000280: 60d5 fabd 8031 973d cb9a 81bc cf3a 873d
00000290: b6d5 87bd 70c4 f83d d9c0 b6bd fc1f 953d
000002a0: 908f bd3d 2d67 17bc bb72 c13d 9320 1a3d
000002b0: 2e83 59bd 289a 553c 9f2d a83c ff63 bebc
000002c0: 7cb3 44bd 07ed 1b3d 2c86 a9bd c593 293d

gru.bias_hh_l0 f4 [180]
-0.074964486 -0.13356557 -0.04584056 -0.071482554 -0.046873663 -0.10008341 -0.07680001 -0.051573455
0.10670057 -0.15116812 -0.060353957 -0.009120617 -0.084171586 -0.09940096 -0.04328069 0.014384474
-0.062482223 -0.1703859 0.0812307 0.034601193 0.09049395 0.11262555 0.02797668 0.1216808
-0.078096114 0.13764228 -0.050373945 -0.15312909 -0.10053524 0.17649637 -0.052812774 -0.14671774
0.11173761 0.05185685 -0.0024599847 0.04228436 0.22502263 0.08031195 -0.097207256 0.0017400923
0.10314056 0.11268297 0.107216544 -0.053038474 0.02012733 0.052610755 0.07634791 -0.085875615
0.039200332 -0.027373655 0.14257096 0.050254397 -0.18033305 -0.07723456 0.0033459088 -0.076293476
-0.058875486 0.17344907 0.08966364 -0.010212609 0.106366105 0.065915935 0.19602072 0.31626272
0.2480895 0.060261786 0.22045091 0.23654631 0.14161725 0.21294388 0.10876065 -0.095297314
0.0676652 -0.023657942 0.3336946 0.3148985 -0.07172624 -0.059632577 0.015559545 0.06825955
0.24851277 0.13948296 0.02287976 0.09834828 0.15838176 0.11301996 0.07878798 -0.10186618
0.2424313 0.07315575 -0.1347377 0.29028365 0.283253 0.014770554 0.35621724 0.36171553
-0.013978664 0.07450362 0.2603348 0.37054044 0.31334168 0.0055797272 0.054179646 0.2659608
0.040643517 0.070846975 0.031176452 -0.031069044 0.08051771 -0.035683528 -0.16255997 0.44639045
0.044754308 0.16431203 0.35044596 0.1370614 0.21407112 -0.07374099 0.08965195 -0.20523192
-0.121307716 -0.040704712 0.047882944 0.08740423 -0.08709096 -0.1167162 -0.11298267 0.0046580182
-0.08323629 -0.06674588 -0.09650301 0.030415805 -0.029709602 -0.09313089 0.05004331 0.0107491575
0.052996695 0.0056600715 0.015148729 0.06157759 -0.078826584 0.12891607 -0.0036956521 -0.04311189
0.02655639 0.1066494 0.118555546 0.06185833 -0.10631174 -0.0066099637 0.025014257 -0.08999225
-0.005712117 0.068796165 -0.022314146 -0.0817979 -0.00033131527 -0.060494844 -0.0391132 -0.075531945
0.062833875 -0.0836468 -0.020250091 0.11717362 -0.11906567 -0.0131572485 -0.073558725 -0.087404095
0.025446543 0.018195234 0.077036664 0.09284515 0.013801218 0.0007039938 -0.039846577 -0.040252946
-0.047896076 -0.15018816 -0.057308085 0.08117586
00000000: fb86 99bd 6ac5 08be 50c3 3bbd 7265 92bd
00000010: 99fe 3fbd 88f8 ccbd 5349 9dbd b03e 53bd
00000020: d485 da3d d1cb 1abe b635 77bd a46e 15bc
00000030: 2762 acbd bb92 cbbd 1847 31bd dbac 6b3c
00000040: 5ced 7fbd a479 2ebe 485c a63d fbb9 0d3d
00000050: e454 b93d 39a8 e63d 5a2f e53c c933 f93d
00000060: dbf0 9fbd 19f2 0c3e e954 4ebd dfcd 1cbe
00000070: 6be5 cdbd 77bb 343e 3552 58bd 2d3d 16be
00000080: b0d6 e43d d967 543d b237 21bb 5d32 2d3d
00000090: 556c 663e 977a a43d 9914 c7bd cf13 e43a
000000a0: 5c3b d33d 54c6 e63d 5994 db3d df3e 59bd
000000b0: 12e2 a43c 607e 573d 4b5c 9c3d 8edf afbd
000000c0: 8790 203d b73e e0bc 1ffe 113e 8ed7 4d3d
000000d0: 3aa9 38be 272d 9ebd 0947 5b3b c13f 9cbd
000000e0: 6c27 71bd a29c 313e 92a1 b73d c952 27bc
000000f0: 79d6 d93d effe 863d a8b9 483e 30ed a13e
00000100: 2d0b 7e3e 10d5 763d e2bd 613e 3239 723e
00000110: 1d04 113e f60d 5a3e e7bd de3d 3d2b c3bd
00000120: 0d94 8a3d 4dce c1bc 05da aa3e 603a a13e
00000130: 35e5 92bd 4a41 74bd 76ed 7e3c aacb 8b3d
00000140: 227a 7e3e 9fd4 0e3e 566e bb3c d36a c93d
00000150: d42e 223e 0277 e73d 985b a13d 379f d0bd
00000160: e93f 783e afd2 953d aef8 09be 0fa0 943e
00000170: 8a06 913e 3200 723c 1b62 b63e c732 b93e
00000180: c406 65bc 5b95 983d 9a4a 853e 7ab7 bd3e
00000190: 526e a03e 25d6 b63b 7aeb 5d3d 042c 883e
000001a0: d179 263d 3818 913d c265 ff3c 8284 febc
000001b0: 78e6 a43d e428 12bd 1f76 26be 4a8d e43e
000001c0: 4b50 373d 6a41 283e a76d b33e d359 0c3e
000001d0: 7635 5b3e 8405 97bd 719b b73d 5128 52be
000001e0: 2e70 f8bd fcb9 26bd e820 443d fd00 b33d
000001f0: bf5c b2bd e708 efbd 7563 e7bd 4aa2 983b
00000200: ca77 aabd 10b2 88bd 5fa3 c5bd 912a f93c
00000210: 8d61 f3bc 68bb bebd 37fa 4c3d 3c1d 303c
00000220: 1013 593d 1f78 b93b 6032 783c c838 7c3d
00000230: d56f a1bd 9302 043e c132 72bb 1896 30bd
00000240: c98c d93c 006b da3d 40cd f23d 295f 7d3d
00000250: f8b9 d9bd 6598 d8bb b3ea cc3c db4d b8bd
00000260: b62c bbbb 01e5 8c3d 28cc b6bc a885 a7bd
00000270: 62b4 adb9 71c9 77bd 2a35 20bd 7eb0 9abd
00000280: 0caf 803d 034f abbd 85e3 a5bc b9f8 ef3d
00000290: b4d8 f3bd 8091 57bc f5a5 96bd eb00 b3bd
000002a0: 4575 d03c 2c0e 953c 66c5 9d3d 9925 be3d
000002b0: 811e 623c 398c 383a 2a36 23bd 46e0 24bd
000002c0: ad2e 44bd edca 19be e2bb 6abd 873f a63d
