hosp_models/deploy_week_49_11/seq_enc.pt (torch, 46379 bytes, 4 tensors)

gru.weight_ih_l0 f4 [180, 1]
00000000: 4423 dd3b ba26 92bc d13a 03be 39f1 35be
00000010: 3dc3 83bd 4ab6 fcbd ba2a e43d 92b4 c0bd
00000020: 4b85 7bbe 7b80 2b3d aa2f 17bd cf6c 01be
00000030: 532d 90be 632c 92bd 626a 8abd a98b 4ebe
00000040: 3a39 04be 722c 173a 4be1 54bd 8a06 96bd
00000050: f8f5 a63d f592 403d 4aa2 d7bd f693 2ebe
00000060: 1255 a33c 3763 f1bc a966 933c 76cb aebd
00000070: 7e2c 5fbe 2191 1ebe 617b b13d 7353 36be
00000080: 853e 44bd 96b1 f3bd 5779 7abd edf8 323e
00000090: 06b0 31bd 6359 a0bd e8a5 d5bb 4bf7 68bc
000000a0: d209 34be 699e 1abe 0cc1 2a3d fd66 bdbd
000000b0: 28d9 43bd 9e98 04be 9307 e0bd af45 c93c
000000c0: 1a3d 49bd 049b 29be 594e d3bd 0b34 55be
000000d0: b590 8e3d 8d96 51bd 4f65 443d 6fb5 03be
000000e0: e058 0ebc 840f ae3d 1a5d 52be 70f4 0ebe
000000f0: 1ea9 babc 67a2 333e 5306 593e c35a f43c
00000100: ca98 9d3c 8c4a 92bd 66a5 433d ca6c 2abd
00000110: fb3e 0dbe 9938 0f3e b261 99bd 117c de3d
00000120: d70a 943e 917b 0abe 1481 02bc ae0c 04bd
00000130: c477 673d 176c b33d 8652 a83d cc99 3a3c
00000140: 91e5 77bc 4816 883e 4f23 4f3d e85b 873e
00000150: 013c cebd cb6f 34bb 8228 5fbc 1369 923e
00000160: 06d5 cbbc 3bf4 963d e31e 253d 2a1d 7b3e
00000170: a5f7 d93d ce1c 3b3e 173c 453e 984a 953c
00000180: 4c8f bcbd 9c70 26bd c3bf 2e3d 69a2 553e
00000190: 9e5f b83e b167 9abd 1297 083f b56a b83e
000001a0: c845 d3be 3f0a 5d3d 0df1 60bc 0f43 213c
000001b0: 9432 07be a8cd ad3e a171 8fbe e92f 4b3e
000001c0: 3574 263e f3c3 003e e723 c53d 8e4c 063e
000001d0: dda9 e3bd bf90 7abe b8bd d0bd cc61 aebc
000001e0: f501 293e 310d 6c3c f21d b43d 5dbb e8bd
000001f0: f8c9 093e d8f3 b03d a6c4 69be 1a93 b8bd
00000200: 9ca8 3ebe 5766 263d c435 3dbe 2f55 32be
00000210: ad4c 143e 507b babd c753 b33d e08a 19be
00000220: f5af efbd c01e 663e 3938 383e ba9d 47be
00000230: 0d6e 0e3e 569d 243e 37f7 a43d 20c3 14be
00000240: d28a a9bd 04f8 cdbd e39a 6dbe 68a3 d93d
00000250: 47ae 513d ccee 44be ea5e 1bbd ab6c 0dbe
00000260: 228a 5abe b8eb 9dbb 5b54 9ebd 13f4 11be
00000270: 6291 0cbd 5028 47be 46ca 59be 6228 94bd
00000280: 232c 77bc aea6 9d3c 1deb 1d3e 7b54 2e3e
00000290: e886 2ebd 9df4 4a3d 16af a13d f492 64be
000002a0: 2997 23bd 729d b53a 45dd d2bd 0550 023d
000002b0: 28d4 e5bd ef03 273d 1e56 4bbe 0731 c03d
000002c0: a22c 4ebd 5692 153e a5b8 c83d 73b1 69be
0.0067485888 -0.017840732 -0.12815405 -0.177678 -0.06433723 -0.123394564 0.11140962 -0.09409441
-0.24562566 0.041870575 -0.03691069 -0.12639163 -0.2815958 -0.07137372 -0.06758572 -0.20170464
-0.12912455 0.0005766816 -0.05197267 -0.07325466 0.081523836 0.04701515 -0.10529001 -0.1704863
0.019938026 -0.029466255 0.017993288 -0.08534901 -0.21794316 -0.1548505 0.08666111 -0.17805271
-0.047911186 -0.11899106 -0.061150875 0.1747777 -0.04338076 -0.07829549 -0.0065200217 -0.0142191155
-0.17581871 -0.15099491 0.04168801 -0.09248159 -0.04781452 -0.12948844 -0.10938945 0.02456936
-0.049130537 -0.1656304 -0.10317678 -0.20820634 0.069611944 -0.051168967 0.047948178 -0.1286218
-0.008688182 0.08499053 -0.20543328 -0.13960433 -0.02278572 0.1754242 0.21193819 0.029828435
0.019237895 -0.07143125 0.047765158 -0.041607656 -0.13793556 0.13986434 -0.07489337 0.108635075
0.2891452 -0.135237 -0.007965345 -0.032238655 0.0565107 0.08760851 0.08218865 0.011389207
-0.0151304165 0.265795 0.050570782 0.26437306 -0.100700386 -0.0027532454 -0.013620498 0.2859579
-0.02488185 0.07370802 0.04031266 0.24522844 0.106429376 0.18272707 0.19261204 0.018224046
-0.09207019 -0.040634736 0.042663347 0.20862736 0.3601045 -0.07539309 0.53355515 0.3601891
-0.41264176 0.05396485 -0.013729346 0.009842648 -0.13202888 0.33945966 -0.2801638 0.19842495
0.16255267 0.12574749 0.096259885 0.13115141 -0.11116383 -0.24469279 -0.10192436 -0.021286868
0.16504653 0.014407442 0.08794774 -0.11363862 0.13455951 0.086402595 -0.22828922 -0.090124324
-0.18619007 0.040624943 -0.18477541 -0.17415307 0.14482374 -0.09105551 0.08756214 -0.14994383
-0.11703483 0.22472668 0.17990197 -0.19493762 0.13909169 0.16075644 0.08054965 -0.1452756
-0.08278431 -0.10057071 -0.23203616 0.106268704 0.051191594 -0.19231719 -0.037932314 -0.13810985
-0.21341756 -0.0048193596 -0.07730933 -0.14253263 -0.034318335 -0.19448972 -0.21268567 -0.07234265
-0.015086207 0.019244518 0.1542172 0.17024414 -0.042609125 0.049549688 0.07894723 -0.22321683
-0.03993908 0.0013856126 -0.1029611 0.031814594 -0.11222106 0.040775236 -0.1985707 0.09384351
-0.050335534 0.14606604 0.09800843 -0.22821598

gru.weight_hh_l0 f4 [180, 60]
00000000: cc43 e8bd 4e4a 98bc e192 e3bd 32da 0b3e
00000010: f035 31bd 12d3 cf3d ec65 803d 5f68 eb3d
00000020: 93c2 a1bd 008f aebc a483 be3d 8c26 df3d
00000030: 35a3 47bd af07 3f3e b3c5 a53c 06bf 493e
00000040: b52f c53d affc 28be 087e 24be 9db4 66bb
00000050: f4aa 04be b8c4 ea3d 1f1f 273e 3f1e abbc
00000060: 2024 233e 5667 6d3d 89ac 123d 8607 20be
00000070: 6e4f 1dbe a1fd 95bd 4a6d febd 8e28 e93d
00000080: ac5e 983d 5f45 a93d f82b 043e 3105 9e3d
00000090: 398b a1bd 0107 6a3d d2d8 713d 1bf7 023e
000000a0: e10a 38bd 4386 48bc 09ea e33b d8f2 0d3e
000000b0: 0b11 2b3d 65cb f63d 544b 283d cc41 bb3d
000000c0: aacd 00be 485e 773d 9759 673e c140 e3bd
000000d0: 4015 013e 83ca a5bb 9054 2fbd 9f3c 493e
000000e0: 7df3 973d e70b ee3d f6de 5d3d 56c8 7fbc
000000f0: 73f4 45bd fa6b 573e 4222 7dbe ce79 a73a
00000100: 0bde b6bd c5cf 2ebd 86e4 e83d 9210 133e
00000110: b58c 013d b382 193d 4b01 2e3e baf4 89bc
00000120: 50de c9bd 537a d33d f06d d8bd 7ecc efbc
00000130: 2ac2 323d 1705 0fbe 6b5b 2fbe aba9 19bd
00000140: 7f6a febd ab18 103d fab8 3fbe cc83 fab9
00000150: 68a6 8f3d 325f d03d ad2a 413c 7c5a 553b
00000160: 3d4b 1b3d f6f4 0a3e 08e9 3cb9 840e 68bd
00000170: 134c eb3c b14a 413e e475 0f3e 3bca 4e3d
00000180: 51c9 95bd dc8f d83d 90fb 5d3e 8b94 323e
00000190: efe6 bd3c 9354 e03d 9340 c73d 8f97 aebc
000001a0: 4771 62bd dcc2 35bd d0df 123d 4c98 0b3e
000001b0: f2cc 28be ce67 f73b 2da2 8b3d 9665 923c
000001c0: a77e a9bc 406a 363e de9e ac3c 5b19 163e
000001d0: 9aff 2bbe fb76 01be 9f85 0f3d d14a 7b3d
000001e0: 0303 68be cf08 cc3d fb73 77be 9c84 733e
000001f0: bc9d 9abe 40d3 efbc a9d9 343e c163 063e
00000200: 5e02 e4bc 1414 4b3e 8c58 363e 582e 7e3e
00000210: df9b d1bd 606c 943e 6e75 1cbe 2622 913e
00000220: d4d3 a93d c548 46be a742 fcbd d8e5 5b3d
00000230: 00aa 69be 02b7 d7bd 0efc a83d 9a96 af3d
00000240: f9fe 7f3e d4c4 e03d 2691 693e f454 bbbd
00000250: e748 b5bd 2eeb 8f3e 0def dcbc 17e0 333e
00000260: 0bce cc3d 322f c8bb 883a 4a3c 8ccf 8c3e
00000270: 0cdb 23bd c1b2 173e ce60 763e 0220 753e
00000280: 8073 19bd 8be7 7fbd ccc0 5cbd 1119 61be
00000290: a8b8 d83d 16e0 693d c14d 59be e97c a93d
000002a0: b5c4 aabd 9f7a 39bc 9753 8f3e fb94 c6bc
000002b0: 9504 8e3e f3b2 2c3e 6be0 6f3e f5c3 b1bd
000002c0: 93ee 1d3d 5f3b 9abd fe8e fa3c 2e28 993e
000002d0: 24c6 18be 2e81 4a3d c892 06be 8997 bebc
000002e0: 9f1d 86be a1aa fd3d 80d8 093e 3a0c 8c3e
000002f0: c78b 55bc b11d 013e 6adb 593e a25f 223e
00000300: 6654 8ebd d630 0a3d e2d1 5c3d 27e0 0a3e
00000310: f006 543e 245c 7cbe 9487 66be ec21 863a
00000320: 8321 78be 40fb 4dbe 9842 12bd 5553 043e
00000330: 3bc7 053e 8149 3a3d 8d5e 953e 81af 91be
00000340: 1e36 d9bd 9cfd 0c3e f28e df3c 62a7 673e
00000350: 5af7 073e 707c 13bc 1ba0 1b3c ee47 da3d
00000360: b317 843d d144 d43d 1fac 7e3e 27f6 9e3d
00000370: 7d11 2ebd e9ce c23b a574 a13d 285b 46bd
00000380: 3583 a53d ae94 ecbc 3fcd 30be b919 713e
00000390: b8c1 0cbe c75e ef3c 0256 a53d a3b9 a13d
000003a0: 2b99 f23d cf06 443e e0e7 903e 5633 02be
000003b0: 67ce c2bd 53dc 233d 9e71 183d 3321 733e
000003c0: 8b0b 9ebd 7853 65bb 55ba 82bd 01e1 5dbb
000003d0: 7dfa 733d 0241 273e 6b5b 493e 9bf8 2b3e
000003e0: b0ad 81bd 9069 8d3e d497 86bd 71d4 653e
000003f0: c2c7 d5bd 872c a33d df07 853d 7039 c33d
-0.11341056 -0.018590119 -0.11111999 0.13657454 -0.04326433 0.1014768 0.0626944 0.114945166
-0.0789844 -0.021308422 0.09302452 0.10896024 -0.04873963 0.18655275 0.020235872 0.19701776
0.0962824 -0.16502641 -0.16063702 -0.0035202869 -0.12955838 0.114633024 0.16320466 -0.020888446
0.1593175 0.057959877 0.035809074 -0.1562787 -0.15362331 -0.073237665 -0.12423189 0.11384688
0.07439932 0.082651846 0.12907398 0.07715834 -0.07887883 0.057135586 0.059044667 0.12789576
-0.04493225 -0.012239042 0.0069553894 0.13862169 0.0417643 0.12050513 0.041087463 0.09143409
-0.12578455 0.060392648 0.2259277 -0.11096335 0.12605762 -0.0050595417 -0.042805254 0.19652031
0.074194886 0.11623364 0.05416771 -0.015611729 -0.048328828 0.21037284 -0.247201 0.001277739
-0.0892907 -0.042678613 0.113717124 0.1436179 0.03162833 0.03747816 0.1699268 -0.016840328
-0.09856856 0.10326066 -0.10567844 -0.029272314 0.0436422 -0.13966785 -0.17124717 -0.037515324
-0.12422656 0.035179775 -0.18722907 -0.00047781912 0.07014161 0.10174407 0.01178996 0.0032555154
0.03791355 0.13570008 -0.00018015888 -0.05665447 0.028722798 0.18876149 0.14009815 0.05048583
-0.07313789 0.10574314 0.21677995 0.17439477 0.023181407 0.10953631 0.097291134 -0.021312503
-0.05528381 -0.044375286 0.035857975 0.13632315 -0.1648443 0.0075502163 0.06818042 0.017870706
-0.020690275 0.17813969 0.021071848 0.1465811 -0.16796723 -0.12643044 0.03503954 0.061350647
-0.22657399 0.099626176 -0.24165337 0.23781055 -0.30198467 -0.029275537 0.17661156 0.1312399
-0.02783316 0.19831878 0.17807215 0.24822366 -0.10234808 0.28988934 -0.15279171 0.28346366
0.08292356 -0.19363697 -0.123174004 0.053685993 -0.22818756 -0.10532953 0.082512006 0.08573647
0.24999608 0.10975042 0.22809276 -0.09147063 -0.08851796 0.28109115 -0.026969457 0.17565952
0.10000237 -0.0061091417 0.0123430565 0.27502096 -0.04000382 0.14814283 0.24060366 0.23937991
-0.037463665 -0.062476676 -0.053894803 -0.21982218 0.105820954 0.05709847 -0.21221067 0.08275778
-0.083383 -0.011320739 0.2799346 -0.024240961 0.2773787 0.16865139 0.23425452 -0.08679954
0.0385576 -0.075308554 0.030585762 0.29913467 -0.14919335 0.0494396 -0.1314193 -0.023265617
-0.26194474 0.123860605 0.13461494 0.27353078 -0.013033814 0.12608983 0.21275106 0.15856794
-0.069496915 0.03373798 0.053911097 0.1356207 0.20705771 -0.24644524 -0.22512656 0.0010233498
-0.24231534 -0.20115376 -0.03570804 0.12922414 0.13064282 0.045480255 0.291737 -0.2845421
-0.10606025 0.1376862 0.027289841 0.22622445 0.13277951 -0.009001836 0.009498621 0.10658251
0.06449833 0.10364688 0.24870346 0.077617936 -0.042497147 0.005945076 0.07883576 -0.048426777
0.080816664 -0.02887949 -0.17265795 0.23544969 -0.13745773 0.029219998 0.08073045 0.078967355
0.11845621 0.19143222 0.28301907 -0.12714896 -0.095120244 0.04000504 0.03721773 0.23743133
-0.077170454 -0.0034992378 -0.06383196 -0.0033856037 0.059565056 0.16333392 0.1966378 0.16794054
-0.063319564 0.276196 -0.06571928 0.22444321 -0.104384914 0.07967477 0.06495642 0.0953244

gru.bias_ih_l0 f4 [180]
00000000: 6287 4bbd 6841 803c 4a75 bcbd c5c2 f33c
00000010: 3fce 43be 642e f1bd e422 863d 8236 32bc
00000020: c1fe 3b3b 9473 dcbd e526 8bbd d2c4 50be
00000030: 2e02 c43c 00c2 6bbb c46e 45be a450 58be
00000040: cc52 dcbd e6b6 5cbe 47e9 de3d 0b8b b63d
00000050: 0f04 21bd 63af 8fbd 9768 1abe 689f 94bd
00000060: d266 07be 3ba7 9abe 0dab 50bc 37f6 85be
00000070: 5fdb c3bd 6f26 ec3d 8b61 e93d 9590 c2bb
00000080: d98c 36be c413 8ebd 8342 85bc c092 d03d
00000090: be6b a1bc 8042 543d 2d4b 2fbe 7e91 06bd
000000a0: 5d00 1e3d 9ce6 15bd 28ae 9b3d 17ef 77be
000000b0: ec96 e6bc 6ff5 b4bb 622f 0bbe 3f07 3fbd
000000c0: b7f6 a83d 0763 bcbd 9bc0 a5bd ecb0 d6bd
000000d0: 52d0 423d 05fc bc3d 3a86 01bd 325f 923d
000000e0: 69be 57bd b78b c1bb 4ccb d83d 9449 153d
000000f0: 007d 57be 5a37 443e 1d98 ccbd 7419 dcbe
00000100: 30af 293c 70ad 97be b154 e7be 0e4a 8c3e
00000110: a9a6 0ebf 3b5d 2fbd dc70 b83d 011a 8fbe
00000120: b3df 24be 4371 49be dfe8 64be f680 8fbe
00000130: ac2d 3fbe 9b7f 02bf 8a21 69be 616f abbe
00000140: 7b5b c7be 1c29 2d3c 0d30 e5bb 3ac4 febd
00000150: af9c 8a3e c896 c0be 9d60 a1be 2792 4b3c
00000160: 3a0e c13c 4341 e8be 541a 03be a1e6 453e
00000170: 5bb0 0ebf 6e95 0bbc 0780 cc3d 1390 483e
00000180: 303c 54be a8cf ecbe 9636 c1be ff39 6e3d
00000190: a21d 43be 3708 113d 81e4 b2be 7af8 13be
000001a0: f62d 533e 7e9e 70be 72ba 823e e37e 98be
000001b0: 23fe 3fbd 5d70 593c ac1a 8abe 9053 e33d
000001c0: 681e c6be 5a38 003e fbbe f1be de59 803e
000001d0: 210a 82be 8b32 663e 5f0c f4bd 4a92 96be
000001e0: 5744 0abd 527a bbbd 63ff e33d e820 c73c
000001f0: ec69 423d 5828 91bd ce34 18bd 8cf6 96bc
00000200: 3936 403d 6a6a 9dbd c8d3 ce3d 3756 f1bd
00000210: f859 3f3e 486c bbbd caef 84bd 80ef 783d
00000220: 000a e23d 56a6 ab3d a31b 55bc 3d63 fdbc
00000230: 0985 c13d a955 d33c 5edd 1a3c 7a00 b4bd
00000240: a35c c73c 7387 dd3d d060 12bc fe48 bcbc
00000250: 0d34 473d aa53 bfbc 64d9 0c3d eca4 afbb
00000260: 96ed 2dbd b643 ba3c 2ec1 d83d fda6 28bd
00000270: dd1d 7dbd 6baf 433c 5de3 663c 2e2a 8abd
00000280: ca96 19bd 595b 1abd 465b c03d b0aa 00be
00000290: a299 a13d 9186 cdbd 829c 803d 2bab 533c
000002a0: 7bcc 5c3d e6c4 f3bd 4b3b a53d 1939 a93d
000002b0: 71a7 873d 75a7 13be 20be 963d deab 82bd
000002c0: b902 f83d 9348 0abd 86b9 70bd 1731 3d3d
-0.049689658 0.015656188 -0.092020586 0.02975596 -0.19121645 -0.117764264 0.065496236 -0.0108772535
0.002868578 -0.10764232 -0.06794528 -0.20387581 0.02392682 -0.0035973787 -0.19280535 -0.21124512
-0.1075798 -0.21554145 0.10884338 0.08913239 -0.03931051 -0.07015874 -0.1507896 -0.07256967
-0.13222817 -0.30205712 -0.012736094 -0.2616441 -0.09563326 0.11530768 0.11395558 -0.0059376457
-0.17827167 -0.06937364 -0.016267067 0.1018424 -0.019704696 0.05182123 -0.17118521 -0.032853596
0.038574565 -0.03659688 0.07601577 -0.242123 -0.028148137 -0.005522422 -0.13592294 -0.04663777
0.08250182 -0.091985755 -0.08093377 -0.10482964 0.04756195 0.092277564 -0.03162215 0.07147063
-0.052671824 -0.005906548 0.10585651 0.036447123 -0.21043777 0.1916174 -0.09989951 -0.4298817
0.010356709 -0.2962451 -0.45181802 0.2740025 -0.55723053 -0.04281352 0.09005901 -0.27949527
-0.1610096 -0.19672112 -0.22354458 -0.28028077 -0.18669766 -0.5097596 -0.227667 -0.33483413
-0.38936982 0.010568883 -0.0069942535 -0.12439771 0.27072665 -0.37615037 -0.31519023 0.012424982
0.023566354 -0.4536229 -0.12803012 0.19326259 -0.5573785 -0.0085195135 0.09985357 0.1958621
-0.20726085 -0.4625218 -0.37736958 0.058160778 -0.19054273 0.035408225 -0.3493996 -0.14450255
0.20623001 -0.2349796 0.2553287 -0.29784307 -0.046873223 0.013271418 -0.26973474 0.11099923
-0.38695073 0.12521496 -0.4721602 0.25068563 -0.25398353 0.22480218 -0.11916422 -0.29408485
-0.03375658 -0.0915419 0.111326955 0.024307683 0.047464296 -0.07087773 -0.037159733 -0.01842811
0.04692671 -0.076863125 0.10098988 -0.11784022 0.18686664 -0.091515124 -0.06491049 0.06077528
0.110370636 0.083813354 -0.013007077 -0.03093111 0.094492026 0.025797682 0.009452192 -0.087891534
0.024336165 0.108168505 -0.008934215 -0.022984024 0.048633624 -0.023355324 0.034387007 -0.0053602364
-0.042462908 0.022737365 0.10583721 -0.041174877 -0.061796058 0.011943678 0.014092294 -0.067463264
-0.03749732 -0.037684772 0.09392409 -0.12565112 0.07890631 -0.10035432 0.062798515 0.012919228
0.053905945 -0.1190279 0.0806795 0.08262844 0.06623734 -0.14419349 0.07360482 -0.06380437
0.12109894 -0.03376062 -0.05877068 0.046189394

gru.bias_hh_l0 f4 [180]
00000000: a3da 523d ca1b 23be 3481 1bbe d9f8 d93c
00000010: 95e9 8dbd 24e4 1bbe 76b1 5bbd ddca 623d
00000020: 6e94 11bd ee86 cabd 66aa 16be 33d4 9d3c
00000030: b1db 51bd c12d fcbd c416 afbd c569 00be
00000040: 80d7 d53c edf3 4fbe 4734 753d 92da 8e3b
00000050: 5820 643d c4c3 2fbe d739 4cbe 349f 29be
00000060: df3c 7abe 3217 adbe 9150 f2bd 752a 3dbe
00000070: 810a 3fbe 9373 fc3c aea4 54bc 1732 c13d
00000080: f117 6dbd 90ca 45bd 0888 debd 1a53 bd3d
00000090: 1f81 03be e03b 223e e5df adbd b75e fc3d
000000a0: 9421 e7bc 6b86 b7bd a4cd cbbd f404 8bbe
000000b0: b052 18be 8d54 82ba d544 5cbd 9108 6fbd
000000c0: 4f6c fbbd e656 4cbd b799 11be cb68 0bbe
000000d0: 7740 dbbd fc6e 6ebc 56d2 663d a6c3 ac3d
000000e0: f21a 3abe ffa4 733d 767d 95bd 2296 42bd
000000f0: df68 1bbe 2c8f 3c3e aba3 f5bd 5f31 f7be
00000100: ffa5 04bd 15f8 cdbe 77a2 ddbe 44e6 423e
00000110: 044b bcbe a506 97bb 9261 c23c e37a 36be
00000120: cdc2 17be f109 4cbe a5a2 d1bd f23f 8ebe
00000130: 65c6 90be 4244 06bf f467 41be 9c2b 04bf
00000140: f9ac aabe 357c 5f3c b65e 913d 69fb 09be
00000150: 66d6 4b3e f303 a9be 2c1e b8be 3ce7 033e
00000160: c7fb 0d3d 4795 cdbe cd1a a23d 3a1b a93d
00000170: 1157 0bbf 77de af3d d15b 193e 04fa 203e
00000180: 7adb 00be 57cb 9dbe 7b42 bcbe 0ef6 ce3d
00000190: ec9f d7bd 94df 913d dfcf 3ebe 7c25 8cbc
000001a0: daa3 843e 1184 9abe fa47 393e 73fb 6cbe
000001b0: e6ee 0dbe 9b4d 153d 6d8d b1be 673a 1e3e
000001c0: b89e b1be 2184 b43d eae3 b2be b272 b43d
000001d0: 7b46 84be 613c c73d bf65 7abe 3dce 8dbe
000001e0: c481 36bd d083 eabd 4c93 063d 9056 8dbc
000001f0: 917a 0fbe 5a88 eebd fc29 90bc c0df 22be
00000200: 6eb1 0a3e 0b01 f4bc 6e3e b2bd 2091 36bc
00000210: 84f4 f2bc 930f dd3d 2a06 db3d e5e8 a13b
00000220: 2390 6ebd b8ad 9b3d 0915 1fbd 4708 e23d
00000230: eca9 853d 8fdf d5bc 2649 02be 8a9f 943d
00000240: 91d2 973c f0d3 e13b db0a 3fbd f576 94bd
00000250: 05a2 513c 90fd 713c 8aa4 1b3d 4fd4 1a3d
00000260: d457 f53c 3e5a 02be 797b 0f3d 467b 0bbd
00000270: b306 14bd 9ef1 b53d 19e4 433c 845e 4cbd
00000280: 4dcc d53d d45a f6bd f444 46bd be8f 76bd
00000290: 5e3f 183e eba1 82bd aa83 31bd fb1c 3cbc
000002a0: 69f3 093e 6158 573d 0e1a fd3c fcf6 c539
000002b0: b035 01be b3ec dcbd 43f7 04be 176f b8bd
000002c0: bcb6 9b3c f9cc aebd 63bc 1bbd 221c 48bc
0.05147804 -0.1592857 -0.15186006 0.026607918 -0.06929318 -0.15223747 -0.053636037 0.055369247
-0.035541944 -0.09889017 -0.1471344 0.019266224 -0.051234905 -0.12313414 -0.08549264 -0.12540348
0.026103735 -0.20307894 0.05986431 0.0043595517 0.055694908 -0.17164522 -0.19943939 -0.16564637
-0.24437283 -0.3380676 -0.11831773 -0.18473227 -0.1865635 0.030816829 -0.012978716 0.09433382
-0.05788416 -0.04828888 -0.1086579 0.09244366 -0.12842225 0.15843153 -0.0848997 0.12322753
-0.028214253 -0.08961185 -0.09951332 -0.27152216 -0.14875293 -0.0009943411 -0.05377658 -0.05835778
-0.122765176 -0.04988756 -0.14218794 -0.13614194 -0.10705655 -0.014552828 0.056352936 0.084357545
-0.18174341 0.059483524 -0.072993204 -0.04750646 -0.15176724 0.1841399 -0.11994108 -0.48279855
-0.03238487 -0.40228334 -0.43288013 0.19033152 -0.36775982 -0.0046089464 0.023728166 -0.17820315
-0.14820404 -0.19925667 -0.102361 -0.2778316 -0.28276363 -0.52447903 -0.18887311 -0.5162904
-0.33335093 0.013640453 0.07098143 -0.13474812 0.19906005 -0.33010826 -0.3596052 0.12881178
0.03466394 -0.40152952 0.07915268 0.08257146 -0.5442973 0.08587354 0.14976431 0.15720373
-0.12583724 -0.30819198 -0.3676947 0.10105525 -0.105285496 0.07122722 -0.18633984 -0.017107718
0.2590626 -0.30178884 0.18093863 -0.23142795 -0.13860664 0.036450963 -0.34678212 0.15451966
-0.34691405 0.08814264 -0.3493951 0.08810939 -0.25835022 0.09728313 -0.24452876 -0.2769641
-0.044557348 -0.114509225 0.032855317 -0.01725319 -0.14011599 -0.11647101 -0.017598145 -0.15905666
0.13544247 -0.029785654 -0.08703314 -0.011142999 -0.02965761 0.10793986 0.10694535 0.0049410933
-0.05824293 0.076014936 -0.03883842 0.11036735 0.06526551 -0.026107578 -0.12723216 0.07256992
0.018533023 0.00689172 -0.046641212 -0.07249252 0.012794976 0.014769927 0.037998714 0.03780013
0.029949106 -0.12729737 0.035029862 -0.03405311 -0.0361392 0.088839754 0.011956238 -0.049894825
0.10439358 -0.12029043 -0.048405603 -0.060195677 0.14867923 -0.0637854 -0.043338455 -0.011481519
0.1347176 0.05257452 0.030896213 0.00037758786 -0.12618136 -0.10787334 -0.12984948 -0.09005564
0.019008033 -0.08535189 -0.038021456 -0.012213739
