hosp_models/deploy_week_43_8/feat_enc.pt (torch, 56491 bytes, 4 tensors)

gru.weight_ih_l0 f4 [180, 15]
-0.32722303 -0.11250332 -0.31071296 -0.22922702 0.14274658 0.13203962 0.043012343 0.10236159
-0.011456807 0.004052775 0.0837317 -0.15870169 -0.2633635 0.00018201082 0.012745206 0.12916708
0.11017826 0.13024409 -0.09986247 -0.09393192 0.15320443 0.11921709 -0.026568688 0.096606635
0.105202965 0.021592285 -0.12862338 -0.25846586 -0.07929203 -0.0874687 -0.1431273 0.11393927
-0.018997276 -0.19975455 -0.057767723 -0.22513829 -0.12982862 0.11097363 0.057606544 0.16077127
-0.04585444 -0.56970435 0.102298826 -0.08153722 -0.03169789 0.027822277 0.11974713 -0.054766487
-0.16781212 0.112299755 -0.1642354 0.30593058 0.051237267 0.017440412 0.21390519 0.07621364
-0.2765877 -0.0411613 -0.03155918 -0.02841744 0.034611754 -0.011268774 -0.25512022 -0.07996886
-0.017835036 -0.032329343 -0.021945283 0.029912949 0.08009027 0.1720157 -0.055582337 -0.21849078
-0.046190783 0.1445492 0.18782413 0.2673788 -0.03889628 -0.12612951 -0.027223932 0.006977205
-0.25684664 0.17032759 0.098162025 -0.1287803 0.032895032 -0.017689088 0.53248376 -0.1389259
0.46011782 0.30738106 0.16131468 0.2475001 0.19585897 -0.085018076 -0.41670665 0.13392301
0.118762136 0.027020687 -0.10070841 0.036395144 0.108230636 -0.20614775 -0.15071985 -0.13510278
-0.23644954 -0.11930873 -0.34923542 0.20220816 0.050448842 0.25040263 -0.39069068 -0.26125523
-0.07856206 0.11714097 -0.014589775 -0.30926326 -0.432769 0.24024987 0.075999975 0.016412707
-0.08153604 -0.06564508 -0.23071918 -0.02107835 -0.17840669 0.048138898 -0.01370652 -0.06288607
-0.045163292 -0.0025059418 -0.028194165 -0.8042739 -0.09919102 0.06708772 0.12803623 0.035473175
0.0077363313 -0.55098885 0.052879684 0.0115175145 0.240262 0.28759193 0.12256876 -0.009336685
-0.10640578 0.13776107 -0.18644682 0.049983073 0.0041542067 -0.056958843 -0.23267719 -0.3401604
0.06945399 0.011928345 -0.03549244 -0.23961152 0.114050925 -0.101021536 -0.02729295 -0.06760729
0.15788785 0.03746014 0.040179092 -0.22694956 -0.18477608 0.10507532 0.1390369 -0.115647495
-0.41799232 -0.23654489 0.2706876 -0.17960905 0.1165772 0.04675385 -0.17850326 0.036973618
0.2536891 -0.0043059327 -0.04152154 -0.25592962 0.030004868 -0.005079788 0.31542298 0.065896116
0.26100358 -0.022744773 -0.22888367 -0.027150316 -0.10638845 0.16634482 -0.09068173 -0.18035631
-0.028160641 0.01972456 -0.14535362 -0.051187064 -0.3422037 0.060595386 -0.1586366 0.015815042
-0.16179344 0.16115427 -0.09758886 -0.088628344 -0.101467386 0.17067613 -0.59236616 0.1740651
0.19421352 0.14830922 0.07113735 -0.116545685 -0.045004226 0.07747792 0.07686643 -0.037853565
-0.21029322 -0.06766508 0.10424686 -0.31049055 -0.014350558 -0.18782376 0.05028326 -0.034770288
-0.20760944 -0.12010762 -0.268879 -0.17617781 0.04538206 -0.039502665 0.13155961 0.11716233
0.016116623 0.11563344 0.16647281 -0.26641908 -0.517378 -0.16398203 -0.2106794 -0.055326607
-0.0051661506 0.18292025 -0.06808403 0.12008818 -0.062360816 0.14174995 0.07277004 -0.10675523
0.0017793132 0.12249586 -0.18202256 0.19572443 0.24531102 -0.037229773 0.008815545 0.1104682
00000000: c789 a7be 2468 e6bd c515 9fbe 7dba 6abe
00000010: 292c 123e 6535 073e b62d 303d f4a2 d13d
00000020: 55b5 3bbc 24cd 843b 877b ab3d b282 22be
00000030: 95d7 86be 28da 3e39 45d1 503c 6044 043e
00000040: 24a5 e13d b55e 053e b284 ccbd 615f c0bd
00000050: 9fe1 1c3e 1728 f43d 94a6 d9bc b3d9 c53d
00000060: a774 d73d 4ee2 b03c d9b5 03be a355 84be
00000070: dc63 a2bd ca22 b3bd f78f 12be fe58 e93d
00000080: 2da0 9bbc 758c 4cbe d99d 6cbd a78a 66be
00000090: cbf1 04be 2446 e33d d7f4 6b3d 39a1 243e
000000a0: ded1 3bbd 25d8 11bf 0c82 d13d fcfc a6bd
000000b0: a6d5 01bd 8beb e33c fc3d f53d d352 60bd
000000c0: f1d6 2bbe 6afd e53d 532d 28be efa2 9c3e
000000d0: 2bde 513d 32df 8e3c f609 5b3e e615 9c3d
000000e0: e79c 8dbe c098 28bd 3344 01bd b1cb e8bc
000000f0: 0ec5 0d3d aaa0 38bc 1e9f 82be b7c6 a3bd
00000100: c81a 92bc c66b 04bd 98c6 b3bc 000c f53c
00000110: 5e06 a43d e224 303e 4eaa 63bd 0cbc 5fbe
00000120: 8c32 3dbd b504 143e f854 403e e0e5 883e
00000130: b551 1fbd 1828 01be b904 dfbc 0aa1 e43b
00000140: 6781 83be 5b6a 2e3e 2c09 c93d fcde 03be
00000150: f1bc 063d b5e8 90bc db50 083f 9742 0ebe
00000160: 9094 eb3e 0d61 9d3e ad2f 253e ab70 7d3e
00000170: 418f 483e f51d aebd 935a d5be 1d23 093e
00000180: 9039 f33d 7d5a dd3c 3640 cebd 1313 153d
00000190: 06a8 dd3d 6518 53be 4e56 1abe 6258 0abe
000001a0: d41f 72be 2358 f4bd fcce b2be a80f 4f3e
000001b0: 72a3 4e3d c634 803e 9c08 c8be 3fc3 85be
000001c0: 25e5 a0bd 9be7 ef3d f409 6fbc c157 9ebe
000001d0: e693 ddbe 1004 763e e0a5 9b3d f173 863c
000001e0: 5efc a6bd ed70 86bd a641 6cbe 81ac acbc
000001f0: 3eb0 36be 4b2d 453d 5091 60bc 69ca 80bd
00000200: 25fd 38bd ba3a 24bb 73f7 e6bc e5e4 4dbf
00000210: a924 cbbd 4965 893d ee1b 033e 524c 113d
00000220: 0d81 fd3b 9b0d 0dbf 5e98 583d f5b3 3c3c
00000230: 3e07 763e 403f 933e 5405 fb3d e5f8 18bc
00000240: 46eb d9bd 3d11 0d3e eaeb 3ebe 0dbb 4c3d
00000250: 0320 883b ad4d 69bd ee42 6ebe 8129 aebe
00000260: e53d 8e3d 1b6f 433c 8560 11bd b95c 75be
00000270: 8893 e93d 61e4 cebd 7795 dfbc b175 8abd
00000280: 5aad 213e ce6f 193d d592 243d 7765 68be
00000290: f135 3dbe bb31 d73d b05f 0e3e 98d8 ecbd
000002a0: 1703 d6be d338 72be 9197 8a3e 6feb 37be
000002b0: 07c0 ee3d f780 3f3d 8fc9 36be a671 173d
000002c0: 8ae3 813e c818 8dbb 7e12 2abd 3509 83be
000002d0: c5cc f53c 5a74 a6bb 1f7f a13e 8bf4 863d
000002e0: 43a2 853e 3f53 babc 7b60 6abe 576a debc
000002f0: 30e2 d9bd 4c56 2a3e 58b7 b9bd 53af 38be
00000300: 25b1 e6bc 6795 a13c 94d7 14be 87a9 51bd
00000310: 5335 afbe de32 783d a271 22be 8c8e 813c
00000320: 2ead 25be a005 253e abdc c7bd c782 b5bd
00000330: 22ce cfbd b9c5 2e3e 4fa5 17bf 1f3e 323e
00000340: e9df 463e 5fde 173e 75b0 913d 81af eebd
00000350: 5a56 38bd beac 9e3d 266c 9d3d 570c 1bbd
00000360: 1b57 57be fd93 8abd 617f d53d 9ef8 9ebe
00000370: 9a1e 6bbc df54 40be d2f5 4d3d 4a6b 0ebd
00000380: 9297 54be fcfa f5bd 82aa 89be f567 34be
00000390: 8ae2 393d 8ccd 21bd 90b7 063e cef2 ef3d
000003a0: 0207 843c 3ad1 ec3d d977 2a3e 1568 88be
000003b0: e272 04bf e8ea 27be 57bc 57be 279e 62bd
000003c0: d048 a9bb 724f 3b3e a46f 8bbd cbf0 f53d
000003d0: 0e6e 7fbd e626 113e 7508 953d 7ca2 dabd
000003e0: d837 e93a 1cdf fa3d 1f64 3abe fc6b 483e
000003f0: d032 7b3e 3f7e 18bd 136f 103c 273d e23d

gru.weight_hh_l0 f4 [180, 60]
0.01026441 -0.08061617 0.111901134 -0.16354185 -0.21356153 0.016306669 0.02107619 0.19029026
0.12961772 0.10602941 -0.10769349 -0.21698812 -0.1738329 0.08874047 -0.049018785 -0.055204354
-0.019953629 -0.1873587 -0.07307391 -0.06463059 -0.16516498 0.09810827 0.108302675 0.29495445
0.03319706 -0.10715591 -0.026569288 -0.017354919 -0.05548274 0.08427514 -0.16282706 -0.05998887
0.17443536 -0.12897685 0.07822176 0.004811308 0.014400185 -0.24276344 -0.086508065 0.17998202
-0.15152852 -0.018016122 -0.16436972 -0.0055346284 0.09158053 0.10409769 -0.38107714 0.028010543
0.047754396 0.017104598 0.10395428 -0.09502447 0.064927794 0.07682645 -0.06540228 0.0018183168
0.09953402 0.067817554 -0.080991045 -0.17836465 0.08900115 -0.22027344 0.14397633 -0.0025806038
-0.05359397 -0.0179489 0.13611394 0.08034256 0.05283414 -0.0028391376 -0.019728098 -0.08447881
0.06960389 0.08259572 -0.20769553 0.09267798 0.10144007 0.011284327 0.06803679 0.13602479
-0.1287864 0.08670926 -0.020276563 0.14329451 0.0657287 -0.12542272 -0.09920019 0.16688713
-0.28157985 0.0012526619 0.0946745 -0.06589001 0.016306417 -0.19478646 -0.02388087 0.10507495
-0.18033859 -0.03283018 0.10059397 -0.046254743 -0.16549927 0.050928142 0.05086486 0.04470384
-0.016115913 0.12222409 -0.07622766 -0.08675133 -0.0045515485 0.02229401 0.09491907 0.08101919
-0.023066064 0.10340782 -0.021005858 0.012400458 -0.15887539 -0.20236677 0.10821382 -0.010313979
0.0984936 -0.023559732 -0.08223637 0.14818169 0.207547 0.013364871 -0.07147848 -0.0155067295
-0.053376034 -0.124182016 -0.004669842 0.061567675 0.21599923 0.20927982 -0.067699686 0.055816896
-0.20953056 0.14339244 0.105542175 0.030761756 0.028890185 -0.22788449 0.16609678 0.010883796
0.034892485 0.028786201 -0.12009339 0.17048265 -0.20780478 -0.3077754 -0.046615295 0.0747881
-0.012226598 -0.13618875 -0.11543425 -0.055065867 0.03376449 -0.25260153 0.15800816 0.04941699
-0.10108622 0.20017056 -0.027629035 0.17248479 0.1445098 -0.123276815 -0.033370703 -0.09957132
0.10426866 -0.034135107 -0.039380893 0.008190206 -0.11900254 -0.07586445 -0.12308367 -0.19888532
-0.09916006 0.13914956 0.16586861 -0.2807071 0.13485897 -0.04944696 -0.068991296 0.16750202
0.0033137624 -0.07775586 -0.088038065 0.16066158 0.086401574 -0.35260645 0.06772077 -0.09695488
0.019644938 0.105232 -0.03751742 0.2529491 0.013231213 -0.31461313 0.10863466 -0.08105187
0.1678253 0.029024187 -0.12108115 0.08227163 0.0051076747 -0.18890819 -0.04132551 -0.043607984
-0.13251255 0.14933711 0.23851532 -0.16522552 -0.008327972 -0.15497033 0.20386069 -0.0021312244
-0.35582373 0.11738279 -0.21861315 -0.22792512 0.27702165 -0.09396008 0.07162018 0.020688426
0.096435085 -0.03908131 -0.16843414 0.18095317 0.2747388 0.02942251 -0.061563857 -0.068840094
0.09378604 -0.17504132 -0.16021702 -0.22536096 0.10669248 0.21437676 0.10932618 -0.12048994
-0.030122977 0.03652492 0.03867412 0.011076182 -0.19028589 -0.06829281 -0.028687518 0.12129931
-0.048296712 -0.086661264 -0.050233923 -0.17755303 0.08250076 -0.09505906 0.20423335 0.104683764
00000000: 0e2c 283c 171a a5bd 6c2c e53d 8477 27be
00000010: e0af 5abe 9095 853c f9a7 ac3c 73db 423e
00000020: 82ba 043e f325 d93d 688e dcbd 2232 5ebe
00000030: 4001 32be 90bd b53d ecc7 48bd f61d 62bd
00000040: cb75 a3bc f6da 3fbe c6a7 95bd 0b5d 84bd
00000050: 0221 29be fdec c83d cbcd dd3d 4504 973e
00000060: a4f9 073d 8f74 dbbd d6a7 d9bc e72b 8ebc
00000070: df41 63bd 7298 ac3d 23bc 26be e4b6 75bd
00000080: 2f9f 323e 8212 04be bb32 a03d 2da8 9d3b
00000090: c1ee 6b3c fb96 78be 242b b1bd 354d 383e
000000a0: 4b2a 1bbe 8c96 93bc 8950 28be d45b b5bb
000000b0: 938e bb3d 2b31 d53d 8b1c c3be 5e76 e53c
000000c0: 1d9a 433d f11e 8c3c fbe5 d43d 309c c2bd
000000d0: ddf8 843d 3057 9d3d a1f1 85bd 9654 ee3a
000000e0: 7ed8 cb3d eee3 8a3d a2de a5bd 39a5 36be
000000f0: 3c46 b63d 5c8f 61be 886e 133e 591f 29bb
00000100: 5a85 5bbd 9209 93bc 7461 0b3e a48a a43d
00000110: 9c68 583d d310 3abb d29c a1bc 3a03 adbd
00000120: 7c8c 8e3d f227 a93d 23ae 54be f4cd bd3d
00000130: d0bf cf3d e6e1 383c df56 8b3d 154a 0b3e
00000140: 95e0 03be a094 b13d 091b a6bc ccbb 123e
00000150: c59c 863d d06e 00be 7829 cbbd 76e4 2a3e
00000160: 3c2b 90be 5c30 a43a b4e4 c13d 57f1 86bd
00000170: 0995 853c 1a76 47be d0a1 c3bc 8931 d73d
00000180: aeaa 38be f078 06bd 3604 ce3d 9d75 3dbd
00000190: a478 29be 079a 503d ac57 503d 601b 373d
000001a0: 8505 84bc a050 fa3d 3f1d 9cbd aeaa b1bd
000001b0: 2825 95bb eda1 b63c ee64 c23d 64ed a53d
000001c0: 0bf5 bcbc 7bc7 d33d 7a14 acbc 4a2b 4b3c
000001d0: 3bb0 22be 3c39 4fbe 359f dd3d f7fb 28bc
000001e0: 03b7 c93d 5700 c1bc 8b6b a8bd f1bc 173e
000001f0: 3387 543e 55f8 5a3c 4f63 92bd f00f 7ebc
00000200: d4a0 5abd 2453 febd 7905 99bb 632e 7c3d
00000210: e72e 5d3e 734d 563e 22a6 8abd 42a0 643d
00000220: 2e8f 56be 78d5 123e 7f26 d83d 1400 fc3c
00000230: 1cab ec3c 8d5a 69be 4615 2a3e f351 323c
00000240: 6ceb 0e3d 0ad1 eb3c 86f3 f5bd 0193 2e3e
00000250: c7ca 54be bd94 9dbe aeef 3ebd 812a 993d
00000260: 1252 48bc 1075 0bbe cb68 ecbd bf8c 61bd
00000270: a24c 0a3d fd54 81be e4cc 213e 7869 4a3d
00000280: 4b06 cfbd 83f9 4c3e 4956 e2bc da9f 303e
00000290: 61fa 133e 8e78 fcbd b8af 08bd 0cec cbbd
000002a0: cf8a d53d 41d1 0bbd dc4d 21bd 3730 063c
000002b0: 9bb7 f3bd d25e 9bbd 4b13 fcbd 98a8 4bbe
000002c0: 6e14 cbbd 397d 0e3e 76d9 293e d7b8 8fbe
000002d0: 7818 0a3e e588 4abd 4f4b 8dbd a685 2b3e
000002e0: b52b 593b 773e 9fbd 4d4d b4bd 7884 243e
000002f0: 4ff3 b03d d588 b4be 30b1 8a3d 4890 c6bd
00000300: 6cee a03c e083 d73d deab 19bd 8b82 813e
00000310: bbc7 583c f914 a1be d97b de3d 86fe a5bd
00000320: 65da 2b3e 22c4 ed3c 65f9 f7bd 077e a83d
00000330: 485e a73b 2671 41be f044 29bd 499e 32bd
00000340: 5fb1 07be d4eb 183e 5c3d 743e e130 29be
00000350: 0c72 08bc 8bb0 1ebe dbc0 503e 03ac 0bbb
00000360: 872e b6be 6366 f03d 20dc 5fbe 3465 69be
00000370: c8d5 8d3e 246e c0bd 9aad 923d c67a a93c
00000380: c27f c53d b913 20bd 007a 2cbe ca4b 393e
00000390: 90aa 8c3e 7a07 f13c 622a 7cbd 09fc 8cbd
000003a0: e512 c03d 083e 33be ee0f 24be 06c5 66be
000003b0: 9681 da3d 9585 5b3e 67e6 df3d 6ec3 f6bd
000003c0: 76c4 f6bc 289b 153d c168 1e3d e078 353c
000003d0: 4eda 42be 1add 8bbd 1602 ebbc c66b f83d
000003e0: c6d2 45bd 767b b1bd 16c2 4dbd 76d0 35be
000003f0: 29f6 a83d 53ae c2bd 8c22 513e 7164 d63d

gru.bias_ih_l0 f4 [180]
-0.027448544 -0.10241242 0.1560794 -0.070029095 -0.12585908 -0.099792495 -0.09385472 0.09125875
0.113069676 -0.046259575 0.1183838 0.03519105 0.0054289056 -0.02020398 0.04623552 -0.20521493
0.16972588 -0.0021567491 0.13104336 0.09054673 0.13369359 0.005241004 -0.09289928 -0.09241949
0.11989413 -0.020665832 -0.09389933 0.02323354 0.1070466 0.10420824 -0.12199802 0.031922787
-0.063040905 0.13135779 -0.12871936 0.031233413 0.12898146 -0.034787133 0.03300475 0.13064507
0.080260634 0.0009861937 0.180392 0.14893784 -0.10843876 0.19761363 0.15606138 0.07010477
0.106894314 -0.09907333 -0.010824244 0.11962494 -0.029627545 -0.022733372 0.065318964 0.088468656
-0.07582237 -0.033842027 0.016289327 0.051999673 0.117048666 -0.063662596 0.31836376 0.1774688
0.0429336 0.14858162 0.19398041 -0.0010084701 0.2600236 0.20807055 0.31002098 -0.07930327
0.1722898 0.21123165 0.24652024 0.32765085 -0.06772516 -0.145269 0.04175647 0.017433507
0.019107161 0.23587853 -0.06324933 -0.08012756 0.27694383 -0.05942518 0.23122634 -0.27257493
0.12373343 0.1161847 0.03957099 -0.08909349 -0.24809062 -0.07833507 0.3506114 0.17892078
-0.11308159 -0.18895137 0.109832056 0.09658475 0.16746232 0.16846943 0.12858516 0.27811873
0.2551032 -0.23951097 0.30508453 0.28079948 0.09367106 0.24673408 0.21750356 0.2847212
-0.115903005 0.023045355 0.5498182 0.06776072 -0.1880776 0.3071549 -0.12524173 0.046011563
0.062372707 -0.039187297 0.087637156 0.10069468 0.1130278 0.037333887 -0.10055091 -0.091149546
0.0878045 0.010064627 -0.12825035 0.11133141 0.050821315 -0.094458796 -0.0349015 -0.12297083
-0.10966502 0.020146716 -0.073161975 -0.03650131 -0.015249211 0.11914964 0.10883476 -0.11974112
0.0633857 -0.05768799 -0.027608925 -0.05175658 -0.037156027 -0.08028554 -0.14490336 -0.0770876
-0.026545526 -0.17258771 0.055299968 -0.09013018 -0.09780865 0.030998083 0.1187999 -0.002160347
-0.07884113 0.105578564 0.03247304 0.06392608 -0.09404148 0.06432042 -0.08289093 0.05465612
0.070367575 0.005030734 0.07285798 0.090870865 -0.058967814 0.0053154947 0.015037809 -0.014381359
-0.088069245 0.060328357 -0.12860817 0.017783169
00000000: c5db e0bc 9abd d1bd 47d3 1f3e 6a6b 8fbd
00000010: 34e1 00be 0260 ccbd e736 c0bd dee5 ba3d
00000020: 1391 e73d ae7a 3dbd 3573 f23d 7e24 103d
00000030: f6e4 b13b d182 a5bc 7561 3d3d dd23 52be
00000040: 9fcc 2d3e 3f58 0dbb 3b30 063e 9070 b93d
00000050: f9e6 083e babc ab3b fa41 bebd 6e46 bdbd
00000060: 0e8b f53d 644b a9bc 4b4e c0bd 4454 be3c
00000070: 3f3b db3d 216b d53d 19da f9bd 78c1 023d
00000080: 971b 81bd a882 063e 02cf 03be 37dd ff3c
00000090: b713 043e f47c 0ebd fd2f 073d d2c7 053e
000000a0: b05f a43d 2b43 813a aeb8 383e 2983 183e
000000b0: 2415 debd 3a5b 4a3e 8ece 1f3e 1793 8f3d
000000c0: 68eb da3d f5e6 cabd 2b58 31bc ecfd f43d
000000d0: 77b5 f2bc 563b babc f3c5 853d 0e2f b53d
000000e0: c248 9bbd f09d 0abd 3271 853c 9cfd 543d
000000f0: 36b7 ef3d 8961 82bd 9300 a33e 62ba 353e
00000100: 24db 2f3d c825 183e cda2 463e a42e 84ba
00000110: d021 853e 7210 553e 12bb 9e3e c169 a2bd
00000120: bd6c 303e 1c4d 583e cd6f 7c3e dac1 a73e
00000130: 7db3 8abd 66c1 14be d508 2b3d b7d0 8e3c
00000140: 9f86 9c3c 248a 713e dd88 81bd eb19 a4bd
00000150: 95cb 8d3e d167 73bd 99c6 6c3e f18e 8bbe
00000160: f467 fd3d 3ef2 ed3d 3115 223d a676 b6bd
00000170: 780b 7ebe 236e a0bd 5683 b33e 0237 373e
00000180: 5297 e7bd 787c 41be a1ef e03d 3ace c53d
00000190: 3e7b 2b3e 4083 2c3e d4ab 033e 9465 8e3e
000001a0: e39c 823e 5d42 75be 0a34 9c3e f3c4 8f3e
000001b0: 9dd6 bf3d dca7 7c3e 41b9 5e3e fac6 913e
000001c0: 8e5e edbd 9dc9 bc3c e3c0 0c3f 22c6 8a3d
000001d0: 6a97 40be 6843 9d3e 5e3f 00be 9f76 3c3d
000001e0: 867a 7f3d dc82 20bd 1c7b b33d 0339 ce3d
000001f0: 1f7b e73d 6beb 183d a3ed cdbd 9dac babd
00000200: d8d2 b33d 1be6 243c 0f54 03be b901 e43d
00000210: 032a 503d 9d73 c1bd e0f4 0ebd 21d8 fbbd
00000220: 0e98 e0bd ba0a a53c f2d5 95bd 6682 15bd
00000230: d4d7 79bc ba04 f43d c2e4 de3d d53a f5bd
00000240: 5dd0 813d 3e4a 6cbd 1d2c e2bc b5fe 53bd
00000250: eb30 18bd bf6c a4bd 8c61 14be 1be0 9dbd
00000260: 0176 d9bc d5ba 30be 3882 623d 2c96 b8bd
00000270: e74f c8bd b1ef fd3c 5d4d f33d 9c94 0dbb
00000280: 7577 a1bd 9339 d83d 7302 053d adeb 823d
00000290: d298 c0bd 6dba 833d b8c2 a9bd 18df 5f3d
000002a0: e01c 903d dbd8 a43b 9136 953d 811a ba3d
000002b0: 3c88 71bd 9a2d ae3b 2461 763c cb9f 6bbc
000002c0: a65d b4bd de1a 773d dcb1 03be 02ae 913c

gru.bias_hh_l0 f4 [180]
-0.09018945 -0.006650512 0.0074807536 -0.1204503 -0.099095695 -0.1799915 -0.13246867 0.029896498
0.12511784 -0.16946939 -0.035443768 0.047512308 -0.081582375 -0.01961819 0.043861616 -0.086186394
0.059560347 -0.10336704 0.066579424 0.10708287 0.15249243 0.07323491 -0.092550084 0.060494103
-0.053707477 0.18749924 -0.006371589 -0.09073237 0.002739798 0.14425711 -0.05537154 -0.14053379
0.16902071 0.08010323 0.009606078 -0.048785534 0.22455835 0.098927215 -0.13000098 0.09827617
0.15364803 -0.124097474 0.091239676 -0.027923383 0.072214074 0.17002438 0.10962483 0.035479657
0.16840571 -0.07777775 0.12510194 0.15938137 -0.07834644 -0.13781853 0.0003116433 -0.093080714
-0.017065817 0.1014797 0.15554355 -0.009872266 0.1381638 -0.09998956 0.3880012 0.15190999
0.09272707 0.071799114 0.16749676 0.038776614 0.3110256 0.19926164 0.088833936 -0.15183853
0.19993721 0.035915636 0.22277282 0.27054593 -0.1439237 -0.029755794 -0.02888388 0.08786582
0.11481888 0.014543623 -0.10867684 0.0021515589 0.16373126 0.04622992 0.41634727 -0.34810433
0.21003787 0.14815016 -0.17861594 0.06155701 -0.048475206 -0.100159936 0.3904679 0.17282373
0.0021984067 -0.12460702 0.22556311 0.29236957 0.30214828 -0.012222837 0.055657662 0.26332712
0.1920553 -0.15386994 0.13333528 0.22540396 0.21596809 0.022877304 0.10957832 0.29601902
0.03467453 0.050166037 0.5149957 0.07150878 -0.14530993 0.2606742 -0.03812657 -0.14798127
-0.13701002 -0.055985887 0.03067199 0.0802473 -0.048081204 -0.16055381 -0.100431815 0.004366918
-0.09587273 -0.05587276 -0.089035355 0.06946544 0.0063123405 -0.072889954 0.05404292 -0.016434344
0.023867294 0.030338049 0.01412001 0.030113071 -0.062479716 0.12913369 0.053598676 -0.026958678
0.03690027 0.14628519 0.08676735 0.07402212 -0.04238665 -0.071254484 0.012103439 -0.04606815
-0.031276383 0.053006843 -0.059864044 -0.0829974 -0.0616037 -0.0683025 -0.08641108 -0.17303082
0.10328824 -0.05392513 0.033138555 0.09855505 -0.15020324 -0.054084245 -0.060692914 -0.12493361
-0.026633307 0.022729158 0.06707991 0.1456731 0.019766444 0.010251431 -0.046504635 -0.022350634
-0.08467675 -0.13910896 -0.11346982 0.06191537
00000000: 3fb5 b8bd 8aec d9bb 1c21 f53b a6ae f6bd
00000010: aff2 cabd b14f 38be dea5 07be 80e9 f43c
00000020: e41e 003e 6289 2dbe 7c2d 11bd 449c 423d
00000030: a914 a7bd 54b6 a0bc 3da8 333d 7e82 b0bd
00000040: 8df5 733d 19b2 d3bd cb5a 883d 444e db3d
00000050: fa26 1c3e 2ffc 953d e68a bdbd aac8 773d
00000060: 5ffc 5bbd cdff 3f3e c3c8 d0bb e5d1 b9bd
00000070: 2f8e 333b 23b8 133e 45cd 62bd 17e8 0fbe
00000080: c413 2d3e 2a0d a43d d062 1d3c 57d3 47bd
00000090: a0f2 653e 5a9a ca3d fa1e 05be 0445 c93d
000000a0: e955 1d3e d126 febd dedb ba3d 94bf e4bc
000000b0: f9e4 933d df1a 2e3e fc82 e03d 1e53 113d
000000c0: 8c72 2c3e f149 9fbd b91a 003e df34 233e
000000d0: 1974 a0bd 4d20 0dbe 0e64 a339 1aa1 bebd
000000e0: 9dcd 8bbc 97d4 cf3d cf46 1f3e 49bf 21bc
000000f0: d07a 0d3e 54c7 ccbd 18a8 c63e 4b8e 1b3e
00000100: b1e7 bd3d 6a0b 933d 4584 2b3e 3ad4 1e3d
00000110: bf3e 9f3e 3e0b 4c3e 91ee b53d 8f7b 1bbe
00000120: 57bc 4c3e 461c 133d 8f1e 643e ff84 8a3e
00000130: bc60 13be 6cc2 f3bc e39d ecbc fff2 b33d
00000140: 2926 eb3d 6048 6e3c f791 debd 2b01 0d3b
00000150: 2ba9 273e 965b 3d3d 782b d53e bb3a b2be
00000160: 2b14 573e adb4 173e 19e7 36be 3423 7c3d
00000170: f08d 46bd a720 cdbd 69eb c73e b4f8 303e
00000180: 2513 103b f731 ffbd 04fa 663e 77b1 953e
00000190: 2eb3 9a3e 4b42 48bc 4af9 633d d0d2 863e
000001a0: 25aa 443e 1590 1dbe 0b89 083e 4cd0 663e
000001b0: bd26 5d3e 2f69 bb3c 996a e03d ce8f 973e
000001c0: e106 0e3d e77a 4d3d c2d6 033f 3273 923d
000001d0: 20cc 14be 1777 853e 9b2a 1cbd 6788 17be
000001e0: 5b4c 0cbe 7551 65bd d343 fb3c b258 a43d
000001f0: ccf0 44bd 3868 24be 32af cdbd 5d18 8f3b
00000200: ec58 c4bd d6da 64bd 2b58 b6bd e643 8e3d
00000210: c0d7 ce3b 5447 95bd 1c5c 5d3d 51a1 86bc
00000220: 5885 c33c 8087 f83c 9d57 673c b0af f63c
00000230: bbea 7fbd 9f3b 043e 498a 5b3d 72d8 dcbc
00000240: bd24 173d c9cb 153e 15b3 b13d e998 973d
00000250: a09d 2dbd dfed 91bd 814d 463c f5b1 3cbd
00000260: aa1b 00bd b41d 593d 0034 75bd 8afa a9bd
00000270: 2954 7cbd 2ee2 8bbd 4bf8 b0bd fe2e 31be
00000280: c988 d33d 99e0 5cbd 4bbc 073d 3bd7 c93d
00000290: e1ce 19be 7187 5dbd 2299 78bd 31dd ffbd
000002a0: 182e dabc 8032 ba3c 3161 893d 542b 153e
000002b0: 3ded a13c 9ef5 273c a57b 3ebd ad18 b7bc
000002c0: 016b adbd 9472 0ebe dd62 e8bd f99a 7d3d
