mort_models/mort_deploy_week_42_2/fnp_enc.pt (torch, 762335 bytes, 64 tensors)

cond_trans.0.weight f4 [100, 60]
0.049833864 -0.1432212 0.15056922 -0.047067493 -0.013035791 -0.09564199 -0.17569175 -0.071109384
-0.04034081 -0.17272861 0.059524685 0.14786482 -0.1347246 0.07699884 -0.013738058 0.09667134
-0.13298552 0.015188836 0.060088087 -0.1321452 0.10801381 0.03290631 0.10189935 -0.026253259
-0.12323494 0.15011935 0.00090654736 0.06731832 -0.044394646 0.03377992 -0.086282 0.1327612
0.052071806 -0.17600438 -0.06351806 -0.11491293 -0.08788062 -0.010845041 0.17329001 -0.06504285
-0.055631623 0.00017406185 0.022978667 -0.018258095 -0.041388176 -0.051969834 0.040179376 -0.11384687
0.17039903 -0.06918631 0.10476746 -0.025922187 0.008912016 -0.02403612 -0.12906882 0.049410667
-0.0350241 0.05505367 -0.0020408463 0.122230574 0.03576502 -0.055686645 0.105834395 0.035185903
0.017129382 -0.046468493 -0.05356787 -0.10384145 0.07308356 -0.08318183 0.06688119 -0.12188222
-0.11417767 -0.079173245 0.0593279 0.11949688 -0.100252256 0.04991284 -0.0725386 -0.145203
-0.0664293 0.09493963 0.064704314 0.06103093 0.09151867 0.0597183 0.020376127 0.0661164
-0.060656425 -0.011841205 -0.04245271 0.140498 0.09217455 -0.14203967 0.0057791816 -0.04991495
0.055270884 -0.10347005 0.13607156 -0.026069365 0.092819184 -0.15132129 0.08882894 0.09278155
0.10129259 0.038069043 -0.07378976 0.051337603 -0.08238513 -0.07904817 -0.09671933 -0.030969365
0.06967779 0.0074633607 -0.1412302 0.100441806 0.08506663 -0.039646853 0.064794965 -0.092858255
0.022944568 0.11596192 0.06896622 0.022182481 -0.09924675 0.074422285 -0.05086701 -0.006809934
0.051233947 -0.08849046 -0.004242668 -0.07063293 -0.023940068 0.048758127 -0.033790495 0.04294281
0.09089439 -0.16948034 0.042642236 0.11063526 -0.092944905 0.06965367 -0.12730245 0.037429538
-0.08355157 0.027963437 -0.12288821 0.008846351 0.14907098 0.07263206 -0.009040915 0.028659353
0.073610015 -0.03433709 -0.014148455 -0.04385991 -0.13636407 -0.08890702 -0.07668305 0.08699712
-0.030624228 0.09362425 0.110038035 -0.046306543 0.052216876 0.101240486 -0.07179223 0.0453177
0.13298999 0.117114864 -0.098301664 -0.021416431 -0.05228882 0.060122393 0.001795104 -0.13339792
-0.12131371 -0.036551174 -0.0027495201 -0.10496919 0.04867671 -0.046367038 -0.042782795 -0.06836406
-0.07227855 0.070675075 0.11387105 0.0044302335 -0.06871545 -0.0018369494 -0.011820808 0.052164048
-0.004311145 -0.05274554 0.07495093 -0.05002555 0.09305925 0.008403911 0.075855635 0.005101522
-0.019772407 -0.008153755 -0.03731189 -0.013438035 0.009069884 0.056037903 0.012176233 -0.008015162
0.024974322 0.024620729 0.13140081 0.03660914 0.11736637 0.08352482 0.08838749 -0.0740231
0.086512424 -0.061218046 0.007505236 0.10327151 -0.0122633185 0.07652541 -0.016238157 -0.0945491
0.11034329 -0.07836958 0.12966779 -0.034848697 -0.053450543 -0.10357172 0.0724989 -0.09850401
-0.021466736 -0.014019539 0.07663927 -0.048819706 0.03803861 -0.08154343 0.059547022 -0.0379557
0.1006497 0.1260123 0.10141954 -0.12005719 -0.1646655 0.10834254 -0.09457031 -0.044227697
0.053429637 0.06645741 -0.043056652 0.062026817 -0.021059012 -0.054064725 0.07654466 0.016362382
00000000: 981e 4c3d 94a8 12be d12e 1a3e d8c9 40bd
00000010: 1294 55bc f3df c3bd 8ae8 33be cca1 91bd
00000020: 683c 25bd c5df 30be 28d0 733d e069 173e
00000030: 3ff5 09be 91b1 9d3d 9715 61bc a0fb c53d
00000040: 5b2d 08be 98da 783c ed1e 763d 1251 07be
00000050: 5836 dd3d c4c8 063d 9bb0 d03d 1311 d7bc
00000060: 9a62 fcbd e3b8 193e 5da5 6d3a 30de 893d
00000070: 29d7 35bd d05c 0a3d 9eb4 b0bd 8df2 073e
00000080: 3f49 553d 7e3a 34be c215 82bd 7857 ebbd
00000090: c1fa b3bd 66af 31bc f072 313e 3035 85bd
000000a0: fcdd 63bd 5f84 3639 c23d bc3c 0092 95bc
000000b0: a686 29bd 52de 54bd 2193 243d 8c28 e9bd
000000c0: 157d 2e3e 8db1 8dbd 5290 d63d c45a d4bc
000000d0: b403 123c 66e7 c4bc 9e2a 04be d762 4a3d
000000e0: 6e75 0fbd f57f 613d b8bf 05bb 0654 fa3d
000000f0: 577e 123d ae17 64bd b4bf d83d 181f 103d
00000100: eb52 8c3c bf55 3ebd fc69 5bbd d3aa d4bd
00000110: d5ac 953d 3c5b aabd 01f9 883d 639d f9bd
00000120: fbd5 e9bd 9525 a2bd d001 733d c8ba f43d
00000130: 0e51 cdbd 6871 4c3d 1e8f 94bd 18b0 14be
00000140: 160c 88bd b56f c23d b283 843d 92fb 793d
00000150: 246e bb3d 2d9b 743d d6eb a63c 0968 873d
00000160: df72 78bd 9d01 42bc e5e2 2dbd b5de 0f3e
00000170: 03c6 bc3d d972 11be 4a5f bd3b 9e73 4cbd
00000180: b963 623d 1be8 d3bd 5856 0b3e 6c8f d5bc
00000190: fc17 be3d f8f3 1abe f3eb b53d 4104 be3d
000001a0: 7d72 cf3d 49ee 1b3d 161f 97bd 6147 523d
000001b0: 89b9 a8bd 02e4 a1bd c914 c6bd 77b3 fdbc
000001c0: 3bb3 8e3d 358f f43b a69e 10be 6fb4 cd3d
000001d0: 6a37 ae3d bd64 22bd 39b3 843d 782c bebd
000001e0: 3ff6 bb3c 717d ed3d 293e 8d3d 09b8 b53c
000001f0: e141 cbbd b66a 983d ed59 50bd de25 dfbb
00000200: b0da 513d 7c3a b5bd 1406 8bbb ffa7 90bd
00000210: f61d c4bc 9ab6 473d e767 0abd cde4 2f3d
00000220: d726 ba3d 418c 2dbe a0a9 2e3d bd94 e23d
00000230: e659 bebd 95a6 8e3d 935b 02be b74f 193d
00000240: 161d abbd 9413 e53c d0ac fbbd 49f0 103c
00000250: 10a6 183e 1ec0 943d 5920 14bc 05c7 ea3c
00000260: d9c0 963d 0ca5 0cbd ecce 67bc 73a6 33bd
00000270: 06a3 0bbe e214 b6bd 010c 9dbd 8c2b b23d
00000280: a9df fabc 12be bf3d 9f5b e13d eeab 3dbd
00000290: 5de1 553d 2c57 cf3d ce07 93bd 0d9f 393d
000002a0: 872e 083e ebd9 ef3d 6252 c9bd 8371 afbc
000002b0: cd2c 56bd e642 763d b249 eb3a 7799 08be
000002c0: 5373 f8bd afb6 15bd 4b31 34bb 16fa d6bd
000002d0: 3b61 473d 5deb 3dbd 033d 2fbd 7502 8cbd
000002e0: c706 94bd 18be 903d 3a35 e93d 7e2b 913b
000002f0: b0ba 8cbd cbc5 f0ba 10ac 41bc f8a9 553d
00000300: 8144 8dbb b50b 58bd e07f 993d 97e7 4cbd
00000310: d995 be3d 8fb0 093c 335a 9b3d ab2a a73b
00000320: bef9 a1bc 5497 05bc 5ad4 18bd 342b 5cbc
00000330: da99 143c 0088 653d d37e 473c 0752 03bc
00000340: f396 cc3c 69b1 c93c ef8d 063e 77f3 153d
00000350: c85d f03d 100f ab3d 8004 b53d 6c99 97bd
00000360: 6d2d b13d c6bf 7abd 7cee f53b 0380 d33d
00000370: 16ec 48bc 5bb9 9c3d e205 85bc f5a2 c1bd
00000380: aafb e13d 3b80 a0bd a2c7 043e 82bd 0ebd
00000390: f5ee 5abd 691d d4bd 4e7a 943d 78bc c9bd
000003a0: 02db afbc 35b2 65bc 0df5 9c3d 2cf7 47bd
000003b0: 60ce 1b3d 3e00 a7bd 94e7 733d 7077 1bbd
000003c0: 6e21 ce3d 5e09 013e 0cb5 cf3d 8be0 f5bd
000003d0: 139e 28be b2e2 dd3d 14ae c1bd 1a28 35bd
000003e0: 09d9 5a3d d31a 883d 2c5c 30bd d50f 7e3d
000003f0: f383 acbc f972 5dbd 72c3 9c3d 670a 863c

cond_trans.0.bias f4 [100]
0.17628756 -0.10906895 -0.03724439 -0.11446979 0.005902321 0.03882622 -0.044587888 0.1515046
-0.12244065 0.17025518 0.15036161 -0.035683967 -0.055703525 -0.02920055 -0.089534834 -0.0782177
-0.10266748 -0.112460755 -0.09715968 0.10948026 -0.1290191 0.06755007 -0.047021117 -0.05434489
0.04264204 -0.07041727 -0.08038023 -0.044718284 0.04370901 -0.0041931104 -0.053444892 0.13721627
0.18494895 -0.03693677 -0.15391552 0.12709719 0.13954185 0.08966581 0.038302716 -0.063181184
-0.11788163 -0.07629114 -0.046193257 0.11819271 -0.10024037 0.056446873 -0.12057859 -0.07227301
-0.025129002 -0.14790922 0.20766754 -0.124297746 -0.08251781 -0.051246304 0.051293045 -0.041776896
0.14864954 -0.051204264 0.039547503 0.11452455 -0.05232439 -0.09156737 0.03200001 -0.03604064
-0.052444916 0.032567494 -0.04085244 -0.079886496 -0.06946839 0.09827248 -0.0035196869 0.096500315
0.0485255 -0.0251586 -0.13806154 -0.11607586 0.08041631 -0.07187355 0.10233588 -0.11142554
-0.108909175 -0.09177364 0.11274088 -0.057581183 0.08363313 0.051749084 -0.009630752 -0.11349203
0.028768912 0.008586295 -0.07068417 -0.12262065 -0.11766294 0.0665874 -0.08645857 -0.09509669
0.06822799 0.083975844 -0.12682568 -0.099010624
00000000: ba84 343e 8b5f dfbd 938d 18bd 236f eabd
00000010: 4268 c13b 3e08 1f3d caa1 36bd 0624 1b3e
00000020: 2ac2 fabd 6057 2e3e 65f8 193e 5a29 12bd
00000030: 6129 64bd fe35 efbc 0a5e b7bd 9a30 a0bd
00000040: 5443 d2bd d351 e6bd a8fb c6bd 3037 e03d
00000050: 951d 04be b157 8a3d 3799 40bd bf98 5ebd
00000060: 6ba9 2e3d ee36 90bd 649e a4bd 852a 37bd
00000070: 3808 333d 5c66 89bb 08e9 5abd 6c82 0c3e
00000080: 4263 3d3e 034b 17bd 089c 1dbe c425 023e
00000090: 0fe4 0e3e b5a2 b73d 4fe3 1c3d 2365 81bd
000000a0: ed6b f1bd 873e 9cbd 2435 3dbd 050f f23d
000000b0: d34a cdbd d634 673d e8f1 f6bd df03 94bd
000000c0: 56db cdbc 8475 17be cda6 543e d18f febd
000000d0: 19ff a8bd a5e7 51bd a818 523d 401e 2bbd
000000e0: 9637 183e 90bb 51bd 90fc 213d d98b ea3d
000000f0: 1952 56bd ac87 bbbd 7112 033d 5a9f 13bd
00000100: 7bd0 56bd 7e65 053d e354 27bd 889b a3bd
00000110: 7145 8ebd 1543 c93d 8caa 66bb f5a1 c53d
00000120: adc2 463d 6919 cebc 0160 0dbe 2eb9 edbd
00000130: 4eb1 a43d 7132 93bd 7995 d13d 1333 e4bd
00000140: c60b dfbd d1f3 bbbd b1e4 e63d 3fda 6bbd
00000150: d947 ab3d d9f6 533d 4dca 1dbc 826e e8bd
00000160: c8ac eb3c 88ad 0c3c ddc2 90bd 8920 fbbd
00000170: 44f9 f0bd fa5e 883d 3111 b1bd 0ec2 c2bd
00000180: 1ebb 8b3d 87fb ab3d 97de 01be 15c6 cabd

cond_trans.2.weight f4 [100, 100]
0.0419394 -0.09543518 0.08429719 -0.054731864 0.121360384 -0.058797017 0.09939477 0.07627063
-0.048092473 -0.015125943 0.035999462 0.07269376 -0.034471836 -0.091109954 0.10238092 -0.11516718
0.038471464 0.03216189 -0.0787268 0.028752783 -0.016472358 0.07615315 -0.09064269 -0.11973703
0.005012405 -0.15399425 -0.006186218 -0.07535538 0.028823262 0.114838965 0.10406949 0.075323686
-0.038947947 0.01201879 0.0294798 -0.050143532 0.0742537 0.009853967 0.05859685 0.008923404
0.11970192 0.058537956 -0.045136433 0.055095755 -0.13419275 -0.04960935 -0.14204967 0.052562453
0.10710568 0.15325212 -0.0057441797 -0.10604297 0.099024914 0.016731821 0.064499326 -0.020144073
-0.01610818 0.08095376 -0.12792625 0.06215546 0.10896538 -0.14006874 -0.045549802 0.04980216
-0.07251615 -0.0967301 -0.0021013545 -0.046859812 -0.11841635 0.053360507 -0.005513161 0.0015697554
-0.038431663 -0.06250308 0.0036922072 -0.10436144 -0.008591895 -0.0048981537 -0.051338073 0.14510062
0.114761025 0.0056769405 0.075854324 0.010457415 -0.03117538 0.07186705 0.10895377 0.074694365
0.11622348 -0.02969527 -0.06947761 -0.027436119 0.0017455363 -0.097894415 0.0075193834 -0.086689614
0.10126962 0.0832206 -0.077673614 -0.11049324 0.06367146 0.019023824 -0.021607658 0.0135055
-0.07532623 0.02466832 0.0058994973 -0.006969434 -0.030341264 -0.081209004 -0.023626944 0.077106036
-0.10808119 -0.014393572 -0.0943799 -0.005546406 -0.07545912 0.039652176 -0.013621698 0.00898784
0.053003952 -0.0038042413 -0.06139137 -0.025859214 -0.032509673 -0.024697168 -0.10578546 0.02270795
0.0033849077 0.09626745 -0.07144747 -0.0793222 -0.0042523774 -0.007410285 -0.00050987967 -0.043997183
-0.0061445297 -0.025807088 -0.039908793 0.019191395 -0.03745852 -0.10274868 -0.12199537 0.031893916
-0.08882326 -0.0830006 -0.022211842 0.0821513 0.045627296 0.08003241 -0.08723593 -0.07228604
0.054563466 0.08613368 0.0057895496 -0.10273256 0.079789214 0.06335584 0.05394592 0.025634497
0.03498529 -0.025015635 0.029184127 0.021037934 -0.0633955 -0.0733197 -0.011854829 -0.014962776
0.07912933 0.05394597 -0.036172967 -0.02939348 -0.00648937 0.07356265 0.07874096 -0.0139627205
-0.0169926 0.061605338 -0.084729806 -0.04957267 0.06653539 0.12391359 -0.007384304 -0.07539538
0.04628522 0.047708362 0.0010375232 0.080725 -0.06802892 0.020915017 0.022785934 -0.059311405
-0.097551584 -0.032588363 0.053221997 0.025460336 0.0060496046 -0.059713434 -0.07275145 -0.005294672
0.102659374 0.0054604 0.039651714 0.01897203 0.08687926 0.07256108 0.024954641 -0.019659473
-0.0030647288 -0.07183294 -0.09669822 -0.03835827 -0.01978656 -0.008157561 -0.06996268 0.065037325
0.118495144 -0.075980335 0.0070616645 0.06476805 -0.045000352 -0.07498457 -0.019629145 0.057927985
-0.08359369 -0.114901796 0.04323951 -0.08365962 0.048573803 0.12165248 0.056926943 -0.0066790925
-0.05045455 0.03232151 -0.023363236 -0.055828996 -0.048974793 -0.03906329 0.031668756 0.08501253
-0.02035893 -0.06573451 0.030931331 0.07219039 0.03440603 -0.05060138 -0.0077499975 -0.1432581
0.03537357 0.033365086 0.018502925 0.02997655 0.019684345 0.014663809 -0.059817977 -0.07540314
00000000: a6c8 2b3d 8573 c3bd 01a4 ac3d 852e 60bd
00000010: cb8b f83d 24d5 70bd 7c8f cb3d c733 9c3d
00000020: 9dfc 44bd ced2 77bc 2c74 133d 77e0 943d
00000030: 5732 0dbd db97 babd 16ad d13d c5dc ebbd
00000040: 4194 1d3d 30bc 033d 843b a1bd f58a eb3c
00000050: 0af1 86bc 2ff6 9b3d e0a2 b9bd b038 f5bd
00000060: 1a3f a43b abb0 1dbe c2b5 cabb ec53 9abd
00000070: c31e ec3c b130 eb3d 6322 d53d 4e43 9a3d
00000080: e287 1fbd 75ea 443c 9f7f f13c 4e63 4dbd
00000090: 5312 983d 8972 213c 4003 703d 7833 123c
000000a0: 4826 f53d 7fc5 6f3d fbe0 38bd 16ac 613d
000000b0: d369 09be 2c33 4bbd 7875 11be ba4b 573d
000000c0: 395a db3d 20ee 1c3e ac39 bcbb 0f2d d9bd
000000d0: 93cd ca3d 2c11 893c 3918 843d 2f05 a5bc
000000e0: 4df5 83bc 16cb a53d 19ff 02be b996 7e3d
000000f0: 3e29 df3d 2e6e 0fbe 6e92 3abd 5afd 4b3d
00000100: 5983 94bd 6e1a c6bd e1b6 09bb 13f0 3fbd
00000110: 4584 f2bd 8c90 5a3d bfa7 b4bb 40c0 cd3a
00000120: 856a 1dbd 9d01 80bd f5f8 713b 73bb d5bd
00000130: 05c5 0cbc b180 a0bb df47 52bd 4295 143e
00000140: d407 eb3d a105 ba3b 8359 9b3d 9455 2b3c
00000150: 8363 ffbc 082f 933d 2723 df3d 5cf9 983d
00000160: 9306 ee3d 7f43 f3bc 474a 8ebd b6c1 e0bc
00000170: 7bca e43a de7c c8bd 2965 f63b 538a b1bd
00000180: 7266 cf3d 906f aa3d 5813 9fbd 484a e2bd
00000190: 2f66 823d dad7 9b3c 8b02 b1bc 2c46 5d3c
000001a0: a344 9abd 3715 ca3c 9250 c13b da5f e4bb
000001b0: 3e8e f8bc e850 a6bd 4b8d c1bc c5e9 9d3d
000001c0: ac59 ddbd 04d3 6bbc 404a c1bd a0be b5bb
000001d0: 508a 9abd 526a 223d 8b2d 5fbc bc41 133c
000001e0: ac1a 593d 9450 79bb 8475 7bbd b4d6 d3bc
000001f0: dd28 05bd b751 cabc 0ca6 d8bd 0606 ba3c
00000200: 54d5 5d3b de27 c53d 0d53 92bd ad73 a2bd
00000210: 8757 8bbb fad1 f2bb 72a9 05ba 6436 34bd
00000220: 0d58 c9bb 6369 d3bc 6777 23bd 4637 9d3c
00000230: 1b6e 19bd e66d d2bd b5d8 f9bd 32a3 023d
00000240: f8e8 b5bd 38fc a9bd 9cf5 b5bc f13e a83d
00000250: b0e3 3a3d 08e8 a33d c0a8 b2bd b40a 94bd
00000260: f17d 5f3d db66 b03d 43b6 bd3b 7365 d2bd
00000270: 8768 a33d b5c0 813d 66f6 5c3d 70ff d13c
00000280: bc4c 0f3d 97ed ccbc 8d13 ef3c bf57 ac3c
00000290: 80d5 81bd a428 96bd c23a 42bc 6e26 75bc
000002a0: 8f0e a23d 73f6 5c3d 1b2a 14bd 98ca f0bc
000002b0: c8a4 d4bb 04a8 963d f142 a13d e5c3 64bc
000002c0: 1134 8bbc e155 7c3d d286 adbd b60c 4bbd
000002d0: b543 883d 69c6 fd3d 08f8 f1bb e568 9abd
000002e0: 9295 3d3d d869 433d 80fd 873a 2653 a53d
000002f0: bf52 8bbd f855 ab3c 91a9 ba3c 84f0 72bd
00000300: 20c9 c7bd 607b 05bd 4fff 593d 3292 d03c
00000310: c33b c63b 1396 74bd b6fe 94bd ee7e adbb
00000320: 143f d23d 28ed b23b d669 223d 3b6b 9b3c
00000330: c1ed b13d e79a 943d ad6d cc3c e70c a1bc
00000340: 9ed9 48bb 261d 93bd b709 c6bd 901d 1dbd
00000350: 6d17 a2bc 4aa7 05bc 9848 8fbd 4a32 853d
00000360: 95ad f23d 949b 9bbd 8965 e73b 1da5 843d
00000370: 4a52 38bd 8391 99bd 4dcd a0bc e545 6d3d
00000380: 2b33 abbd a251 ebbd ea1b 313d bc55 abbd
00000390: 53f5 463d ef24 f93d 3a2c 693d 4adc dabb
000003a0: 6ea9 4ebd 8f63 043d 4264 bfbc f2ac 64bd
000003b0: cb99 48bd d400 20bd 19b7 013d 0d1b ae3d
000003c0: c5c7 a6bc d19f 86bd b463 fd3c 8ed8 933d
000003d0: 56ed 0c3d 6543 4fbd b1f3 fdbb 40b2 12be
000003e0: e0e3 103d d4a9 083d 7293 973c 6291 f53c
000003f0: 1041 a13c 7940 703c b203 75bd f66c 9abd

cond_trans.2.bias f4 [100]
0.03596494 -0.008818321 -0.081505805 -0.0460941 0.02641396 0.009377712 -0.013596715 0.09738255
-0.034885008 0.07393677 -0.052710302 0.13726144 -0.09954955 0.014296172 0.02983423 -0.018861348
-0.100934535 -0.04134717 0.09090631 0.040986083 -0.057104975 -0.05435714 -0.045702975 -0.050909687
0.0025327613 0.09223622 -0.036777563 0.1385433 0.07221232 -0.051663794 0.049448866 0.10251128
-0.059831526 -0.02943249 0.01879963 -0.005227274 0.01629862 -0.0013802139 0.17243667 0.04914085
-0.11406642 -0.072282486 -0.06420408 -0.024539668 0.00728916 0.068563305 -0.11261929 -0.036378685
0.0044249357 0.09419999 -0.059625957 0.12447204 -0.012842722 -0.08470268 -0.07967411 0.03100815
0.08474724 -0.0678041 -0.08615998 0.06029378 0.10731389 -0.036290035 0.14612709 0.009612044
-0.0976147 -0.11696093 -0.09479967 -0.11545153 0.0031091447 -0.10620711 0.02100373 -0.0039701047
0.0072359685 -0.008818535 0.030621698 0.0052992245 -0.05535956 -0.05793171 0.063929 0.16252273
-0.084234826 0.021428948 0.050260603 -0.020833187 0.06693389 0.16974191 0.03627916 -0.05871694
-0.05491354 -0.056180265 0.0073507405 0.08592216 -0.04186221 -0.053880807 -0.09513845 0.07574059
0.014430869 -0.06328411 0.04760381 0.092921846
00000000: f94f 133d b87a 10bc 84ec a6bd 2bcd 3cbd
00000010: 1762 d83c faa4 193c c2c4 5ebc 8170 c73d
00000020: 95e3 0ebd 296c 973d c2e6 57bd 438e 0c3e
00000030: a2e0 cbbd 7e3a 6a3c ea66 f43c 1d83 9abc
00000040: c4b6 cebd a65b 29bd 162d ba3d 06e1 273d
00000050: e8e6 69bd 98a5 5ebd 0b33 3bbd ad86 50bd
00000060: affc 253b 58e6 bc3d 12a4 16bd 4bde 0d3e
00000070: 0ee4 933d 6a9d 53bd e58a 4a3d 6ff1 d13d
00000080: e711 75bd 681c f1bc af01 9a3c 8d49 abbb
00000090: af84 853c 4be8 b4ba 3d93 303e ea47 493d
000000a0: a89b e9bd d708 94bd 6e7d 83bd 6a07 c9bc
000000b0: e8d9 ee3b eb6a 8c3d f1a4 e6bd d101 15bd
000000c0: 0dff 903b edeb c03d 593a 74bd 32eb fe3d
000000d0: 486a 52bc 9978 adbd 2e2c a3bd ce04 fe3c
000000e0: f68f ad3d e0dc 8abd a574 b0bd 9cf6 763d
000000f0: 62c7 db3d dca4 14bd 57a2 153e d67b 1d3c
00000100: 37ea c7bd 3689 efbd 5426 c2bd da71 ecbd
00000110: cbc2 4b3b 1d83 d9bd 0410 ac3c a717 82bb
00000120: b41b ed3b 9e7b 10bc 5bda fa3c 1ea5 ad3b
00000130: b5c0 62bd cd49 6dbd 35ed 823d 5c6c 263e
00000140: 4f83 acbd c38b af3c 10de 4d3d 5caa aabc
00000150: a314 893d d3d0 2d3e 7599 143d 2d81 70bd
00000160: 05ed 60bd 471d 66bd 7bde f03b f5f7 af3d
00000170: b577 2bbd 1fb2 5cbd f3d7 c2bd e21d 9b3d
00000180: 746f 6c3c 199b 81bd 36fc 423d cf4d be3d

cond_trans.4.weight f4 [100, 100]
0.055300854 0.022756414 -0.043765694 -0.08131517 -0.058684614 -0.0019027977 0.07683932 -0.09932259
0.06456502 -0.042239957 0.069960825 -0.09944419 0.013407326 0.073783785 0.07972137 -0.071404144
0.024229074 0.07975578 -0.03603021 0.04062593 -0.07591975 -0.04122358 -0.08069294 0.015078092
0.040300388 0.0677977 0.0628494 0.032367807 0.05314127 -0.012011539 0.012900511 0.048743058
-0.028889952 0.088617735 0.037030548 -0.04838524 0.10140649 0.015017686 -0.07132074 0.047598135
0.015243078 -0.041610684 0.0034524545 -0.060969323 -0.07980692 -0.052775975 0.08176823 0.03955194
-0.04359405 -0.08744769 -0.07603968 -0.10309404 -0.047767274 0.083887056 0.046525825 -0.09152052
-0.044236593 -0.08719977 0.060926694 -0.03894491 0.043589827 -0.06318977 -0.006539413 0.091805354
-0.0653803 -0.0982125 -0.006402486 0.043440916 0.08932455 -0.0146615105 0.029021787 -0.06929725
0.034746267 -0.0536617 -0.07109598 -0.030596681 -0.0817154 0.07380719 -0.019796712 -0.035287205
0.007541395 -0.007663871 0.051977325 -0.062536865 -0.086777896 0.0070196954 -0.01897326 0.062197186
-0.007693801 0.06957036 -0.03878102 -0.054747216 -0.014928668 -0.03134338 -0.095986925 -0.01312764
-0.073139615 -0.050117284 -0.09155232 0.053860497 0.025674833 -0.02021254 -0.09913189 -0.073335856
-0.09111508 -0.05322453 -0.11530731 0.08467512 0.027068606 -0.029263629 -0.023849031 0.011932673
0.06898176 0.0036827896 0.011313582 -0.023381136 -0.053371858 0.07521845 0.087803125 0.014397976
-0.053449884 0.07304125 0.0055987635 -0.03919898 -0.032651655 -0.034840845 -0.053352475 0.099055685
-0.022412216 0.017769892 0.12271463 0.07908859 -0.021562519 0.05713088 -0.0010245777 0.10083754
0.012514096 0.15287705 0.060455248 0.029344607 0.022464791 0.011551485 0.05877225 0.05004883
0.031723093 -0.04631414 -0.018150786 0.032125015 -0.1237571 0.1604799 0.038522076 0.12695318
-0.0625418 0.014676538 0.08145012 0.0037623595 -0.027039552 -0.1448712 0.027187476 0.13283244
0.1384225 0.05973373 0.1763441 0.030473175 0.047590423 0.0118016405 -0.09577108 -0.0042292443
-0.026237108 0.04554587 0.026362304 -0.060850445 -0.068375655 0.10848434 0.054709096 0.010986932
0.08084776 0.005342268 -0.08081324 0.15984114 0.045208607 -0.084613495 -0.010678353 -0.024734864
0.10261191 0.06763689 0.0771734 0.016714823 0.16538209 0.053809028 0.147029 0.14584285
-0.11941672 0.055009503 -0.037506055 0.14469174 -0.06672396 -0.056400377 -0.032736517 -0.024425566
0.027065132 -0.020102601 0.02904574 0.13427961 0.069856085 0.08991156 -0.01720394 0.03602908
-0.056705732 -0.0031285803 0.09906289 -0.07443061 -0.051597226 0.023602467 0.0819194 -0.03754205
-0.041576598 -0.030570285 0.0041004573 -0.011562579 0.058600485 0.013036786 -0.029223206 -0.025994428
-0.059069928 0.0035498098 -0.0723366 0.00893223 0.11700598 0.08760085 -0.079361625 0.024812015
-0.11467107 0.064105906 0.07329701 -0.01837175 -0.05839897 0.03679816 -0.033562876 0.08690778
0.013767216 0.04015162 -0.1272037 -0.07326511 -0.021276172 0.028066495 0.059440438 0.10308771
0.10532959 0.027533384 0.03448508 0.08672247 0.06563847 -0.073931865 0.036663275 0.014584789
00000000: 2683 623d a96b ba3c a843 33bd 9188 a6bd
00000010: 475f 70bd 4c67 f9ba ef5d 9d3d a469 cbbd
00000020: aa3a 843d ce03 2dbd 9f47 8f3d 65a9 cbbd
00000030: 67aa 5b3c f41b 973d f544 a33d 563c 92bd
00000040: 0d7c c63c 0057 a33d 6a94 13bd 6067 263d
00000050: d07b 9bbd 0eda 28bd 5742 a5bd 1a0a 773c
00000060: 0512 253d 85d9 8a3d 30b7 803d 1b94 043d
00000070: a9aa 593d 0ccc 44bc aa5c 533c cda6 473d
00000080: 9faa ecbc 377d b53d 58ad 173d 9a2f 46bd
00000090: 35ae cf3d be0c 763c 9c10 92bd 43f6 423d
000000a0: 1abe 793c f76f 2abd 9342 623b f8ba 79bd
000000b0: cf71 a3bd 9f2b 58bd 1a76 a73d 3701 223d
000000c0: ad8f 32bd c617 b3bd b1ba 9bbd f822 d3bd
000000d0: 9ea7 43bd facc ab3d dd91 3e3d 1c6f bbbd
000000e0: 6e31 35bd cb95 b2bd 458e 793d b384 1fbd
000000f0: 3f8b 323d a369 81bd 9248 d6bb 7204 bc3d
00000100: 1be6 85bd a323 c9bd f2cb d1bb 1aef 313d
00000110: caef b63d d536 70bc 19bf ed3c b7eb 8dbd
00000120: 1a52 0e3d 5fcc 5bbd c59a 91bd e4a5 fabc
00000130: 675a a7bd 3928 973d b72c a2bc 5189 10bd
00000140: ce1d f73b 3621 fbbb 2de6 543d 5413 80bd
00000150: 9cb8 b1bd 7905 e63b cf6d 9bbc 7ac2 7e3d
00000160: 481c fcbb e87a 8e3d d9d8 1ebd 9e3e 60bd
00000170: 5f97 74bc eb61 00bd cb94 c4bd 5015 57bc
00000180: 39ca 95bd c847 4dbd c87f bbbd d39c 5c3d
00000190: 0754 d23c c594 a5bc a905 cbbd 1c31 96bd
000001a0: 8b9a babd f701 5abd 3d26 ecbd 266a ad3d
000001b0: fbbe dd3c 47ba efbc 0b5f c3bc 4281 433c
000001c0: 4f46 8d3d f55a 713b 9a5c 393c cc89 bfbc
000001d0: 739c 5abd 210c 9a3d 20d2 b33d 7de5 6b3c
000001e0: 44ee 5abd a796 953d d575 b73b 1c8f 20bd
000001f0: bebd 05bd 46b5 0ebd 2088 5abd b5dd ca3d
00000200: d399 b7bc 2a92 913c cf51 fb3d 33f9 a13d
00000210: e1a3 b0bc 1202 6a3d 1f4b 86ba ea83 ce3d
00000220: ec07 4d3c cd8b 1c3e ec9f 773d 1a64 f03c
00000230: 1508 b83c 7142 3d3c 2cbb 703d 0100 4d3d
00000240: 13f0 013d e5b3 3dbd f5b0 94bc 8595 033d
00000250: 5d74 fdbd d854 243e 53c9 1d3d 0400 023e
00000260: ea15 80bd dd75 703c 52cf a63d eb91 763b
00000270: 0d82 ddbc 1e59 14be 45b8 de3c 3a05 083e
00000280: a1be 0d3e 5bab 743d 8c93 343e e1a2 f93c
00000290: 2dee 423d ab5b 413c a123 c4bd 7995 8abb
000002a0: 34ef d6bc 4e8e 3a3d c2f5 d73c 513e 79bd
000002b0: 8908 8cbd 0a2d de3d a516 603d 8802 343c
000002c0: 8393 a53d 310e af3b 6981 a5bd 65ad 233e
000002d0: a92c 393d d749 adbd 42f4 2ebc c5a0 cabc
000002e0: 3126 d23d 3685 8a3d 160d 9e3d 86ed 883c
000002f0: ec59 293e db66 5c3d c58e 163e d457 153e
00000300: c190 f4bd a551 613d f39f 19bd 122a 143e
00000310: 92a6 88bd 1504 67bd ba16 06bd 2018 c8bc
00000320: b2b7 dd3c 36ae a4bc 55f1 ed3c 9880 093e
00000330: b510 8f3d 8d23 b83d 47ef 8cbc 3b93 133d
00000340: 4544 68bd de08 4dbb 7ce1 ca3d 136f 98bd
00000350: 9d57 53bd f659 c13c 5cc5 a73d b1c5 19bd
00000360: 394c 2abd 896e fabc 215d 863b f970 3dbc
00000370: 1007 703d 3e98 553c 8165 efbc 44f2 d4bc
00000380: 4ff3 71bd eda3 683b 3625 94bd 7d58 123c
00000390: d5a0 ef3d 1368 b33d 5988 a2bd 9142 cb3c
000003a0: aad8 eabd f549 833d be1c 963d 5a80 96bc
000003b0: c233 6fbd abb9 163d 3a79 09bd b5fc b13d
000003c0: e48f 613c 0676 243d b041 02be 050c 96bd
000003d0: 5e4b aebc b5eb e53c d177 733d a61f d33d
000003e0: 0ab7 d73d b18d e13c 3a40 0d3d 8d9b b13d
000003f0: 766d 863d 9769 97bd 3b2c 163d 0af5 6e3c

cond_trans.4.bias f4 [100]
0.028454274 0.11164203 -0.020645486 0.08395127 -0.013432485 0.13315775 -0.0681881 0.11729075
-0.09630921 0.08682961 0.04603239 -0.041581593 -0.032415695 -0.05770053 -0.012753425 0.06810072
0.10695113 0.0632984 0.18652706 -0.02822514 -0.08358018 0.05581566 0.085043535 -0.06914725
0.026012478 -0.096059814 0.020429986 -0.059466768 -0.0018982299 0.042928584 -0.011755986 0.040438097
-0.04921052 0.10753633 0.15143459 -0.014931358 0.101337075 0.15165024 0.034097977 0.0787431
-0.056443192 0.10081324 0.061808072 -0.09334879 -0.09450424 -0.08498087 -0.009019049 -0.1071389
0.10767905 0.07297748 0.06348156 -0.015683772 0.0573225 -0.043456733 0.093263835 0.13236119
-0.0740283 0.056975182 0.11741111 0.03869023 -0.037969723 0.008420338 -0.078870535 0.07914978
0.1225277 0.08453577 0.04557172 -0.025494494 0.06756895 -0.08445817 0.00039265156 0.10853406
-0.10874821 0.008391405 0.150182 -0.090684034 -0.064318776 0.022775669 -0.060240276 0.017686231
-0.04256931 -0.09221497 0.0091064125 0.0056857765 -0.07737102 -0.04171079 -0.11551136 -0.0359682
0.044155914 0.11014847 -0.07527428 -0.08298871 -0.08025181 0.03468684 0.035774298 0.051234156
0.07615969 0.047070924 0.21390402 0.123022944
00000000: f018 e93c 94a4 e43d b920 a9bc a5ee ab3d
00000010: ed13 5cbc 815a 083e 34a6 8bbd 2236 f03d
00000020: c33d c5bd b9d3 b13d 768c 3c3d 7651 2abd
00000030: 52c6 04bd 6457 6cbd bef3 50bc 6478 8b3d
00000040: 3209 db3d 97a2 813d f300 3f3e 6938 e7bc
00000050: 162c abbd f69e 643d 4e2b ae3d 139d 8dbd
00000060: 1f18 d53c 02bb c4bd c95c a73c 6d93 73bd
00000070: 07ce f8ba e2d5 2f3d 2e9c 40bc 6ba2 253d
00000080: f890 49bd 023c dc3d ab11 1b3e a8a2 74bc
00000090: d089 cf3d 334a 1b3e 52aa 0b3d 1044 a13d
000000a0: fa30 67bd 2c77 ce3d 762a 7d3d a72d bfbd
000000b0: 708b c1bd 730a aebd a2c4 13bc a46b dbbd
000000c0: d586 dc3d 3875 953d 9f02 823d 417b 80bc
000000d0: ffca 6a3d b0ff 31bd 1c01 bf3d b189 073e
000000e0: 269c 97bd cf5e 693d 3c75 f03d a679 1e3d
000000f0: 2486 1bbd 75f5 093c e086 a1bd 4819 a23d
00000100: ceef fa3d 1721 ad3d 69a9 3a3d d4d9 d0bc
00000110: 9761 8a3d 68f8 acbd cddc cd39 1b47 de3d
00000120: 62b7 debd 1b7c 093c 4fc9 193e 8db8 b9bd
00000130: 90b9 83bd 0a94 ba3c 82be 76bd b7e2 903c
00000140: 285d 2ebd 34db bcbd 1033 153c c04f ba3b
00000150: b374 9ebd efd8 2abd 3891 ecbd 6453 13bd
00000160: d5dc 343d 8595 e13d 6729 9abd fcf5 a9bd
00000170: 105b a4bd ca13 0e3d 1288 123d e8da 513d
00000180: 9df9 9b3d 71cd 403d a809 5b3e 74f3 fb3d

p_u.weight f4 [120, 100]
0.021794146 -0.13697463 0.08868284 -0.16904832 0.12539987 -0.24158293 0.012088161 -0.21089938
0.042661097 0.03592649 0.09985014 0.18809442 -0.09764863 -0.046330642 -0.20661943 0.053539213
0.07866635 0.1757875 -0.024522811 -0.044744514 0.045622237 -0.19354491 -0.0259144 -0.04116681
0.06775996 0.077731356 0.08187466 0.079072975 -0.00038645518 -0.09568971 0.122968525 0.16190577
0.0031187464 0.045446955 -0.044582486 -0.015280772 -0.27213237 -0.10303197 0.038043637 0.0017903427
-0.11820748 -0.23308831 -0.20953466 0.03964856 0.03134452 -0.09617771 -0.014108938 0.073845215
-0.10004937 0.06299469 0.039352518 -0.028075296 -0.19995256 0.027910447 0.06708474 0.06958431
-0.06535398 0.19111706 -0.021043599 0.15708654 -0.05600048 0.092056096 0.077239804 0.022066759
-0.06448353 0.123947784 0.14532188 0.010855233 -0.01861854 -0.07858348 0.08361614 0.1719468
-0.012064791 0.0057735946 -0.11498382 0.14634016 0.03287233 0.06788298 0.030122211 0.17995043
-0.13912743 -0.05486841 0.0725204 0.04209088 -0.054806758 0.19125105 -0.075931616 -0.053595446
0.030496588 -0.10823387 0.10504382 -0.10096633 -0.1413838 -0.14141275 0.10857329 0.072678894
-0.15180369 0.16823664 -0.031434495 -0.12634309 -0.07483762 -0.1329534 0.15744968 -0.15028122
0.048545714 -0.1688429 0.044752147 -0.20459294 -0.083537735 -0.0026151214 -0.09413222 0.15172687
-0.037850525 0.07120456 -0.08312763 0.14496692 0.0394587 0.07161654 0.04896 0.10872087
-0.023354292 -0.06180571 -0.107849345 0.007852805 0.065997906 0.043107614 0.039802458 -0.047087327
-0.15396689 -0.0010693878 0.07431107 -0.0068592466 -0.10843309 -0.037557423 -0.15940261 0.026515963
-0.06199922 0.021659762 0.20070805 -0.016943434 0.009672025 -0.12647925 -0.10160131 0.0323462
0.07895062 -0.07048843 0.08257743 0.1595341 -0.11002093 -0.024008987 0.11169853 -0.009297798
-0.106090374 -0.015835183 0.119916156 -0.068328425 -0.02862306 0.0305983 0.004500885 0.16043998
0.09607617 -0.06292608 -0.07530057 0.14783621 -0.04532641 0.03535864 0.19677043 0.07374563
0.01749626 0.019976698 0.061563887 0.117998675 -0.02595977 0.12966299 -0.123927854 0.010194541
-0.01326803 0.18091638 0.03761105 0.10338584 -0.053368628 -0.05199348 -0.045381375 0.12909393
0.013598323 0.07447049 0.010791016 -0.09616068 0.057935793 -0.028562285 0.0059053274 -0.075913556
-0.094606236 -0.20265882 0.056741457 -0.04604467 -0.14740548 0.059422243 -0.058365483 -0.11993102
0.0666616 -0.24858078 0.24405326 -0.1735396 0.017791191 -0.19477502 0.050695226 -0.17930162
-0.012242495 0.050468136 0.15125278 0.19647615 -0.04615482 -0.011476384 -0.13369474 0.1236169
0.055338755 0.17770918 -0.083159074 0.07831789 -0.00089279667 -0.079815716 -0.06171208 -0.051742174
-0.081008695 0.06848191 0.08474337 -0.017409077 0.009124839 0.033620846 0.001225393 0.21231894
0.0689299 0.15410598 -0.004992185 0.027752865 -0.115550935 -0.008171078 0.20591818 0.10335461
0.049299683 -0.14365363 -0.13901357 -0.036465038 -0.029555345 0.08721884 0.20885576 0.043468177
-0.06606379 0.049583703 0.06342186 -0.062315937 -0.1639085 0.010231428 0.20513453 -0.03817068
00000000: a389 b23c 1443 0cbe 599f b53d 011b 2dbe
00000010: d368 003e 8461 77be 6c0d 463c 02f6 57be
00000020: 67bd 2e3d a827 133d 3b7e cc3d d39b 403e
00000030: 01fc c7bd 33c5 3dbd 0b94 53be ef4b 5b3d
00000040: d31b a13d a301 343e 10e4 c8bc 0646 37bd
00000050: 62de 3a3d a330 46be 704a d4bc 879e 28bd
00000060: bcc5 8a3d 9e31 9f3d e7ad a73d 03f1 a13d
00000070: 239d cab9 f7f8 c3bd ecd6 fb3d a0ca 253e
00000080: e263 4c3b 9626 3a3d 209c 36bd 345c 7abc
00000090: ef54 8bbe 6d02 d3bd a5d3 1b3d efa9 ea3a
000000a0: c316 f2bd b4ae 6ebe 4190 56be 8766 223d
000000b0: 1d63 003d d2f8 c4bd 2d29 67bc 293c 973d
000000c0: afe6 ccbd 5c03 813d 1b30 213d 2afe e5bc
000000d0: 5dc0 4cbe 73a4 e43c b963 893d 3882 8e3d
000000e0: 4fd8 85bd 31b4 433e a063 acbc 4bdb 203e
000000f0: c260 65bd e887 bc3d e72f 9e3d 59c5 b43c
00000100: f10f 84bd 56d8 fd3d 42cf 143e 26da 313c
00000110: e985 98bc 60f0 a0bd f03e ab3d d212 303e
00000120: 67ab 45bc 6c30 bd3b a37c ebbd 32da 153e
00000130: 23a5 063d 3b06 8b3d dbc2 f63c ed44 383e
00000140: 6c77 0ebe b3bd 60bd 9385 943d 7d67 2c3d
00000150: 0d7d 60bd 51d7 433e 0982 9bbd e686 5bbd
00000160: fbd3 f93c b8a9 ddbd 3721 d73d 6fc7 cebd
00000170: eac6 10be 81ce 10be ac5b de3d acd8 943d
00000180: 6d72 1bbe 3a46 2c3e 75c1 00bd 1560 01be
00000190: 7744 99bd f024 08be 7d3a 213e 52e3 19be
000001a0: dfd7 463d 27e5 2cbe 074e 373d d080 51be
000001b0: d515 abbd 7562 2bbb 65c8 c0bd 4a5e 1b3e
000001c0: 2709 1bbd b2d3 913d d23e aabd 3572 143e
000001d0: 729f 213d b1ab 923d 488a 483d 0ca9 de3d
000001e0: 8051 bfbc fc27 7dbd 1ee0 dcbd 0da9 003c
000001f0: e929 873d 9c91 303d e707 233d a4de 40bd
00000200: 7fa9 1dbe b32a 8cba 6730 983d 88c3 e0bb
00000210: 2b12 debd d0d5 19bd 703a 23be 0138 d93c
00000220: e5f2 7dbd d06f b13c 6986 4d3e f5cc 8abc
00000230: 6a77 1e3c c783 01be 5914 d0bd 737d 043d
00000240: ddb0 a13d 3d5c 90bd 5b1e a93d e85c 233e
00000250: a752 e1bd 7fae c4bc 33c2 e43d cb55 18bc
00000260: e945 d9bd c9b8 81bc 9a96 f53d c6ef 8bbd
00000270: e87a eabc 49a9 fa3c 297c 933b 614a 243e
00000280: 95c3 c43d 63df 80bd 2f37 9abd 6062 173e
00000290: 30a8 39bd 39d4 103d 307e 493e f307 973d
000002a0: 5154 8f3c 2ca6 a33c 6a2a 7c3d 4aa9 f13d
000002b0: 95a9 d4bc 60c6 043e e3cd fdbd 0107 273c
000002c0: 2762 59bc 2542 393e 0b0e 1a3d f5bb d33d
000002d0: 1099 5abd 1ef7 54bd d2e1 39bd 3331 043e
000002e0: 80cb 5e3c fc83 983d cdcc 303c e4ef c4bd
000002f0: 154e 6d3d 74fb e9bc 7a81 c13b 9178 9bbd
00000300: eac0 c1bd cb85 4fbe bb69 683d 5699 3cbd
00000310: 76f1 16be bd64 733d a510 6fbd 659e f5bd
00000320: e085 883d f68b 7ebe 19e9 793e 5db4 31be
00000330: d5be 913c 1a73 47be cca5 4f3d d89a 37be
00000340: bf94 48bc adb7 4e3d 02e2 1a3e 0b31 493e
00000350: d60c 3dbd 7107 3cbc 46e7 08be db2a fd3d
00000360: e4aa 623d 65f9 353e 4e4f aabd 2165 a03d
00000370: 920a 6aba 6c76 a3bd cec5 7cbd 9aef 53bd
00000380: e3e7 a5bd 3e40 8c3d ef8d ad3d 7b9d 8ebc
00000390: 5980 153c 03b6 093d 5e9d a03a 236a 593e
000003a0: 1f2b 8d3d f5cd 1d3e 7c95 a3bb fa59 e33c
000003b0: f8a5 ecbd fcdf 05bc 37dc 523e 95ab d33d
000003c0: 77ee 493d f019 13be 9359 0ebe 5d5c 15bd
000003d0: 0d1e f2bc cb9f b23d 49de 553e b00b 323d
000003e0: 744c 87bd 4818 4b3d 52e3 813d ff3e 7fbd
000003f0: a1d7 27be b8a1 273c c90e 523e dc58 1cbd

p_u.bias f4 [120]
-0.008215481 -0.054188263 -0.043086942 -0.05690049 0.036104653 -0.02389521 -0.042513624 -0.07695319
0.09511601 0.04076979 0.10189003 0.08675989 0.056483313 -0.028131906 -0.05926543 0.018561449
-0.009539377 -0.07529696 0.11377612 0.011232213 -0.05625933 0.026547315 -0.01564873 -0.11432385
0.031451505 0.035949003 -0.017553458 -0.0412428 -0.011008742 0.06314321 -0.05188421 0.03423824
-0.03854943 0.011593528 -0.11297831 -0.030818455 -0.0059357323 0.018105062 0.088991314 -0.046336096
0.020259209 0.02350957 0.044011176 -0.1146831 -0.08112743 -0.05382841 -0.06661688 -0.028988935
-0.04678701 -0.01624852 0.11610767 -0.08089224 0.055034265 0.044690117 0.024861705 0.0084279915
0.12150499 0.004318078 -0.1029288 -0.050465945 -0.15845174 -0.11769686 -0.13518433 -0.15361264
-0.0022109135 -0.05571492 -0.07955926 -0.00019705867 -0.058407106 -0.13053723 -0.15620719 0.012043203
-0.021871187 -0.055763893 -0.108397335 -0.09633294 -0.10565745 -0.035561632 -0.19194686 -0.07051086
-0.031985458 -0.15221556 -0.034601953 -0.12566061 -0.05506813 -0.10142449 0.022844348 -0.04195522
-0.15379132 0.012268221 -0.09646852 -0.14065486 -0.047006212 -0.08956562 -0.15692201 -0.10618106
-0.055064157 -0.13022232 -0.049584575 -0.04977213 -0.054562982 -0.117015444 -0.10594373 -0.21485344
0.0121231275 -0.18734966 0.0015310512 -0.05829622 -0.007975001 -0.00050241215 0.04752067 -0.10174639
-0.13740337 -0.077507384 -0.04262329 -0.12245816 0.0031669876 -0.17542633 -0.032436788 0.0027779231
00000000: 3a9a 06bc 83f4 5dbd ef7b 30bd 7d10 69bd
00000010: 79e2 133d e3bf c3bc c422 2ebd a299 9dbd
00000020: 2fcc c23d 39fe 263d b8ab d03d 2baf b13d
00000030: 0c5b 673d e274 e6bc 4fc0 72bd 2e0e 983c
00000040: 0c4b 1cbc 4b35 9abd 7403 e93d 5107 383c
00000050: 2f70 66bd c179 d93c c431 80bc 9f22 eabd
00000060: 4bd3 003d 433f 133d 45cc 8fbc 36ee 28bd
00000070: 035e 34bc 3a51 813d 8a84 54bd 663d 0c3d
00000080: 02e6 1dbd c8f2 3d3c 2c61 e7bd fc76 fcbc
00000090: 8880 c2bb 1151 943c 1441 b63d ebca 3dbd
000000a0: a4f6 a53c 2497 c03c 1045 343d f9de eabd
000000b0: 2326 a6bd 2e7b 5cbd 6e6e 88bd 347a edbc
000000c0: bca3 3fbd 9e1b 85bc dcc9 ed3d d5aa a5bd
000000d0: 9c6b 613d fc0c 373d c6aa cb3c 8f15 0a3c
000000e0: 9cd7 f83d aa7e 8d3b 56cc d2bd 61b5 4ebd
000000f0: 2c41 22be 0d0b f1bd c36d 0abe a24c 1dbe
00000100: f9e4 10bb 5435 64bd f7ef a2bd 89a1 4eb9
00000110: 4a3c 6fbd 8dab 05be c7f4 1fbe db50 453c
00000120: 342b b3bc ae68 64bd 6cff ddbd 344a c5bd
00000130: ef62 d8bd 13a9 11bd b88d 44be ff67 90bd
00000140: 2f03 03bd 65de 1bbe c7ba 0dbd 2dad 00be
00000150: 1f8f 61bd a5b7 cfbd 1224 bb3c 3dd9 2bbd
00000160: 797b 1dbe a600 493c 4a91 c5bd d407 10be
00000170: 9689 40bd 2e6e b7bd 2ab0 20be 7575 d9bd
00000180: f48a 61bd 0059 05be 3219 4bbd dcdd 4bbd
00000190: 6f7d 5fbd cba5 efbd 07f9 d8bd 8a02 5cbe
000001a0: 15a0 463c 97d8 3fbe 8ead c83a 04c8 6ebd
000001b0: 94a9 02bc 4fb4 03ba 09a5 423d 6960 d0bd
000001c0: 78b3 0cbe 31bc 9ebd c295 2ebd 58cb fabd
000001d0: 3c8d 4f3b f6a2 33be 70dc 04bd d10d 363b

q_z.weight f4 [120, 100]
0.08071098 0.05025129 -0.0030846435 0.05208299 -0.07388894 0.06323607 0.08953633 0.06467346
0.021495435 0.034826063 -0.008555053 -0.076105095 -0.00033252107 0.029825095 0.045452382 -0.062382575
-0.045104057 0.057415366 0.061090574 -0.09143908 0.029065622 -0.09975621 -0.033201776 0.042928766
0.06745494 -0.0666333 0.044635285 0.0912503 0.042220943 -0.100990824 0.09894076 0.057674006
-0.017592276 -0.050840303 -0.016073622 -0.074882634 0.043078832 -0.007256497 0.026175003 0.020661546
-0.06747313 0.077018514 0.06335228 0.09119113 -0.08669136 -0.09925401 -0.057089083 0.088541985
0.03827597 0.07221513 -0.029489856 0.06676792 -0.108052336 0.093389675 0.06280379 0.027334081
0.026552808 -0.005549016 0.04595562 -0.08662103 0.043019585 -0.073779516 -0.08246268 0.023703596
-0.010824168 -0.08324021 -0.0936428 0.10136496 0.059479672 0.03438073 -0.06379906 -0.018927919
0.045452915 -0.034345258 -0.03820247 -0.0015214705 -0.008885753 -0.037040245 0.024752703 -0.08775362
-0.03630312 -0.02187305 -0.0016824837 0.042950034 0.055981398 0.04230197 -0.07591353 0.06704277
0.004260237 -0.04705954 0.02466395 -0.010627158 0.0008961696 -0.13127297 0.028248778 -0.0031129252
0.008529088 0.012508534 0.08613708 -0.0015479181 0.020571504 0.0030112122 0.07118781 -0.02557752
-0.06572861 -0.040626332 0.031483077 0.083674595 -0.010306614 0.08481151 0.041473072 0.08913951
0.030607985 -0.07087824 0.061686017 -0.053352047 0.015760519 0.09100649 0.07914944 -0.013179173
-0.010320635 0.049679756 0.07591307 0.053172924 0.0061428086 0.014241469 -0.069217905 -0.009819535
0.0016014285 -0.061740942 -0.07766382 0.09912271 0.041190095 -0.066965625 -0.019513533 -0.025853967
-0.106612615 0.03434915 0.037336614 0.035157606 -0.0641085 -0.0927803 0.02174785 -0.041238308
0.085162535 0.09315002 -0.063412815 0.061622556 -0.076992966 -0.05725914 -0.06528983 0.0045891562
-0.0055048564 -0.015831256 0.10137731 -0.057159588 -0.06706755 0.09946221 -0.017759701 -0.07092324
0.043313183 -0.0049449783 0.017124737 0.011259168 0.035913527 0.0083146645 0.055094868 0.024153227
0.08691157 0.09287109 0.08173447 -0.032322958 0.06339882 -0.0090472875 0.07659392 0.04642473
-0.07888686 0.10184054 0.016818231 -0.001488915 0.005727962 -0.0216701 -0.10393158 -0.046551563
0.09648923 -0.0392979 -0.016485663 0.02074955 -0.004951668 0.03891086 0.034849703 -0.06002263
0.024941428 0.027527561 0.00079415087 0.10152425 -0.0040711355 0.024581138 -0.021965545 -0.014912771
0.0016151073 0.066593766 -0.031246915 -0.0024649971 -0.048212767 0.0509216 -0.06590025 0.04583288
0.035981562 -0.010975413 -0.030286303 0.0030343034 -0.10483859 -0.053322047 0.056310676 0.07753221
0.024741206 -0.024502775 -0.0050299875 0.08717493 0.014789407 0.093754 -0.009623854 -0.0985318
0.08653656 0.082082845 0.10159315 -0.0013456995 -0.023123868 -0.018556114 0.08338003 0.0985343
-0.016024707 0.033597935 0.026094317 -0.01678287 -0.07548703 -0.03175445 0.116926774 0.011831803
0.09862127 -0.04783446 -0.07535364 0.0018213273 0.04412433 -0.013472832 -0.056681924 0.0038912809
-0.05932786 0.006152874 0.09821775 0.098769255 -0.06214022 0.06618601 -0.05920374 -0.07135697
00000000: cc4b a53d 4cd4 4d3d bb27 4abb f954 553d
00000010: 1653 97bd ea81 813d d35e b73d 8573 843d
00000020: 3217 b03c c6a5 0e3d 7e2a 0cbc fddc 9bbd
00000030: 3956 aeb9 c253 f43c 472c 3a3d df84 7fbd
00000040: 08bf 38bd 602c 6b3d 1c3a 7a3d 6a44 bbbd
00000050: 071b ee3c fc4c ccbd 96fe 07bd 13d6 2f3d
00000060: d125 8a3d 0a77 88bd 7dd3 363d 70e1 ba3d
00000070: deef 2c3d 47d4 cebd 74a1 ca3d 943b 6c3d
00000080: ad1d 90bc ec3d 50bd d4ac 83bc 115c 99bd
00000090: 6e73 303d e9c7 edbb f66c d63c 6742 a93c
000000a0: 5a2f 8abd e2bb 9d3d d7be 813d 6ac2 ba3d
000000b0: 3d8b b1bd b045 cbbd 3ed6 69bd 8055 b53d
000000c0: 43c7 1c3d 87e5 933d b694 f1bc 9fbd 883d
000000d0: 8b4a ddbd 1643 bf3d 469f 803d b9eb df3c
000000e0: 4685 d93c 85d4 b5bb f63b 3c3d 5e66 b1bd
000000f0: 4e35 303d b719 97bd 32e2 a8bd 0b2e c23c
00000100: da57 31bc d879 aabd ccc7 bfbd 6f98 cf3d
00000110: f5a0 733d cfd2 0c3d 15a9 82bd b90e 9bbc
00000120: d62c 3a3d 9dad 0cbd 317a 1cbd 146c c7ba
00000130: 8d95 11bc 83b7 17bd 2ec6 ca3c 2cb8 b3bd
00000140: 95b2 14bd 1c2f b3bc c986 dcba 60ec 2f3d
00000150: c04c 653d d544 2d3d 8e78 9bbd b84d 893d
00000160: 7599 8b3b 81c1 40bd 0d0c ca3c 881d 2ebc
00000170: ecec 6a3a 6c6c 06be fb69 e73c 3802 4cbb
00000180: 97bd 0b3c 98f0 4c3c a368 b03d 83e3 caba
00000190: 9285 a83c c257 453b eaca 913d f287 d1bc
000001a0: b99c 86bd cc67 26bd 66f4 003d 965d ab3d
000001b0: 13dd 28bc a8b1 ad3d abdf 293d c78e b63d
000001c0: 99bd fa3c 9c28 91bd 7aaa 7c3d ad87 5abd
000001d0: 341c 813c 9c61 ba3d 1a19 a23d 75ed 57bc
000001e0: e117 29bc 007d 4b3d 5078 9b3d dacb 593d
000001f0: 9d49 c93b 0d55 693c 1ec2 8dbd 1de2 20bc
00000200: 06e7 d13a 12e4 7cbd 350e 9fbd d900 cb3d
00000210: f2b6 283d 4625 89bd d8da 9fbc b3cb d3bc
00000220: b757 dabd b2b1 0c3d 47ee 183d 6c01 103d
00000230: 514b 83bd 9903 bebd 8c28 b23c 80e9 28bd
00000240: b269 ae3d 70c5 be3d 94de 81bd ef67 7c3d
00000250: 7dae 9dbd 8f88 6abd adb6 85bd a260 963b
00000260: 1562 b4bb 8db0 81bc e89e cf3d 2c20 6abd
00000270: b65a 89bd d8b2 cb3d cb7c 91bc 3440 91bd
00000280: 2a69 313d 7c09 a2bb 2d49 8c3c 6078 383c
00000290: 101a 133d 3b3a 083c 28ab 613d fddc c53c
000002a0: b1fe b13d 3333 be3d 6764 a73d 1465 04bd
000002b0: 3ed7 813d 133b 14bc 46dd 9c3d dc27 3e3d
000002c0: 6f8f a1bd c691 d03d 63c6 893c b227 c3ba
000002d0: a1b1 bb3b 7e85 b1bc 15da d4bd daac 3ebd
000002e0: 259c c53d d6f6 20bd f10c 87bc f6fa a93c
000002f0: 9a41 a2bb fe60 1f3d 90be 0e3d 4ada 75bd
00000300: f751 cc3c 7b81 e13c 902e 503a f2eb cf3d
00000310: 2967 85bb 625e c93c 16f1 b3bc b254 74bc
00000320: 02b2 d33a 5062 883d 88f9 ffbc ca8b 21bb
00000330: c07a 45bd 2b93 503d b6f6 86bd 42bb 3b3d
00000340: 6761 133d 38d2 33bc fb1a f8bc 2adb 463b
00000350: 9db5 d6bd 3868 5abd 06a6 663d 35c9 9e3d
00000360: 12ae ca3c 0bba c8bc 98d2 a4bb c588 b23d
00000370: 454f 723c 1902 c03d 5fad 1dbc 0acb c9bd
00000380: 143a b13d 0d1b a83d 1210 d03d 2f62 b0ba
00000390: 446e bdbc fe02 98bc 26c3 aa3d 5acc c93d
000003a0: 3f46 83bc fd9d 093d c0c3 d53c 3b7c 89bc
000003b0: f298 9abd f410 02bd 4e77 ef3d 2eda 413c
000003c0: f3f9 c93d 11ee 43bd 0253 9abd 9ab9 ee3a
000003d0: b7bb 343d 27bd 5cbc 4e2b 68bd dc04 7f3b
000003e0: c501 73bd 0c9e c93b 6326 c93d 8947 ca3d
000003f0: be86 7ebd 888c 873d 9f7f 72bd 9a23 92bd

q_z.bias f4 [120]
0.10909659 -0.10704888 0.028376713 0.034204185 -0.09203059 0.0407264 -0.09201628 0.05186315
0.08289137 0.10830868 0.013153674 0.08346598 0.05570966 0.039468415 -0.103112675 -0.10219518
-0.09257393 0.10659883 0.019639775 0.008193177 -0.017659387 0.015550989 0.08611229 -0.054153472
0.0002979394 0.11607021 -0.04441869 0.10147236 0.046491474 -0.01742613 -0.06695793 0.08996404
-0.05093556 0.10405698 0.055976417 -0.028813835 -0.051145114 -0.049030956 0.08520162 -0.0057319086
-0.07249089 -0.07295667 0.011450021 -0.02875153 0.062379822 -0.08670212 -0.044149205 0.062171318
0.0003000113 0.06756589 -0.039064597 0.019329814 -0.025154531 0.059884436 0.034424733 0.0297439
0.0656712 -0.06486969 0.011783958 -0.098885775 0.031159239 0.08068973 0.06007805 -0.012507128
-0.028684502 0.014428605 -0.006191198 -0.014300789 -0.11891045 0.008852282 -0.047865808 -0.068088904
-0.008767077 -0.06897356 0.037380684 -0.014266963 -0.047907144 -0.08807799 -0.0939539 0.018452028
-0.026063647 0.088277705 -0.079389825 -0.06236493 0.079955235 0.037032403 -0.092495106 0.034930483
0.027175983 -0.043189123 0.04243218 -0.071298435 -0.0757384 0.010228652 -0.070240214 0.034917936
0.0009741869 0.042004265 0.07176862 -0.03793999 -0.12547761 -0.09049967 -0.0021716785 -0.018109892
-0.04735452 -0.05977425 -0.063495494 -0.103334926 -0.012390459 0.00782357 0.021699017 -0.007213303
0.025539314 -0.03591418 0.029587515 0.015722202 -0.084427096 0.05280362 -0.03277026 0.043263163
00000000: 086e df3d 713c dbbd 4876 e83c b019 0c3d
00000010: 897a bcbd bad0 263d 0873 bcbd 746e 543d
00000020: f3c2 a93d f1d0 dd3d 8282 573c 36f0 aa3d
00000030: d02f 643d a2a9 213d bd2c d3bd b54b d1bd
00000040: 6797 bdbd 7d50 da3d 98e3 a03c ad3c 063c
00000050: 6baa 90bc 93c9 7e3c a45b b03d 08d0 5dbd
00000060: c034 9c39 38b6 ed3d 5ff0 35bd bed0 cf3d
00000070: d86d 3e3d 3ec1 8ebc 3d21 89bd 113f b83d
00000080: cea1 50bd d31b d53d 8747 653d fe0a ecbc
00000090: 8a7d 51bd afd4 48bd 307e ae3d bcd2 bbbb
000000a0: 1b76 94bd 4e6a 95bd de98 3b3c 5488 ebbc
000000b0: fc81 7f3d e290 b1bd ccd5 34bd 5aa7 7e3d
000000c0: d64a 9d39 fc5f 8a3d 3302 20bd 8f59 9e3c
000000d0: e010 cebc 6249 753d f300 0d3d 7ba9 f33c
000000e0: 9f7e 863d 66da 84bd 8111 413c a084 cabd
000000f0: a941 ff3c a840 a53d 6714 763d b2ea 4cbc
00000100: c3fb eabc f565 6c3c 88df cabb db4d 6abc
00000110: 5287 f3bd 2909 113c f00e 44bd 3272 8bbd
00000120: c9a3 0fbc 0342 8dbd 7d1c 193d fbbf 69bc
00000130: 483a 44bd 3c62 b4bd e76a c0bd b528 973c
00000140: 6e83 d5bc f1ca b43d 2297 a2bd 5e72 7fbd
00000150: 92bf a33d 4aaf 173d 136e bdbd 4413 0f3d
00000160: 2ba0 de3c 14e7 30bd 5ecd 2d3d ea04 92bd
00000170: bc1c 9bbd 1396 273c 1ada 8fbd 1c06 0f3d
00000180: 9460 7f3a aa0c 2c3d 6dfb 923d f766 1bbd
00000190: 347d 00be e457 b9bd b852 0ebb 325b 94bc
000001a0: d0f6 41bd d8d5 74bd ed09 82bd 43a1 d3bd
000001b0: 5a01 4bbc 6e2e 003c 23c2 b13c 925d ecbb
000001c0: d337 d13c bf1a 13bd 8461 f23c d9cb 803c
000001d0: 1de8 acbd 9c48 583d 1c3a 06bd b734 313d
