hosp_models/deploy_week_48_22/seq_enc.pt (torch, 46379 bytes, 4 tensors)

gru.weight_ih_l0 f4 [180, 1]
00000000: 930a 4fbc 49e6 8c3d 4e2c c13d 5a0a 413d
00000010: 94c8 ae3d e1ca cf3c fe0a 25bc 4caf 0fbe
00000020: 6d47 abbd 7ee7 863d 631e 333d 3895 89bd
00000030: 958e f8bd 0b4f df3c ce19 32be 4409 1ebd
00000040: 683f 29bd 470b 27bd 864c 973d 1caa 34bd
00000050: 8586 80bd b0de b53d aed1 19bd fde1 1abd
00000060: 4cac 2a3c 8d50 e43b 2e85 2ebd 50c2 bc3c
00000070: 6da2 45be ebe5 c1bd 0f65 be3c ea17 00be
00000080: d4b5 a4bd f768 84bd 64fb f53d fc4b 363d
00000090: 87ad 24be 2e0b 93bd 7bbe 253d d96b acbd
000000a0: c6be a13b 3a19 17be ebe4 f13b 59ef 10be
000000b0: 9a39 8dbd ecf6 ebbd f790 29be fae2 58bc
000000c0: ead9 9d3d c98e e5bd 67ab a2bc 0985 18be
000000d0: c9d6 3e3d 2aa9 09bd c617 9fbc d1b7 31be
000000e0: fa96 f93c 7ccf 483d c181 95bd 7fa3 2ebd
000000f0: dde9 ad3d dbca e33d b53b 76bc e5c9 983d
00000100: d517 b3bd 8df5 21bd 03dd 2ebc b5f4 b1bd
00000110: da6a f0bc efdd 833c 3046 c0bd 6924 cf3d
00000120: 55ff f8bc 99d7 11be b4c4 b33d 52bf 8f3d
00000130: 76ec 4abc f43c cabd 06a6 ee3d e9f5 da3b
00000140: 8cf8 15bd e210 b23d 3479 06bc 353c 493d
00000150: 8862 0e3d 85ac f1bc 5096 60bd 4690 583e
00000160: 0555 253d 7387 69bb 27bc a1bd 84b0 bf3d
00000170: adcf 8cbc b58c a13d dcc3 6d3e 078c ab3d
00000180: d43a ad3d 8a98 17bd 28cf 943d 31dd ca3d
00000190: a66e c73d f531 a63d 66c6 8b3d 2c87 f03d
000001a0: 4bc6 b9bd 6344 fc3d b42a da3c ecb1 543d
000001b0: b951 26bc cd2a d23d 4f82 283d 5695 ed3d
000001c0: fe1e bb3d 8905 ee3d 0945 333e e60d 0a3e
000001d0: ce3c 4dbd 047c c1bc 221e 32bd 0cff 13bd
000001e0: 1960 a73d bf70 29bd 47ee c23b 7fd5 b3bc
000001f0: 88a3 8d3d 2bfb 6c3c e4eb 00be 37dc 8ebd
00000200: da5b d93c ee9b 9a3d 6b7d e7bd 8145 c9bd
00000210: 58de 343d bb6a 78bc 24a1 d1bb d458 65bd
00000220: 03b4 64bd d417 e23d 467c 943d ac93 363c
00000230: 54c8 e13d 21ff 033e df4a dabc 3caf b8bd
00000240: 04d4 52bd 0efe 13bd c09f 9ebd a9b2 783d
00000250: d14e 133d 86d0 f3bd 7742 60bd 37e9 cbbc
00000260: 29d1 f6bd def5 37bd 963c 8cbc 353a 8fbc
00000270: 9599 cbbd df67 41bc e861 54bd 6536 b43c
00000280: c6cc 3a3c 79eb dcbb 0142 a33d 2198 7e3d
00000290: 12d1 163d 2fca 973b c817 1c3d 057f 01be
000002a0: 2ac6 843d d4e3 003d 983d 45bc b75a 26bc
000002b0: 1236 4fbd 5767 1dbc 96f3 13bd f64c 133d
000002c0: a2b3 85bd 0238 523c 30a4 cebc 830e 92bd
-0.012636798 0.06879861 0.094322786 0.047129013 0.08534351 0.025365295 -0.0100734215 -0.14031714
-0.08363233 0.065871224 0.04373015 -0.06717914 -0.1213657 0.02725937 -0.17392656 -0.038583055
-0.041320235 -0.04078224 0.073876426 -0.04410754 -0.062756576 0.08880365 -0.03755348 -0.037813175
0.010417055 0.00696761 -0.04260748 0.023041874 -0.19300242 -0.094676815 0.023241548 -0.12509122
-0.080424935 -0.06465333 0.120108396 0.044506058 -0.1608182 -0.07179867 0.04046486 -0.08419008
0.004936072 -0.14755717 0.0073820255 -0.14153804 -0.06895752 -0.11521706 -0.16559206 -0.013237709
0.077075794 -0.11208875 -0.019857122 -0.14894499 0.046591554 -0.033608593 -0.019420516 -0.17355277
0.030467499 0.049025998 -0.07300139 -0.04263639 0.084918715 0.11122676 -0.015028884 0.07460383
-0.0874478 -0.039540816 -0.0106728105 -0.08689252 -0.029347826 0.016097037 -0.09388387 0.101143666
-0.03039519 -0.142424 0.087777525 0.07018913 -0.012385478 -0.09874907 0.1165276 0.006682147
-0.036613986 0.086946264 -0.008207608 0.049129684 0.034761935 -0.029501209 -0.05483085 0.21148786
0.040364284 -0.0035633713 -0.07897215 0.093598396 -0.017188871 0.07888166 0.23219246 0.083763175
0.08458486 -0.037010707 0.072660744 0.0990547 0.097379014 0.08114997 0.06824951 0.11744532
-0.090710245 0.12317731 0.02663169 0.051927492 -0.01015132 0.1026207 0.041139897 0.11600749
0.09136771 0.116221495 0.17506804 0.13481864 -0.050106816 -0.023618706 -0.04348577 -0.036131904
0.08172626 -0.04136729 0.005948815 -0.021952389 0.06915957 0.01446418 -0.12589985 -0.069755964
0.026533056 0.075492725 -0.113032185 -0.0982771 0.044157356 -0.015162165 -0.0063973833 -0.055992916
-0.055835735 0.11039701 0.07250266 0.011143606 0.11024538 0.12890293 -0.02664703 -0.09017798
-0.051471725 -0.036130957 -0.07745314 0.06071726 0.035963837 -0.11905007 -0.054750886 -0.024891479
-0.12051613 -0.04491221 -0.017118733 -0.01748381 -0.09941403 -0.01180455 -0.051851183 0.021998594
0.011401361 -0.0067419377 0.079715736 0.0621568 0.03682048 0.0046322565 0.038108617 -0.1264611
0.06483109 0.031467274 -0.012038611 -0.010153464 -0.050588675 -0.009607158 -0.036120974 0.035962068
-0.06528403 0.012830736 -0.025224775 -0.07131674

gru.weight_hh_l0 f4 [180, 60]
00000000: 2b6a 25be 9a2a c73d 891c 55be 3cf7 03be
00000010: aed7 50be 1d4f 4e3e 4142 2a3e e12d 603e
00000020: f86d 38be d221 8bbb abc6 753d 45d5 323e
00000030: 0984 6ebe 129f 8a3e 654c 053e d1a8 c9bb
00000040: b376 9c3d 41c5 87be a6ad 243d 1029 e4bd
00000050: 6c58 1cbe 1f31 83bd dfae 663e 98ac 003e
00000060: ee20 113e f7ac d93b 5b4a 9a3d 4213 ce3b
00000070: a236 62be afd6 343d 8383 d2bd 4dee 693e
00000080: b2a3 1e3e 8a7e 183e fb6e 2abd ce2a 323e
00000090: 1b8a 8a3d 440a ef3d 9ee8 3d3b 1ee8 103e
000000a0: 1ff3 36bd f408 393d 2c41 3bbe 7598 113e
000000b0: db78 fdbd db48 553e 1235 09bd ac27 523e
000000c0: 05ee 88be 24a4 a9bd 3e8c 2e3e 354c 33be
000000d0: 0c75 633e 286d 9b3d 4cec 7cbe 1cba 41bc
000000e0: 92de 09bd 2741 6c3e dc26 753e 4628 403d
000000f0: 7099 b6bc 4eff 573e 87de 03be 103f 123d
00000100: b0a9 bfbc 3048 83bd 03d7 823d 294b d43d
00000110: 2f70 1fbd 1586 69bd 359e f03d ab47 b5bd
00000120: 4cb6 96bc 195d 963d abde 8a3d aa15 20be
00000130: 151c e5bb 9945 b4bd a567 15bc db22 e0bd
00000140: 1407 03bd f562 8a3d 9fd9 c4bc 9ab0 48bd
00000150: 921a 3f3d 8c9b e13d 4ce1 a5bd cc50 203e
00000160: 9529 ae3d 9783 bb3d 9da1 ce3c 192f 38bd
00000170: 2e30 8bbd 77ce 3f3e 1389 843c 2763 acbc
00000180: d110 3bbd af29 b33d df45 f83d a97c 2f3e
00000190: 2db9 70bd 587a 823d 6ef6 06bc 6332 bc3d
000001a0: 6892 04be 50ef b8bc 1645 a73d cc80 ab3d
000001b0: 27df 33be 77dc fabd 6273 583d 0d3e 59bd
000001c0: 704f 6cbd 2508 2d3e ff8d 2dbe 0172 013b
000001d0: 8863 ebbd 44d9 92bc 3047 e53d 60a2 ec3c
000001e0: b849 86bd 1167 b5bb 9488 bfbd 8124 cb3d
000001f0: c719 10be 073a 383c 3c6e 423b 6bf9 91bc
00000200: 5dba adbd c0d9 893d a304 3c3c 0727 1d3d
00000210: 4b18 f13c 1729 e93d f462 9fbd 0077 843d
00000220: 237b 1dbc d472 c8bc a045 c73d 00f3 1cbd
00000230: 25fb 39bd 38aa cf3c fc71 123e 7234 84bd
00000240: dde2 4d3d 29ae 12bd 9d51 883d c9aa 033e
00000250: b729 943d 37b0 143e 2e51 b53d 038c 793d
00000260: d1c2 92bd f71c 133d 6588 dfbd 7653 073e
00000270: 529a 12bc 16e4 3a3d 4bec ad3d bded d73d
00000280: 810b 3abd 5c1f 13bd 2b01 8c3c 399a 43bd
00000290: fc26 dc3c 60ef 3f3d 5a7b 8dbd c9e0 9fbd
000002a0: 9466 03bc 078f b7bd 2b9f 1a3e 8ff5 0f3d
000002b0: 0a51 033e 6c75 d93d 8bd6 59bb ef1b 1abe
000002c0: 8d74 b33d 82e3 cb3c dac2 cb3d 669b 0c3e
000002d0: b05f 43bd 6992 59bc c443 ebbd 83c9 6fbe
000002e0: 6782 49be 7f9f 353e 174d 663d ae00 393e
000002f0: bfb1 3bbe 2423 2b3e d4e0 ef3c bc5e df3c
00000300: 7ae0 01bc de31 123c 5164 5e3e 984c 0abe
00000310: c781 f93d cabe 37be 64b4 033d 29d4 94bd
00000320: fb33 95bd 932d 28be e286 253e e689 963d
00000330: d1a3 2dbd 3ea5 babd 2d98 353e 086a 583c
00000340: bdc2 acbd 4f51 813d ce09 d7bc c8d9 5e3e
00000350: 92d4 00b8 7fb7 d33d 79e0 6cbe 6b0d 59bc
00000360: 2d6f 123e 7894 673d 7a1d 013e 4563 fd3d
00000370: bd05 89bd 92cd a13d fa32 64bd e69a 123e
00000380: e880 00be 2834 093e 0b94 0bbe ff0b 133e
00000390: 5d15 63be 0b50 4d3c d62a 953d e058 56bc
000003a0: e3f3 62bc 5db9 8c3e 14b7 7abd 226a 62be
000003b0: e785 31be 907d 673e 249f 1c3e f44d 4a3e
000003c0: e528 0dbd be08 94bd 7691 533d b6d1 14be
000003d0: 4f33 cf3d e294 ca3d 377a 123e 6355 b33d
000003e0: c45d 24bd 2685 2f3e 02d9 14be d94d 4f3d
000003f0: f26e d93c 4114 d0bc 8b8c 603d d1b3 053d
-0.16153781 0.097249225 -0.20811667 -0.12887281 -0.20394775 0.20147367 0.16626836 0.21892501
-0.180107 -0.004245975 0.060003918 0.17464168 -0.23292555 0.27074486 0.13017423 -0.0061541577
0.076398276 -0.2651768 0.040204667 -0.111406446 -0.15268105 -0.064058535 0.22527646 0.1256584
0.14172718 0.0066429335 0.075337134 0.006288917 -0.22091153 0.04415005 -0.1027899 0.22844811
0.15492132 0.14892021 -0.041609745 0.17399141 0.06764623 0.1167188 0.0028977762 0.14151046
-0.044665452 0.045174554 -0.1828658 0.14218314 -0.12376567 0.20828573 -0.033497877 0.20522946
-0.26744094 -0.082832605 0.17045686 -0.1750954 0.22212619 0.07589179 -0.24699515 -0.011824157
-0.033659525 0.23071729 0.23940605 0.046913408 -0.022289962 0.21093485 -0.12877856 0.035704672
-0.023396343 -0.06410253 0.063886665 0.10365898 -0.038925346 -0.057012636 0.117489256 -0.0885156
-0.018397473 0.07341976 0.06780752 -0.15633264 -0.006991873 -0.08802337 -0.009118949 -0.10944148
-0.031989172 0.06757156 -0.024029551 -0.048996545 0.0466562 0.11015996 -0.080996126 0.15655822
0.08504025 0.09155958 0.025223548 -0.04496679 -0.06796299 0.18731104 0.016178643 -0.021043373
-0.045670334 0.08748185 0.12122702 0.17137398 -0.058770347 0.063709915 -0.008237464 0.09189298
-0.12946475 -0.02257505 0.08167474 0.083741754 -0.17565595 -0.122490816 0.052844413 -0.05303769
-0.057692945 0.16897638 -0.16948698 0.001975179 -0.114935935 -0.017925866 0.111952186 0.02888602
-0.065570295 -0.005535968 -0.09352222 0.09919072 -0.14072333 0.011244304 0.0029667756 -0.017819127
-0.084828116 0.06730986 0.011475715 0.038367298 0.02943053 0.113847904 -0.07782546 0.0646801
-0.009611878 -0.024468817 0.09730077 -0.03831768 -0.045405526 0.025349721 0.14301294 -0.06455316
0.05026518 -0.035810623 0.066561915 0.12858118 0.07234519 0.14520346 0.088533744 0.06092454
-0.071660645 0.035916295 -0.10914687 0.13215432 -0.008947926 0.045627676 0.08492335 0.10543392
-0.045421127 -0.03591858 0.0170904 -0.0477545 0.026874058 0.046859145 -0.06908293 -0.07806546
-0.008020062 -0.08962827 0.1509978 0.035146292 0.12823883 0.106180996 -0.003323945 -0.15049718
0.08762465 0.024888758 0.09949274 0.13731155 -0.047698677 -0.013279536 -0.11487535 -0.23416714
-0.19678651 0.17736624 0.056225862 0.18066666 -0.18329524 0.16712624 0.029282011 0.027266853
-0.007927055 0.008923022 0.21717955 -0.1350578 0.12182956 -0.17943874 0.032154456 -0.07267029
-0.07285305 -0.16423635 0.16164735 0.07350521 -0.042392556 -0.09113549 0.17733832 0.013208874
-0.08435581 0.063143365 -0.026249792 0.21762764 -3.071555e-05 0.103377335 -0.23132505 -0.013247828
0.14300223 0.056538075 0.126089 0.1237245 -0.066905476 0.079005376 -0.055712678 0.14316902
-0.12549174 0.13398802 -0.13630693 0.14360045 -0.22176118 0.012531291 0.07283561 -0.013082713
-0.013852092 0.2748517 -0.061209753 -0.22110799 -0.17336236 0.22606492 0.15295082 0.197563
-0.03446283 -0.0722823 0.051652394 -0.14533123 0.10117208 0.098916784 0.14304434 0.087565206
-0.040128484 0.17140636 -0.14535907 0.05061135 0.02654216 -0.025400283 0.054821532 0.03264219

gru.bias_ih_l0 f4 [180]
00000000: 4c4f 25be c09e 74b9 63b4 a3bc c074 d5bc
00000010: 8875 01be 5ed6 ebbd 1b31 fc3d dbc8 9cbc
00000020: f3cb 173c 9597 4dbe 2916 7bbd d3c8 25be
00000030: 30b9 febd 4b9c 383d 34fe 96be be60 c1bd
00000040: ce6b a5bd 4afc b9bd ed80 a73d 44b0 7739
00000050: f345 63be 2721 163e 657e 01be 81e7 a3bc
00000060: 303f b7bd 0341 3dbe 5795 71bd 0a1e 1dbe
00000070: 1af9 ddbd 690c 943d ff6b 573c 0f89 c4bd
00000080: 688a 72bd 25a0 ba3c 7a01 10bb d0d8 b9ba
00000090: 7f0c 013d c129 4cbe 65e6 87be 536c fdbd
000000a0: c759 9139 91c8 a9bd 5893 8dbd ea53 25be
000000b0: b3cd e43d 986d ddbd 2908 92be 3851 253d
000000c0: a2d4 c73d 52f8 1cbd 2cd5 b2bd cf41 d9bc
000000d0: 0761 983d 797a 273c d2b4 25be e204 6f3d
000000e0: a940 3cbd 495f 2abd 2881 373d acbb e33d
000000f0: 2de9 203c 641c 4d3d d1a5 d83d e77e 9ebc
00000100: 11e9 fb3c d22e 193e 249a 03bd 7361 9f3d
00000110: 53f4 cebd 1a2f c63c f89f 0c3e 806a 8739
00000120: 3b31 39bd 3828 efbd b437 8cbd 3de5 e83d
00000130: 322d 623c f7a7 a7bd e885 a03d 2250 133e
00000140: 4747 c03d 8f5a 06be 57fe e83d b3f5 0abe
00000150: 205b ee3d 58c7 5abd 5dc5 b83d f695 99bc
00000160: ea7b cc3d c755 e3bd 36ec 9ebd 2724 de3d
00000170: a3a4 11be 61f2 a73c d5af 1a3e 8433 dc3d
00000180: 08ae 25bd 465b 5cbd 303c b03d 8a3c 463d
00000190: f5e4 70bc 2ff1 d83d d31a f0bd 12b4 b9bc
000001a0: 1482 f4bd f444 8d3d 8055 0e3e 3068 cbbc
000001b0: 50eb 00bc 37a7 f6bc f536 813d 4889 da3c
000001c0: 329a adbd 9c04 323e 2611 52bc c898 fa3d
000001d0: f907 2fbd f30c 793d 1daf 9e3d e0da 183c
000001e0: 2ba1 5e3d 17d7 6fbd 0e9a 003e bbd3 7d3c
000001f0: 6c1a 093e 645f 0bbd a2b6 e1bd 7ae8 afbb
00000200: 8816 093d adf6 05be 6304 763d 13b2 adbd
00000210: 576b 0f3e 6767 52be 26e3 0dbe 0f2c b33d
00000220: 408b 6a3d a1e6 073e a16f b5bd 7abc af3c
00000230: d79b 45bb c909 173e 3cf3 66bb 6607 2cbe
00000240: 8473 6ebb 66a9 6b3d 61d9 23bd 1cf2 dabc
00000250: 71f2 003d f1f2 a2bd e9f3 bd3d a780 b3bd
00000260: 6c97 25bd 5914 80bd 7c1c ef3d d098 41bd
00000270: abac b6bd c560 67bd 88b7 70bc 51ec 40bd
00000280: 427e 13bc 5bc5 ddbc c30e cd3d 0719 e0bd
00000290: af1e c53d 7d97 afbd 2483 db3d bba4 27bd
000002a0: 6fb3 883d 4fd5 75bd b487 08bd a0ed 253e
000002b0: 2ff1 343d d0b9 c6bd 6544 003e 46d7 803c
000002c0: 1627 f43d e028 97bc 1f7a b1bd 4b1f afbb
-0.1614353 -0.00023328792 -0.019983476 -0.026056647 -0.12642491 -0.11515497 0.123140536 -0.019138744
0.009264934 -0.20077355 -0.06130043 -0.1618989 -0.124376655 0.045070928 -0.29490817 -0.0944228
-0.08077203 -0.090813234 0.081788875 0.0002362142 -0.22194652 0.14661084 -0.12645872 -0.02000785
-0.08947599 -0.18481831 -0.058980312 -0.1534349 -0.10838528 0.072289295 0.013148307 -0.09596454
-0.059214026 0.022781441 -0.0021973536 -0.0014178995 0.031506058 -0.19937803 -0.26542965 -0.12374177
0.00027723445 -0.08290208 -0.06912869 -0.16145292 0.111720465 -0.10811919 -0.2852185 0.04036066
0.09757353 -0.038322754 -0.087320656 -0.026520638 0.074403815 0.010222071 -0.16182259 0.058354266
-0.045960102 -0.041594777 0.044800907 0.1111978 0.009821218 0.050075904 0.10578502 -0.019347621
0.030750783 0.14959267 -0.03212942 0.07782259 -0.10105195 0.024192382 0.13732898 0.00025828555
-0.045212965 -0.11677593 -0.06846562 0.11371849 0.013804721 -0.081863336 0.078380406 0.14386037
0.09388595 -0.13120483 0.113766365 -0.1357029 0.116384745 -0.053412765 0.09022019 -0.018748265
0.09984572 -0.11100345 -0.077598974 0.10846739 -0.1422296 0.020501317 0.15106137 0.10752013
-0.040449172 -0.053797983 0.0860523 0.04839758 -0.014703025 0.10592877 -0.11723866 -0.022668872
-0.11938873 0.068979174 0.13899803 -0.024829954 -0.007868603 -0.030109031 0.0630931 0.026676789
-0.08476676 0.17384571 -0.012821471 0.12236172 -0.042732213 0.060803365 0.07748244 0.009329528
0.05435292 -0.058554735 0.12558767 0.015492375 0.13388985 -0.03402652 -0.110211626 -0.0053682895
0.033468753 -0.1308238 0.060062777 -0.084812306 0.1400579 -0.20547257 -0.13856182 0.08748638
0.057261705 0.13271572 -0.08859182 0.021452177 -0.0030152702 0.14749826 -0.0035240194 -0.16799697
-0.003638477 0.057534598 -0.04000223 -0.026726775 0.03148121 -0.07956494 0.09275038 -0.08764773
-0.04042761 -0.06253881 0.11675355 -0.047264874 -0.089196526 -0.05648877 -0.014692195 -0.04710037
-0.00900227 -0.027071645 0.10012581 -0.109422736 0.09624993 -0.08573816 0.107183725 -0.040928584
0.06674849 -0.06001788 -0.03333254 0.16203928 0.044175323 -0.0970341 0.1252609 0.01572765
0.119215176 -0.018452108 -0.08665871 -0.0053443066

gru.bias_hh_l0 f4 [180]
00000000: 2fdb 76bd 6061 33be 927a a3bd 8c3e efbc
00000010: 5082 93bb ef37 19be 5553 833b 1cf4 403d
00000020: d1c2 eebc 45a1 44be 84dc 0fbe 3eda 7a3d
00000030: e153 4cbe 6e81 98bd fc18 40be c398 0cbc
00000040: bfb9 583d 4f76 a0bd 9d63 063d a021 adbd
00000050: ecfc 01be e7d3 383d 994f 33be 0c99 e7bd
00000060: 8575 4ebe fe20 62be cf82 28be 8ab8 9cbd
00000070: 3619 4cbe 44e8 47bc 7808 e9bd 7c1e 8d3b
00000080: 0e91 7a3d 2dad 333d 47b7 c1bd 9438 31bc
00000090: 2e21 9ebd 08fd bdbd ab71 37be 4a76 043d
000000a0: 4237 88bd e02d 0bbe 6f87 7abe df6e 43be
000000b0: 4b91 11bc 8e27 d4bd fcf1 4fbe a39f ea3c
000000c0: 8e8e dcbd 0771 773b 0d24 18be bde1 6cbd
000000d0: 9847 a4bd a8da c5bd 7c3d 97bd e1e6 913d
000000e0: 9d3b 33be a8ee c23c 0844 09be b82e df3c
000000f0: a845 8c3d 867b 2e3d 3a9a af3d 95ff 93bd
00000100: b475 44bc e465 323d 9c21 58bc 2da5 bfbb
00000110: cf14 b53d db93 7f3d 1067 913d b5f9 cf3d
00000120: 74bd 04bd 8d59 f4bd ecee 573d 49e9 ed3d
00000130: 6878 a8bd 8fcd c5bd 24f9 ef3d 10fe 19bd
00000140: d080 193e 5a35 03be e757 443e f88e 15be
00000150: 562a 373d 4585 f1bb 539e 3b3d baf6 c73d
00000160: 4f36 e33d 3e4c 71bd 94b1 043e d7b7 11bb
00000170: 833f 04be 684d eb3d afcb 4d3e 4007 8d3d
00000180: ccd4 273d f4e3 cd3d a00c c43d 70f7 ba3d
00000190: ee7e 903d 3126 113e e2ae 3b3d b17a d63d
000001a0: 024f 88bd 6d34 0e3b 0251 843d 0756 2a3d
000001b0: eefb cbbd c011 e3bb ec9e 64bc a9c3 8f3d
000001c0: 5437 37bd 4b0e 0c3e 692a e13d 78b8 24bd
000001d0: a2ea 40bd 23a2 88bd 6221 44bd 32ae d83c
000001e0: c456 c93c 0959 8dbd 88fb 353d eda6 0fbd
000001f0: 2cdb 8bbd e8c1 b6bd 2ec9 a5bd 7ae4 15be
00000200: 08c6 c73d b204 99bd 3b2f ddbd 6e1d 3e3c
00000210: cc96 83bd fca7 d5ba e5b8 5f3d 75cc 143d
00000220: 3dbb bdbd ecfd e53d 3c4a 06be c373 0c3e
00000230: 5798 1ebd 7e10 ae3d bed2 e4bd 3c05 3d3c
00000240: a82a 82bc 26e8 20bd 9b9d 88bd 8167 8dbd
00000250: 221b e3bb 1cae 84bc 0701 cf3d 2f40 3bbd
00000260: 83d3 f43c c927 50be 8541 153d 2d74 e9bc
00000270: 14b3 1cbd 01b6 bd3c dd7a 87bc f600 bebc
00000280: 9382 fc3d 51bc ebbd 8611 1abd f99f 49bd
00000290: 17b7 1a3e cdbf 49bd 0329 743c d208 76bd
000002a0: 524c 073e 42dd e23d 7dd8 b8bd b920 a73d
000002b0: fa81 09be 2d91 6cbd d491 a2bd 7fe4 88bc
000002c0: 8018 6a3c ec13 8abd 4ccd a1bd d5c7 78bd
-0.060267624 -0.17517614 -0.07982363 -0.02920463 -0.0045016184 -0.14962743 0.0040077367 0.0471078
-0.02914563 -0.19202144 -0.14048964 0.06124329 -0.19953872 -0.07446562 -0.18759531 -0.008581343
0.052911516 -0.078350656 0.032809842 -0.08453679 -0.12694138 0.04512396 -0.17510833 -0.11308488
-0.20162018 -0.22082898 -0.1645615 -0.076523855 -0.19931492 -0.0122013725 -0.113785684 0.0043066125
0.06117349 0.043866325 -0.094587855 -0.010816712 -0.07721172 -0.092767775 -0.17914455 0.03233937
-0.066511646 -0.13591719 -0.24465726 -0.19085263 -0.008884738 -0.10359107 -0.20307153 0.028640574
-0.10769378 0.0037756579 -0.14857502 -0.05783247 -0.08021468 -0.09660846 -0.07384774 0.07124115
-0.1750321 0.02379544 -0.13404858 0.027243957 0.068492234 0.04259827 0.08574338 -0.07226483
-0.011990953 0.0435542 -0.013191607 -0.005848548 0.088418595 0.062396865 0.07099736 0.1015505
-0.03240724 -0.11931143 0.052718088 0.11616761 -0.08226091 -0.09658348 0.11717442 -0.03759581
0.14990544 -0.12813321 0.19174157 -0.1460532 0.04471811 -0.0073706233 0.045805287 0.09763856
0.11094343 -0.0589106 0.12958366 -0.0022234821 -0.12914853 0.114893734 0.2009723 0.068861485
0.040974423 0.10053244 0.095727205 0.09129226 0.0705546 0.14174725 0.045821078 0.1047262
-0.066556945 0.0021698729 0.064607635 0.04158595 -0.09960161 -0.006929606 -0.013953906 0.07019741
-0.0447305 0.13677327 0.10994417 -0.040214986 -0.047098763 -0.0667155 -0.0478834 0.02645025
0.024577506 -0.06901748 0.044429332 -0.035071302 -0.06828913 -0.089237034 -0.080950126 -0.14637938
0.09754568 -0.07471599 -0.10800024 0.011603696 -0.064252466 -0.0016300674 0.05461969 0.036327798
-0.092642285 0.112300724 -0.13114256 0.13716035 -0.0387195 0.084992394 -0.111730084 0.0115368925
-0.01588948 -0.039283894 -0.06670686 -0.069045074 -0.0069307247 -0.016196303 0.10107618 -0.045715507
0.029886013 -0.20327677 0.036439437 -0.02849778 -0.03825672 0.023158075 -0.016538078 -0.023193818
0.123295926 -0.11510528 -0.037614368 -0.049224827 0.15108906 -0.04925518 0.014902356 -0.060067005
0.13212708 0.11077358 -0.09025667 0.08160538 -0.13428488 -0.057755638 -0.07937971 -0.016710518
0.014288068 -0.06742081 -0.079004854 -0.06073745
