hosp_models/deploy_week_41_1/seq_enc.pt (torch, 46379 bytes, 4 tensors)

gru.weight_ih_l0 f4 [180, 1]
0.12408203 0.1492701 0.091407694 -0.021240575 0.029459188 0.028277662 -0.08896684 -0.08522984
-0.047624696 0.11217611 0.08020958 -0.010187758 -0.12899186 -0.10074253 -0.17811185 -0.08108891
0.076800354 -0.004667294 0.108030684 -0.005921479 0.036508624 0.098507896 0.13853668 -0.035011258
0.010080959 0.07588833 0.009290938 -0.04908607 -0.17972648 -0.08642683 0.18980706 -0.060062256
-0.04626148 -0.018048696 0.12783311 0.17717066 -0.06728746 -0.12915188 0.01948507 0.035234336
0.13433444 -0.085052334 0.07622879 -0.076407954 -0.08852218 -0.021152917 -0.12798735 0.026119808
0.1350742 -0.121151656 -0.0033501273 -0.14078932 0.049795352 -0.011032507 0.06952176 -0.12462361
-0.041820988 0.11739554 0.033565417 -0.1304278 0.064874634 0.06065249 -0.08639082 0.05206435
-0.11832069 -0.14558291 -0.009909876 -0.077001326 -0.053577665 -0.055038612 -0.026010701 0.06815131
-0.086498655 -0.07816261 -0.013519344 0.014897853 -0.07978289 -0.058892846 0.0008532102 0.018231612
-0.08025631 0.16036579 -0.17037705 0.074482866 0.01883412 -0.0716561 -0.1097436 0.0756119
0.008807679 -0.010312161 -0.09405215 0.06934648 -0.051305536 0.054240983 0.051881213 -0.028899724
0.007047974 -0.04030372 0.08444811 0.14088795 0.06787579 -0.051469103 0.12262507 0.13986206
-0.031844858 -0.08030472 0.009166403 0.044099767 -0.08996431 -0.028573258 -0.119515695 0.17564517
0.16290513 0.03614757 0.070019595 0.110608056 -0.07104066 -0.04760354 -0.101186186 0.03569503
0.14459771 -0.14726295 0.04133888 -0.028215054 0.05934797 0.04006492 -0.1326531 -0.052773103
0.010804008 0.17813493 -0.10620611 -0.15986535 0.14014925 0.09483598 -0.10528765 -0.09644853
-0.14782515 0.119113 0.21729374 0.043963734 0.19349223 0.07193513 0.105593495 -0.06804128
-0.021973575 -0.1131834 -0.15779293 0.21344133 0.02292747 -0.20350678 0.008697557 -0.024508577
-0.17553827 -0.093718156 -0.14235179 -0.16843297 -0.17572722 -0.048469603 -0.117286064 -0.03149977
-0.021761911 0.083368845 0.11658596 0.08381415 0.029053897 -0.09930345 -0.032942954 -0.1710631
0.12417515 -0.056346416 0.09959878 -0.0333642 -0.06174586 0.05261125 -0.16819635 0.10310549
-0.1264745 0.06714592 0.1162888 -0.029051514
00000000: b81e fe3d 43da 183e f533 bb3d b700 aebc
00000010: 6554 f13c 8ea6 e73c 3f34 b6bd fb8c aebd
00000020: 1d12 43bd 97bc e53d ec44 a43d 8eea 26bc
00000030: 7116 04be 1952 cebd f462 36be f111 a6bd
00000040: 8149 9d3d 1af0 98bb 313f dd3d f708 c2bb
00000050: 118a 153d 82be c93d 8fdc 0d3e f767 0fbd
00000060: 9b2a 253c 576b 9b3d 0539 183c 7a0e 49bd
00000070: 380a 38be 8d00 b1bd c85c 423e d703 76bd
00000080: ad7c 3dbd dcda 93bc afe6 023e 3a6c 353e
00000090: 02ce 89bd 6440 04be 279f 9f3c e151 103d
000000a0: f88e 093e eb2f aebd d71d 9c3d c67b 9cbd
000000b0: 1e4b b5bd e248 adbc 1e0f 03be 35f9 d53c
000000c0: e450 0a3e 5c1e f8bd cf8d 5bbb 132b 10be
000000d0: 36f6 4b3d b0c1 34bc 6d61 8e3d aa3a ffbd
000000e0: 7c4c 2bbd 136d f03d e47b 093d dd8e 05be
000000f0: fedc 843d bf6e 783d aced b0bd 6e41 553d
00000100: 1e52 f2bd b013 15be 085d 22bc dfb2 9dbd
00000110: 4174 5bbd 2b70 61bd 6514 d5bc ea92 8b3d
00000120: 3526 b1bd b813 a0bd 3d80 5dbc 2016 743c
00000130: 3665 a3bd a039 71bd f8a9 5f3a 765a 953c
00000140: 6c5d a4bd ee36 243e 5277 2ebe 798a 983d
00000150: 034a 9a3c 6fc0 92bd 41c1 e0bd 69da 9a3d
00000160: 154e 103c 57f4 28bc 6a9e c0bd 8705 8e3d
00000170: c125 52bd cb2b 5e3d 6581 543d 1dbf ecbc
00000180: b1f2 e63b 8315 25bd 21f3 ac3d ee44 103e
00000190: 7602 8b3d 44d1 52bd da22 fb3d 0038 0f3e
000001a0: c16f 02bd cd76 a4bd ae2e 163c f5a1 343d
000001b0: 353f b8bd 7712 eabc a5c4 f4bd 54dc 333e
000001c0: 9ad0 263e 790f 143d 6f66 8f3d 7a86 e23d
000001d0: c47d 91bd eefb 42bd b43a cfbd f434 123d
000001e0: 6c11 143e 19cc 16be f552 293d 4223 e7bc
000001f0: db16 733d 1d1b 243d 37d6 07be 9c28 58bd
00000200: 4b03 313c 0169 363e 9782 d9bd beb3 23be
00000210: 4983 0f3e 5e39 c23d 0da1 d7bd cf86 c5bd
00000220: 7a5f 17be 84f1 f33d 4082 5e3e 5113 343d
00000230: d422 463e ba52 933d 6741 d83d 3a59 8bbd
00000240: ed01 b4bc b3cc e7bd 7894 21be 5d90 5a3e
00000250: 64d2 bb3c 1564 50be 3380 0e3c 36c6 c8bc
00000260: 4ec0 33be 4eef bfbd abc4 11be b179 2cbe
00000270: d6f1 33be 1088 46bd ad33 f0bd e705 01bd
00000280: 0946 b2bc 49bd aa3d 9fc4 ee3d c1a6 ab3d
00000290: 7002 ee3c 9b5f cbbd 31ef 06bd 2a2b 2fbe
000002a0: 8b4f fe3d 80cb 66bd 72fa cb3d e6a8 08bd
000002b0: 3ae9 7cbd e57e 573d aa3b 2cbe f928 d33d
000002c0: 8882 01be cd83 893d d328 ee3d 71fd edbc

gru.weight_hh_l0 f4 [180, 60]
-0.004059246 -0.06746458 -0.048517864 -0.08913225 -0.037590645 0.16936056 -0.018406231 0.063666694
-0.017796282 -0.04798579 -0.08525492 0.04145389 -0.048041627 0.16767345 -0.03401131 0.029186882
-0.10677155 -0.05182866 -0.023303065 -0.037889864 -0.03754109 0.17565294 0.15636227 -0.05762389
0.06819384 -0.026599135 -0.06376071 -0.06477418 -0.090831555 -0.15850547 -0.050824907 0.036742993
-0.023015799 -0.0008095567 0.020986509 0.029820524 -0.13400994 -0.0061607105 -0.07548432 0.10500077
-0.010625966 -0.0680288 0.04882823 0.20207085 0.037977774 0.06958681 0.137317 0.008684065
-0.08913892 0.008559331 0.11422986 -0.13585764 0.01834537 0.016849862 -0.18587142 0.19227166
-0.023174584 0.09431183 0.13285448 -0.1223864 0.08068822 0.099346004 -0.05717695 -0.021116713
0.022656893 -0.10776484 -0.017468328 0.031603955 0.013313115 -0.09058723 0.037896875 -0.12292974
0.054123197 -0.006021305 -0.009569657 -0.13459621 -0.075043835 0.013305184 -0.037362553 -0.09610885
0.02563386 0.17245969 -0.006810995 -0.112889044 0.020607132 0.091732934 -0.14458479 0.14960068
0.08517747 0.023686435 0.07374315 -0.14199974 -0.1591437 0.12106035 0.03527113 -0.098513
-0.123913 0.073280215 0.04507444 0.12507045 -0.0014492022 0.056193396 0.07828711 0.051547192
-0.03668509 -0.11250559 0.1830698 0.011264616 -0.1015241 -0.049639866 -0.0008191559 0.008157553
-0.1636678 0.15216047 -0.1290842 0.07604228 -0.15024817 -0.1590152 0.08430924 -0.00984939
-0.032661162 -0.020118155 -0.034309343 0.110383436 -0.15621349 -0.025401868 0.02413317 -0.028274253
-0.061750367 0.02048841 -0.0024680577 0.07343375 0.04569793 0.092909515 -0.10664851 0.064736545
-0.026031384 0.01942183 0.050931 -0.045302752 -0.04165516 0.090939604 0.13575701 -0.06335547
0.06322359 0.08480687 0.058458336 0.040069386 0.07314311 0.12408574 0.10234761 -0.0036295378
-0.10134777 0.004374354 -0.07689294 0.119839445 -0.04244072 0.044889215 0.05390869 0.0406438
-0.16395791 -0.102458686 -0.0077690124 -0.10435686 0.08578981 0.0202422 -0.025364244 -0.107653
0.025784446 -0.059298877 0.09421393 0.09856199 0.05255918 0.08502382 0.072444364 -0.118352234
0.11452766 -0.072990276 0.07953565 0.13770233 -0.079675704 -0.02452789 -0.0563891 -0.090303026
-0.12796944 0.073716015 0.059702594 0.17133787 -0.13144472 -0.015614135 0.0993312 0.06684748
0.002349539 -0.13645796 0.16354154 0.0009124592 0.10743519 -0.09194349 -0.15364489 -0.047853105
-0.10966456 -0.050974734 -0.039308872 0.054008465 -0.0013297525 0.03190149 0.18541604 -0.1640112
-0.03403958 0.047220748 0.04163909 0.07452569 0.018471707 0.010438671 -0.07170177 -0.016568119
0.13488692 0.02723293 0.14682704 0.016593339 0.028820943 -0.0824169 -0.008928805 0.060689263
0.007201832 0.09675338 -0.014085873 0.1169932 -0.1522416 0.14972849 -0.065421805 0.10807995
-0.055147294 0.15760271 0.1405265 -0.09858729 -0.04865245 0.052074775 -0.02283113 0.09279714
-0.014561282 -0.056634773 0.08678856 0.043909207 0.13980266 0.065334134 0.218889 0.23026238
-0.026964385 0.113470316 -0.060842108 0.1380531 -0.0063402024 0.023996992 -0.0008108976 0.10490984
00000000: 6c03 85bb df2a 8abd abba 46bd f88a b6bd
00000010: a6f8 19bd db6c 2d3e aac8 96bc af63 823d
00000020: 82c9 91bc bf8c 44bd 229a aebd 8ecb 293d
00000030: 4cc7 44bd 97b2 2b3e 724f 0bbd 5419 ef3c
00000040: 0bab dabd 4a4a 54bd 12e6 bebc 6732 1bbd
00000050: b0c4 19bd 5dde 333e 6e1d 203e 0707 6cbd
00000060: 36a9 8b3d 6ee6 d9bc fa94 82bd 53a8 84bd
00000070: e505 babd 424f 22be c72d 50bd d27f 163d
00000080: a18b bcbc 6e38 54ba e6eb ab3c 2c4a f43c
00000090: e739 09be c9df c9bb 8697 9abd a50a d73d
000000a0: 8818 2ebc af52 8bbd 1c00 483d a9eb 4e3e
000000b0: 958e 1b3d 8883 8e3d d49c 0c3e 9c47 0e3c
000000c0: 778e b6bd 703c 0c3c 58f1 e93d 441e 0bbe
000000d0: 0849 963c b908 8a3c 1455 3ebe dde2 443e
000000e0: a0d8 bdbc 9026 c13d 010b 083e b9a5 fabd
000000f0: de3f a53d eb75 cb3d 6132 6abd f5fc acbc
00000100: f39a b93c d0b3 dcbd bd19 8fbc 2673 013d
00000110: 401f 5a3c cc85 b9bd c139 1b3d 96c2 fbbd
00000120: 49b0 5d3d 5e4e c5bb 0dca 1cbc 97d3 09be
00000130: 95b0 99bd fdfd 593c 7a09 19bd b7d4 c4bd
00000140: 1afe d13c 4699 303e c42e dfbb 5f32 e7bd
00000150: 4ad0 a83c 7ade bb3d 090e 14be ec30 193e
00000160: 8771 ae3d 0e0a c23c a606 973d 6168 11be
00000170: 91f6 22be 7dee f73d 7678 103d 2fc1 c9bd
00000180: 19c6 fdbd f013 963d fa9f 383d 7812 003e
00000190: 28f3 bdba 0c2b 663d fe54 a03d 2623 533d
000001a0: 1b43 16bd 5569 e6bd a676 3b3e 398f 383c
000001b0: deeb cfbd 2c53 4bbd 9fbc 56ba 42a7 053c
000001c0: 8898 27be f4cf 1b3e a62e 04be 0ebc 9b3d
000001d0: a8da 19be e1d4 22be 53aa ac3d 565f 21bc
000001e0: b6c7 05bd d4ce a4bc f487 0cbd b610 e23d
000001f0: 6ef6 1fbe 9417 d0bc edb2 c53c 689f e7bc
00000200: f4ed 7cbd 4fd7 a73c 23bf 21bb 6f64 963d
00000210: c12d 3b3d 5847 be3d 896a dabd 9894 843d
00000220: c53f d5bc 881a 9f3c 069d 503d 618f 39bd
00000230: 9a9e 2abd 8b3e ba3d e303 0b3e 83c0 81bd
00000240: 5f7b 813d 39af ad3d 0272 6f3d cc1f 243d
00000250: 0ecc 953d aa20 fe3d a09b d13d 8add 6dbb
00000260: 6b8f cfbd be56 8f3b 0c7a 9dbd 626e f53d
00000270: 52d6 2dbd c1dd 373d 5ccf 5c3d 1d7a 263d
00000280: 95e4 27be dcd5 d1bd 3393 febb 0db9 d5bd
00000290: 91b2 af3d f8d2 a53c adc8 cfbc 2d79 dcbd
000002a0: e739 d33c 61e3 72bd 3cf3 c03d deda c93d
000002b0: 4b48 573d f820 ae3d b65d 943d a862 f2bd
000002c0: 7a8d ea3d ed7b 95bd 96e3 a23d d701 0d3e
000002d0: 042d a3bd b7ee c8bc 42f8 66bd cbf0 b8bd
000002e0: 6c0a 03be 6cf8 963d b58a 743d 3273 2f3e
000002f0: 7299 06be 6ed2 7fbc 286e cb3d 55e7 883d
00000300: b9fa 193b a3bb 0bbe 6f77 273e 1a32 6f3a
00000310: fb06 dc3d de4c bcbd 1655 1dbe 9e01 44bd
00000320: d097 e0bd e2ca 50bd 5702 21bd fb37 5d3d
00000330: 174b aeba 23ab 023d b4dd 3d3e 8df2 27be
00000340: 166d 0bbd 8b6a 413d c08d 2a3d eda0 983d
00000350: fa51 973c f606 2b3c 61d8 92bd ddb9 87bc
00000360: cc1f 0a3e 9817 df3c d459 163e c1ee 873c
00000370: e619 ec3c 31ca a8bd 1f4a 12bc 4e95 783d
00000380: 58fd eb3b a326 c63d 6fc8 66bc 219a ef3d
00000390: 39e5 1bbe 6d52 193e defb 85bd 0559 dd3d
000003a0: 21e2 61bd 9b62 213e 2ee6 0f3e 22e8 c9bd
000003b0: cb47 47bd 5c4c 553d 5a08 bbbc 6d0c be3d
000003c0: 7192 6ebc ddf9 67bd 33be b13d 24da 333d
000003d0: 6e28 0f3e e7cd 853d 7024 603e e7c9 6b3e
000003e0: 6ae4 dcbc 2063 e83d 9335 79bd cb5d 0d3e
000003f0: 79c1 cfbb 5795 c43c 6b92 54ba f8da d63d

gru.bias_ih_l0 f4 [180]
-0.026028201 0.07758631 -0.011326947 0.04615863 -0.16322912 -0.15944019 0.0930887 0.026090933
0.019042145 -0.17902283 -0.039715465 -0.15824397 0.033539496 -0.068935856 -0.11758094 -0.040819474
-0.1094505 -0.095558025 0.08965626 0.0029849964 -0.11688046 0.09708111 -0.008127339 0.052350253
-0.12422176 -0.093133286 -0.03221892 -0.1030365 -0.073769644 0.076605536 0.053924367 0.0024718638
-0.07930249 -0.09167045 -0.006402623 0.029041074 0.078306146 -0.034907047 -0.13892962 -0.054630473
0.028753221 0.13980678 0.06165271 -0.1771567 0.061745964 0.048101205 -0.112678766 -0.027063308
0.07237071 -0.049904417 0.024632202 -0.056191497 0.10544134 0.029555628 -0.05911572 -0.01820349
0.0022104245 -0.05365865 0.15827236 -0.07698639 0.0700607 0.13313384 0.123625 0.19209166
0.051067848 0.13530767 0.07049143 0.070357785 -0.12984382 0.037335735 0.28727055 0.11241981
-0.031716663 0.0009773921 0.031223498 0.1342541 0.112415396 -0.096581265 0.09301621 0.28501767
0.15532568 0.039692093 0.04657105 -0.11035057 0.19301039 0.026904413 0.12913463 -0.033962797
0.2542272 0.023710774 -0.16716415 0.05305847 -0.13039586 0.15649042 0.06709445 0.19199118
0.008413082 0.10149003 0.19249381 0.14551894 -0.1885804 0.107681945 0.1142608 0.18038318
0.09006196 -0.053175993 0.28912365 0.06690043 0.0042560166 -0.09553305 0.035300847 0.17441764
-0.041322257 0.12430072 0.008793292 0.22036862 0.04002532 0.2233189 0.10968264 0.08218358
0.040413715 -0.043246046 0.06511982 -0.000856579 0.081941254 -0.01138067 -0.10250752 0.006803858
-0.026427912 -0.09541327 0.06705574 -0.100459196 0.09451605 -0.14918272 -0.07101265 0.11110807
0.09942511 0.07229061 -0.03164906 0.009000267 0.0053123506 0.0420527 0.08590509 -0.108747244
-0.038642965 0.117882825 -0.0066004326 -0.037145898 0.021287702 0.021405624 0.057773974 -0.07190969
-0.011348753 0.033726137 0.11702608 -0.02106286 -0.07665053 0.01750744 0.006663238 -0.0055567347
-0.03851237 -0.038482424 0.011504155 -0.12063185 -0.018144796 -0.0775212 0.0739126 0.024702854
0.02774131 -0.09518009 -0.020666657 0.08989567 0.047795523 -0.09776936 0.10988884 0.022304108
0.07860255 0.030063676 -0.12310547 0.08409061
00000000: 1839 d5bc 92e5 9e3d a994 39bc d510 3d3d
00000010: 8925 27be 4a44 23be 4aa5 be3d a7bc d53c
00000020: 46fe 9b3c c351 37be afac 22bd b50a 22be
00000030: b660 093d 3e2e 8dbd 47ce f0bd 5232 27bd
00000040: 9527 e0bd edb3 c3bd b49d b73d ee9f 433b
00000050: 065f efbd 76d2 c63d 8828 05bc 386d 563d
00000060: fa67 febd aabc bebd fcf7 03bd cd04 d3bd
00000070: 8a14 97bd 5de3 9c3d ccdf 5c3d fefe 213b
00000080: 5869 a2bd b8bd bbbd 18cd d1bb 8ce7 ed3c
00000090: f95e a03d b1fa 0ebd 9143 0ebe 34c4 5fbd
000000a0: e08b eb3c 8229 0f3e 8d87 7c3d 9168 35be
000000b0: 56e9 7c3d c505 453d 20c4 e6bd dfb3 ddbc
000000c0: 1837 943d 9368 4cbd 79c9 c93c 0e29 66bd
000000d0: a1f1 d73d a51e f23c 5323 72bd 7c1f 95bc
000000e0: c5dc 103b 2cc9 5bbd 2612 223e 0aab 9dbd
000000f0: fc7b 8f3d 3d54 083e 1b2f fd3d adb3 443e
00000100: 852c 513d 188e 0a3e d05d 903d be17 903d
00000110: c7f5 04be 5bed 183d 2015 933e 5b3c e63d
00000120: 55e9 01bd d61b 803a 6cc8 ff3c e879 093e
00000130: 0b3a e63d 66cc c5bd 487f be3d d6ed 913e
00000140: b20d 1f3e 2d94 223d 49c1 3e3d 7bff e1bd
00000150: 84a4 453e a566 dc3c de3b 043e 931c 0bbd
00000160: 112a 823e 193d c23c 142d 2bbe d753 593d
00000170: 7e86 05be 063f 203e d168 893d 5699 443e
00000180: 06d7 093c 01da cf3d 191d 453e eb02 153e
00000190: 381b 41be 5a88 dc3d 9101 ea3d 5eb6 383e
000001a0: 6872 b83d 12cf 59bd 0408 943e 1803 893d
000001b0: 0e76 8b3b d5a6 c3bd 9f97 103d 8a9a 323e
000001c0: 8741 29bd 6091 fe3d bd11 103c 50a8 613e
000001d0: 97f1 233d b6ad 643e 4ba1 e03d dd4f a83d
000001e0: da88 253d c422 31bd 8a5d 853d 0b8c 60ba
000001f0: d1d0 a73d fd75 3abc 76ef d1bd e6f2 de3b
00000200: 597f d8bc 0868 c3bd 8554 893d 8dbd cdbd
00000210: a191 c13d 5bc3 18be 156f 91bd a18c e33d
00000220: 649f cb3d 190d 943d 72a2 01bd db75 133c
00000230: 3a13 ae3b 743f 2c3d 02ef af3d e0b6 debd
00000240: 1648 1ebd 8d6c f13d 7148 d8bb 4c26 18bd
00000250: 8c63 ae3c d95a af3c 67a4 6c3d 6345 93bd
00000260: 1ff0 39bc 6b24 0a3d 5fab ef3d 058c acbc
00000270: f4fa 9cbd c36b 8f3c 4b57 da3b 4515 b6bb
00000280: 26bf 1dbd bf9f 1dbd ec7b 3c3c d50d f7bd
00000290: 65a4 94bc 6fc3 9ebd 7d5f 973d a45d ca3c
000002a0: be41 e33c c7ed c2bd 1f4d a9bc 391b b83d
000002b0: 3dc5 433d 4d3b c8bd 660d e13d 1bb7 b63c
000002c0: 60fa a03d 1948 f63c b81e fcbd b337 ac3d

gru.bias_hh_l0 f4 [180]
0.07513916 -0.09735639 -0.07116728 0.043010578 -0.041306 -0.19391276 -0.026043821 0.09233758
-0.019368304 -0.1702708 -0.11890459 0.0648985 -0.041622385 -0.18847275 -0.010268233 0.045021925
0.02423285 -0.08309542 0.040677235 -0.08178799 -0.021875149 -0.004405467 -0.056777216 -0.040726747
-0.23636535 -0.12914418 -0.13780057 -0.026125394 -0.16469917 -0.00788529 -0.07300982 0.10274319
0.04108487 -0.07058563 -0.09879307 0.0196423 -0.030411454 0.071703106 -0.052644707 0.10145079
-0.03803566 0.08679204 -0.11387589 -0.20655595 -0.05885927 0.05262926 -0.03053192 -0.038783375
-0.13289675 -0.007806055 -0.03662198 -0.08750353 -0.049176995 -0.07727483 0.028859269 -0.0053166253
-0.12686142 0.011731651 -0.020577066 -0.16094008 0.12873136 0.12565629 0.103583485 0.139174
0.008326262 0.029268885 0.08942935 -0.013313219 0.05962695 0.07554035 0.22093908 0.21371226
-0.018911056 -0.0015580786 0.15240711 0.13670321 0.016349677 -0.111301295 0.13181005 0.103561446
0.211345 0.04276368 0.124546476 -0.12070088 0.12134333 0.0729466 0.08471937 0.08242388
0.26532474 0.075803675 0.040018283 -0.05763256 -0.117314756 0.2508831 0.117005184 0.15333278
0.08983677 0.2558203 0.2021687 0.1884137 -0.10332301 0.1435011 0.27732062 0.30777845
0.1428945 -0.11998459 0.21473318 0.1333164 -0.08747723 -0.0723537 -0.04174611 0.21793827
-0.0012857892 0.08722845 0.1315583 0.05779243 0.03565878 0.0957996 -0.015682427 0.09930442
0.021965314 -0.069899626 -0.008997184 -0.045670126 -0.10725316 -0.062755086 -0.087788366 -0.14235187
0.047585927 -0.048526738 -0.10797386 0.010860288 -0.11864621 0.042122073 0.12654397 0.050094526
-0.06360045 0.0664991 -0.076501146 0.12616128 -0.033984415 -0.013136921 -0.022138199 0.057780415
-0.03658653 0.0043949056 -0.043471202 -0.087325476 -0.018332768 0.07096293 0.06721502 -0.040257726
0.048160292 -0.110925965 0.038105853 -0.015304727 -0.032498233 0.09327986 0.0031808042 0.006775457
0.09422527 -0.120732635 -0.12025951 -0.05026448 0.04803087 -0.03468269 -0.023651749 -0.002808422
0.10179894 0.08140206 -0.07999776 0.011293477 -0.13977008 -0.06761612 -0.084902264 -0.0054619303
-0.026033787 -0.022570293 -0.11868421 0.019466512
00000000: 8fe2 993d c962 c7bd 27c0 91bd dc2b 303d
00000010: 7b30 29bd 1191 46be da59 d5bc 7c1b bd3d
00000020: 47aa 9ebc 785b 2ebe 4084 f3bd 81e9 843d
00000030: 3c7c 2abd 00ff 40be 173c 28bc e968 383d
00000040: f883 c63c ee2d aabd 2c9d 263d 7680 a7bd
00000050: 8333 b3bc bc5b 90bb 3a8f 68bd 17d1 26bd
00000060: c209 72be 5f3e 04be 981b 0dbe ec04 d6bc
00000070: e6a6 28be 4e31 01bc 2c86 95bd 066b d23d
00000080: 9c48 283d 338f 90bd 0554 cabd e4e8 a03c
00000090: 7121 f9bc 14d9 923d faa1 57bd 6fc5 cf3d
000000a0: 48cb 1bbd 06c0 b13d c337 e9bd 6783 53be
000000b0: 6b16 71bd c791 573d 141e fabc 51db 1ebd
000000c0: 1616 08be efc9 ffbb ee00 16bd 0d35 b3bd
000000d0: d16d 49bd 4442 9ebd 466a ec3c 1637 aebb
000000e0: f6e7 01be 1c36 403c 3c91 a8bc 7acd 24be
000000f0: 27d2 033e 0bac 003e 9423 d43d a183 0e3e
00000100: e06a 083c 4dc5 ef3c bc26 b73d b01f 5abc
00000110: 643b 743d e6b4 9a3d db3d 623e 63d7 5a3e
00000120: 5ceb 9abc 7138 ccba 9c10 1c3e edfb 0b3e
00000130: c2ef 853c eff1 e3bd 37f9 063e 0618 d43d
00000140: d36a 583e f828 2f3d 3912 ff3d 0632 f7bd
00000150: da82 f83d 0765 953d 5981 ad3d dacd a83d
00000160: a5d8 873e f53e 9b3d 36ea 233d 1f10 6cbd
00000170: b842 f0bd c073 803e 6aa0 ef3d 4503 1d3e
00000180: 57fc b73d e1fa 823e 5005 4f3e 85ef 403e
00000190: 049b d3bd f4f1 123e f8fc 8d3e 2395 9d3e
000001a0: f052 123e 7bba f5bd 04e3 5b3e 1884 083e
000001b0: 4327 b3bd 2d2e 94bd f8fd 2abd 362b 5f3e
000001c0: ed87 a8ba d4a4 b23d 38b7 063e c1b7 6c3d
000001d0: f10e 123d 9532 c43d 6f78 80bc 1e60 cb3d
000001e0: 9af0 b33c 8927 8fbd ed68 13bc 9910 3bbd
000001f0: 8ba7 dbbd bd85 80bd 63ca b3bd b0c4 11be
00000200: 76e9 423d f9c3 46bd 6621 ddbd 59ef 313c
00000210: c9fc f2bd 3288 2c3d be94 013e eb2f 4d3d
00000220: f440 82bd ae30 883d a2ac 9cbd 6c30 013e
00000230: 3e33 0bbd 3e3c 57bc 2b5b b5bc 28ab 6c3d
00000240: c2db 15bd 2403 903b dc0e 32bd b3d7 b2bd
00000250: 9a2e 96bc 0355 913d 07a8 893d 49e5 24bd
00000260: ba43 453d 272d e3bd e214 1c3d adc0 7abc
00000270: de1c 05bd 8309 bf3d 0a75 503b a704 de3b
00000280: 2ef9 c03d ac42 f7bd 9e4a f6bd 21e2 4dbd
00000290: 04bc 443d 700f 0ebd 50c1 c1bc 810d 38bb
000002a0: f67b d03d 20b6 a63d ded5 a3bd 4708 393c
000002b0: e31f 0fbe 527a 8abd 3de1 adbd fef9 b2bb
000002c0: cf44 d5bc 56e5 b8bc b510 f3bd 3c78 9f3c
