mort_models/deploy_week_41_4/seq_enc.pt (torch, 46379 bytes, 4 tensors)

gru.weight_ih_l0 f4 [180, 1]
00000000: 3617 20bd c636 b23d 2eb5 c53d 35da 1abd
00000010: 8b2d 95bd df0a 293d bfcb c1bd b6dd 18be
00000020: 9718 34be 3030 95bd 399f 913c 6c07 71bd
00000030: dac0 adbb ea20 43be 37dd 12be f88f 9abd
00000040: 70f8 29be 269f febd 5c91 96bd 6ca4 82be
00000050: 951d 0fbd 1a6d 683d 4e43 eabc 54cb 073d
00000060: 3cbd 41bd 0cbd 023d a45d 9ebd 4d20 99bd
00000070: f745 86be ec1d f1bd b349 dabd 6022 c1bd
00000080: 42d0 31bc e551 a0bd 507a 463c e8e7 9a3d
00000090: e0b0 34be 13e0 2ebe b935 6c3d 5ed1 14bd
000000a0: bd9b 97bb 2695 56be 527e d03d 6e34 29be
000000b0: a785 09be 7adb 8bbd ba92 d2bd 2213 6abd
000000c0: c019 40be ffaf 14be fdcd 2dbd 9755 0fbe
000000d0: e790 a7bc 95ae 7ebd a43e 20bd f209 15be
000000e0: de58 c7ba 4def 8c3d e9f1 87bd 475c 9abd
000000f0: 9a1b 853c 9752 8dba 08b0 6bbc 3ada c63d
00000100: d714 e7bd 522e 01be 1244 a5bc e371 21be
00000110: 1c33 d6bd 56e2 adbd 28d3 1abe 7338 a53d
00000120: 61d3 debd 9477 2bbe 6ac1 af3d 2fe8 e3bc
00000130: 18ca abbd 5ff5 eabd d943 bfbd 1be1 463c
00000140: d8b0 03be bae9 3c3e 882d 1abe 406b 543e
00000150: 9bb1 00bc 14b6 07be e51f 16be e8bd 283d
00000160: 3ca4 abbd 73a5 64bd 74e0 2abe 2e37 273d
00000170: c965 38bd 6449 2cbb 84f9 36bd 76cc bebc
00000180: 46e5 7e3d 06e8 1bbe 73d8 1bbd a148 643d
00000190: 21a1 ce3d d9a5 d2bd d42e e13d 8f8c 26bc
000001a0: 201c d4bd 3b71 c8bd 0528 e0bc e39b 053d
000001b0: aa9c 9dbd c4e9 85bd 5d01 d7bd a373 ce3d
000001c0: 9dee 023d 556e 7fbc 4b25 c5bb b447 423e
000001d0: 1b3e 20be 755a bfbd 78bc 4ebe fe17 c2bc
000001e0: e7c9 003e eede 11be 90d8 a5bb b282 043b
000001f0: aae6 653d 0972 523c 6c87 39bd da6e c8bc
00000200: bd64 82bd 1dec 453e c69c 18be 2104 85bd
00000210: dc4d 66bd 02a8 f73d b47f 50bc c15e c0bd
00000220: 8c43 1dbe 944c 1c3e a68f 3a3e 0499 91bb
00000230: 692c 4c3e e05b 133e 9afb 8b3d 8d9a 1fbd
00000240: 2cf2 81bd 8ac8 893d 5802 06be 900a 383e
00000250: ddc8 f0bd 009f 22be a3c4 07be ff8d 003d
00000260: 1d49 61bd d713 dabd 78e8 2dbe ce36 cfbd
00000270: fcb8 15be b300 a7bd a362 7fbd fa44 31bd
00000280: 74d9 5bbd cab3 4d3d dfa3 143d 8aea 283e
00000290: aaed 5ab8 b413 eabd 0fd0 bc3d 6b32 eebd
000002a0: 3b53 02bd 4231 a4bd d03c 673d 5d25 983c
000002b0: 402c 303d 973b 3e3d 056a 08be d952 3e3d
000002c0: 73b8 80bd 088f 9f3d 0ed2 f63d 7435 0abd
-0.039084636 0.087018535 0.09653698 -0.037805755 -0.07284077 0.041270133 -0.094626896 -0.14928326
-0.17587505 -0.07284582 0.017776119 -0.05884497 -0.0053025307 -0.19055524 -0.143422 -0.07546991
-0.16598678 -0.12432699 -0.07351944 -0.2551607 -0.03494032 0.056744672 -0.028596547 0.033152893
-0.04729961 0.03191857 -0.07732704 -0.07476864 -0.26225254 -0.11773285 -0.10658588 -0.09430385
-0.010852875 -0.0782812 0.0121141225 0.07563764 -0.17645597 -0.17077665 0.05766842 -0.03633248
-0.0046267197 -0.20955333 0.10180344 -0.16523907 -0.1342989 -0.06828971 -0.10281892 -0.057147153
-0.18759823 -0.14520262 -0.042432774 -0.13997494 -0.020454837 -0.062178213 -0.03912224 -0.14554575
-0.001520898 0.068815805 -0.066379376 -0.07537132 0.016248513 -0.001078206 -0.014385231 0.09709592
-0.11283272 -0.12615326 -0.02017406 -0.157661 -0.10458967 -0.08490436 -0.15119612 0.080674075
-0.10880161 -0.16744834 0.08581813 -0.027820675 -0.08388156 -0.11472582 -0.09339113 0.01213863
-0.1286043 0.18448535 -0.15056431 0.20744038 -0.007854844 -0.13253051 -0.14660604 0.041196734
-0.083809346 -0.055821847 -0.16687185 0.040824108 -0.045018945 -0.0026288861 -0.04467155 -0.023290854
0.06223037 -0.15225229 -0.03804822 0.055733327 0.10089327 -0.10285539 0.1099526 -0.010165348
-0.10356927 -0.09787222 -0.027362833 0.03261937 -0.07695897 -0.06538728 -0.10498307 0.1008065
0.03196584 -0.01559027 -0.0060164086 0.18972665 -0.15648691 -0.09343425 -0.20189083 -0.023693081
0.1257702 -0.14245197 -0.0050612167 0.0020219502 0.05612818 0.012844571 -0.045295164 -0.02446692
-0.063668706 0.19328351 -0.14903554 -0.06494928 -0.056226596 0.12092592 -0.012725759 -0.09393073
-0.15357798 0.15263587 0.1821886 -0.0044432897 0.19938816 0.14390516 0.068350986 -0.03896575
-0.06345019 0.06727703 -0.13086832 0.1797278 -0.11757062 -0.15880966 -0.13258605 0.031385418
-0.055001367 -0.106483154 -0.16983211 -0.10117875 -0.14621347 -0.0815443 -0.062349927 -0.04327867
-0.053674176 0.05022029 0.036289092 0.1649572 -5.2196592e-05 -0.11429539 0.092193715 -0.1163071
-0.031817656 -0.08017208 0.05645448 0.018572504 0.04301095 0.046443548 -0.13321693 0.04646573
-0.06285181 0.07790953 0.120517835 -0.033742383

gru.weight_hh_l0 f4 [180, 60]
00000000: 3b10 87bd 2864 3ebd 455a 17bd 0d2b a2bc
00000010: 883d 75bd 0297 c33c b6bf 7a3c 8db1 093e
00000020: 1b18 69bc 8e4b 43be 388d 82bc 994f 573d
00000030: 390f a1bd c889 8b3d 03be 2abd ef50 183e
00000040: 9899 e4bb aac0 b5bd be84 08be 89b5 89bb
00000050: 8bd1 e8bd 367a e53d 6657 b53d 976f 39bd
00000060: e339 d93d 52ff c33d 5612 d73c a241 31be
00000070: 9f19 bdbd e511 95bd faa4 183d 191b d73d
00000080: 9de0 d63d 0eac afbc 9579 1e3e c663 093e
00000090: 8488 e3bd 5dae 163d 2b39 e33c 099e 853c
000000a0: dbd0 3dbd 988b 6bbd 05fe b5bd b9f4 913d
000000b0: c209 433d 4715 3c3d fe40 d93d b094 a53d
000000c0: b73c d6bd 0674 febb 0762 6c3d 5933 dabb
000000d0: 508c f93d f7bf cbbd 5963 bbbd 8fc5 0f3e
000000e0: 14c8 1d3e 6354 dd3d 7ad4 3f3d 59a9 a9bd
000000f0: 9794 c13c 2695 933d c1f3 71bc 9d39 3f3d
00000100: dbbd c13d 15f8 7cbe 7d53 8ebc a8c9 af3c
00000110: 90e6 c63c b714 88bd fe29 7d3d c155 0fbe
00000120: 0b33 09bc f5f8 8f3c 30ed 7ebd 8069 06be
00000130: 42bc a1bc 8223 033c 636c 83bd 2126 62bd
00000140: 8284 523d 9539 313e b6b0 eebc eea0 51be
00000150: 868a 6a3a a937 f13d 4c3d 01be d876 183e
00000160: 4ae9 9e3d 9043 f33c 5ed9 053d 927f b7bd
00000170: c4ff aabd 73de d93d b07d e83c fbd2 adbd
00000180: 6bf9 20be 2446 833d 386c 9a3d 2432 d83d
00000190: 5fd9 d0bd 868e 133d ec30 76bd 21b2 003d
000001a0: ad10 cabd 8898 0abe a8ec 333e efce 163c
000001b0: 5f5f bdbd f671 d0bc e229 8fbc ef1b d33d
000001c0: 0c12 b5bd 5f2a 863d 15c5 e2bd 9918 103e
000001d0: 15f8 86bd eb90 49bd 8ef0 e93d db9c a53c
000001e0: 83e3 0abd 22eb 8fbd 806c 503b bc11 3d3e
000001f0: 29ff aabd 5047 cdbd 8aef ae3c 9e04 fcbc
00000200: e965 b6bd 4e81 263d 35c7 8ebc 026f 7c3d
00000210: 4686 6cbd 4f48 1f3e c9e7 febd 7c58 b53d
00000220: d3e7 91bd 3c77 a03c 44ca 733d 1176 18bd
00000230: 0ba1 10bb 0f36 493d c27f 083e 3851 6ebd
00000240: 51e4 113d 29f2 c93d 5fc9 483d 9f2d 943d
00000250: dfc0 de3b b7ea c33d 2865 863c df11 5d3d
00000260: 786a 57bc 6673 abbc 42c5 eabd 3d69 f13d
00000270: b5c5 81bd 2dfe 1f3c 25d2 b53d 3efc af3d
00000280: 972d 1fbe f171 2fbd 6e57 90bc 2641 6ebd
00000290: a4c9 8c3d 65fb d33a c129 c7bc ae9d dabd
000002a0: 5da9 eeb8 e289 cfbd d992 3c3e ef4c ae3d
000002b0: 64a4 153e 6f3f e43d 84e5 203d 0bd2 b7bd
000002c0: f605 dd3d 9d56 e03b 819f 0f3e d260 fd3d
000002d0: 174a 7fbd fcff acbc ff7d e1bd 07fe 0abe
000002e0: ff6e 48be 8cd3 293e de2c c6bc 3f4e 043e
000002f0: 5f96 dbbc 2721 6bbd 7d1a ee3d 3899 0b3d
00000300: 4941 073e b52b 36be 2f85 233e 4f4e 8a3c
00000310: b035 323e 9132 22be 1067 29be 5b0e 493d
00000320: df02 e3bd 1c19 22be b44e feba 24d1 483d
00000330: 52fe f5bb 4e2a eabd f5eb 573e 5f85 3cbe
00000340: e224 803d ff0a 633d a303 093e b1b2 263d
00000350: d67d 6bbd 0018 ac3d 16e8 26bd 57b0 ab3c
00000360: 8c38 103e 660a 883d 16ca 063e e143 ca3d
00000370: 7c67 283c 08fe b4bd 13fc af3d de4b b4bc
00000380: ead6 a5bc 19a6 e73d 7de7 06be d87a 123e
00000390: 7203 c1bc 9880 203e f044 8ebd c50d 093d
000003a0: 825c 10be 6339 2e3e dc62 3f3e b2b2 07be
000003b0: 6bd6 c1bd 06f0 0f3d c7d2 8cbb dcf8 c43d
000003c0: 867b 2cbd 2275 92bd 2d33 fc3d dd07 60bb
000003d0: 8dd9 1a3e 80bd 8a3c a631 203e 6027 103e
000003e0: 70e0 38bd 81da 1d3d fabe 91bd 5ccf 023e
000003f0: 715b 38bd 3fd4 67bd 06d9 263d 1e59 053e
-0.065948926 -0.046482235 -0.036951322 -0.019795919 -0.059873134 0.023875717 0.0153044965 0.13446636
-0.014226939 -0.1907179 -0.015936479 0.052566145 -0.078642316 0.06813389 -0.041685116 0.14874624
-0.0069763176 -0.088746384 -0.13331887 -0.004202549 -0.11368092 0.112049505 0.088545606 -0.045272436
0.10606744 0.09570183 0.02625386 -0.17310193 -0.092334025 -0.07278804 0.03726671 0.10503215
0.1049206 -0.021444347 0.15476067 0.13416967 -0.11110023 0.03678738 0.02773722 0.016310709
-0.04634176 -0.057506174 -0.08886341 0.07126755 0.047616728 0.04591873 0.106080994 0.080850005
-0.10460799 -0.007765296 0.057710674 -0.006658953 0.121849656 -0.09948724 -0.091498084 0.14040206
0.15408355 0.10807111 0.046833493 -0.082842536 0.023630423 0.07206182 -0.014767588 0.046685804
0.0946004 -0.24704011 -0.017373795 0.021458462 0.024279863 -0.06644576 0.061807625 -0.13997556
-0.008373986 0.017574767 -0.06223792 -0.13126183 -0.019743089 0.008004071 -0.064171575 -0.055212144
0.0513959 0.17307122 -0.029136997 -0.20471546 0.0008947033 0.117781945 -0.12621039 0.14889085
0.0775934 0.029695302 0.032678 -0.08959879 -0.08349565 0.10638132 0.028380245 -0.08487507
-0.15720145 0.06409863 0.07540172 0.105564386 -0.1019771 0.036024593 -0.06010525 0.031419877
-0.09866462 -0.13534749 0.17570746 0.00920461 -0.09246706 -0.025444966 -0.017476026 0.10308062
-0.08841333 0.065510504 -0.11072747 0.14071883 -0.06590287 -0.04921047 0.11422835 0.020216396
-0.03390838 -0.0702727 0.0031802952 0.18463796 -0.08349449 -0.100233674 0.021354456 -0.03076392
-0.089061566 0.04065066 -0.017428974 0.061629303 -0.05774524 0.15554927 -0.12446553 0.08854768
-0.07124295 0.019588105 0.059519067 -0.037221972 -0.0022068645 0.04912382 0.13329986 -0.058182925
0.03561813 0.098606415 0.049020167 0.07235264 0.0067978944 0.09566253 0.016405657 0.05397212
-0.013147943 -0.02092905 -0.11463405 0.11787651 -0.06336538 0.00976519 0.088779725 0.08593033
-0.15544735 -0.042833272 -0.017619815 -0.0581676 0.068743974 0.0016172944 -0.024311902 -0.10674606
-0.00011380271 -0.10133721 0.18415393 0.08510768 0.14613491 0.111449115 0.039281383 -0.089756094
0.107921526 0.0068462626 0.1402569 0.12371983 -0.062326517 -0.021118157 -0.1101036 -0.13573466
-0.19573592 0.16584605 -0.024191316 0.12920474 -0.026805101 -0.057404663 0.11626146 0.034081668
0.13208498 -0.1779011 0.15968774 0.016883044 0.17403293 -0.15839602 -0.16543221 0.049085956
-0.11084532 -0.15829891 -0.0019402117 0.049027577 -0.007507124 -0.1143385 0.21086104 -0.18410252
0.06257035 0.05543041 0.13380294 0.040697757 -0.057493053 0.08403015 -0.04074868 0.020958109
0.14084071 0.06642608 0.13163027 0.09876228 0.010278579 -0.08837515 0.08593001 -0.022008833
-0.02024408 0.113109775 -0.13174243 0.14304674 -0.023561213 0.15674055 -0.069467425 0.033460397
-0.14097789 0.17014079 0.18690056 -0.1325176 -0.09464725 0.035141014 -0.0042975876 0.09617779
-0.04210999 -0.071512476 0.123144485 -0.0034184374 0.15122052 0.016936064 0.1564394 0.1407752
-0.045135915 0.03853846 -0.07116504 0.12774414 -0.04500908 -0.056598898 0.040734313 0.13022277

gru.bias_ih_l0 f4 [180]
00000000: 1c52 e8bb 0c02 c93d 8b89 3abd 8a5e a73d
00000010: f4b9 bbbd b655 e9bc 361b ae3d 8a99 d4bb
00000020: ee95 3f3c cb07 8ebe d976 4ebe 744c d5bd
00000030: 8775 f23b 3765 5cbd ea49 06be 668b 2bbd
00000040: 07a7 b1bd 8a02 b2bd 20f4 b03d 3563 b8ba
00000050: e6d9 03bd 618d cebc ffae 32bd b80a 953d
00000060: 541a eabc 2cad 6ebc a4c2 53bd 1b5e d9bd
00000070: 52a6 5b3c 97ec 2e3e 610e f43d 1d78 a63b
00000080: 016a 07bd f490 04be 8994 463d 838d 28bd
00000090: d861 ac3d 6d4c 94bd 1800 dbbd d081 78bd
000000a0: 51b1 c93d 44b7 b33d 7d5d d33d 8a6f d1bd
000000b0: 73bf 153e d974 1c3e 49a4 aabd e278 e7bc
000000c0: 3793 ce3d 479b 113d 8ecf 7d3c 9530 babd
000000d0: 2a89 b63d 2bb3 593d c1aa b8bd 8c5e 473d
000000e0: c496 6d3d 1f6a 9abd 39be d93d fc5a ed3d
000000f0: fa07 27bd 568e 55bd 2e6a 693d a50a 91bd
00000100: d8b6 25bc 4b3b 11bd 6091 58bd 0b19 7e3a
00000110: 0611 37be 0c6e e1bd 6d45 293d fbb5 64bc
00000120: 8cd6 c7bd d65a fdbd f40c a9bd 7659 04bc
00000130: 0322 ecbd 3e2e f8bd fa56 bbbd 1ea1 923d
00000140: 8511 ed3a ebd0 88bd be9c 8abc b62d d43c
00000150: 8aec 4a3d 75fa 81be 8e3e 0d3d db2c 2fbe
00000160: b9bd f83c d529 26be a259 37be 15d3 973b
00000170: 3d80 13be 6cb3 a2bd 81e3 febd f89c 92bc
00000180: a878 c4bd 95fd 4dbe 0edc 5ebd db19 bdbd
00000190: 01e5 08be 28dc ffbd 966c f7bd 51be e2bd
000001a0: 3685 16be 646a 03be add7 073e 3c20 adbd
000001b0: c690 02be f86e 4cbe 0e1d 3dbd 6fc4 38bd
000001c0: 9ad9 38be 2356 a6bb c86b 40be 66df 413e
000001d0: 7679 7abe b794 ebbc 55ca c1bc b5ab aebb
000001e0: 41e1 c8bc 3f1e 6c3d 01ab 363d 610e e9bc
000001f0: 65f5 533b 4535 a9bc d0cc 93bd 0fac b73c
00000200: da60 9a3b 076d d7bd 0452 ee3d 8668 4abd
00000210: 2280 0e3e 14bc 15be 1bb0 96bd 2c57 873d
00000220: c876 193e b7b9 0fbb 9a13 b8bd a213 bebc
00000230: cd66 20bd 6182 803c 1c7a 77bc 8fea 9bbd
00000240: 384c 153d d16a 943d e9a8 2f3c 7996 4dbd
00000250: b9ae 9c3d 4ad8 3d3d ef15 e33d c039 8abd
00000260: eea9 5f3a af81 963d 799b f23d d635 fc3c
00000270: 150a e2bc de85 1c3b a6d6 80bc 3dd2 b0ba
00000280: 3f78 e3bc af7c 9bbd 2810 9d3c 20cb e7bd
00000290: 6484 9abc 6158 87bd 35e9 5a3d 279b 143d
000002a0: 2e84 253d e016 55bd 1534 2cbd 9fd7 bb3d
000002b0: 2028 823d 2f46 c6bd 6745 fc3d f187 a6bb
000002c0: 4af0 ec3d 0207 0f3d 7b57 bdbd 04e1 cf3d
-0.0070898663 0.098148435 -0.045541327 0.08172329 -0.09166327 -0.028483253 0.08501284 -0.00648803
0.011693461 -0.2774032 -0.20162524 -0.10414973 0.0073992643 -0.053807463 -0.13114133 -0.041880988
-0.08674436 -0.086918905 0.08640313 -0.0014067652 -0.032190226 -0.0252139 -0.04362392 0.07277435
-0.028577007 -0.014567655 -0.051699296 -0.10613652 0.013406353 0.1708244 0.11916805 0.0050802366
-0.033060078 -0.1294592 0.048481498 -0.04115058 0.084171 -0.072411396 -0.10693377 -0.060670674
0.098482735 0.087751895 0.10320566 -0.102263525 0.14623813 0.15278949 -0.08332116 -0.028255884
0.10086673 0.035548475 0.015491379 -0.090912975 0.08912881 0.053149384 -0.09016944 0.04867415
0.05800511 -0.07539772 0.10631985 0.115896195 -0.04077909 -0.052137695 0.056986026 -0.070821084
-0.010114394 -0.035456937 -0.052873015 0.0009693063 -0.17877588 -0.11007318 0.041325975 -0.013959403
-0.097577184 -0.12370841 -0.08254424 -0.00807797 -0.11529925 -0.12118195 -0.09147449 0.07159637
0.0018086886 -0.06680473 -0.016920444 0.025900703 0.049541987 -0.25386396 0.034483485 -0.17106955
0.030363904 -0.16226895 -0.17905286 0.0046333172 -0.14404388 -0.07944378 -0.12445737 -0.017897114
-0.09593326 -0.20116265 -0.05440908 -0.09233447 -0.13368608 -0.12493163 -0.12081258 -0.11071456
-0.14699253 -0.12833554 0.13265868 -0.08453414 -0.12750539 -0.19964206 -0.046170287 -0.04510921
-0.18051758 -0.0050761863 -0.18791115 0.18932876 -0.24460396 -0.028757436 -0.02365605 -0.0053305277
-0.024521472 0.057646032 0.044596676 -0.02844924 0.0032342311 -0.020655284 -0.07216799 0.022420911
0.0047112526 -0.10518842 0.11636737 -0.049416088 0.13916066 -0.14622527 -0.07357808 0.066084236
0.14986718 -0.0021930763 -0.08988114 -0.023202721 -0.03916054 0.01568717 -0.015104797 -0.07613098
0.03644964 0.07246936 0.010721424 -0.05019233 0.07650513 0.046348847 0.11088168 -0.06749296
0.00085320964 0.07348954 0.1184606 0.03078739 -0.027592698 0.0023883502 -0.015727352 -0.001349039
-0.027767299 -0.07592141 0.019172743 -0.1131804 -0.018861957 -0.06608654 0.05344506 0.036280777
0.04040926 -0.05202377 -0.042041857 0.09171986 0.063553095 -0.09681355 0.12317925 -0.0050821234
0.11569269 0.034918793 -0.09245201 0.1015034

gru.bias_hh_l0 f4 [180]
00000000: b9ab c03d 3c46 9dbd 4ad2 d7bd 09ec a03d
00000010: 74e3 f73c 2aef 80bd 15c1 0bbd 6ac5 743d
00000020: abdd dabc a78c 89be f0c6 8fbe 5fb2 f33d
00000030: 12c7 8abd 2281 31be 4934 c3bc 0f10 343d
00000040: 2943 403d 8b7c 98bd 1d4a 193d 037f b0bd
00000050: 36a5 803d b3bd 01be 01fa bcbd 6551 a6bc
00000060: 4319 10be 552b 4fbd 3c0e 21be f269 efbc
00000070: 7bc4 9ebd 97cf b03d ee7b febb a3c2 d73d
00000080: cbd8 b23d 6cf3 ddbd e9d9 33bd d20c 4fbd
00000090: c115 c9bc ea13 0c3d f526 a9bc 7766 c33d
000000a0: 33d1 013d 3548 0e3d 111e 94bd 9bd2 06be
000000b0: 4efc d13c df17 213e 04f6 99ba c4bd 23bd
000000c0: 02d0 d5bd 3b05 9f3d d471 3bbd ec50 fabd
000000d0: 6e1f 86bd dfe0 5bbd 83cc 0fbb 6c27 7c3d
000000e0: 5a8b 91bd 3df6 23bc 608a 94bd f6d5 023d
000000f0: 7491 923c 262f 74bd 0853 173d a66a fdbd
00000100: 767f 58bd 44e4 10be 87ff 0abd 985f a9bd
00000110: c537 2f3c d52f 93bd abd7 ccbc 8ddb b23d
00000120: b39c adbd 1446 01be 4144 1e3d 5672 b8bb
00000130: fc6f 58be f929 0bbe 82c7 57bd 27fe e0bd
00000140: bedc 6c3d 8986 82bd 1415 7a3d 03c7 7e3c
00000150: 413f b5bc 3ecf 54be 57b9 22bc b9fa 5fbd
00000160: 74d3 293d 03a4 e1bd bd70 e63c b034 d9bd
00000170: 1a1b 06be c8ec 743c dbab 98bd dda6 67bd
00000180: 3aba 6dbc ead2 3fbd 203b 37bd 7b81 4abd
00000190: 195d 46bd 9780 b6bd 880b 2d3d 85a5 883c
000001a0: ecd6 c0bd e2d3 47be adaa 6e3d 8b6c 94bc
000001b0: 1080 60be 93b2 34be 3959 fcbd 3f3c d0ba
000001c0: 55da 0fbe 1aa4 2cbd 266b 85bd c927 db3c
000001d0: 23f2 7ebe e506 20be 0899 18be dd2b 413c
000001e0: c814 39bd e3de cc3c a43e eabc 7284 8bbd
000001f0: 2883 3fbe 29e3 9cbd 5066 4cbd 2d98 01be
00000200: 7382 a33d b246 80bd 5b41 53bd 3dc7 693d
00000210: d391 91bd e16c 343d 6270 f13d 7d28 623c
00000220: bf6f bfbb eeca 81bc 83e4 05be baae ca3d
00000230: 15e8 98bd fb05 10bd ae88 ffbd 0009 b53d
00000240: 6e86 033d 0a6a 3bbd 6073 d4bc 7554 d2bd
00000250: ace2 423d f74b c43d 0a83 e43d 1308 0dbd
00000260: 0921 7a3d a616 8bbd 8a0f 233d 73cd 183d
00000270: eddc 733c 77a3 9b3d d77c 36bc 5965 4b3c
00000280: 3007 d73d d0a5 21be 871a f5bd 1ab5 39bd
00000290: f54b 3b3d fe57 a8bc f787 4dbd 7a1d e03b
000002a0: 31a4 f03d e74a 073e 9951 c6bd c7e8 923c
000002b0: efa4 fcbd 6f19 87bd 68a5 94bd 0cfe 06bd
000002c0: 888d fe3b ff48 9fbc 21a8 b4bd c4dd 203d
0.094077535 -0.07679412 -0.10538156 0.0785752 0.030259825 -0.06295617 -0.034119684 0.05975858
-0.026717028 -0.26865122 -0.28081465 0.11899256 -0.06776251 -0.17334417 -0.023828642 0.043960627
0.04693905 -0.0744563 0.037424196 -0.086179756 0.062815115 -0.12670021 -0.09227372 -0.020302484
-0.14072137 -0.050578434 -0.15728086 -0.029225323 -0.077523194 0.086333446 -0.0077662384 0.10535171
0.08732756 -0.10837445 -0.043908987 -0.050549336 -0.024546506 0.03419868 -0.020648459 0.09541028
0.03169365 0.03473683 -0.07232297 -0.13166277 0.025633004 0.15731762 -0.0011746292 -0.039975896
-0.10440065 0.077646695 -0.04576285 -0.12222466 -0.065489635 -0.05368125 -0.0021941967 0.061561033
-0.07106657 -0.010007438 -0.072529554 0.03194233 0.017891623 -0.059615277 0.03694442 -0.12373857
-0.05285593 -0.14149576 -0.033935096 -0.08270186 0.010694449 -0.071868576 -0.025005182 0.08733282
-0.08477154 -0.12624389 0.03863931 -0.0056288643 -0.21136469 -0.1359023 -0.0526805 -0.10985976
0.057827704 -0.06373317 0.061055258 0.015550378 -0.022124888 -0.20782182 -0.009931884 -0.054682467
0.041461423 -0.11017611 0.02812993 -0.106057525 -0.13096276 0.014949031 -0.07454654 -0.056555618
-0.014509732 -0.046832003 -0.04473412 -0.04943989 -0.04842863 -0.08911245 0.042247325 0.016680488
-0.09415993 -0.1951442 0.058268238 -0.018118164 -0.21923852 -0.17646246 -0.12321705 -0.0015887095
-0.14048131 -0.042148687 -0.065145776 0.02675237 -0.24897055 -0.1562763 -0.14902127 0.011790243
-0.045185834 0.025008624 -0.028594323 -0.06812371 -0.18702376 -0.07660515 -0.04990226 -0.12655707
0.079838656 -0.06263484 -0.051576 0.057074774 -0.07107892 0.044049148 0.117890134 0.0138035985
-0.0058421786 -0.015843835 -0.13075452 0.09896608 -0.07466141 -0.035161953 -0.124772415 0.08839607
0.032110624 -0.045755424 -0.025933921 -0.10270015 0.047579452 0.09584802 0.11157806 -0.03443153
0.06106666 -0.06791429 0.03980974 0.037305307 0.014884216 0.07599538 -0.011138163 0.0124143
0.10499418 -0.15785909 -0.1196795 -0.045338728 0.045726735 -0.02054977 -0.050178494 0.0068394514
0.11750067 0.13212167 -0.09683532 0.017933263 -0.12336146 -0.06596648 -0.07258111 -0.03295712
0.0077683367 -0.019443987 -0.088211305 0.039273992
