hosp_models/deploy_week_10/fnp_enc.pt (torch, 762335 bytes, 64 tensors)

cond_trans.0.weight f4 [100, 60]
00000000: 3fab aebc 649e c0bd 1da2 96bb 77d9 a7bd
00000010: e57a 3ebe 6955 b7bd 37b9 a3bd dd29 f7bd
00000020: e582 cbbd 9cd2 10be 093d f03d 9eaf 8f3d
00000030: 9581 ecbd 46e0 2f3e b01b 1abd 48c4 e73d
00000040: 5a81 aabd cc37 683d 3dde 0abd a94e dabd
00000050: ed47 953c a8f4 b6bd 020e f93c 56bb 68bd
00000060: 4d62 86bd 1561 953d 1313 973c 16c1 173d
00000070: f826 9e3d 9c82 4a3e f4ce 113d 9be6 0d3e
00000080: b2e4 113e ea9d f9bd f382 f1bd 843b 66bd
00000090: d69d a8bc fdcb 2bbc 499d ec3d 1f6f ecbc
000000a0: 48d5 c0bd cec7 eabc c5b2 2bbc b9b1 a2bc
000000b0: 3c2a bcbd c57a 23be aa2b 253e 2a44 a0bd
000000c0: e727 f43d 651f 0a3c 0142 9c3d b3ac 8ebd
000000d0: ca28 a2bd 7372 843d 6339 cfbc 4583 aabb
000000e0: b05a 463c d20f d63c ee9f 74bc 521f f33d
000000f0: fac6 9cbd c87c 02be 0d05 613e 70d2 30bd
00000100: 1fde adbd 34f5 c7bd ca17 d4bd 7198 803d
00000110: 4660 b13d 6c89 cfbd bb84 02bc e73f 67be
00000120: 86e6 1cbe 0a89 bc3c 51ae 7a3c de8d 863d
00000130: ed2f a0bd 932b efbb a24c d6bd 3d7f 883d
00000140: f460 0f3e 2d16 f43c cd60 c7bd 7683 983d
00000150: bc38 bebd 4565 a4bd 56de 893d 0fa1 083d
00000160: a4f6 a43d 41e0 06be b12f 9bbd 8901 353e
00000170: f0e8 983d 3438 4cbe 1711 e4bd 7207 8abd
00000180: 57d2 2c3b 3de7 ca3c fd97 3e3e eade 353d
00000190: 130c 9fbd 8cc3 233d b348 88bd 3043 a33d
000001a0: 5a8b b73d 0793 e13d e92b 8ebe 2e1a f53d
000001b0: 567a a9bd 2d84 403d 472d 1bbe 07cf d0bc
000001c0: ec43 16be 45b5 c7ba f4b4 13be 5673 cd3d
000001d0: 44a0 3d3e 9c90 64be 6194 a43d 7db8 6dbd
000001e0: e90f 04be 49d0 6c3e 2271 ab3d 43bd 79bd
000001f0: c66c 1b3d 534a 9b3d 4226 12bd 18e5 10bd
00000200: 4f80 663c a07b 7cbd 72d5 80bc 25dd 5cbd
00000210: a5dd 92bd 1a6e a0bd d419 5f3d 7d2c 6bbc
00000220: 7a71 cb3d 9ca2 50be dec0 b4bb 7217 043e
00000230: 3821 40bd e6ec 133e 184e 2dbd c594 b23c
00000240: ef41 f5bd 4ef8 05bd 22c1 bcbd cd07 b6bc
00000250: 4df2 2b3e ade3 553d 0cf2 49bd 694b 71ba
00000260: ce2d 983d 0756 ac3c 07f0 9dbd e030 64bd
00000270: 8344 58be 2212 fdbd c204 8a3c 7b75 133e
00000280: 8474 50be e374 d03d 4217 ac3d ba6c 87be
00000290: 37b4 60bd 6d50 d33d 4a21 833b 3f48 f53d
000002a0: 9c71 ae3d b71f 2a3e c69d e4bd c73d 1ebd
000002b0: 2cf8 2ebc 2e79 7ebc 35ec 72bd 5201 66bd
000002c0: 99a0 eebd 5ccc 5bbc 2207 913c 9a4f 18be
000002d0: 22fb 933d 89d5 9d3c e5db d5bd acfb 17be
000002e0: 8a7b 5dbe 00ad 683c ac70 f53d f633 863d
000002f0: d5d8 fabd d04b 83bd 4636 8dbd 1557 c43c
00000300: 52c7 e5bd bcfb 78bd c185 693d 49e6 3d3d
00000310: cb50 043e ac2e 783c deaa 363d ce8a 5dbe
00000320: 53f8 2bbd c140 c1bc 5a58 633d 0f86 d23c
00000330: 8fdc 19bd ce47 173e ba85 353d 812a a13c
00000340: 9edd f53d 19b6 fdbb 94e0 1d3d 003d 29bd
00000350: 6dad fe3d 0953 e7bb 9425 0c3e 0573 7ebd
00000360: f1bc 363e a486 d33c 8803 80be 60ee 493e
00000370: 3e15 4d3e 5291 6d3c 204e 87bc c836 24be
00000380: e7d5 d13d 3577 a3bd 8e15 f23c 31c4 3c3b
00000390: dc29 8bbd f97f 36be 35c5 253e 67c0 96be
000003a0: ff77 7bbb 7b1a b5bc be70 2a3e c08a ff3c
000003b0: 65bc 823e 5c79 0dbd b37e e13d e1f7 30be
000003c0: 0057 263d 9cbf 2f3e f95b ba3d 8b3b 0ebe
000003d0: 0b46 ccbd b935 973c 8f8b d1bd 4ee7 85bc
000003e0: 2620 e43d 3900 693d 7483 92bc 6461 433d
000003f0: fa68 9cbc 67bd ca3b 2ca7 fc3d 0d01 30bc
-0.02132189 -0.094052106 -0.004596962 -0.08195775 -0.18601568 -0.089518376 -0.07994311 -0.12068532
-0.099370755 -0.14142841 0.117303915 0.07015918 -0.11548153 0.17175397 -0.03762406 0.113167346
-0.08325453 0.056693837 -0.03390335 -0.106595345 0.018222773 -0.08933383 0.030402187 -0.056819282
-0.06561718 0.072939076 0.018441712 0.037049375 0.077222764 0.19776386 0.035597757 0.138575
0.14247397 -0.12188323 -0.11792555 -0.056209102 -0.020583075 -0.010485646 0.11553437 -0.02886158
-0.0941568 -0.028659727 -0.010479634 -0.019860135 -0.09187743 -0.15964802 0.16129938 -0.07825501
0.11921673 0.008430337 0.07629777 -0.069665335 -0.07917936 0.06467142 -0.025295919 -0.005203637
0.0121065825 0.02613059 -0.014930708 0.11871208 -0.07655139 -0.12742913 0.21974583 -0.04316944
-0.08489632 -0.09763566 -0.103561 0.06279076 0.08660941 -0.10133633 -0.007966216 -0.2258297
-0.15322313 0.023014564 0.015300349 0.06570028 -0.07821641 -0.0072988956 -0.10463835 0.06664894
0.14001828 0.02979573 -0.0973526 0.07446949 -0.09288165 -0.08027128 0.0673186 0.033356722
0.080548555 -0.13171484 -0.07577456 0.17676367 0.07466304 -0.19943315 -0.11136072 -0.06739701
0.002637049 0.024768466 0.18612666 0.04440204 -0.07765975 0.03998141 -0.06654491 0.079717994
0.08962126 0.11014371 -0.27767876 0.11967884 -0.08275287 0.047001053 -0.1515399 -0.025489343
-0.14674348 -0.0015236518 -0.14424497 0.10031764 0.18518168 -0.22320789 0.080361135 -0.05803727
-0.12896694 0.2312633 0.08371188 -0.06097151 0.03794553 0.075825356 -0.035681017 -0.03537473
0.014068677 -0.061641335 -0.015726779 -0.053921837 -0.071711816 -0.078335 0.05446799 -0.014353869
0.09933753 -0.2037453 -0.0055161556 0.12899569 -0.04690668 0.14445838 -0.042310804 0.021799454
-0.119754665 -0.032707505 -0.09216525 -0.022220517 0.16791649 0.05221908 -0.0493031 -0.00092046574
0.074306116 0.021037115 -0.07711797 -0.055710673 -0.21119885 -0.12356974 0.016847972 0.14400284
-0.20356947 0.10178544 0.084028736 -0.2645014 -0.054859366 0.103180744 0.004001771 0.119766705
0.08517763 0.16613661 -0.111629054 -0.038633134 -0.010679286 -0.015531821 -0.059307296 -0.056153603
-0.11651725 -0.013415422 0.017703597 -0.14874116 0.07225634 0.01926686 -0.10442332 -0.14842099
-0.21629158 0.014201403 0.11984381 0.065528795 -0.12248389 -0.064109445 -0.068951175 0.023967305
-0.11219658 -0.060786948 0.057012323 0.046362195 0.12921445 0.015147846 0.044596545 -0.21634981
-0.041984867 -0.023590447 0.05550418 0.02569869 -0.037563857 0.14773485 0.044316985 0.019673588
0.12005161 -0.007742655 0.038544253 -0.04131794 0.12435422 -0.007059459 0.1368621 -0.06212141
0.17845513 0.025821038 -0.25002694 0.19719839 0.20027635 0.014499979 -0.016516745 -0.16036522
0.10245877 -0.07981721 0.029551294 0.0028803463 -0.067950934 -0.17822255 0.1618851 -0.29443666
-0.0038371084 -0.022107353 0.1664457 0.03119409 0.2553436 -0.034539565 0.11010494 -0.17282058
0.040610313 0.17162937 0.09099574 -0.13889901 -0.09974297 0.018458234 -0.10231697 -0.016345646
0.11138944 0.056884978 -0.017884947 0.0477003 -0.019093025 0.0061871293 0.12336573 -0.010742438

cond_trans.0.bias f4 [100]
00000000: 702d e63d 61d9 38be eea1 75bd eb9a 7bbe
00000010: fae6 85bb 7cf5 133d 1340 23be ff7b 413e
00000020: 2e15 80bd 14b9 903d 1f71 943d 40d3 01be
00000030: ed5d b1bd f243 abbd a3ae a5bd 6f3d ccbd
00000040: 6192 24be 2b6d f3bd d0c2 bebd cb0c ac3d
00000050: cd3f 09be 7456 023d 7ae3 94bd 0334 83bd
00000060: 7c8f 933d 0f5e cebd 5d29 5cbe da6d 11bd
00000070: 6c4d 533d a915 06be b98c 10be 2681 e13d
00000080: 59b2 e03d 7f25 c7bc 69ff 69be 19c3 083e
00000090: 0620 a93d 46c3 993d 56c4 1a3e d028 febd
000000a0: 50b1 fbbd 999e 00be bc6e 2fbe 5b7a 903d
000000b0: b082 0bbe 69fa 473d 4286 47be 8135 f6bd
000000c0: b9d0 d2bd f6ee 5cbe 59b4 ce3d 70a6 32be
000000d0: a716 15be 7aea 5cbc e172 d4bc b6af 213b
000000e0: a5c2 323b 48b8 dabc 5ba4 91bd 4c16 db3d
000000f0: 5140 31be 9974 76be d952 c03c 1b87 4dbc
00000100: bef0 5b3c dd68 5abc bbeb 1ebd 6694 bcbd
00000110: 60e6 ebbd fc79 d43d 44fa ecbd c021 c93b
00000120: 6ede aabc 19bd 07be 2f45 3ebe 7bf3 38be
00000130: 0c46 b33b 4653 bcbd b17b d63d cc2c 00be
00000140: 5193 10be 5839 70be e436 b63c 44dc dfbd
00000150: ba3e 9c3c ded9 83bd 6472 0bbe 3e09 8fbe
00000160: 320f 943c a884 8ebc e811 1cbe 8962 2bbe
00000170: 0714 3cbe 0de4 61bc 8597 febd 14df 2bbe
00000180: 7a9a 923d 4391 6c3d 0c76 4fbe 904e 36be
0.11239135 -0.18051673 -0.05996888 -0.24570815 -0.0040863724 0.036122784 -0.15942411 0.18894957
-0.0625404 0.07066551 0.07248139 -0.12678242 -0.08660493 -0.08362569 -0.0808995 -0.09972655
-0.16071464 -0.118860565 -0.09314501 0.084008776 -0.13403244 0.03182073 -0.0726995 -0.06406405
0.07205102 -0.10076534 -0.21500154 -0.035505153 0.051587507 -0.130942 -0.14116181 0.11010961
0.10971517 -0.024309872 -0.22851337 0.13355674 0.08258061 0.075079486 0.15113959 -0.12410128
-0.12289679 -0.125605 -0.17132086 0.070545875 -0.13624072 0.048822794 -0.19484809 -0.12021924
-0.10293717 -0.21575531 0.10092992 -0.17446303 -0.14559422 -0.013483638 -0.025933685 0.0024671382
0.0027276662 -0.0266992 -0.071114264 0.10697612 -0.17309691 -0.24067916 0.023477005 -0.012544419
0.013424097 -0.013330665 -0.03879903 -0.09207992 -0.1151855 0.10374829 -0.11571172 0.0061380565
-0.020858016 -0.13255729 -0.18581079 -0.1806163 0.0054709967 -0.09195571 0.10472811 -0.12517089
-0.14118697 -0.23459375 0.02224297 -0.10930684 0.01907288 -0.06438039 -0.13617855 -0.2793674
0.018073652 -0.01739724 -0.15241206 -0.16736807 -0.18367015 -0.013787282 -0.12431244 -0.16784316
0.0715837 0.05775572 -0.20259875 -0.17803407

cond_trans.2.weight f4 [100, 100]
00000000: 24b5 a23d 8a9e a9bd 756f 8d3c f65d 11be
00000010: 9032 cd3d 434d 12bd 4ca9 4dbd c4b5 5e3d
00000020: 2c1c c0bd 33f9 babc 3506 213d 5ff5 e43d
00000030: 00c8 3abe 2f77 19be 6d01 e23d 59f0 91bd
00000040: da25 513e f51e 123e 6ed7 c23d 7a92 c0bc
00000050: 5071 8abd 6c6a 163e 7e59 6abd 59d9 eebd
00000060: 54ae 1a3d 104b 8abd e945 9a3d c18f 1bbd
00000070: 78e8 3e3d dc0a 843e cf2a 843d 77e5 70bd
00000080: 6292 59bd 4639 993d a477 b13d a063 8fbd
00000090: fad4 173e ecd2 8a3d 7203 a33d 3c1b 3fbd
000000a0: 76b6 c03d a06a 9cbd 9e9c 22be 042e 9c3d
000000b0: 6d59 8abd 2dc9 26be e8e1 c3bd 9e06 d13d
000000c0: bd6b 153e 9808 5d3e b1be f03a e749 0a3d
000000d0: 65ad 6e3d c7a6 75bc 8255 103e 66fe 40bd
000000e0: 0653 693b 7555 d63d 2c95 f1bd 6c6a 903d
000000f0: bee8 203e a815 9c3d 5e06 f2bb a23d d4bc
00000100: 2c10 de3c 3afc 51bd 4bd1 46bc d920 bfbc
00000110: dead 9cbe 864e bb3d 28e8 94bd fab3 97bd
00000120: d55e 22bc 7cac 3a3b e2b1 acbd 308c 503c
00000130: a498 843c 6994 473c 2106 80bc 602c 293a
00000140: b410 1cbd eae7 18bb eba2 b6bc 1da7 aabd
00000150: 5f1a 3ebd 14f2 cf3d fe8e 4d3d 8cc0 31be
00000160: 261e dfbd f0ce 54bd 4a58 b6bd 2485 d53d
00000170: c9a0 073e 89b7 07bd 8c21 b2bd 0a83 5a3e
00000180: 69ac b93d fa99 b93d b046 b2bd 8299 1cbd
00000190: a09f a03d 79a3 f73b f561 1bbc 1e0e 03bd
000001a0: 7d09 52bd af06 c83d a292 80bd 4fcd 90bc
000001b0: c67a 2fbe 2d86 8d3d e402 44bd df8d 213e
000001c0: 74fe 91be dc1c 4a3d c415 bdbd e8f4 e53c
000001d0: 9329 a13d a99e 0b3e 5f86 383d 08d8 4bbe
000001e0: 1b26 71be 1894 823d e098 10be 92df 5e3e
000001f0: 9676 8cbd d0d5 773d 8a56 50be 00e5 d7ba
00000200: 18fd 7bbe f25a bd3e 5c99 7bbe b061 b6bd
00000210: 5251 1cbe db63 773d ee92 c8bc 493d 9abe
00000220: fef3 20be a042 d93c efc7 d7bd e6c1 093e
00000230: f4ba 89be 01a5 21be 8df3 43be 6dfa a53d
00000240: 878e 2fbd d105 2e3d 7daa 84be c62e 9abd
00000250: 9732 4c3e 7b25 41be 0384 1bbe 19ca 3bbc
00000260: a70b 1e3d 5f8a 2bbe 9d63 b2be d295 68be
00000270: 7aa5 6b3d 5850 223d 6d9f f43d 78fe bcbc
00000280: e059 38be 114d 8bbd 5b5b 213e 9a0d 09be
00000290: a1ff 86bd ebde 99bc 4115 b6be 1169 163e
000002a0: 5e45 923c e8b0 cf3d af4c 63be 31b6 bebd
000002b0: 8b6d e5bd dd41 043e 8151 873d 6e7b 58be
000002c0: e56a 87bd 42ff 63bd c23d 85bd 9611 503e
000002d0: 959a 07be ef22 94be 8d2d cc3c ef01 f3bd
000002e0: 887c 4abe 27ae c1bd 5136 79bd a08f aa3d
000002f0: 4863 073e c412 143e bb2c 2f3e 56f8 56be
00000300: 431b c6be 8083 19bc 359c c83d d70c eb3c
00000310: fc1e 0e3d 3bd6 34be d2aa 063d d243 1bbe
00000320: 0bfe 673d 3265 0f3d 6758 ce3c 1a57 f13b
00000330: 4e5b bc3c 820c 283b cc6b 9d3d 78fe 2bbd
00000340: 44de bcbc 0902 cebd 99c6 15be 61c4 74bd
00000350: cabf 3c3d 29b1 82bc 816e 9cbc 1995 883d
00000360: 80c9 b63d 8876 d8bd 08c4 06bd 1828 f23c
00000370: 6b9f a63b 3226 f2bd c837 133c 5f60 303c
00000380: 99e5 8abd 3920 eabd 6f86 ec3c d819 debd
00000390: 9855 b03c c201 a33d c174 ec3c 40d8 323c
000003a0: d58d 8cbd ffed d53b 31a7 99bd b980 b1bd
000003b0: 8d87 7dbd 6d18 e2bd 1ed9 7a3c 27b7 423d
000003c0: cd63 3d3c 9f9f a2bd c007 6c3c 6cb4 823d
000003d0: 60ab d83c 5c55 9fbc 765b 12bb 67b7 e8bd
000003e0: 404e bc3c c759 0d3d 1d77 a43b ea5e 023d
000003f0: 802c 6bbc bbbe 9ebc 3287 7abd be62 dbbc
0.07944706 -0.08282192 0.01726506 -0.14196 0.1001941 -0.035718214 -0.050210282 0.054372564
-0.09380373 -0.022823906 0.03931256 0.11179613 -0.18240356 -0.14986871 0.11035428 -0.07125921
0.20424595 0.14269622 0.09513746 -0.023507345 -0.06759894 0.14689034 -0.057214253 -0.116625495
0.03776391 -0.06752598 0.075328656 -0.03797889 0.04660842 0.25789535 0.064534776 -0.058812585
-0.053118117 0.07481627 0.08665398 -0.07001424 0.14827338 0.067785114 0.079596415 -0.046656832
0.09409802 -0.076375246 -0.15880057 0.07625964 -0.06755338 -0.1628768 -0.095645726 0.1020634
0.1459188 0.2158531 0.0018367377 0.033761885 0.05827083 -0.014993376 0.14095119 -0.047117613
0.0035602464 0.104655184 -0.117960304 0.07051548 0.15713784 0.07621318 -0.007386013 -0.025908295
0.02710732 -0.051265933 -0.01213486 -0.023331093 -0.306014 0.091458365 -0.07270843 -0.07407375
-0.009910305 0.0028484156 -0.08432366 0.012728736 0.016186066 0.01218138 -0.015627922 0.0006453451
-0.038101867 -0.002333159 -0.022294482 -0.083326556 -0.04641187 0.101535946 0.050185196 -0.17358607
-0.10894422 -0.051955163 -0.089035586 0.10425785 0.13244928 -0.033134017 -0.08697805 0.2133905
0.09066088 0.09062572 -0.08704889 -0.038232334 0.07842946 0.0075573293 -0.009483804 -0.031995885
-0.05127858 0.097669 -0.06277968 -0.017676024 -0.17136678 0.069103576 -0.04785432 0.15776776
-0.28514445 0.04934393 -0.09232667 0.028070882 0.07869258 0.13634743 0.04505002 -0.19906628
-0.23549692 0.06375903 -0.14120817 0.21764973 -0.06858556 0.060506642 -0.20345512 -0.0016471446
-0.24608266 0.36983448 -0.2457022 -0.08905351 -0.15265396 0.060397964 -0.024484124 -0.30124882
-0.15718076 0.026521027 -0.10536181 0.13452873 -0.26900446 -0.157856 -0.19135876 0.081044056
-0.042860534 0.042486016 -0.25911322 -0.075284526 0.19941173 -0.18861954 -0.15187077 -0.011461758
0.03858533 -0.16752003 -0.34841624 -0.22713402 0.057530858 0.039627403 0.119444706 -0.023070559
-0.18003035 -0.068018086 0.15757506 -0.13384095 -0.06591726 -0.018783053 -0.3556309 0.14688517
0.017855342 0.10141164 -0.22197221 -0.09312094 -0.11202534 0.1291575 0.066073425 -0.21140835
-0.066121854 -0.055663355 -0.0650592 0.20319209 -0.13242562 -0.28932902 0.024924064 -0.11865603
-0.19774067 -0.09457045 -0.060842816 0.083281755 0.13221467 0.14460284 0.17106907 -0.2099317
-0.38692674 -0.009369731 0.09795419 0.028692646 0.034697518 -0.17659847 0.03287775 -0.1516259
0.05663876 0.035008617 0.025188638 0.0073651196 0.022992756 0.002564222 0.07686576 -0.041990727
-0.023055203 -0.10058982 -0.1462654 -0.059757594 0.04608134 -0.015953617 -0.019095661 0.06669063
0.08925152 -0.10569483 -0.032901794 0.029560134 0.005084922 -0.118236914 0.008985467 0.010765164
-0.067820735 -0.11431927 0.028872697 -0.10844773 0.02152519 0.0795932 0.028864266 0.010915816
-0.0686299 0.0065286155 -0.07502592 -0.0866713 -0.06189685 -0.11039815 0.015310554 0.04753795
0.011559439 -0.079406016 0.014406145 0.06382069 0.026448905 -0.019449882 -0.0022332347 -0.11363106
0.022986531 0.034509446 0.005019082 0.0318288 -0.014353871 -0.019378057 -0.06116409 -0.026780482

cond_trans.2.bias f4 [100]
00000000: 77e5 2c3d 15a2 fcbb 2212 04be d802 b8bd
00000010: 325b d63c 8a71 88bc 0f65 46bd ad6f 343d
00000020: 5b4b 83bd 387f 5d3d af6c c5bd 72ce c23d
00000030: e5c0 00be f1a1 5e3d 2f01 b33d a820 28bd
00000040: c9d5 fcbd 9583 36bc 51bb c33c 7fe1 e33c
00000050: d962 aebd 68ec c4bd 073b 68bd 4a7e 80bd
00000060: 2d90 afbb e9f0 c33d daf0 87bd 9ce3 883d
00000070: 854a b63c e455 49bd d926 02bd eed5 073e
00000080: e704 19bd 984d f2bb 46d2 2a3c 2baf ebbc
00000090: 7905 bbbc 3588 85bd 0022 4b3d 20f0 243d
000000a0: 099a 07be cc47 dfbd 6561 2bbe c112 76bd
000000b0: e7bb 6e3b 89f5 063e bec3 e5bd 410c e93c
000000c0: fca5 bcbb c8ee 0c3d 0ce9 abbd 6093 d83d
000000d0: fd38 f33c 0a7f cfbd 79a3 dbbd 9008 e93c
000000e0: 646d 7f3d a721 d7bd 3dc4 fabd 72f2 e13c
000000f0: 6319 e43d b3b5 1abd 3211 b83d 28dd 803c
00000100: a47d ecbd 4087 fabd ad0b e0bd cd29 19be
00000110: a35a d5bc 7769 e2bd 311a d13c e114 e2bd
00000120: 0c76 53bb 3aec 22bd 5204 66bd 0981 59bd
00000130: eeb7 9bbd 2e24 aebd 69b8 0c3e 6174 c03d
00000140: 7dbd e9bd e4e5 0bbd 25a7 153e aabe a13d
00000150: 4a72 453d d7f3 d23d e716 ae3d 9aab a4bd
00000160: d971 9cbd 0a45 c2bd a9b5 58bb 782f 8a3c
00000170: 377d 93bd 4982 26bd af8d e5bd 808c 5e3d
00000180: 3ef7 06bd 88fe adbd 2340 383d e3b5 db3d
0.042211022 -0.0077097514 -0.12897542 -0.089849174 0.026166532 -0.016655702 -0.04843622 0.044051815
-0.06410857 0.054076403 -0.096398704 0.095120326 -0.12573583 0.054353658 0.0874046 -0.04104677
-0.12345464 -0.01113977 0.02389303 0.027817486 -0.085149474 -0.096154034 -0.056696918 -0.06274088
-0.0053577633 0.09567434 -0.06637736 0.06684038 0.02225233 -0.049154177 -0.03177533 0.13265201
-0.03735819 -0.007394504 0.01042611 -0.02877005 -0.022829758 -0.0652012 0.04959297 0.040268064
-0.13242353 -0.10902366 -0.16736372 -0.06007648 0.0036427916 0.13179602 -0.112189755 0.028448226
-0.0057570916 0.034407407 -0.083940595 0.105749846 0.02969026 -0.10131653 -0.10724539 0.028446466
0.062360182 -0.105044656 -0.12244461 0.027581427 0.11137655 -0.037770938 0.08987655 0.015730456
-0.115474015 -0.12232828 -0.10939727 -0.14957352 -0.026044196 -0.11055272 0.025525184 -0.110391386
-0.0032266406 -0.039776064 -0.056156464 -0.053101573 -0.07603441 -0.085029945 0.13742222 0.093971975
-0.11413095 -0.034154788 0.14614542 0.078976944 0.048204698 0.10300415 0.08500462 -0.08040543
-0.07638902 -0.094858244 -0.0033067262 0.016868338 -0.07201617 -0.040651593 -0.112086646 0.05433321
-0.032950632 -0.084958136 0.04498304 0.107280515

cond_trans.4.weight f4 [100, 100]
00000000: b27f e23d 679d 66be dde7 c4bc 24f1 3bbd
00000010: c69a 11bc 59c2 ae3b e8d9 303e 9e9b 9cbd
00000020: 9609 433d 91c7 54bd a745 333e 4b18 c9bd
00000030: cc7f b9bc 9751 153e a0d8 0f3e 3903 12bd
00000040: 874f 3a3d 7c6f 28be 254b 15bd fd27 46be
00000050: 9de7 7ebe 0fa2 a83d 0c72 90bd f8c7 b7bc
00000060: 4eff eb3c e9da f53d ba07 e53c d6a8 833d
00000070: 5003 bd3d cfb2 90bc 5cbf 033d b54f f53d
00000080: 9e67 56be 8626 16bd 0d3a e23c eb46 2bbc
00000090: d622 c53c 1e8a d13c 48a7 3fbd 8c0f 873d
000000a0: bb85 003d b8b0 99ba 1c17 15be 59c2 81bd
000000b0: e9ec 183e 611a 833c 7d9f ecbd 9889 4b3e
000000c0: a70b ca39 2696 a2bd 6bf1 c5bc 1313 11bb
000000d0: e98e a1bd 38ae ae3c 9952 6a3c d34b 4fbe
000000e0: 84ca fe3a e7d2 70be 0af6 033d 156a 97bd
000000f0: da83 ed3c cef1 c0bd a576 1e3d aa4d e43d
00000100: a218 bbbd 0674 fabd 4a76 863d f3fa b43d
00000110: 2937 b43d b60e d5bc 3e88 403e 22be 6cbd
00000120: b3ee 1dbd 4931 883d 0c60 1cbc eac4 79bc
00000130: 6866 3bbe 5222 4a3d 1e58 283d e2f0 be3b
00000140: 1a97 33bd c43e 4d3a 8766 453c 32b7 863e
00000150: 9c70 04bd fdde 153d 5954 8d3d e612 d73d
00000160: 9bf4 56bc 02ca 973d d29f 293e 6a4d a2bd
00000170: 3940 683e 07c7 343e f070 e2bd ee40 3a3d
00000180: f305 26be cf50 eabc b157 e73c 5d35 c13d
00000190: cc92 f4bc 7c15 d33d 900d 9fbd f441 37bd
000001a0: dfe9 73bd 91b3 f3bc 681b 2ebe 92d7 3e3d
000001b0: 6734 d9bc 6288 8bbc 238f 34be 11aa ed3c
000001c0: 508a ce3d 04d5 7cbd 9c77 87bc 1c60 84bd
000001d0: c3a6 a6bd a7bc 153e c731 163d f448 7c3e
000001e0: ed94 2f3e c5d2 9c3d 7ac3 9c3c 4592 9dbc
000001f0: b9e0 88bd 8199 51bb 03d9 d4bc 9220 d93d
00000200: abf2 963d 4240 b93c 5178 9d3d 8489 9c3c
00000210: f194 803d 016e 223e d182 8d3b 3a3f 193e
00000220: 6d14 8abc d24a c23d 31a3 703d 2075 173d
00000230: 5e0b b03c 34de 89bc 2ec9 df3d 9900 f9bb
00000240: 9a3d 15bd 3e63 6ebd 73c1 af3d 351a 95be
00000250: 2e77 c6bc 0561 a83d ed32 873d 06ca 873d
00000260: 0b3f 7f3c 5f07 fe3c 9600 afbc 6850 f13d
00000270: 0db8 68bc 6863 a1bc 336b 013d 6d01 203e
00000280: bc40 143e 53aa 963d 8c86 133e 36b0 9c3d
00000290: 0897 713d d15d 5e3d 4e24 8abd 6939 f2bd
000002a0: 6aa2 e8bc f17b 803d cf93 48be 9ce0 a9bd
000002b0: fdc0 2c3e 28fb 4cbe 6376 b73d 9ce4 4fbd
000002c0: db4f 233e 5f1b 433d cef1 99bd 58ee 243e
000002d0: ae16 6c3d e109 40bd 813c 823d 220b 69be
000002e0: 5ab3 173e b430 4b3d 547b 433d cfd2 a9bc
000002f0: 5b8b a03d 977a fb3c 2479 dabd 8b1d 53be
00000300: d7ef 54be 9d19 4abe b33c adbc 12cc 9c3d
00000310: 8776 903d 3903 43bd c085 48bd 9a01 3bbc
00000320: 3042 ff3d 225f 6cbe 6ff0 643d c274 e73d
00000330: 16db a23d eaaf be3d 4b28 ce3d 8359 4c3d
00000340: 4aba 88bd b0e4 6e3d f890 683e 8836 debd
00000350: 93dc 9bbc 4628 ab3d 0ba9 163e 4a83 3f3d
00000360: 2773 d1bc cd19 71be 5d91 e2bb 13dd 9bbe
00000370: 8d1e 443b 0c5c 533e 952e a4bd 978f 1dbd
00000380: ec6e 1bbd 68ea b13c cfb8 59bd f453 d73a
00000390: 6ee3 003e 1f37 a83d c1af abbd b4fd f73d
000003a0: 1cb3 74be 903e 31bd 65b2 743d c178 2d3b
000003b0: 39b2 bcbb fd11 033d 8dc3 c6bc 34a3 013e
000003c0: 9a62 1e3d 8fe3 a83c d80f 4fbe e543 d2bc
000003d0: 3592 3e3e 0b47 db3d 7d55 d1bd 87d2 8d3e
000003e0: f84b 0e3e c12a f83c b5e1 0c3d 0ee4 053e
000003f0: b155 01bd 68ce 0abe b9c1 da3d f4e6 1c3d
0.11059512 -0.22520982 -0.024036342 -0.045884266 -0.0088869985 0.0053332266 0.17270625 -0.07646869
0.047616564 -0.051948134 0.17507039 -0.09819087 -0.022643946 0.14581905 0.1404748 -0.035647605
0.045486 -0.16448778 -0.036448617 -0.19351192 -0.24893041 0.08234035 -0.07053003 -0.02243422
0.028808262 0.120046444 0.027957786 0.06428687 0.092291474 -0.017663388 0.032164916 0.119780935
-0.20937964 -0.036657833 0.027615571 -0.01045392 0.024064463 0.025578555 -0.04679039 0.06594762
0.031377535 -0.001172564 -0.14559597 -0.06335897 0.14934124 0.01600379 -0.115538575 0.19876707
0.00038537124 -0.07938795 -0.024162969 -0.0022136613 -0.07888586 0.021323308 0.014301919 -0.20243768
0.0019439016 -0.23517953 0.032217063 -0.073932804 0.028993536 -0.094211206 0.038687367 0.11147626
-0.09135558 -0.12229161 0.065655306 0.08836927 0.087995835 -0.026007991 0.18801972 -0.057798512
-0.03855772 0.066500254 -0.009544384 -0.015244702 -0.18300784 0.049349137 0.04109966 0.0058270553
-0.043845274 0.0007829482 0.01204837 0.26311642 -0.032333955 0.03658961 0.06900854 0.105016515
-0.013119842 0.07411577 0.16564873 -0.07924922 0.22680749 0.17654048 -0.11056697 0.045472078
-0.16213207 -0.028602986 0.028240057 0.09434006 -0.029855154 0.10306832 -0.07766259 -0.044740632
-0.05954921 -0.02974871 -0.17002642 0.046592303 -0.026514245 -0.017032806 -0.17632727 0.029011758
0.10084975 -0.061726585 -0.016536526 -0.06463644 -0.08137276 0.14622746 0.036668565 0.24637204
0.17146654 0.076573886 0.01913618 -0.019234786 -0.066834874 -0.0031982365 -0.025982386 0.106019154
0.07370504 0.022613648 0.07688964 0.019108541 0.06278408 0.15862276 0.004318573 0.14965525
-0.016855443 0.09486927 0.05874938 0.036976933 0.021489795 -0.016829588 0.10927044 -0.007598948
-0.0364357 -0.058200113 0.085818194 -0.29121557 -0.024226751 0.0822163 0.0660151 0.0663033
0.015578995 0.031009374 -0.021362584 0.117829144 -0.014204037 -0.01970072 0.031596374 0.15625544
0.14477819 0.073567055 0.14406794 0.07650797 0.058981925 0.05428869 -0.06745206 -0.11827356
-0.028397758 0.0627364 -0.19587635 -0.08294794 0.16870494 -0.20017684 0.08958127 -0.05075513
0.15948431 0.047633525 -0.07516824 0.16106546 0.057638817 -0.04688442 0.063591965 -0.22758153
0.14814511 0.049606994 0.047725037 -0.020730404 0.0783908 0.030698104 -0.10667637 -0.20616738
-0.20794617 -0.19736333 -0.021147108 0.07656111 0.07053857 -0.047610495 -0.04895568 -0.011413956
0.12463796 -0.23083165 0.055893358 0.11301567 0.079519436 0.09310897 0.10066279 0.049890053
-0.06676157 0.058323562 0.22711551 -0.10850245 -0.019026076 0.08357291 0.14712922 0.046756066
-0.025567604 -0.23544998 -0.0069143013 -0.30442104 0.0029925436 0.20640582 -0.08016697 -0.038467016
-0.03794758 0.021718219 -0.053154763 0.0016428218 0.12586758 0.082136385 -0.08383132 0.12108937
-0.2389645 -0.043272555 0.059740443 0.002646968 -0.0057585505 0.031999577 -0.024263168 0.12659913
0.038668253 0.02061632 -0.20220888 -0.02566714 0.18610461 0.1070691 -0.10221384 0.27699682
0.13896167 0.030293824 0.03439494 0.13075277 -0.031575862 -0.135553 0.10681481 0.03830619

cond_trans.4.bias f4 [100]
00000000: 969c 8d3d 782c a83d 0a21 f5ba f680 ad3d
00000010: 38bf b83d fca3 f63d 40e4 76bd 80d0 f53d
00000020: 3ba8 f2bd d272 053e 2a62 cc3d f0c3 49bd
00000030: 6ce9 70bd 3a43 98bd 4bd4 63bd 3878 a63d
00000040: d820 d43d fbca dc3d 626b fa3d 7f58 d3bc
00000050: 4b7e a8bd d885 5b3d c5ff 403d ed39 adbd
00000060: 3853 a83d 3e2c c3bd 03af 86bc 3c92 06bd
00000070: 5410 9b3d 348d c93c 98a5 8abc fece af3d
00000080: 3410 7fbd e67c 4f3e d4d7 103e 80ec b4bb
00000090: cdab 403c 9b98 1e3e 6979 d73d 35de 2c3e
000000a0: 451b 82bd b2ac ac3d d253 323b a72d bfbd
000000b0: 591f 00be bc59 83bd e811 41bc 2f45 dfbd
000000c0: c907 fa3d abdf 933d 99b9 623e b29e abbc
000000d0: 6bd8 34bd f329 95bd 200f 3e3e 06fb cf3d
000000e0: fba0 b7bd ed6b c13d 4a52 253e d293 8dbc
000000f0: e073 2bbd 33cd 9b3d cb66 04be 6459 6d3e
00000100: ac0f 953d a0d4 af3d ecff 853d 2cab fabc
00000110: 698c a33d 674d adbd 6b5a 1bbd 4715 053e
00000120: 0d7d b0bd 2dae 47bd cad0 fc3d f399 dfbd
00000130: 90b9 83bd 1e62 ca3c c4a6 b4bd f18f 253d
00000140: 4271 6ebd a7e8 f4bd 0e90 ef3d 4839 b73c
00000150: b374 9ebd 7269 b5bd 23d7 cbbd a562 73bd
00000160: 2647 223e 78c1 c23d a63c 96bd aeb5 29bc
00000170: ffe3 7dbd 74f3 4bbd 5427 2f3e 0ccf 763d
00000180: e92d 173e 3b3d 233e 0cfc e83d c7fd a33d
0.06914632 0.08211607 -0.0018701863 0.08471863 0.09020847 0.12042996 -0.06027627 0.12002659
-0.11848494 0.13032082 0.09979661 -0.049259126 -0.05881636 -0.074346974 -0.05562238 0.08128399
0.10357827 0.10780903 0.12227513 -0.025799034 -0.082272135 0.05359444 0.04711892 -0.08458314
0.08218998 -0.09529923 -0.016440874 -0.032854304 0.07571474 0.024603464 -0.016924664 0.085844025
-0.062271312 0.20262489 0.14144832 -0.005521357 0.0117597105 0.15487902 0.10521204 0.1688164
-0.063528575 0.084313765 0.0027210605 -0.09334879 -0.12511958 -0.064136 -0.011784054 -0.109018676
0.12208516 0.07220396 0.22141112 -0.020949695 -0.044151705 -0.07283392 0.18560457 0.10155301
-0.089662515 0.09444413 0.16144672 -0.0172824 -0.041858554 0.07607498 -0.12929837 0.23178631
0.0727838 0.08585477 0.06542954 -0.0305992 0.079857655 -0.08462029 -0.037928026 0.12996398
-0.086176015 -0.04875009 0.12344511 -0.10918035 -0.064318776 0.024704989 -0.088208705 0.040420476
-0.05821348 -0.119584374 0.11697398 0.022366181 -0.07737102 -0.08858003 -0.099531434 -0.059420247
0.15847453 0.095095575 -0.073357865 -0.010358257 -0.061985012 -0.049792722 0.17104846 0.06025605
0.14763607 0.15941326 0.11376199 0.080073886

p_u.weight f4 [120, 100]
00000000: 7e44 8fbd 2f65 3e3e 3afc a1bd 9b45 e33d
00000010: ef69 113e 4f94 c63c 0d0d ddbc bdd8 2c3d
00000020: 9e66 503d 71c4 023e 3d3e 263d e426 423d
00000030: 194a 8ebd b358 babd 11ec bcbd 8cda 453d
00000040: da46 78bc 3145 5c3e c0c7 bd3d d4df 82bd
00000050: c2e7 b13d f558 aebc b6ef d83d e881 08bd
00000060: 1038 503e d19c b53c c603 f6bc 9f2b 683d
00000070: 8c42 ed3d 3b3f 9dbd 8ad0 a53d adb6 173d
00000080: 364f b5bb 2c4d 9a3d 6a2f 6e3e 9aff cbbb
00000090: a31e 03be 95ae 563d 6abd 503d d22d 19bd
000000a0: 60d9 44bd b45d 20be 3260 3cbd 8766 223d
000000b0: db29 1f3d bcdd 3e3d 5dbb a1be a31f 36bd
000000c0: 3c04 ba3d 4531 663b b6ba 2f3c 0db7 433c
000000d0: 43ca 1f3c 881e 27bb 99b3 4fbc a8fe 8b3d
000000e0: 1afd b4bc 1157 333d e33d 573e ce91 793d
000000f0: eab1 cebd 124f 8bba 6b8e 3f3e b351 ebbe
00000100: c606 853c f132 a23d 9ddb 73bc 4b76 e23c
00000110: f3db cbbc 4c2c 87bd 2648 863d f94b 1c3e
00000120: 1a9b 37bc d982 78bd 68c3 2d3e 11c4 813d
00000130: 23a5 063d 9b70 10be b98d 173c c141 b23d
00000140: e111 b8bd fbce 243e 4555 183e 0037 13be
00000150: 0d7d 60bd 619b 8c3d 0a2f 83bd 0a45 92bd
00000160: 898e 473e b996 863e 7b0b 9e3d f56d 33be
00000170: d6ce dbbd 9cf3 b7bc 660e 053e c948 f8bc
00000180: 1488 4fbe 4a8d dbbe 1dc8 e3bb 01e7 a3bc
00000190: 801b 90be f1ee 643e b489 5dbe 8df2 153e
000001a0: 3d26 393e d156 233e 5aa5 043c c134 773d
000001b0: abd7 63bd 946c 153e a291 3bbe ba69 993d
000001c0: cf23 fc3b d604 3f3c 2b77 5dbb 1bb3 293e
000001d0: 6899 f7bd e6f5 403e 6e4c 503e a3ca c63d
000001e0: ef6e b63c 1bbe 71bd 49c9 96bd 0e79 153c
000001f0: 1d61 673e 10af ab3c 62d4 a4bd 9211 efbd
00000200: 84df 033e b2fc 39bc 5690 f93c cb97 53be
00000210: e67c b1bd 4d0d 4d3d 369e 3f3e d74f 113d
00000220: b88a fe3d c6e5 703e 272e 933e 7352 0fbd
00000230: aa50 c53d ffab d2bd 0b28 3f3d 737d 043d
00000240: 93e0 b93d 4001 753c 4669 8cbe 388d c73d
00000250: 8c58 de3d ea5d 00be d073 113e 7ca2 d23c
00000260: e3f1 863d 7f2f 27bd af44 433d 8c83 1dbe
00000270: 309c 123d 7ab6 6abe 3213 9b3e 94b3 8a3d
00000280: bce1 423d 3399 96be b422 26bd 7af9 25be
00000290: 5e0d b0bd c73e 0cbd 525a 9cbd dd34 b63d
000002a0: 6e7d 19bd a614 d63c a436 ca3d 5563 353e
000002b0: fa52 cfbc 5e38 8b3d d5ee 473e b154 7dbd
000002c0: 2762 59bc 8274 32be f509 f63c 4c58 c9bc
000002d0: e728 8cbd 320d fb3c 28ad c53d e479 8ebe
000002e0: 80cb 5e3c ba4c b7bb 9a70 363b 13ae cdbd
000002f0: 785d 953e fe29 af3e 0278 dbbc b872 93be
00000300: 88d0 babc fffb 303a 005c b73d 5796 4dbe
00000310: b5f1 92be e594 d1be 70e9 5dbd 8a0c 24be
00000320: 9652 7abd ab91 52bd 9178 0cbe 8a25 57bc
00000330: 0760 5b3e c20b 453c 27bd 3a3c e1b0 14bd
00000340: 0b33 ffb8 339f b3bc 6546 313d 96ef 7f3d
00000350: 7cd4 5bbc b8ad b1bc be6c fa3b 6c36 9abd
00000360: 632b ccbd 7076 d23d c6f9 eebd a28d a23d
00000370: 03a4 7e3d 6e3c 1cbd 8fe4 403d ec20 5bbd
00000380: 41dd 77bd f386 813c bb60 93bd 88cf 02be
00000390: 4b36 b53e 9b7e 873d 5ac0 773b 4564 f53c
000003a0: 16d6 813d 2338 673d 4660 073e a36b 153d
000003b0: c883 a13d 681f a43c 4cf6 913d e6ab c13c
000003c0: 1501 223e a8fb 51bd 760b 2d3d 5d5c 15bd
000003d0: bee5 e6bc ed10 8e3b 5e68 51bd dc97 96bd
000003e0: 803c 2b3c 3e15 0abe 80ca 04bd 80cf b7bc
000003f0: c347 193d b03f 08bc 6ead 0e3d 104e 2cbe
-0.06995486 0.18593286 -0.079094365 0.110972606 0.14200567 0.02424064 -0.026983762 0.042198885
0.050879113 0.12770249 0.0405867 0.04740037 -0.06947727 -0.09098949 -0.092247136 0.048304126
-0.015153611 0.2151077 0.09266615 -0.06390348 0.086867824 -0.021282652 0.10592596 -0.033327013
0.20333886 0.022169502 -0.030031096 0.056682225 0.115849584 -0.07678076 0.08096416 0.037039448
-0.0055331243 0.075342506 0.23260275 -0.0062255384 -0.12804656 0.05241259 0.05096189 -0.037397213
-0.048058867 -0.15660745 -0.045990176 0.03964856 0.038858276 0.04659818 -0.3158826 -0.044463765
0.09082839 0.0035124582 0.010725668 0.011945498 0.009752813 -0.0025500376 -0.012677097 0.06835681
-0.022093344 0.043784205 0.21019702 0.060930066 -0.10092528 -0.0010628423 0.18706672 -0.4596077
0.016238581 0.079198726 -0.014883903 0.027644297 -0.024885153 -0.06600246 0.0655673 0.15263356
-0.011206413 -0.06067166 0.16969073 0.06336225 0.03287233 -0.14105456 0.009250098 0.08703948
-0.08987785 0.16094582 0.14876278 -0.1437645 -0.054806758 0.06865574 -0.06405456 -0.071420744
0.19487967 0.26286867 0.077170335 -0.17522414 -0.1073281 -0.02245503 0.12993774 -0.030308144
-0.20266753 -0.42881233 -0.0069513456 -0.020007612 -0.2814598 0.22356774 -0.21634561 0.14643307
0.18080993 0.15951087 0.0080960635 0.060353044 -0.0556256 0.145922 -0.18317273 0.07490869
0.0076946984 0.011658868 -0.0033792953 0.1657223 -0.12089807 0.18843803 0.20341656 0.09706619
0.022269694 -0.05901919 -0.07362611 0.0091231 0.2259564 0.0209575 -0.08048321 -0.11673273
0.12878233 -0.011351751 0.030464333 -0.20663373 -0.086664006 0.050061513 0.18712696 0.03547653
0.12428802 0.23525152 0.2874615 -0.03499074 0.09634526 -0.10286712 0.046669047 0.0323462
0.09076037 0.014953911 -0.27424067 0.09743732 0.10856733 -0.12535825 0.14204335 0.025712244
0.06589105 -0.04081678 0.047672924 -0.15382212 0.035793483 -0.22921172 0.30288082 0.06772533
0.04757856 -0.29413757 -0.04056044 -0.16208449 -0.085962996 -0.034239557 -0.07634415 0.088968016
-0.037473135 0.026132893 0.09873703 0.17713673 -0.025308121 0.067978606 0.19524701 -0.061848346
-0.01326803 -0.17427257 0.030034045 -0.024578236 -0.06843739 0.03064594 0.096521676 -0.2782737
0.013598323 -0.0055938633 0.0027838112 -0.10042968 0.29172873 0.34211725 -0.026790623 -0.2879846
-0.022804514 0.00067514175 0.089530945 -0.20076881 -0.28700033 -0.4093391 -0.0541777 -0.16020408
-0.061113916 -0.05140845 -0.13717867 -0.013131509 0.2142335 0.012026729 0.0113976365 -0.036301497
-0.00012168855 -0.021926498 0.043280024 0.062484346 -0.013417359 -0.02168928 0.0076423576 -0.075299114
-0.09969213 0.102764964 -0.11668734 0.079371706 0.062168133 -0.038143568 0.04709297 -0.053498194
-0.06051374 0.01581142 -0.07196184 -0.1277448 0.35392985 0.06615945 0.003780386 0.029955039
0.06339662 0.05645002 0.13220319 0.036479603 0.078864634 0.020034507 0.071270555 0.023641538
0.15820725 -0.05126539 0.042247258 -0.036465038 -0.028185721 0.004335514 -0.051124923 -0.073531836
0.010451436 -0.13484666 -0.03241968 -0.02243781 0.037421953 -0.0083159655 0.034833364 -0.16826653

p_u.bias f4 [120]
00000000: ec47 d73c b84d 383d b054 9a3c 47b3 cbbd
00000010: ab4c a73d ae9a 093d 6e24 0e3d d483 8fbc
00000020: 07ec 193c 3075 d53d a170 a23d 85a5 c73d
00000030: e622 a43c e587 14bd 7da7 8f3c 3481 5abd
00000040: 77ea c63c d78c 49bd f541 cd3d 8a02 81bc
00000050: 3d78 f9bc a3e0 89bd 30c6 d2bc dc98 8abd
00000060: 3679 d43c 3fe7 d2bd 5364 73bc ae4b f73c
00000070: fc7b 9dbd 5fc2 893c 1dea d9bd e67f 0c3e
00000080: 27a9 a8bc 9e93 6cbd faed c8bd 3c3d 39bc
00000090: 804b b53d 5e58 0ebd fded 1ebb 43c5 b3bd
000000a0: 4aef f7bd e1e2 cb3d bbcb 833d 77cb ebbd
000000b0: c7a8 3ebd 173f 46bd d354 29bc edbb 32be
000000c0: 3db7 1bbd f7c6 05be 4396 7c3d 9e23 9ebd
000000d0: 023d bf3d a92c 603d c961 e03c 9cd8 fe3d
000000e0: b5e6 ce3d 89a0 b13c b6ad 63bd 55df 4cbe
000000f0: a413 95be d019 a8be 5d1a 82be ca5e 8abe
00000100: 7047 22be c051 5bbe dad8 11be 02fa 09be
00000110: 73ae 50be 2f75 9abe 7df5 85be 1288 e2bd
00000120: 78af 03be 45da 89be 0880 76be 06b8 84be
00000130: b2cf 98be d73d 29be 31e2 c1be 3910 8dbe
00000140: 8e62 e9bd 2415 98be 1552 24be 2baa 7fbe
00000150: 670b 7cbe 6e62 9dbe 21b9 34be 43f3 70be
00000160: 4f8d 83be ee92 0ebe ad47 88be 9e86 7ebe
00000170: 97a6 0cbe 3181 3fbe 36f4 90be 3751 88be
00000180: 548b 44be 9841 9cbe 9060 4dbe 1be4 dcbd
00000190: 01ef 35be d462 68be f220 86be c65a b7be
000001a0: f3f5 54be 7ff9 83be 2de6 d1bd fb9e 55be
000001b0: 39f6 1fbe 44cf 2abe dcd7 46be 39c7 80be
000001c0: 331d 81be be87 75be c61c 1ebe f34b 52be
000001d0: 4597 26be 93a0 91be f5b1 21be 5fbf f4bd
0.026279412 0.044995993 0.01883921 -0.09946304 0.0816892 0.03359478 0.03470271 -0.017518915
0.009394652 0.10422742 0.079316385 0.09748367 0.020036172 -0.03626241 0.01753592 -0.053345874
0.024281723 -0.04920658 0.10022346 -0.015748281 -0.030452842 -0.06732299 -0.025729269 -0.06767437
0.025936704 -0.10298013 -0.014855462 0.030187454 -0.07689664 0.016816316 -0.10640357 0.13720664
-0.02058847 -0.057757966 -0.098110154 -0.011306103 0.08852291 -0.034752242 -0.0024250739 -0.08777859
-0.12106188 0.09955383 0.06435343 -0.11513417 -0.046547677 -0.04840001 -0.010335165 -0.174545
-0.038016547 -0.1306418 0.06166674 -0.07721637 0.09337808 0.05473009 0.027390378 0.12443659
0.101025976 0.021682994 -0.055585586 -0.2000707 -0.29116547 -0.32832193 -0.2541074 -0.27025443
-0.15847564 -0.21417904 -0.14242879 -0.13474277 -0.20379047 -0.3016753 -0.26163855 -0.110611096
-0.12859905 -0.2692434 -0.24072278 -0.2592165 -0.2984596 -0.16527496 -0.37867883 -0.2755144
-0.11395751 -0.2970363 -0.16046937 -0.24967258 -0.24613725 -0.30739158 -0.17648746 -0.23530297
-0.25693747 -0.13923237 -0.26617184 -0.2485604 -0.13735424 -0.18701626 -0.28311318 -0.26624462
-0.19193774 -0.30518794 -0.20056367 -0.10785695 -0.17766954 -0.2269395 -0.2619701 -0.35811442
-0.20796947 -0.25776288 -0.10248981 -0.20861427 -0.1562127 -0.16680628 -0.19418281 -0.25151995
-0.2521759 -0.23977563 -0.15440664 -0.20536785 -0.16268642 -0.2844282 -0.15790541 -0.11950564

q_z.weight f4 [120, 100]
00000000: c539 d43c 123b 913d b94b 0e3b 2dd3 723d
00000010: 6d2d cbbc 0610 a53d 9de2 ca3d 2c79 a33d
00000020: 1182 803c 6a8d 9c3c af97 343c 17d4 d8bd
00000030: 4136 1e3b 6346 fd3a 01da b63c 14c7 c73c
00000040: 98c1 cfb9 e2d8 283c b142 9e3d 2f23 d0bd
00000050: d278 233d 6722 a0bd a170 3fbc 1c2b 243d
00000060: 27ec c23d 90f3 fabc a791 4a3d 3b0d 923d
00000070: e440 863d d480 e1bd e6d0 923d 959a 463d
00000080: c5b3 a1bb e312 7fbd 8fc7 96bb 2a36 86bd
00000090: 3c4a 2d3d 7317 4abd 8af6 803c 60a8 d73c
000000a0: 1edc 82bd 7069 9e3c 9f14 dd3b 6ac2 ba3d
000000b0: 7426 bfbd d4a4 c3bd a363 7fbd 53c5 a73d
000000c0: 89a5 273d 9cb7 4b3d 80a0 5bbc fe54 cd3d
000000d0: a084 7bbd 2d29 af3d 7f64 bf3d fa0d 293d
000000e0: 4e13 513d 6ecc 16bb 7143 78bc f48c b1bd
000000f0: fe1e 433d 3d94 bcbd 4fbf b9bd 064b 853b
00000100: 3466 2c3c ed4b edbd c090 48bd ea56 b03d
00000110: f411 cb3d f227 a43b 69ea 8abc ea00 eebb
00000120: a789 153d e9e7 a5bd 23b1 2fbd 1140 efbc
00000130: 8d95 11bc e403 c2bb 017e bbba e788 65bd
00000140: 50d3 57bd 5bcd 9e3c 1597 893c c19c 623c
00000150: c04c 653d 7420 2f3d 6346 85bd e398 6b3d
00000160: 8370 c23c b1b4 f1bc 224f 1a3d 9bf7 07bd
00000170: 6399 6c3d a9da e0bd 7654 983c a35f f53c
00000180: 52ad cdbc 43fe 65bc 798b 5f3d 415b 3bbd
00000190: ebb2 043c b119 04bc 5c8e 2e3d b1e8 dfbb
000001a0: 563c 03be fdea 24bb a702 cd3c 1766 6e3d
000001b0: f8e3 3cba 0a12 d83d 279d bd3d b8f2 413c
000001c0: e1b4 d7bc 8b42 38bd af19 833d 2f7d 68bd
000001d0: 0ef8 913d 6459 b43d 92bd 963d 062a d0bc
000001e0: 54c8 123a 682d 8a3d 2cf9 ed3d f556 883d
000001f0: 29c1 1abd c400 9bbc ad9a 9dbd 0281 fdbb
00000200: e1c2 c5bd cfc5 5bbd bf32 07bd ec13 3f3d
00000210: 1e98 6c3c 6875 6abc 3934 493b 6719 0bbd
00000220: 32d9 c7bd d604 dc3d da31 b33c 7e85 6a3d
00000230: 6523 49bd 4d57 d43b 13bc d33c 80e9 28bd
00000240: 577c e33d b8d2 8e3d eab2 00bd c27f 4e3d
00000250: 4883 6bbd 3eed 4ebd e103 5fbd 5a55 463b
00000260: b6fb bc3c 7355 02b9 8a0c ea3d 693f 6abd
00000270: 03e5 e5bd 3643 a03d 694d 49bc 7ac0 99bd
00000280: 7238 823d c801 9aba 1e9d 813d e4d1 e43a
00000290: bb9d 173d e829 9d3d 4b7e 433d d7c6 423d
000002a0: 75e9 e53c f5ce 8e3d 4eb0 613b 600b 0b3d
000002b0: 67d5 363d 4518 a1bc b223 1c3d fe42 313b
000002c0: 6f8f a1bd 4517 8c3d 44a7 24bc 2dea 72bc
000002d0: 7b11 01bc 0264 c3bc f705 babd aa0a f7bc
000002e0: 259c c53d 33ea 2fbd 336c e9bb 27f0 603d
000002f0: 6673 a23c 9a1d 4b3d ee03 a53c a87c 05bc
00000300: 8103 08bc f759 e13c 8a88 87bd 8a4c d43d
00000310: c41a fbbb 37eb ac3c 6f61 6fbc b50a e6ba
00000320: 6917 073d 9853 423d a94c 3cbc 33ed 20bd
00000330: b93f 39bc ba32 8b3d 7f46 8cbd b31e 3d3d
00000340: 2dd5 743d ac5f 0bbd c665 96bc d752 fdbc
00000350: ce00 9bbd 9c75 14bd 5474 963d 4fab 2c3d
00000360: ff94 073c faf5 53bc 36a5 5bbc eb05 563d
00000370: b835 d93c 4059 c03d d97e e23c bd2f e5bd
00000380: c859 2a3d b10d ab3d f42a 8f3d 3a90 3aba
00000390: ef26 1bbc 4fc8 d9bc cda4 d53d bc3c c73d
000003a0: 8791 febb 43c6 34bc e79a c8bc 00e4 f2bb
000003b0: 1472 b8bd 2e78 9dbd 49db 853d 93d3 5f3c
000003c0: c11a bb3d 8be7 99bb 23dd 87bd 9ab9 ee3a
000003d0: 42e4 4d3d a49c d4bc 46ab dfbc c323 5dbb
000003e0: 356e bdbc e9bf b9bc 391e b63d 820e 813d
000003f0: f1b0 61bd c41b 903d a1d0 23bd 2742 0dbd
0.025906453 0.07091345 0.0021712615 0.059283424 -0.024801934 0.08059697 0.09906504 0.07982096
0.01568702 0.0191104 0.011022492 -0.10587328 0.0024141225 0.0019323345 0.02232075 0.02438692
-0.00039626355 0.010305615 0.07727564 -0.10162961 0.039910145 -0.07819062 -0.011684568 0.040080175
0.09517699 -0.030633718 0.04945531 0.0713143 0.06555346 -0.110109 0.071687505 0.048487265
-0.0049347603 -0.06227387 -0.004601426 -0.065533 0.042307124 -0.04933877 0.015742559 0.026325405
-0.0638964 0.019337386 0.006746843 0.09119113 -0.09333506 -0.09552923 -0.06235088 0.081919335
0.04092935 0.04973565 -0.013404965 0.100259766 -0.061405778 0.085527755 0.0934534 0.041273095
0.0510438 -0.0023010033 -0.015152798 -0.08669463 0.04763698 -0.09207962 -0.09069692 0.0040677814
0.010522414 -0.11586747 -0.04896617 0.086103275 0.09915534 0.0050096447 -0.016957479 -0.0072632926
0.03650823 -0.08100874 -0.04289354 -0.029205354 -0.008885753 -0.005920874 -0.001430452 -0.056038763
-0.052691758 0.01938503 0.016795674 0.013831318 0.055981398 0.04275556 -0.06507566 0.05751885
0.02373529 -0.029505106 0.037673123 -0.03319512 0.05776347 -0.10979206 0.018594962 0.02995283
-0.02510706 -0.0140376715 0.05457637 -0.045741323 0.008099298 -0.008062766 0.042616233 -0.006833159
-0.12815985 -0.0025164478 0.025025679 0.05820283 -0.0007205601 0.10550316 0.0925849 0.011837654
-0.026331367 -0.044985335 0.06401383 -0.05676001 0.07127391 0.088061124 0.073603764 -0.025410663
0.0005599309 0.06746942 0.116197914 0.06657211 -0.037781868 -0.018921264 -0.07695518 -0.007736326
-0.09656311 -0.05365544 -0.03300738 0.04664986 0.014440564 -0.014310218 0.0030701293 -0.033959772
-0.097582236 0.1074311 0.021874357 0.057256214 -0.04910602 0.0064801336 0.025846517 -0.041238308
0.111077 0.06973785 -0.031420626 0.050414808 -0.057498246 -0.05051922 -0.05444706 0.0030263276
0.023069244 -0.00012429598 0.11428173 -0.05718938 -0.11225321 0.078253195 -0.012286522 -0.07507415
0.06358422 -0.0011749798 0.06328796 0.0017457572 0.037015658 0.076740086 0.047727864 0.04755291
0.028065423 0.06973068 0.0034437361 0.033946395 0.04463711 -0.019664893 0.03811998 0.0027047987
-0.07888686 0.06840376 -0.010049645 -0.01482634 -0.007877703 -0.023851398 -0.09083169 -0.030156452
0.09648923 -0.04294796 -0.007123494 0.054916527 0.019830417 0.049588777 0.020143475 -0.008147396
-0.008301617 0.027508719 -0.0661784 0.10366161 -0.007663103 0.021108253 -0.014610632 -0.0017550798
0.03298131 0.047443002 -0.011492887 -0.03928871 -0.011306697 0.06796785 -0.068493836 0.046171855
0.059773613 -0.034026787 -0.018359076 -0.03092329 -0.07568513 -0.036244974 0.073464066 0.04215556
0.0082752695 -0.012937063 -0.013406089 0.052251738 0.026514873 0.09392023 0.027648376 -0.11190746
0.04158953 0.08352221 0.069906145 -0.00071168283 -0.009469732 -0.026584772 0.10431824 0.09728381
-0.007768813 -0.011033597 -0.024487926 -0.0074124336 -0.09006134 -0.07688938 0.06535966 0.013661283
0.09135962 -0.0046967915 -0.06633975 0.0018213273 0.05026651 -0.025953598 -0.02730335 -0.003374324
-0.02312384 -0.022674518 0.08892483 0.06301595 -0.055100385 0.07036546 -0.039993886 -0.034486916

q_z.bias f4 [120]
00000000: 1844 4b3d e514 71bd dcf7 d73c 098c 003e
00000010: f350 d5bd 6815 d83d 2360 89bd 325d 743d
00000020: 2d64 0b3e f6cb e63d 540a 7f3d 188e ad3d
00000030: 42cd cd3d 3df6 4bb9 514f 41be 04d2 4ebb
00000040: ae7d 22bd a581 f0bc 9b28 50bc 00b0 893b
00000050: a561 183d 363f 723d c69d 123d b933 43bd
00000060: 6b61 8ebc 35cb 893d 1ada 6fbd 04ba 963d
00000070: 1a4e ad3b 8462 af3d fc82 7bbc a46f 4b3d
00000080: ba00 a6bd fd9c 473d f40f 4c3d 8440 673d
00000090: 1515 6abd 2eb2 f2bd eb3b 933d a1c5 43bd
000000a0: e871 afbd 195c bcbd f371 483c 91df 98bc
000000b0: b38c 4b3d 4ef4 ffbc def9 80bd d095 293e
000000c0: 3c4e 83bc 53ac f03c 6ec1 91bd d38b b33b
000000d0: eb31 bcbc 5092 323e 271d 9c3d 80e1 893c
000000e0: c768 1cbc 997f 173d 0576 753d a1da 25be
000000f0: 67ab 0ebe d998 d0bd 85e7 7ebd 6e11 02be
00000100: cb53 3abe bae7 dcbd c2e6 09be f09a 0cbe
00000110: 6ae0 86be 98da fdbd 542f 30be d4c1 14be
00000120: 7e25 1abe 08f0 2dbe f065 92bd d7f7 12be
00000130: 6cb3 13be cabb 54be 4c6c 6ebe 6035 e4bd
00000140: fee1 12be a353 80bd 120f 4fbe 67c9 3fbe
00000150: e852 d6bd 73ee c8bd 3869 6ebe 9a7c 1bbe
00000160: e8f2 f3bd eb53 17be 3354 dabd dbe7 5abe
00000170: ed13 28be df08 1dbe d206 19be 425a 6cbd
00000180: bae5 14be 9bc8 1fbe e235 abbd 7fd0 3fbe
00000190: 775a 37be d812 42be 92fd 05be 7d32 00be
000001a0: 9106 1cbe 83a0 4abe fc3c 3bbe e7ce 50be
000001b0: 50f3 2dbe 86ef 25be 1c2f d1bd 47de 48be
000001c0: afc4 e6bd febd ccbd 95d2 23be fc43 02be
000001d0: e20d 40be 69e6 d4bd 22c4 10be 782d 16be
0.049625486 -0.058857817 0.026363306 0.12553419 -0.104158305 0.10550958 -0.0670779 0.05965919
0.13612433 0.11269371 0.06226571 0.08474368 0.100489154 -0.0001945132 -0.18877913 -0.0031558285
-0.03967064 -0.029358694 -0.012704994 0.004201889 0.037202496 0.059142314 0.035794996 -0.04765675
-0.017380437 0.06728212 -0.058557607 0.073596984 0.0052888514 0.08563712 -0.015351053 0.049667016
-0.08105607 0.0487337 0.0498199 0.05645801 -0.05714901 -0.11850391 0.07189163 -0.047795895
-0.08566648 -0.09197254 0.012234199 -0.018661292 0.049694728 -0.031244423 -0.062976584 0.16561055
-0.016028516 0.029379046 -0.07116972 0.005479315 -0.022973021 0.17438626 0.07622748 0.01683116
-0.009546465 0.03698692 0.059927005 -0.16196682 -0.13932572 -0.101854034 -0.062232513 -0.12701961
-0.18196027 -0.10786386 -0.13466933 -0.13730979 -0.2634309 -0.12395209 -0.17205554 -0.14527065
-0.15053365 -0.16986096 -0.07148349 -0.14352356 -0.14423913 -0.20774761 -0.232835 -0.11142993
-0.14344022 -0.062659524 -0.20220593 -0.18729173 -0.10465032 -0.098111056 -0.23282325 -0.1518425
-0.11911565 -0.14778106 -0.10660591 -0.21377508 -0.16413851 -0.15335415 -0.14944008 -0.057703264
-0.14540759 -0.15603869 -0.08359887 -0.18731879 -0.17905603 -0.18952501 -0.1308501 -0.1251926
-0.1523688 -0.19787793 -0.18284982 -0.20391427 -0.16987348 -0.16204652 -0.102140635 -0.19616042
-0.11267983 -0.09997176 -0.159983 -0.12721246 -0.18755296 -0.1039551 -0.14137319 -0.14665782
