hosp_models/deploy_week_48_26/seq_enc.pt (torch, 46379 bytes, 4 tensors)

gru.weight_ih_l0 f4 [180, 1]
0	0x3d7f4d1f	0.062329408
1	0x3de71bb9	0.112845846
2	0x3dbd0cbc	0.092309445
3	0x3da1bdfb	0.07897564
4	0x3d30d7b2	0.043174453
5	0x3d54df15	0.05197056
6	0xbd246e16	-0.04014405
7	0xbd9e030a	-0.077154234
8	0xbdd0f3d7	-0.10202759
9	0x3dc53e40	0.09631014
10	0x3d86526c	0.065586895
11	0xbd63c303	-0.0556059
12	0xbdaec1c2	-0.0853305
13	0xbd9334ce	-0.07187806
14	0xbdb09ff9	-0.08624262
15	0xbd5fe2b7	-0.05465957
16	0x3c1d6a05	0.009607797
17	0xbd1c718e	-0.03819423
18	0x3d5b5293	0.053545546
19	0x3c24b271	0.010052309
20	0x3d01e125	0.031708855
21	0x3ca07754	0.01958815
22	0x3c8eb1e3	0.017418807
23	0xbccb5b01	-0.024823667
24	0x3d3db27f	0.046312805
25	0x3d480cb2	0.048840232
26	0x3c785d47	0.015158958
27	0xbcc07f20	-0.023498118
28	0xbe1bfa80	-0.15232277
29	0xbd380bd8	-0.04493317
30	0x3db82d62	0.08993031
31	0xbd83c49d	-0.064339854
32	0xbdc2bde4	-0.09508875
33	0xbdbeb07a	-0.09311004
34	0x3d70dbab	0.05880324
35	0x3e187bd7	0.14890991
36	0xbe22f43b	-0.15913479
37	0xbcd3ad0b	-0.02583935
38	0x3d99c44e	0.07508145
39	0xbc593f81	-0.013259769
40	0x3d71e23b	0.05905364
41	0xbdd0b2d5	-0.101903595
42	0x3dadc4f0	0.084848285
43	0xbd682617	-0.05667695
44	0xbde8ba50	-0.11363661
45	0xbd2f3d8f	-0.042783316
46	0xbdfecb65	-0.12441138
47	0x3cb54d93	0.022131717
48	0x3d7bc3c9	0.061466012
49	0xbdb734b7	-0.089456014
50	0x3cdec1c1	0.027191998
51	0xbdfd3d77	-0.12365239
52	0x3d7ebc82	0.062191494
53	0x3ba9704c	0.0051708575
54	0xbc2b419e	-0.010452656
55	0xbd9e3183	-0.07724287
56	0x3dba6ff0	0.09103382
57	0x3d5a396e	0.053277425
58	0xbd6a9d26	-0.057278775
59	0xbdb6c06c	-0.0892342
60	0x3dbdbd4c	0.09264621
61	0x3dbc5d68	0.09197503
62	0xbba65e42	-0.0050771544
63	0x3d91c218	0.071170986
64	0xbd89d7c2	-0.06730606
65	0xbdc302af	-0.09521996
66	0xbc8b9d7f	-0.017042873
67	0xbe09a932	-0.13443449
68	0xbd26fb6c	-0.04076712
69	0x3a9cfc73	0.0011977091
70	0xbda3f4ef	-0.08005702
71	0x3db327b8	0.0874781
72	0xbd7d53c6	-0.06184747
73	0xbd61aff5	-0.055099446
74	0x3d044842	0.032295473
75	0x3d58784e	0.052849106
76	0xbcd1a5a7	-0.025591685
77	0xbdda1676	-0.10648815
78	0x3d8b0b20	0.06789231
79	0xbd5f7d43	-0.05456282
80	0xbd8f850e	-0.070078
81	0x3dd0fcbf	0.102044575
82	0xbd663cd4	-0.056210354
83	0x3d8b8162	0.06811787
84	0x3cda3ecc	0.026641272
85	0xbcd199d3	-0.025586044
86	0xbdb4f58f	-0.08835899
87	0x3e22e2a4	0.15906769
88	0x3cb1a044	0.021682866
89	0x3d24e717	0.040259447
90	0xbdbd3e79	-0.09240431
91	0x3da4082c	0.08009371
92	0xbc222a7b	-0.009897823
93	0x3d9265fd	0.07148359
94	0x3de92271	0.11383522
95	0x3b138f33	0.0022515773
96	0x3db2f1f3	0.087375544
97	0xbda685cd	-0.08130989
98	0x3d3622c8	0.044466764
99	0x3d8e67f9	0.06953425
100	0x3de5817a	0.11206336
101	0xbd3a057e	-0.045415394
102	0x3daa9966	0.0833004
103	0x3dbca037	0.09210246
104	0xbd540282	-0.051760204
105	0xbc70db35	-0.0147007005
106	0x3b90e4f0	0.0044218227
107	0x3d281dca	0.041044034
108	0xbbf0dcbf	-0.0073505337
109	0x3d289ca2	0.041165
110	0xbd221fb3	-0.039581012
111	0x3d8d8ec6	0.069119975
112	0x3da5d2f4	0.08096877
113	0x3d5efb41	0.054438833
114	0x3df536f2	0.119733706
115	0x3e083e51	0.13305022
116	0xbd69dcf6	-0.05709549
117	0xbda653b6	-0.08121435
118	0xbdb30d46	-0.08742766
119	0xbcab434a	-0.02090611
120	0x3d8f9332	0.07010497
121	0xbd6b3917	-0.057427492
122	0xbc0e7703	-0.008695367
123	0xbd6ad211	-0.05732924
124	0x3d25dac2	0.040491827
125	0x3cb259e6	0.021771383
126	0xbdac6cf5	-0.084192194
127	0xbdba9dcf	-0.09112131
128	0xbc9200c8	-0.017822638
129	0x3dec1b9f	0.11528706
130	0xbde37906	-0.11107068
131	0xbddfe802	-0.10932924
132	0x3d7ffb86	0.06249573
133	0x3cf4a7ca	0.029865164
134	0x3bda20ee	0.0066567576
135	0xbd8cbc3a	-0.06871839
136	0xbd85e6f7	-0.06538194
137	0x3db0fde0	0.08642173
138	0x3dcb4ca8	0.099267304
139	0x3cd69f24	0.026198931
140	0x3e07def5	0.13268645
141	0x3db21a24	0.08696392
142	0x3aa44534	0.0012532831
143	0xbd97ef97	-0.07418745
144	0xbd565a6c	-0.052332327
145	0xbcb353d2	-0.021890555
146	0xbdb79188	-0.08963305
147	0x3dcebd68	0.1009472
148	0x3bc73954	0.006079832
149	0xbdca591b	-0.09880277
150	0xbd59ee6a	-0.053205885
151	0xbd4b2078	-0.04959151
152	0xbdc25c0b	-0.09490212
153	0xbcc8275b	-0.024432829
154	0xbd930188	-0.071780264
155	0xbd632589	-0.05545572
156	0xbdcd5fcf	-0.1002804
157	0xbcce5805	-0.025188455
158	0xbdc77257	-0.097386055
159	0x3d338a47	0.043833043
160	0x3c734d6e	0.014850004
161	0xbc3fe5c9	-0.0117125
162	0x3d8a6b43	0.0675874
163	0x3d8a8287	0.06763177
164	0xbb053a40	-0.002032891
165	0xbcdeb12c	-0.027184092
166	0x3d22d92e	0.0397579
167	0xbdf7474f	-0.12074148
168	0x3cd4f71d	0.025996739
169	0x3ccfe764	0.02537889
170	0x3b0df8e7	0.002166325
171	0xbc72a77f	-0.014810442
172	0xbd616ab4	-0.0550334
173	0x3c8295e7	0.01594062
174	0xbd9d86be	-0.07691716
175	0x3cc426d5	0.023944298
176	0xbd8672c1	-0.06564856
177	0x3cb6b097	0.022301001
178	0xbb851d2e	-0.0040623164
179	0xbd5121eb	-0.051057737

gru.weight_hh_l0 f4 [180, 60]
0	0xbd6b6977	-0.057473626
1	0xbc814a29	-0.015782433
2	0xbe1055f8	-0.14095294
3	0xbbfc1a46	-0.0076935617
4	0xbd5ec83c	-0.054390177
5	0x3e1fa5f3	0.15590648
6	0x3d330856	0.04370912
7	0x3e0fae2b	0.14031284
8	0xbda018dd	-0.07817242
9	0xbd848e1e	-0.06472419
10	0xbd395512	-0.045247145
11	0x3dbf9759	0.09355039
12	0xbdf308c0	-0.11866903
13	0x3e339050	0.1753552
14	0x3d16a562	0.036778815
15	0x3da1c27c	0.07898423
16	0xbcfdbe22	-0.030974451
17	0xbe25f066	-0.16204986
18	0xbd427ca7	-0.04748216
19	0xbd4287b9	-0.047492716
20	0xbdb6107b	-0.08889862
21	0x3d835b6c	0.06413922
22	0x3e27537e	0.16340443
23	0x3c53a7bf	0.012918412
24	0x3dc6d9ae	0.09709488
25	0x3c3797f0	0.011205658
26	0xbbe3f367	-0.006956506
27	0xbdd0e3d0	-0.10199702
28	0xbe0e555d	-0.13899751
29	0xbde60886	-0.112320945
30	0xbd4b1471	-0.04958004
31	0x3e1f240b	0.15541093
32	0x3cda62cb	0.026658436
33	0x3d4fbd3e	0.050717585
34	0x3d19fb2b	0.037593048
35	0x3dab0cf8	0.08352083
36	0xbd76c0aa	-0.060242333
37	0x3d1f69f5	0.038919408
38	0x3b8a6fb7	0.004224743
39	0x3dd017fa	0.10160823
40	0x3d11b9ea	0.035577692
41	0x3c4bb690	0.012433663
42	0xbd24c650	-0.040228188
43	0x3e04931e	0.12946746
44	0x3a3026e4	0.00067196623
45	0x3e1af8ef	0.15134023
46	0x3d3a1847	0.04543331
47	0x3d8ce2d6	0.06879203
48	0xbe33e259	-0.17566814
49	0x3c29f438	0.010373168
50	0x3decff9f	0.11572193
51	0xbda65669	-0.0812195
52	0x3dd8ec0e	0.10591899
53	0xbba2f0bb	-0.004972545
54	0xbe0fbf0d	-0.14037724
55	0x3e329777	0.17440592
56	0x3d0b053d	0.033940542
57	0x3e17ecf3	0.14836483
58	0x3e041e0a	0.12902084
59	0xbda4af8c	-0.080412954
60	0x3cab2c88	0.020895258
61	0x3e0cc540	0.1374712
62	0xbdfd1683	-0.123578094
63	0x3d1399ab	0.03603522
64	0x3c02a636	0.007974198
65	0xbdae0f88	-0.08499056
66	0x3d2f6f30	0.042830646
67	0x3d97c500	0.07410622
68	0xbd7f5ae1	-0.06234253
69	0xbd8ddd7d	-0.06927011
70	0x3d8e293d	0.06941459
71	0xbdbf852e	-0.09351574
72	0x3c69d3c0	0.014271677
73	0x3d85329f	0.06503796
74	0x3d1e4b7d	0.03864621
75	0xbdd373c0	-0.10324812
76	0xbd78f3d6	-0.060779415
77	0xbd80c6d3	-0.06287923
78	0xbd002880	-0.031288624
79	0xbda9a231	-0.08282889
80	0x3b846b01	0.004041076
81	0x3dbf29b4	0.09334126
82	0xbc9746df	-0.018466411
83	0xbdb5b1e6	-0.08871822
84	0x3d3c8b3a	0.046031214
85	0x3dc0e3db	0.0941846
86	0xbde1eb97	-0.11031263
87	0x3e064a95	0.13114388
88	0x3da5e6bf	0.08100652
89	0x3d1c4366	0.038150214
90	0x3d151d92	0.036405154
91	0xbd59a565	-0.05313625
92	0xbdd6d6b9	-0.10490174
93	0x3e268abd	0.16263862
94	0x3ce7c67a	0.028292883
95	0xbd4fb448	-0.05070904
96	0xbd97a807	-0.074050955
97	0x3d6388bd	0.055550326
98	0x3dc18349	0.09448869
99	0x3e27a6d4	0.16372234
100	0x3d0263f0	0.03183359
101	0x3dca44f0	0.0987643
102	0x3d3872e9	0.045031462
103	0x3d884f08	0.06655699
104	0xbdc08d64	-0.09401968
105	0xbd5c0052	-0.053711243
106	0x3dcf4a22	0.101215616
107	0x3d599bf8	0.05312726
108	0xbe23b7ea	-0.15988126
109	0xbd640b56	-0.055674873
110	0x3cefe6ac	0.029284798
111	0xbcfde889	-0.03099467
112	0xbdb10521	-0.086435564
113	0x3e174aec	0.14774674
114	0xbdfba949	-0.12288148
115	0x3dd31476	0.10306637
116	0xbde758f6	-0.11296265
117	0xbd6585ee	-0.05603593
118	0x3dd7eb4c	0.10542926
119	0xbbb39f9e	-0.0054816743
120	0xbd5e0ecb	-0.054213326
121	0xbb642403	-0.0034811504
122	0xbd974f55	-0.07388178
123	0x3e00d296	0.12580332
124	0xbe063b10	-0.13108468
125	0xbc3cb8e7	-0.0115186935
126	0x3930eced	0.0001687293
127	0xbcc8cfe9	-0.024513202
128	0xbddae070	-0.10687339
129	0x3d2e63d7	0.042575683
130	0x3aa142bf	0.0012303217
131	0x3da67d5e	0.08129381
132	0x3d0d365b	0.034475666
133	0x3def5bb0	0.1168741
134	0xbd6b1f77	-0.057403054
135	0x3dcc9a08	0.09990317
136	0xbd89c35b	-0.06726714
137	0xbc7bde06	-0.015372759
138	0x3d807a6c	0.0627335
139	0xbd3c1b6c	-0.04592459
140	0xbd19fcab	-0.03759448
141	0x3d39c101	0.04535008
142	0x3e04da2a	0.12973848
143	0xbd8e66dd	-0.06953213
144	0x3d94391e	0.07237457
145	0x3d9f1ae9	0.077688046
146	0x3d7268b4	0.059181884
147	0x3d573418	0.052539915
148	0x3d886ed6	0.06661765
149	0x3dea25c0	0.114329815
150	0x3d867a64	0.06566313
151	0x3ca6d9ed	0.020367587
152	0xbdb218bb	-0.08696123
153	0x3cd52a07	0.026021017
154	0xbdccf936	-0.10008471
155	0x3e03b6e3	0.12862734
156	0xbd10afd3	-0.03532393
157	0x3c993291	0.01870087
158	0x3d6e4f35	0.058181006
159	0x3d9a20db	0.07525798
160	0xbdd97f5e	-0.106199965
161	0xbd936543	-0.071970485
162	0x3d2b23d1	0.041782204
163	0xbda9d7ad	-0.0829309
164	0x3d0057ad	0.031333614
165	0x3d537a17	0.051630106
166	0xbd80346c	-0.06259999
167	0xbdbde6ec	-0.092725605
168	0xbc0033f4	-0.007824887
169	0xbdbd49d9	-0.09242601
170	0x3df950c5	0.12173609
171	0x3d7f0a59	0.062265728
172	0x3da13be1	0.07872749
173	0x3da27178	0.07931799
174	0x3d49b8fa	0.049248673
175	0xbdb2ad35	-0.08724443
176	0x3dc4d594	0.09611049
177	0x3c5982f9	0.013275855
178	0x3dc3f040	0.095673084
179	0x3dffb04b	0.12484797
180	0x3bc778e0	0.0060874075
181	0xbd9f1344	-0.077673465
182	0xbca26129	-0.01982172
183	0xbd724419	-0.059146974
184	0xbe12c6ec	-0.14333695
185	0x3dcc7175	0.09982578
186	0xbc7dd432	-0.015492486
187	0x3e105638	0.1409539
188	0xbda7269d	-0.08161662
189	0x3d6549d6	0.05597862
190	0xba845e39	-0.0010098881
191	0x3b42bf71	0.0029716159
192	0x3d2875ae	0.041127853
193	0xbdce3cf4	-0.1007022
194	0x3deb8f52	0.115019456
195	0xbcb5c533	-0.022188758
196	0x3d457aef	0.04821294
197	0xbdc485ee	-0.095958576
198	0xbd8a413d	-0.067507245
199	0xbcce96aa	-0.025218327
200	0xbd47e49d	-0.048802007
201	0xbda1edaf	-0.07906663
202	0x3d998b05	0.07497219
203	0x3b21e37d	0.0024702244
204	0xbd0f50a1	-0.034989003
205	0xbc4da71f	-0.012552052
206	0x3e11c43a	0.1423501
207	0xbdd921d7	-0.106021576
208	0xbcd45c8f	-0.025923042
209	0xbc70fdd9	-0.0147089595
210	0x3d6f167e	0.05837106
211	0x3df4a1d9	0.119449325
212	0xbd91f8c5	-0.07127527
213	0xbbef94c4	-0.0073114354
214	0xbdfe0a04	-0.12404254
215	0xbd3e4baa	-0.046458878
216	0x3d7b4d20	0.06135285
217	0x3c6972e9	0.014248588
218	0x3de53497	0.11191671
219	0xbba51439	-0.005037811
220	0xbd202b6c	-0.03910391
221	0xbd0e6f6d	-0.034774233
222	0x3c88e545	0.016710887
223	0x3daa5f02	0.083189026
224	0x3c013aee	0.007887585
225	0x3d2e0fad	0.04249542
226	0xbd5cc73e	-0.05390095
227	0x3db5a9d5	0.088702835
228	0xbdd27a9d	-0.10277293
229	0x3d8b5b46	0.068045184
230	0xbb8ebea3	-0.0043562218
231	0x3dced77a	0.10099693
232	0xbd3e172a	-0.04640881
233	0x3e0967ab	0.13418452
234	0x3db14c86	0.08657174
235	0xbdca4dc6	-0.09878115
236	0xbd36af51	-0.04460079
237	0x3de79690	0.113080144
238	0x3d5a0975	0.053231675
239	0x3e088360	0.13331366
240	0xbca9c380	-0.020723104
241	0xbd652f23	-0.055953156
242	0x3d08292e	0.033242397
243	0xbcdfbda8	-0.027312115
244	0x3de61865	0.11235122
245	0x3de36afd	0.11104391
246	0x3e16ac38	0.14714134
247	0x3de0d08f	0.109772794
248	0xbdb3c436	-0.08777659
249	0x3e0f39c0	0.13986874
250	0xbdeafd62	-0.1147411
251	0x3df3e90a	0.11909683
252	0xbc69cec4	-0.014270488
253	0xbba24425	-0.004951971
254	0x3d95072f	0.07276761
255	0x3d5a78eb	0.053337973

gru.bias_ih_l0 f4 [180]
0	0xbdae708f	-0.085175626
1	0x3c92d27d	0.017922634
2	0xbca70f43	-0.02039302
3	0x3db01c7a	0.085991815
4	0xbe153e8e	-0.14574644
5	0xbd6630b9	-0.05619881
6	0x3e0e0f27	0.13872968
7	0x3cedc80b	0.029026052
8	0x3d3aac92	0.045574732
9	0xbe1402f2	-0.14454249
10	0xbd1c595c	-0.038171157
11	0xbe1147c1	-0.14187528
12	0xbc675f14	-0.0141217895
13	0x39c66f29	0.00037848324
14	0xbe143345	-0.14472683
15	0xbcb02495	-0.021501819
16	0xbd8264ae	-0.063668594
17	0xbdac5325	-0.08414296
18	0x3dd80273	0.10547342
19	0x3d08a5a8	0.033361107
20	0xbdded982	-0.1088133
21	0x3e001a8c	0.12510127
22	0xbd6dba9f	-0.058039304
23	0x3d1f91f8	0.038957566
24	0xbd0cc611	-0.03436858
25	0xbdc34016	-0.09533708
26	0x3d3371b2	0.0438096
27	0xbe09f2f5	-0.13471587
28	0xbbcc7e1e	-0.0062406203
29	0x3dca8811	0.09889234
30	0x3dd09e34	0.10186425
31	0x3c890a92	0.016728673
32	0xbd23c81e	-0.03998577
33	0xb96ef62f	-0.00022789159
34	0x3d09841f	0.033573266
35	0x3d150466	0.036381148
36	0x3d30fb8f	0.043208655
37	0xbdbaecf5	-0.09127227
38	0xbe13534a	-0.14387241
39	0xbcc35bc4	-0.023847468
40	0x3d7caec7	0.06169012
41	0x3d9f88b5	0.07789747
42	0x3d800e93	0.0625278
43	0xbdcacf25	-0.09902791
44	0x3da15e5b	0.07879325
45	0x3dac1cd7	0.08403938
46	0xbe2020c8	-0.15637505
47	0x3d8866b3	0.06660213
48	0x3dc8d705	0.09806637
49	0xbc804827	-0.015659405
50	0x3ba38a5c	0.004990859
51	0xbd2d02cd	-0.042239
52	0x3dbdf78f	0.09275734
53	0x3dda4410	0.10657513
54	0xbc7e8f42	-0.015537085
55	0x3dceebc7	0.10103565
56	0x3d111377	0.035418954
57	0xbd1819b0	-0.037133873
58	0x3d376c45	0.04478099
59	0x3df65f49	0.12029893
60	0x3c88cdd9	0.016699718
61	0x3ccaf572	0.02477524
62	0x3e13ad9d	0.14421697
63	0xbd19e36b	-0.0375704
64	0x3d8e20b9	0.06939835
65	0x3d51904b	0.051163
66	0xbc852465	-0.016252706
67	0x3d88017c	0.06640908
68	0xbdca1eec	-0.09869179
69	0xbcbd5e53	-0.023116266
70	0x3df49fa9	0.11944515
71	0xbc29af22	-0.010356696
72	0xbd8c0c3c	-0.06838271
73	0xbd479a82	-0.048731335
74	0xbdc7ec80	-0.09761906
75	0x3d8fe7d6	0.07026641
76	0x3b587044	0.00330259
77	0xbda32e42	-0.07967807
78	0x3d2969fb	0.041360836
79	0x3dc3b7b2	0.095565215
80	0x3d511348	0.05104378
81	0xbdcc866c	-0.099865764
82	0x3d19afcf	0.03752118
83	0xbdb69d44	-0.08916715
84	0x3dcc1437	0.09964793
85	0xbd326515	-0.04355343
86	0x3d947ac0	0.07249975
87	0xbd9f7fc3	-0.077880405
88	0x3ddd4c9a	0.10805626
89	0xbd8d7c9b	-0.06908532
90	0xbdb02ce3	-0.086023115
91	0x3d90a86a	0.070633724
92	0xbdec4535	-0.11536638
93	0x3c5bff5b	0.013427581
94	0xbb0ca402	-0.002146006
95	0x3d44b195	0.048020918
96	0xbd2b01cb	-0.041749757
97	0xbdbd916d	-0.092562534
98	0x3d2cdc7f	0.04220247
99	0x3cda564b	0.026652476
100	0xbcd0bc2d	-0.025480354
101	0xbd20a8ed	-0.0392236
102	0xbda20518	-0.07911128
103	0xbcce07b7	-0.025150163
104	0xbd982e53	-0.07430711
105	0xbd6403a6	-0.055667542
106	0x3e0870a8	0.13324225
107	0xbc9c7d7b	-0.019102803
108	0x3c8602f6	0.016358834
109	0xbdd23d68	-0.102656186
110	0xbd0c021d	-0.034181703
111	0xbccf4ef8	-0.02530621
112	0xbdc78daa	-0.09743817
113	0x3ddc393b	0.10753103
114	0xbd89c2bb	-0.06726595
115	0x3df15dd0	0.117854714
116	0xbd1c86dc	-0.03821455
117	0x3cbd3d20	0.023100436
118	0x3d537312	0.05162341
119	0x3cf91c47	0.030408992
120	0x3d2c2fc4	0.04203774
121	0xbce0478e	-0.02737787
122	0x3db98c81	0.09060002
123	0xbbf9d8d5	-0.0076247253
124	0x3dbcfdf5	0.09228126
125	0xbd03d46d	-0.032185007
126	0xbdb0f184	-0.086398154
127	0x38ed6fb9	0.000113218506
128	0x3c4b8f47	0.012424297
129	0xbddd6b57	-0.10811489
130	0x3d927ba7	0.07152491
131	0xbddf2c67	-0.10897141
132	0x3e05c860	0.13064718
133	0xbe1a4e01	-0.15068819
134	0xbdd988d2	-0.106217995
135	0x3d8e49b8	0.069476545
136	0x3d9cc926	0.076555535
137	0x3dcd79ef	0.100330226
138	0xbd81fb30	-0.06346738
139	0xbc2e4748	-0.010637112
140	0x3c903ba6	0.017606568
141	0x3dba2bbf	0.09090375
142	0xbb280772	-0.0025639203
143	0xbe09c96f	-0.13455747
144	0xbd0874e6	-0.033314608
145	0x3d9ed4c7	0.07755428
146	0xbd0c5c7c	-0.034267887
147	0xbb34cc43	-0.002758757
148	0x3d2b0a13	0.041757654
149	0xbcc9429f	-0.0245679
150	0x3dc205fc	0.09473798
151	0xbdaa9175	-0.08328525
152	0xbbf718ca	-0.007540797
153	0xbc860260	-0.016358554
154	0x3de41526	0.11136846
155	0xbd3890eb	-0.04506008
156	0xbd8ecd9f	-0.06972813
157	0xbd6422e5	-0.05569734
158	0xbca70a6f	-0.020390717
159	0xbd5b0f60	-0.05348146
160	0xbcc3b639	-0.023890601
161	0xbd3a77a6	-0.045524262
162	0x3d767169	0.06016675
163	0xbdfc54f7	-0.12320893
164	0x3d4e3f2c	0.050353214
165	0xbdf5879e	-0.119887576
166	0x3de9533a	0.11392827
167	0xbce1d23d	-0.02756607
168	0x3d016625	0.031591553
169	0xbda7adec	-0.0818747
170	0xbc8c66f3	-0.017138934
171	0x3df66c4c	0.12032375
172	0x3d5d460b	0.054021876
173	0xbdd3f956	-0.103502914
174	0x3db4e232	0.08832206
175	0xbcde4810	-0.027133971
176	0x3e0e337e	0.1388683
177	0x3b369f91	0.0027866105
178	0xbd933fcb	-0.07189902
179	0x3bf9f0b1	0.0076275696

gru.bias_hh_l0 f4 [180]
0	0x3c830194	0.015991963
1	0xbe20c9dc	-0.15702003
2	0xbda4514f	-0.08023321
3	0x3da9a9fb	0.08284374
4	0xbcc328e5	-0.023823211
5	0xbdb9b20c	-0.09067163
6	0x3ca08a6a	0.019597251
7	0x3dc31e4f	0.09527265
8	0x3beac1e2	0.007164226
9	0xbe0b0ca6	-0.13579044
10	0xbdf05a84	-0.117360145
11	0x3da66f51	0.08126701
12	0xbdb6da4c	-0.089283556
13	0xbdf40931	-0.119158156
14	0xbd193f53	-0.037413906
15	0x3d83c488	0.0643397
16	0x3d8f63ea	0.07001479
17	0xbd92cd26	-0.07168035
18	0x3d6766b6	0.056494437
19	0xbd529545	-0.051411886
20	0xbc623ab7	-0.013807944
21	0x3cc173dc	0.023614816
22	0xbdda7fcb	-0.10668906
23	0xbd5dac2e	-0.05411928
24	0xbe160777	-0.14651285
25	0xbe068004	-0.13134772
26	0xbd7d04a3	-0.061772
27	0xbd6cc483	-0.057804596
28	0xbdc70128	-0.097170174
29	0x3c6bf504	0.014401678
30	0xbccd5f6e	-0.025069918
31	0x3def9dcc	0.11700019
32	0x3da4a9a4	0.08040169
33	0x3caadc30	0.020856947
34	0xbd70ea6d	-0.058817316
35	0x3cdd0a1a	0.026982356
36	0xbd86297f	-0.065508835
37	0x3c7b4c10	0.015337959
38	0xbd6be05f	-0.057587024
39	0x3e076837	0.13223349
40	0xbba713ce	-0.0050987964
41	0x3ccbd66f	0.024882523
42	0xbde76cf7	-0.1130008
43	0xbe03826a	-0.12842718
44	0xbd2b42b4	-0.04181166
45	0x3db562e4	0.088567525
46	0xbd980508	-0.07422835
47	0x3d60cc02	0.054882057
48	0xbddb8c34	-0.10720101
49	0x3cd89684	0.026438959
50	0xbd66746b	-0.05626337
51	0xbd96a1f7	-0.07355111
52	0xbd7d622c	-0.061861202
53	0xb985e30a	-0.00025536894
54	0x3d945a62	0.07243802
55	0x3de95046	0.11392264
56	0xbdbfcd05	-0.09365276
57	0x3ce779b0	0.028256267
58	0xbe094944	-0.13406855
59	0x3d14de69	0.03634492
60	0x3d9a5bcc	0.0753704
61	0x3c8db3da	0.017297674
62	0x3dfe4fad	0.12417541
63	0xbdb95194	-0.09048763
64	0x3cda5f41	0.026656749
65	0xbd60c54a	-0.05487565
66	0x3b2ffa30	0.0026852004
67	0xbc8d695f	-0.017262159
68	0x3db9ea32	0.09077872
69	0x3c77352b	0.01508836
70	0x3d598e0c	0.053113982
71	0x3dba3c63	0.09093549
72	0xbd63a4d2	-0.055577107
73	0xbd51fd29	-0.051266823
74	0x3cc10a84	0.023564585
75	0x3d94ebe0	0.07271552
76	0xbdbdfa84	-0.09276298
77	0xbdc153e3	-0.09439828
78	0x3da42832	0.08015479
79	0xbdafe791	-0.0858909
80	0x3ddb43ca	0.10706289
81	0xbdc63c09	-0.096794195
82	0x3dec898d	0.11549673
83	0xbdcbcfdd	-0.09951756
84	0x3ce538a9	0.02798112
85	0x3b23198d	0.0024887056
86	0x3ce6119e	0.028084572
87	0x3d1db912	0.038506575
88	0x3df406ea	0.11915381
89	0xbc8b3367	-0.016992284
90	0x3df822ac	0.12115988
91	0xbd2412fe	-0.040057175
92	0xbdd17ae7	-0.1022852
93	0x3ddcd0e7	0.107820325
94	0x3d43a51d	0.047764886
95	0x3c1964dd	0.009362427
96	0x3d2280f0	0.039673746
97	0x3d7d004e	0.06176787
98	0x3d547d56	0.051877342
99	0x3d8e6eb5	0.069547094
100	0x3d74d8e5	0.05977716
101	0xbb5f1ef1	-0.0034045542
102	0x3dabed17	0.08394831
103	0x3dd165d3	0.102244996
104	0xbcafebb4	-0.021474697
105	0xbdfad4ec	-0.12247643
106	0x3d710eaf	0.058851894
107	0x3d41cb6d	0.047313143
108	0xbd9a5de8	-0.075374424
109	0xbda2c4af	-0.07947671
110	0xbde3cbd3	-0.11122861
111	0x3c95368b	0.018214485
112	0xbd6b1e0a	-0.057401694
113	0x3d904c81	0.07045842
114	0x3d63531e	0.05549919
115	0xbd372e39	-0.044721816
116	0xbd2e6989	-0.042581115
117	0xbdd5d977	-0.10441869
118	0xbd970601	-0.07374192
119	0x3d42ae93	0.04752977
120	0x3ca330d9	0.019920753
121	0xbd42d8cb	-0.04757003
122	0x3c88c158	0.016693756
123	0xbd568cf5	-0.05238052
124	0xbdd364c0	-0.10321951
125	0xbdb5a9e3	-0.08870294
126	0xbd85eee5	-0.06539706
127	0xbe15602f	-0.14587472
128	0x3db147de	0.08656286
129	0xbd722d67	-0.05912533
130	0xbdd1a046	-0.10235648
131	0x3a3409f0	0.0006867936
132	0xbda14286	-0.078740165
133	0x3d432dee	0.047651224
134	0x3da71778	0.08158773
135	0x3c81757b	0.01580309
136	0xbda78a0b	-0.081806265
137	0x3db6d892	0.08928026
138	0xbddda8af	-0.108231895
139	0x3de32018	0.11090106
140	0xbcb2dafa	-0.021832932
141	0x3d0e1b52	0.034694023
142	0xbde67961	-0.1125362
143	0x3d0eacd2	0.034832783
144	0xbcfb6d7a	-0.03069185
145	0xbd00fce6	-0.031491183
146	0xbd86da24	-0.06584576
147	0xbd53977a	-0.05165813
148	0x3b93576c	0.0044965055
149	0x3cc95cbf	0.024580358
150	0x3dd08594	0.10181728
151	0xbd433e67	-0.047666933
152	0x3d5b21f2	0.05349917
153	0xbe272802	-0.16323856
154	0x3d024c51	0.031811062
155	0xbd0c574f	-0.03426295
156	0xbcd71730	-0.026256174
157	0x3c92f617	0.01793961
158	0xbc8226a7	-0.015887571
159	0xbd25a261	-0.04043806
160	0x3de71629	0.112835236
161	0xbdfdf4e3	-0.12400224
162	0xbd9f7adf	-0.07787108
163	0xbd52b982	-0.051446445
164	0x3deaaa32	0.114582434
165	0xbd9e5ca3	-0.07732513
166	0x3c4b4670	0.01240693
167	0xbd5ad268	-0.053423315
168	0x3dd3e11b	0.1034567
169	0x3dbca36c	0.09210858
170	0xbd98ec66	-0.074669644
171	0x3d441906	0.047875427
172	0xbe06d067	-0.13165437
173	0xbd934c19	-0.07192249
174	0xbde492ca	-0.1116081
175	0xbd537f26	-0.05163493
176	0x3d0676e5	0.03282823
177	0xbd506e56	-0.050886475
178	0xbd911a30	-0.07085073
179	0xbd590a7f	-0.052988525
