flu_models/flu_deploy_week_52_featss_3/feat_enc.pt (torch, 25195 bytes, 8 tensors)

gru.weight_ih_l0 f4 [90, 1]
00000000: f6b9 ac3e 55b1 7f3d 3d12 28bf f401 54be
00000010: 220d b93c e00a dabe 3436 e53e 27f4 f13e
00000020: 3c7c b6bc 2814 a9bd dc16 93bc a957 3e3e
00000030: 928f 13bf af38 23bd b65e 163f 679a 743c
00000040: 8a4d d9bc cd68 033e cbac 0d3f cd87 983e
00000050: 80be 88be 9a97 2a3f 3f12 ad3d 8940 653f
00000060: 9492 cbbd b45d 92be 2952 cbbe d593 fabe
00000070: ba85 4c3e c483 be3e 14d4 6a3e 2d87 c73e
00000080: 4bf9 e4be 6935 2abf 3106 00be 81c2 1bbf
00000090: 9dcf 3e3d 8ee2 7b3e c1a1 303f 43f1 6c3f
000000a0: 4971 0b3f 9974 cabe 4769 603e ba9b f8be
000000b0: 6667 df3e f592 00bf 5bb3 473e cd60 34bf
000000c0: 4d89 2dbf eafd 2a3e a896 923e 85b3 213f
000000d0: 1c3c 91be e730 c93e c9c6 8b3e dcef 78be
000000e0: c1a6 b0bd 8dc1 1fbf b936 be3c f289 ae3c
000000f0: a0a3 d53e a628 e73e 9261 1fbf 5241 833e
00000100: 892f dd3e 5956 e63e afdf 79bd 89cb 3b3e
00000110: fb24 133f 3712 273f 4b6c 2bbf b710 5bbe
00000120: 9245 b43e 6bbb ac3e 4ac8 2d3f 724e 173f
00000130: c163 c0bd efd8 b8be 6c1b 7d3d 63c3 0fbf
00000140: 2367 0cbf 0ca8 5a3f 1043 b93e c7a6 35bf
00000150: fb6f 493e 61db 9cbe 17be d7be 5a3f 64be
00000160: 5cd6 763d 5103 04bf
0.33735627 0.062424976 -0.6565283 -0.2070387 0.02258927 -0.42586422 0.44767916 0.47256586
-0.022276036 -0.082557976 -0.017955236 0.18588127 -0.57640946 -0.03984898 0.5873827 0.0149293905
-0.026526231 0.12832947 0.55341786 0.29791108 -0.2670784 0.66637576 0.08450746 0.895516
-0.09940067 -0.28587115 -0.3971112 -0.48940912 0.19972888 0.37209904 0.22932464 0.38970318
-0.44721445 -0.6648775 -0.12502362 -0.60843664 0.046584714 0.24598143 0.68996817 0.92555636
0.54469734 -0.39542082 0.2191516 -0.4855631 0.43633574 -0.5022424 0.19502012 -0.70460206
-0.6778763 0.16698423 0.28630567 0.6316455 -0.28366172 0.39295122 0.273001 -0.24310249
-0.08625556 -0.6240471 0.023219453 0.021306012 0.41726398 0.451482 -0.62258255 0.25635773
0.4320033 0.44987753 -0.061004337 0.18339361 0.574783 0.6526217 -0.66962117 -0.21393095
0.35209328 0.3373674 0.6788374 0.59104073 -0.093940265 -0.36103007 0.06179373 -0.5615751
-0.54844874 0.8541267 0.36183977 -0.7095761 0.19671623 -0.30636123 -0.42137215 -0.22289792
0.060263023 -0.5156756

gru.weight_hh_l0 f4 [90, 30]
00000000: 9638 04be 4e9e 303d 636c 0a3f 6415 953e
00000010: a234 0a3e 2f85 373e c009 9f3e 4152 683e
00000020: 6711 0dbf 33cc bcbe 8418 b3bd c82d 7ebe
00000030: 90e2 ca3d 2f49 90bd 6aec 1cbf 4704 953e
00000040: fc1c 21bf 63e1 2fbc 227d de3e 7484 29be
00000050: 810f 8cbe 843e f93e 9040 9b3e bd80 893e
00000060: ee8d 8cbc b7d3 d1be 3479 34bf 7068 3ebe
00000070: 6e96 08bf e3b7 a43d 3ec9 60be 8f53 39bd
00000080: 8c05 e33e 4e03 8dbe 7b7d 08bf 1efc b7be
00000090: 4953 5abe 81c3 67be b5c3 89be 5c83 78be
000000a0: 979a 0f3f 308c df3e 2f82 b83d f43a 1b3e
000000b0: ab10 4f3e 7ca5 e5be ea70 123e 4ae8 a93e
000000c0: 86b5 a9be c0cf 0cbe ba45 d33e 795d 30be
000000d0: 2c03 7abe 92cd b13e 5c07 66be 17a0 9a3c
000000e0: c7f0 033f 44f6 1cbd 2087 1e3e e8b7 84be
000000f0: 2032 abbe df53 e2be 58f4 6c3e 4ae1 63bd
00000100: bb2d 2bbe 71a0 5cbe 2ced 023d 4278 1ebe
00000110: ddd7 00be c8cc b0be 933f e23d 194d 99be
00000120: aa62 e1bd 9c68 35be ae61 a1be 485e 8ebe
00000130: 646b aa3b 0c10 063e fee4 66bd dd30 d73e
00000140: 2a0a c83e e04a d4bd c84e d03e 0d39 f03e
00000150: bb36 7ebe 3eb2 e03d f62c 1dbd 397e 023e
00000160: 253f 453e 2506 9d3e 292c 14bf 3fde ecbe
00000170: 8f7c 813e dfc5 6d3e 403e 0dbe eea5 b73d
00000180: 9b85 ed3d fb0b 06be 7233 f5be 74bb 8fbb
00000190: b8dc 803e fa60 eabd 8416 7a3e a161 71be
000001a0: 36ee edbe 9bd3 dabd d8d9 f33d 5887 90be
000001b0: 9c1a e13e 4980 0fbe b825 bcbc b4a0 a43a
000001c0: 9a0c 413e b767 d33b fbf2 22be 1b4e b23e
000001d0: b112 93be 2569 4a3e c052 dcbd f7bd 893e
000001e0: 5366 03be 1b9e 2bbd 8e24 933d b837 70be
000001f0: d044 d8bc 8494 963d d0dd debd bc63 85be
00000200: b479 ae3e b4eb 60be 5707 0ebf 761b e23e
00000210: f39a a53e 5529 c7bd 12a7 d2bd 0d13 613e
00000220: 06b0 5c3e 2fb9 593e 0465 25be 031b f7bd
00000230: 7ff5 94bd f661 103f 38c0 aebe db06 8b3d
00000240: ad1f 843e 56e8 00be 36c6 b53d 5508 cebd
00000250: 71a7 e13e 3c98 77be 8976 b63e b418 d23e
00000260: ca1f fc3b 1ef4 cbbd e38e 6c3e a458 98bd
00000270: 4299 1f3c 6936 d03c 9686 323c 21fa 973d
00000280: 0617 40be eb0d 33be 4e1d 2e3e 8bb4 edbd
00000290: 0888 1d3e faac 82be 8829 c4bd 55d2 8e3e
000002a0: e460 b3be 982e 06be 8591 14be 6895 003f
000002b0: 19b5 c1bc 8ef9 fabe 603e af3e db1e 79bd
000002c0: ee47 3fbe 6428 113e cfe8 ad3e 2048 48bf
000002d0: 25a6 06bf 41a1 3abe 02ae 123e 7893 7e3f
000002e0: 347f 233e 03b9 0e3e 3b0f 3c3f 38eb 833e
000002f0: b207 953d 0eaf 26be b737 fabe 58ee 44bf
00000300: 833a 42bd 205b 463f 1cc7 21bf 55cd e43e
00000310: d91b 1bbf 155d 533e e3a0 443d 076c 083f
00000320: 7070 ce3e 4aac 163f 3090 c23e 92af 8c3e
00000330: d7e0 50bf 9382 8cbf f1b8 853e 56ae f6be
00000340: ea5e a9be 3951 46be c97d aebe e0a6 1e3c
00000350: 61ed aa3e 1b44 d5be 9dc3 60be 4aea b3be
00000360: 9ea3 a13e a8b9 903e 833a ee3e 145e b9be
00000370: 91b3 85be ee39 ecbd da3c d9be c44f 193e
00000380: 97ca bc3e 4401 03be d39e 2fbe 1784 4c3e
00000390: 68c1 efbd 1dfb afbd 24e8 063f 99ee c23e
000003a0: 9608 0cbe 929d 303d 89d7 9bbe d0b7 9cbe
000003b0: f25a 003f 4a77 51bd 3d1b cebe c8e0 69be
000003c0: b71e a3be 0e30 84be f924 643e dc66 353f
000003d0: bfa0 4c3c a613 0d3f e133 c33d a2f5 a73e
000003e0: b268 b4be e97e a53e f6fa 8f3d 7a3c a5be
000003f0: f347 b83e bb6d 1dbe 823c 85be 1732 183f
-0.12912211 0.04311972 0.54071635 0.29117882 0.1349664 0.179219 0.31062126 0.22687627
-0.5510468 -0.36874542 -0.0874491 -0.24822152 0.099064946 -0.07045209 -0.6129824 0.29104826
-0.6293485 -0.010734889 0.43454844 -0.16554433 -0.2735558 0.48680508 0.30322695 0.26856032
-0.017157521 -0.40981838 -0.7049744 -0.18594527 -0.5335454 0.08042886 -0.21951768 -0.045245703
0.4434017 -0.27541584 -0.5331647 -0.35934538 -0.21320833 -0.22633173 -0.26907125 -0.2426886
0.5609526 0.43661642 0.090092055 0.15159208 0.20221202 -0.44852817 0.14300886 0.33185035
-0.33146304 -0.13751125 0.41264135 -0.17223157 -0.24415272 0.3472715 -0.22463745 0.018875165
0.5153927 -0.038320795 0.15481234 -0.2592156 -0.3343668 -0.44204614 0.23140085 -0.055634774
-0.16716664 -0.21545579 0.031964466 -0.15475562 -0.12582345 -0.34531236 0.11047282 -0.29941633
-0.11005147 -0.17715687 -0.31519836 -0.27806306 0.0052007902 0.13092059 -0.056370728 0.42029467
0.39070255 -0.10365844 0.40685105 0.46918526 -0.24825566 0.10971497 -0.038372956 0.12743463
0.19262369 0.3066875 -0.57879883 -0.4626331 0.25290343 0.23220013 -0.13793278 0.089671955
0.11597749 -0.13090508 -0.47890812 -0.00438636 0.25168395 -0.11444278 0.24422652 -0.23572399
-0.46470803 -0.10684892 0.11906785 -0.2822826 0.43965614 -0.1401378 -0.022967204 0.00125601
0.18852463 0.0064515728 -0.15913002 0.34825215 -0.28725198 0.19766672 -0.10757971 0.26902744
-0.12832002 -0.041898828 0.07184707 -0.23458755 -0.0264 0.07352546 -0.10882151 -0.26052654
0.34077227 -0.21964914 -0.5547995 0.44161576 0.3234478 -0.0972468 -0.102857724 0.21979924
0.21551523 0.21262048 -0.16151816 -0.12065699 -0.07273387 0.56399477 -0.34131026 0.06788417
0.25805417 -0.12588629 0.08875696 -0.10060183 0.4407306 -0.24179167 0.3563731 0.41034472
0.0076942192 -0.09958671 0.23101382 -0.07438782 0.009741129 0.02541657 0.010896346 0.07420755
-0.18758783 -0.17485778 0.17003366 -0.116067015 0.15383923 -0.25522596 -0.09578234 0.27894846
-0.3503486 -0.13103712 -0.14508636 0.50227976 -0.023645924 -0.4901852 0.34227276 -0.06082044
-0.18679783 0.14175564 0.3396668 -0.78235054 -0.52597266 -0.18225576 0.14324191 0.9944377
0.15966493 0.13937764 0.7346074 0.25765395 0.072768584 -0.16277716 -0.48870632 -0.76926184
-0.047419082 0.77482796 -0.6319444 0.44687906 -0.6058937 0.20640977 0.048004996 0.53289837
0.40320158 0.5885664 0.3800063 0.274777 -0.8159308 -1.0977348 0.26117662 -0.48179883
-0.33080226 -0.19366921 -0.3408034 0.009683341 0.3338423 -0.41653523 -0.2194962 -0.35139686
0.31570143 0.28266644 0.46529016 -0.36204588 -0.2611356 -0.11534487 -0.4242924 0.14971834
0.36873314 -0.12793452 -0.1715043 0.19972263 -0.11706811 -0.08592818 0.5269797 0.3807266
-0.1367515 0.04311902 -0.30437878 -0.30608988 0.5013877 -0.051139154 -0.40255156 -0.22839653
-0.3185937 -0.25817913 0.22279729 0.70860076 0.012489497 0.55108106 0.095313795 0.3280459
-0.35236126 0.32323387 0.07030289 -0.32272702 0.35992393 -0.1537389 -0.26022726 0.5945143

gru.bias_ih_l0 f4 [90]
00000000: 36a6 65be b069 c83d c760 ecbe efce 84bd
00000010: 4b8a 84be 0631 cd3d 3e31 99be 90a9 9c39
00000020: 9029 b63d d115 71be 64be 57be 6556 16bf
00000030: 6f35 8c3e 575a 243e f9f1 48bd 2231 8d3c
00000040: 67da 8c3e 89ce 123e 9ab5 b53e d485 833d
00000050: b463 04be f1c4 28be d8f3 d3be 662a 0e3d
00000060: 2f6a 7e3d 7e06 393e c2db 47bd 9557 73be
00000070: 2539 ffbc 7296 1e3d 3003 80bc f257 8f3d
00000080: 06a2 dabd c66b c63e ec1b b63e 9240 083f
00000090: 4253 5a3e eabd fc3d 29e0 babc 291d 7fbd
000000a0: 3800 a6bd fa8b 563e 90de e23e b702 323e
000000b0: 8e2e a33e 74e5 b93e 0480 b43e 4c49 523e
000000c0: 964d 333f 2875 0c3e 9943 7f3e 4f0a fabe
000000d0: 23e1 a93d 76b6 f2bd 6b12 cb3e 3e15 ccbe
000000e0: 2087 bc3d c6f4 003f 71f6 d03e c2a5 04bd
000000f0: 263c df3c c8e9 0e3e 9722 34be c567 9a3d
00000100: 5d59 0d3d 5d72 623d b152 923d 1e9d d1bd
00000110: e9c1 fc3d 6ed5 183e 8868 9fbd 333b 223e
00000120: 68b0 303c 3edd 453d 6deb 983d 85d6 59bd
00000130: 6d5f f6bd eba9 3abe 6e8b 7cbc 3a92 2cbe
00000140: 5957 71be f55c 41bd eac3 07be 6ad5 8fbd
00000150: f95b 2bbe ff19 61be a90a 613d 4c48 5dbd
00000160: a707 4a3e e906 d7bd
-0.22426686 0.09785783 -0.46167585 -0.06484782 -0.2588676 0.10019116 -0.2992038 0.00029880973
0.08894646 -0.23543479 -0.21068722 -0.5872558 0.27384517 0.16050087 -0.049058888 0.017235342
0.27510378 0.143366 0.35490113 0.0642201 -0.12928659 -0.16481377 -0.41396976 0.034708403
0.062112983 0.18068883 -0.04879356 -0.23763879 -0.031155178 0.038717695 -0.01562652 0.06999196
-0.10675435 0.387541 0.35568178 0.53223526 0.21320823 0.12340911 -0.022811966 -0.06228367
-0.081055105 0.20951834 0.44310427 0.17383848 0.31871456 0.3630787 0.35253918 0.20535773
0.7004026 0.13716567 0.2492813 -0.4883599 0.082948945 -0.11851208 0.3966249 -0.39859957
0.092054605 0.50373495 0.4081302 -0.03238464 0.02725036 0.13956368 -0.1759132 0.07539324
0.03450905 0.055284847 0.071446784 -0.10235046 0.12341673 0.14925167 -0.0778361 0.15842895
0.010784246 0.048306696 0.07466779 -0.053183097 -0.1202992 -0.18228881 -0.015414102 -0.16852656
-0.23568477 -0.04720779 -0.13258329 -0.070231274 -0.16734304 -0.21982573 0.054941807 -0.054024026
0.19729482 -0.10499365

gru.bias_hh_l0 f4 [90]
00000000: eb46 bcbe 3cb1 ef3d 5b34 6cbe 94a4 053e
00000010: e30a f7bd 091a ea3d 7037 6ebe 5f7e c53c
00000020: fd97 ec3d 407d a4be c2ea afbd 9878 b4be
00000030: b617 5e3e 7ed5 923e 67d7 53bd 59c3 9d3d
00000040: 753e 4f3e 4c31 ac3d 9f47 f63e 61e7 993d
00000050: 967b b53c 2bc5 1fbe 73e5 78be 32fc 90ba
00000060: a785 e43d 067c 253e a571 1c3e cc2d 6ebe
00000070: 06a7 fabc 0e86 073c 06a2 b33d 1237 2ebe
00000080: 143e ad3c db99 1e3e 3568 8f3e 8c85 3c3f
00000090: d3fe 0a3e 746d a63e 8f81 12be 6c6d dfbb
000000a0: 320f 6b3d 77a6 203e 4b1f 063f a2dc 9abd
000000b0: 6de4 223e b4cb 653e 0606 8f3e 736b ac3e
000000c0: 755c 583f 53c2 323e 2b59 4e3e 894f fdbe
000000d0: ce89 c03e a824 16be 686a c03e 0e3d e8be
000000e0: ea02 d33e 5f9f ef3e fa7e 063f 3649 ad3d
000000f0: 5609 63bd 9dd4 1e3e c60b 96bc 6fb4 d43d
00000100: f8f9 a6bc 831b 9bbd e03d d33d 59e1 b83d
00000110: 1880 5abc 71d2 b63d c888 98bd 4465 fd3d
00000120: 09c1 573e 1f18 0cbe 4a3f 623e 391a 083e
00000130: 51a4 47be 7b7d d9bd 06d6 193d 0101 5dbe
00000140: 348a 943b c385 d4bc 7ba0 d5bd 2cec 94be
00000150: d0c4 aebd ab32 923d 3159 5f3e 6cdd 1fbc
00000160: 38bd 693e be19 623d
-0.36772856 0.11703727 -0.23066847 0.13051063 -0.12062623 0.11430747 -0.23263335 0.02410811
0.11552427 -0.32126808 -0.085896984 -0.35248256 0.21688733 0.28678507 -0.051719096 0.07703275
0.20238669 0.0840784 0.48101518 0.07514835 0.022153657 -0.15602557 -0.24306278 -0.0011061488
0.11158305 0.16160592 0.15277727 -0.23259658 -0.030597221 0.008271707 0.08771138 -0.17013195
0.021147765 0.15488379 0.2800919 0.73641276 0.1357377 0.3250538 -0.14307235 -0.006818464
0.05738754 0.15688501 0.523915 -0.075616136 0.1590745 0.22440988 0.27934283 0.33675727
0.8451608 0.17456941 0.20151202 -0.49474743 0.37605137 -0.14662421 0.37581182 -0.4535908
0.4121316 0.46801278 0.525375 0.084612295 -0.055428825 0.15510793 -0.01831616 0.103859775
-0.020382866 -0.07573607 0.10314536 0.09027357 -0.013336204 0.08926857 -0.07447964 0.123728305
0.21069731 -0.13681076 0.22094455 0.13291253 -0.19496275 -0.106196366 0.037557624 -0.21582414
0.0045330767 -0.025942689 -0.10431 -0.29086435 -0.08533633 0.071385704 0.21811368 -0.009757381
0.22826087 0.05520033

gru.weight_ih_l0_reverse f4 [90, 1]
00000000: 5627 163f cbb4 013e 0643 0dbe 5af0 be3d
00000010: f224 e93e 87dc 6ebd 399e 8c3c 0101 2fbd
00000020: c093 47bc d4fa 033e b6d7 c9bd 9bcd ab3b
00000030: f33e fd3c b21b 35be e98d 40be 6f47 763e
00000040: 9bc8 cf3e b7a1 0a3c a05e 673e 235c 183f
00000050: fc6a 183e 1ae3 a93d cfed d63e cefc c83e
00000060: 347f e63e 5c5e bd3d 79f0 703e 6d63 723e
00000070: 3faa b3bd 6263 9c3d 243a 6cbd e431 4f3d
00000080: eba6 f5be 5e40 713e 3408 df3e 7549 2fbc
00000090: eea0 303e fce8 453f 52ab 473e 90b6 163f
000000a0: cdbb 043f debb 54be 1f91 573e bab5 303e
000000b0: 3875 2dbd 264e 633e e9f4 563f 57ac 4dbe
000000c0: 19b6 1a3f 5a22 2c3f f62d 023e 1b01 e73e
000000d0: ef1c ec3e 57a9 793e 61fe 2e3f 14a9 fc3d
000000e0: c6c3 b53e e312 233f 0b49 a73d 75ca b0bd
000000f0: d17a 9e3e c4f8 b9bb 079d f93d a622 1cbc
00000100: ac01 6cbe 0b4a 713e c8f4 8f3c 0671 07bf
00000110: 63e3 30bc 4e9d 93be 0bca 98be c249 fabc
00000120: be4d e4bb 668c 08bd 4b70 a1bb 1640 813b
00000130: a628 db3e e247 d23d 5b72 abbd ab4f e6be
00000140: 45d7 60ba af2b 383d f9c2 4dbe 69af 3b3b
00000150: b82b ca3e 674a dabb 823f cbbc 6c27 893e
00000160: 634a 03be 30da ca3b
0.5865377 0.12666623 -0.13795099 0.09323187 0.45536 -0.05831578 0.01716529 -0.042725567
-0.012181222 0.12888652 -0.09855597 0.005243016 0.030913806 -0.17686346 -0.18804134 0.24050687
0.40582737 0.008461407 0.2259469 0.5951559 0.14884561 0.08295269 0.4197831 0.39255375
0.45018923 0.09246513 0.23529233 0.2367074 -0.08772706 0.07636143 -0.057672635 0.05058469
-0.4797891 0.2355971 0.43560946 -0.010698666 0.1724889 0.7730863 0.19498947 0.5887232
0.5184906 -0.2077479 0.21051453 0.17256823 -0.042348117 0.2219778 0.83967453 -0.20085274
0.6043411 0.67239916 0.12712845 0.4511803 0.46115825 0.24381004 0.683569 0.123369366
0.35500926 0.63700694 0.08168229 -0.086323656 0.30953076 -0.005675407 0.12188154 -0.009529745
-0.23047513 0.23563401 0.017572775 -0.52906835 -0.010796401 -0.2883095 -0.29841647 -0.030552749
-0.0069672754 -0.03333702 -0.0049267164 0.003944407 0.4280445 0.10267617 -0.08371421 -0.44982657
-0.00085769995 0.044963535 -0.20093907 0.0028638488 0.3948648 -0.0066617015 -0.024810556 0.2678789
-0.12821345 0.0061905608

gru.weight_hh_l0_reverse f4 [90, 30]
00000000: a726 173e 910d b3bd 55cf 683c 2d2f 92bd
00000010: 40c1 0fbe e30c c63d 5163 153e 1e00 cabd
00000020: 2723 8c3d c450 653d d8ff 913d 38d3 cd3d
00000030: 5b8a 2e3e 50e6 0d3e a296 23be 6b95 92bd
00000040: ee95 c63d a374 d5bd 1dd7 123d 2c4c a0bd
00000050: 8f86 143d 6172 b63d c70c 6b3d bfcf 073e
00000060: 9afa b3bc 6afc ca3d 59c3 713d 9aad 6bbd
00000070: 6b0a 04be ca0a 2b3e 03f7 5ebd e8d1 0c3e
00000080: bab0 eb3d a5e8 f0bb 5c6d 1abe 17d0 703c
00000090: b3c1 b4bd 5398 423d 27a0 94bd c818 103e
000000a0: adad 28be 4b51 49bd 86dc eb3c 28ae 8e3c
000000b0: 5397 193e 2249 6cbd 0c3d 15be 938f f73d
000000c0: e6f6 503d d74f f63d 454d ddbd 909d dbbd
000000d0: 650a 97bd 5aac 543c 3168 7d3d c8de d6bd
000000e0: 17d1 8cbc c23f 01bd e195 2a3e 06d9 86bd
000000f0: 6a2c 353e da54 e5bd 1c13 9abd 1d9e 0cbe
00000100: 03bb 093e cc90 00be 49c6 9a3d 0f66 89bd
00000110: a94d 3a3e 98f8 d23c 0f5b 22be 06b4 003d
00000120: fcd6 b53c 4ad3 34be cc14 163d b85f 323e
00000130: b834 573d 8986 7eba 8a06 1bbd 11ba 463d
00000140: 6495 a6bd 971b 383e 999d 213e e2ad ae3d
00000150: 3146 8bbd 0f8b 2fbe 3e40 d7bd bbc6 353e
00000160: 559a 2bbe 0882 32be fe97 57bc 9deb 6d3d
00000170: 6813 3abe ef92 2dbe a51a 823a 7ad8 7abd
00000180: 9c3f 023e 5ab5 563d 3148 22be 5181 28be
00000190: 7064 003e dd9a 04bd 0a92 a3bd da8c 6b3d
000001a0: 41f9 12bd 89d2 b23d 07a4 3d3d dde4 a1bd
000001b0: ded7 15be 0e6a ca3d 7ba6 e0bd b86c a5bc
000001c0: 527f cc3c b79a d9bd d4ad cb3d a480 03be
000001d0: 9bab 373d f9f5 9f3c 3f31 893d 577b 37be
000001e0: 2bcb 2c3c c948 b63d 8262 efbd c60c 393d
000001f0: 3f88 3b3a a59a 1e3e 6d59 1ebd 4e7d a33a
00000200: d6a0 a2bd aa4d 38bd b615 563d 084f 34be
00000210: 80d3 0d3e b370 063e 9e59 9e3d 6af4 0b3e
00000220: 9bc9 68bd f355 2a3d 692e 183c 6f47 01be
00000230: b3bf 8fbd 19be 84bd eae6 38bd 6301 26be
00000240: f77b 03be e007 8ebc c685 e3bc 66b5 29be
00000250: 1bc9 1f3d ce97 cb3d 12b3 1b3e c457 1d3e
00000260: 74a3 02be 08aa 6fbd f761 b1bd a528 093d
00000270: 9b64 483d 7061 263d c880 da3d 8044 c53d
00000280: 30b2 c8bd 8657 003e b13a fc3d 38ed c53c
00000290: fca7 22be 6854 e5bd 9366 503d f346 813d
000002a0: bd53 2e3e b54d be3d 9d85 873d 4d0c ccbb
000002b0: 93f5 fe3d 4519 88bd a93e 983d e816 b2bd
000002c0: 505b dfba dffa dc3d d691 ab3d b0d0 27bd
000002d0: 5481 17bb 2992 cfbd 0a32 ad3d 3299 fb3d
000002e0: 76b5 803d 06e9 34be 43d5 05be 4a51 fa3d
000002f0: 4927 d6bc 4ea1 e53d 7ace 093e f00e 5bbd
00000300: df61 dbbd 14e3 2fbe 3e07 8f3d 04c6 bf3d
00000310: aea5 01bd 6680 35be 30d7 f0bd 372c 21bc
00000320: 95a7 aa3d 2c95 7abd b461 f1bd 7227 02be
00000330: 6746 273e eb66 873d ecca 17be f4ea e6bd
00000340: bbb4 1ebe a964 d83c 2ad5 97bd 7904 22ba
00000350: dc9b ecbc 80a6 23be 9411 27be 2702 11be
00000360: 2699 9cbd 0ca0 e83c 95d7 afbd 823f d5bb
00000370: 4627 b3bc 8cfa 2a3e 8874 aabd c4a6 2f3e
00000380: 0a86 0fbe dffb 1bbe 0430 733d 6b9d d9bd
00000390: d9c9 bf3d a3dd cebd a238 133e 2907 353e
000003a0: 5d80 3f3c 26d3 1f3d 864d 2e3e 3ea9 dd3d
000003b0: d735 23be 4882 bfbb cdc2 28be 2cd0 0e3e
000003c0: d0f9 08bd a4ce a6ba 42ba e5bd f250 cbbd
000003d0: 201b c23c 8340 1a3e aaf2 bbbd 4554 8d3c
000003e0: d93b 293e 6d8d 273e 3634 12bd 043a 2f3e
000003f0: c32a 883d c645 2a3e 5780 b13b b871 1ebe
0.14760838 -0.08742822 0.014209588 -0.07137904 -0.14038563 0.09670427 0.14588667 -0.098633036
0.06842642 0.055985227 0.071288764 0.100500524 0.17044966 0.13857388 -0.1597543 -0.071574055
0.096965656 -0.10422637 0.03584968 -0.07827029 0.036261138 0.08908535 0.057385232 0.13262843
-0.021970082 0.099114254 0.05902419 -0.057538606 -0.12894599 0.16703334 -0.054434787 0.13751948
0.11508317 -0.007351952 -0.1508078 0.01469805 -0.08826008 0.04750855 -0.07257109 0.14071953
-0.16472502 -0.049149793 0.028791677 0.017417029 0.14999132 -0.057686932 -0.14574069 0.120879315
0.05101671 0.12026947 -0.108057536 -0.10723412 -0.073750295 0.012980545 0.061866943 -0.10491711
-0.017189546 -0.031554945 0.16658737 -0.06584363 0.17692724 -0.11197825 -0.07523176 -0.1373219
0.13450246 -0.12555236 0.07557351 -0.06708919 0.18193687 0.025753304 -0.15855049 0.031421684
0.02219724 -0.17658725 0.036640927 0.17419326 0.05254051 -0.00097093784 -0.037848033 0.04851729
-0.08133963 0.17979275 0.15782775 0.08529259 -0.06800497 -0.1714289 -0.105103 0.17751591
-0.16758092 -0.17432415 -0.013158796 0.058086026 -0.18171465 -0.16950582 0.0009926154 -0.061241604
0.12719578 0.052419044 -0.15847851 -0.1645558 0.12538314 -0.03237425 -0.07986839 0.057507373
-0.03588224 0.08731563 0.046299007 -0.0790498 -0.14633128 0.098835096 -0.10969254 -0.020193443
0.024963055 -0.10625213 0.099452645 -0.12842041 0.04484139 0.019526469 0.06698846 -0.17918144
0.010546486 0.089006014 -0.11688711 0.045178197 0.0007153786 0.1548868 -0.0386595 0.0012473257
-0.07940833 -0.04499594 0.0522668 -0.17608273 0.13850212 0.13128929 0.07731937 0.13667455
-0.05683289 0.041585874 0.009288409 -0.12624906 -0.070189856 -0.06481571 -0.04514209 -0.16211466
-0.12840258 -0.01733774 -0.02777375 -0.16573104 0.03901015 0.09941064 0.15205029 0.15365511
-0.12757665 -0.058511764 -0.086612634 0.033486027 0.04892407 0.040620267 0.10669094 0.09632206
-0.097996116 0.12533388 0.12315882 0.024160966 -0.15884393 -0.1119774 0.050879072 0.063123606
0.17024131 0.09292165 0.066172816 -0.0062270523 0.12449183 -0.06645445 0.074338265 -0.08695775
-0.0017040763 0.10790037 0.083774254 -0.040970504 -0.0023117857 -0.101353 0.0845681 0.12285079
0.06284611 -0.17667016 -0.13069634 0.12222536 -0.02614178 0.11212407 0.13457671 -0.053481042
-0.10712027 -0.17176467 0.06983803 0.0936394 -0.031652145 -0.17724761 -0.11759794 -0.009837202
0.08332745 -0.061177418 -0.117862135 -0.1271036 0.1633545 0.06611427 -0.14823502 -0.112752825
-0.1549863 0.026415186 -0.07413705 -0.0006180476 -0.028882913 -0.15981483 -0.163153 -0.14160977
-0.07646398 0.028396629 -0.08586041 -0.006507815 -0.021869313 0.16697139 -0.08323008 0.1715346
-0.14015976 -0.152328 0.059371963 -0.10625728 0.09364671 -0.101008676 0.14377072 0.17678513
0.011688319 0.039019726 0.1702176 0.10823296 -0.15938507 -0.005844388 -0.1648056 0.13946599
-0.033441365 -0.0012726379 -0.112171665 -0.099275485 0.023694575 0.15063672 -0.09177144 0.017252097
0.16526736 0.16362543 -0.035694323 0.17111975 0.06648781 0.16628179 0.0054169106 -0.15473068

gru.bias_ih_l0_reverse f4 [90]
00000000: cc53 adbf 3c3f 853c f9c5 a3be 6b75 adbe
00000010: 902a f4be d6f7 ecbe e703 b83d fda7 11bf
00000020: bf02 0ebe 88f5 bdbe 6829 893d 76ab 97be
00000030: e728 9bbe 3329 243e de85 51be ae3a 5ebf
00000040: 0376 fabd da9f f6be 2c88 4bbf 99b2 4cbe
00000050: 7e16 4fbe 937c 2abf 119e 15be 50e0 90bf
00000060: c8a9 b0bd e2d3 01c0 1986 dabf 81b5 abbe
00000070: f2d0 6bbf d568 edbf 0ae7 5a3d 49e2 b33f
00000080: f030 093f 71af 0340 ed74 963d 0c5e 1b3d
00000090: 5855 1b40 bf08 acbd 2284 2740 a89c b33e
000000a0: 342d a03d a38a 863f 426c 0040 2203 4bbc
000000b0: 0249 8b3d 008a 1240 47c1 7fbe b41c fc3e
000000c0: 21ae 013f f119 7d3d ccd6 1340 ca31 0b3f
000000d0: 68cc 853e acec cf3f 538a 07be 0ac9 d53f
000000e0: e57b 1a3e 78fa e63e c47c 6a3e c27f a53f
000000f0: cd5f 7d3e 3c76 0a3d 6bf3 8dbb d83d 8e3c
00000100: 23b0 4ebe c1fa 573e 2b6b 953d dd6f 74bd
00000110: c714 98bd 47d3 a7bd 6bf1 963d 92ae e43c
00000120: bc37 6abc 0cce 0abe 4e5e 3fbe 7aaa 52bc
00000130: d328 ca3d 8b1a 673d 4e30 acbb b58e 803d
00000140: 8265 05bd c5a6 4fbd fd43 d8bd 2213 b13b
00000150: 6ae2 8a3e 6fdd e33a e021 243e ae05 0a3e
00000160: d099 073e 3b35 c53b
-1.3541198 0.016265504 -0.3198698 -0.33878645 -0.47688723 -0.46282834 0.08985119 -0.56896955
-0.13868235 -0.37101388 0.06697351 -0.29623002 -0.30304644 0.16031341 -0.20461223 -0.8680829
-0.1222954 -0.48168832 -0.79504657 -0.19990005 -0.20223424 -0.66596335 -0.14611079 -1.1318455
-0.08626133 -2.0285573 -1.7072173 -0.33536914 -0.921157 -1.8547617 0.053442992 1.4053432
0.535903 2.057583 0.073465206 0.037931487 2.427084 -0.08400106 2.6174397 0.35080457
0.07821122 1.0511059 2.0066075 -0.012390884 0.068010345 2.2896729 -0.24976073 0.4924065
0.50656325 0.061792318 2.3099852 0.5437285 0.26132512 1.6244102 -0.1323636 1.6701977
0.15086325 0.45112967 0.22899157 1.2929614 0.24743576 0.033804163 -0.004331996 0.017363474
-0.20184378 0.21091749 0.07295831 -0.059676994 -0.07425838 -0.08194595 0.073702656 0.027915273
-0.014295515 -0.13555163 -0.18688318 -0.012858028 0.09871068 0.056421798 -0.005254782 0.06277219
-0.03256751 -0.050696153 -0.10559843 0.005403892 0.27125865 0.0017384718 0.16028547 0.13478729
0.13242269 0.0060183085

gru.bias_hh_l0_reverse f4 [90]
00000000: a793 8dbf 5fab ebbd 860f 4abe e3d8 8bbe
00000010: cbf8 22bf 8444 b0be 93d7 a1bd 8f33 10bf
00000020: 1819 ca3c a8e2 89be b0a9 b93d 080a 9bbe
00000030: b2eb 77be 3aa9 423e 6c12 243c 56b8 09bf
00000040: 3a92 43be a039 cebe 616d 7fbf ddb8 48be
00000050: 4c85 5cbd 7acc 2abf 7d3e 47be c62b 95bf
00000060: c079 57be 6c5b 04c0 7482 e5bf e2e2 a0be
00000070: cb85 7bbf 54fb d4bf ffed 01be 2e79 a93f
00000080: 5778 1f3f 07e1 f33f c863 553d c10d acbd
00000090: 96ce 1e40 67e4 85bd 6d01 1240 f15b 383e
000000a0: a6d1 d83a c61f 863f 6f7d 0040 452b 953e
000000b0: aa3e 26ba 6071 0c40 c661 b53d bef9 c73e
000000c0: 95da dc3e 9902 8d3c 8800 1b40 2b7e 023f
000000d0: 8979 db3e ab52 a83f 6a7e 5bbe 4312 f73f
000000e0: eea0 a23d 0488 983e c5b4 793e 99bb 933f
000000f0: f941 7b3c cfd3 fdbd 2982 abbd e517 ccbc
00000100: 4361 17bd 476e 04bd 85b4 21be c55d 633c
00000110: bd2d 233e 601e 2d3d 9080 623e bd28 86bd
00000120: bda9 a23d 0735 2cbe a7d8 ebbd 3f89 c13a
00000130: 88f1 263e bba1 413d 8156 2bbc 2e32 85bd
00000140: f66e a83d 6637 073d c73b a4bd 6953 afbc
00000150: aed8 3f3e 7d66 7eb9 11fd 77bc 01a0 dc3d
00000160: b9c2 be3b 8248 90bb
-1.1060685 -0.11507296 -0.19732484 -0.2731391 -0.6366088 -0.34427273 -0.07902446 -0.5632867
0.024670169 -0.26930737 0.090655684 -0.3028109 -0.24211004 0.19009867 0.010014158 -0.537969
-0.1909875 -0.4027834 -0.99776274 -0.1960177 -0.05383806 -0.66718256 -0.19457431 -1.1653984
-0.21042538 -2.06808 -1.7930436 -0.31423098 -0.98251027 -1.6639199 -0.12688445 1.3240106
0.62293 1.9053048 0.052097112 -0.08401061 2.481359 -0.06537705 2.281337 0.18003823
0.0016541972 1.0478446 2.0076559 0.29134575 -0.0006341735 2.1944199 0.088565394 0.39057726
0.43135515 0.017213153 2.4219074 0.5097377 0.4286616 1.3150228 -0.21434942 1.9302448
0.07940851 0.29791272 0.24385364 1.1541625 0.015335553 -0.12393915 -0.083744355 -0.024913738
-0.03695799 -0.03233173 -0.15791519 0.013877337 0.15935417 0.042265296 0.22119355 -0.06550739
0.07942531 -0.16817103 -0.115159325 0.0014765634 0.16303074 0.04727338 -0.010457636 -0.06503712
0.08224289 0.033011816 -0.08019214 -0.021402078 0.18735 -0.00024261507 -0.015136019 0.10772706
0.0058215526 -0.004403175
