mort_models/mort_deploy_week_42_4/feat_enc.pt (torch, 56491 bytes, 4 tensors)

gru.weight_ih_l0 f4 [180, 15]
-0.052716628 -0.03133285 -0.117575265 -0.065339476 -0.11572972 0.06506214 0.058315318 0.15897787
0.17577127 0.056582794 0.04395979 -0.032130413 -0.05362985 -0.066814475 -0.042807706 0.057217423
0.140042 0.12774402 -0.04521215 -0.083510645 0.084341936 0.12582818 0.004623425 0.06279745
0.06258746 -0.00078477914 0.051434647 -0.094606206 -0.124888934 -0.08804921 -0.046849888 0.20085837
-0.05310815 -0.090063155 -0.11281272 -0.118172616 -0.14470865 0.1447527 -0.0075410944 -0.040542416
-0.052466217 -0.13638544 0.085121445 -0.03422165 -0.01630816 -0.05399239 0.0802771 0.09055898
-0.013992705 -0.07009133 0.10802539 0.13832386 0.012223693 0.054942608 0.06085272 -0.09315495
0.027698766 -0.062504925 -0.10852029 -0.08441964 0.11172803 0.1321398 -0.09129952 0.12653403
0.10091468 -0.040998876 -0.037977725 0.0108677 0.1304937 0.039634388 -0.1103118 -0.017121844
0.06054501 0.06603041 0.07777942 0.08753239 -0.011449371 -0.11681953 -0.013502741 -0.10392717
-0.0615833 0.15498105 0.22831288 -0.1008802 0.13432789 0.030493312 -0.075922675 -0.046379797
0.08941995 -0.07416421 0.115984194 0.1614371 0.07351691 0.15327413 -0.08918929 -0.13931637
-0.07092112 -0.0156086795 -0.05058639 -0.11073668 0.10794139 0.12098678 -0.040752877 -0.016068585
-0.10432605 -0.011063911 -0.12954932 -0.11782185 0.033119623 0.022025622 -0.084984586 0.20062359
-0.058383748 0.16943102 0.14051832 -0.09576975 -0.15017833 0.03793143 0.019417027 -0.019466057
0.065922156 -0.011316687 -0.050440874 0.12543161 -0.13068986 -0.054673493 0.021032184 -0.05332684
0.021934878 -0.08576714 -0.030917734 0.074757576 -0.10332537 0.0057719266 0.11055165 0.00367712
-0.07262823 -0.017373106 0.1033993 0.073894106 0.14193794 0.030353827 0.119548954 0.039702136
-0.1975638 -0.08917015 0.17859265 0.08343265 -0.06990049 -0.086036615 -0.13219988 -0.0802687
-0.012238475 0.0739838 -0.012628444 -0.006385662 0.055406403 -0.1605855 -0.008160855 -0.1904543
-0.038766943 -0.08281708 -0.06654446 -0.10673296 -0.009469865 0.028337155 -0.011316028 -0.028990593
-0.07784089 0.122111745 0.051537726 -0.14869913 0.0146697145 -0.012719584 -0.19223163 0.012769786
0.07125113 -0.2024512 0.017112264 -0.19505931 0.04828502 -0.007055068 0.15319861 0.014734944
0.045345157 0.04492304 -0.008254461 -0.052622464 -0.15534705 -0.0039392407 0.083313055 0.0065949196
-0.076744735 -0.08021874 -0.17719956 -0.03098082 -0.023758044 0.05264209 -0.051640913 0.051847283
-0.086948335 0.09305376 -0.116018735 -0.0063007167 -0.14107639 0.05064365 -0.08055841 0.023156138
-0.018052768 -0.038639892 0.053140484 0.04122292 0.14288428 0.04003323 -0.07116728 0.039403588
0.008397391 -0.13339283 0.05728693 -0.14672253 -0.09289157 0.054481663 0.114973836 -0.053137556
-0.16375802 0.04326858 -0.19202459 -0.033386756 0.01447313 -0.054193966 0.023945544 0.1668746
0.03189735 0.16981179 0.040731613 -0.0917249 0.04535078 0.023264483 -0.031448167 0.053778302
0.10323353 0.18764624 -0.051022008 -0.090264246 0.14752577 -0.1991542 0.20415834 -0.048833933
-0.0015019065 0.025009818 -0.05231163 -0.05022998 0.012193198 -0.023763908 -0.06473321 -0.05125372
00000000: 64ed 57bd e056 00bd 4dcb f0bd b4d0 85bd
00000010: b403 edbd 4d3f 853d 0bdc 6e3d 18cb 223e
00000020: 62fd 333e 5cc3 673d 2e0f 343d 2e9b 03bd
00000030: f9aa 5bbd 07d6 88bd 2257 2fbd d15c 6a3d
00000040: 2c67 0f3e 54cf 023e 6030 39bd a107 abbd
00000050: 77bb ac3d 1ad9 003e 1a80 973b f39b 803d
00000060: db2d 803d a3b9 4dba 23ad 523d e6c0 c1bd
00000070: c5c5 ffbd 2553 b4bd abe5 3fbd d1ad 4d3e
00000080: ee87 59bd 0873 b8bd 5b0a e7bd 7c04 f2bd
00000090: 812e 14be 0d3a 143e 491b f7bb ce0f 26bd
000000a0: d1e6 56bd a0a8 0bbe 2754 ae3d 002c 0cbd
000000b0: b198 85bc 2027 5dbd 5268 a43d fd76 b93d
000000c0: a941 65bc 0b8c 8fbd 6a3c dd3d c5a4 0d3e
000000d0: e245 483c 800b 613d b440 793d 06c8 bebd
000000e0: 86e8 e23c 9502 80bd e33f debd 34e4 acbd
000000f0: aad1 e43d a84f 073e 3efb babd 2392 013e
00000100: 5bac ce3d 70ee 27bd 888e 1bbd 700e 323c
00000110: 24a0 053e ab57 223d 27eb e1bd 1c43 8cbc
00000120: 0bfe 773d f43a 873d d14a 9f3d 2f44 b33d
00000130: 2596 3bbc 143f efbd 9a3a 5dbc c5d7 d4bd
00000140: c53e 7cbd 5ab3 1e3e daca 693e 479a cebd
00000150: 408d 093e 1ccd f93c 597d 9bbd bef8 3dbd
00000160: cf21 b73d 68e3 97bd 1f89 ed3d c44f 253e
00000170: 0990 963d e5f3 1c3e e0a8 b6bd f3a8 0ebe
00000180: 183f 91bd 8cbb 7fbc ad33 4fbd eac9 e2bd
00000190: 6010 dd3d ebc7 f73d 7dec 26bd 44a2 83bc
000001a0: e5a8 d5bd 6845 35bc 94a8 04be 954c f1bd
000001b0: 71a8 073d 146f b43c 660c aebd 4570 4d3e
000001c0: cc23 6fbd 537f 2d3e 09e4 0f3e ee22 c4bd
000001d0: 59c8 19be fd5d 1b3d 7510 9f3c 4877 9fbc
000001e0: 3202 873d a069 39bc 179b 4ebd 2571 003e
000001f0: 90d3 05be 50f1 5fbd b04b ac3c 3f6d 5abd
00000200: c6b0 b33c afa6 afbd 3047 fdbc 801a 993d
00000210: 409c d3bd 6e22 bd3b e768 e23d d6fb 703b
00000220: 1cbe 94bd 0b52 8ebc 03c3 d33d cb55 973d
00000230: 2e58 113e 97a8 f83c 15d6 f43d b59e 223d
00000240: 2a4e 4abe d79e b6bd fee0 363e bdde aa3d
00000250: fd27 8fbd f733 b0bd 685f 07be eb63 a4bd
00000260: e283 48bc d284 973d 88e7 4ebc d13e d1bb
00000270: d3f1 623d 8670 24be 1bb5 05bc 7406 43be
00000280: 16ca 1ebd 009c a9bd 7648 88bd cf96 dabd
00000290: 7e27 1bbc 5223 e83c dd66 39bc ae7d edbc
000002a0: 0b6b 9fbd b915 fa3d 3919 533d 9644 18be
000002b0: 3e59 703c cd65 50bc 5ed8 44be 5d38 513c
000002c0: 1dec 913d 5e4f 4fbe 052f 8c3c a1bd 47be
000002d0: 83c6 453d 332e e7bb 19e0 1c3e d66a 713c
000002e0: d8bb 393d 3901 383d b83d 07bc a78a 57bd
000002f0: 4c13 1fbe bf14 81bb 09a0 aa3d 321a d83b
00000300: 582c 9dbd b949 a4bd cd73 35be 7dcb fdbc
00000310: 3ba0 c2bc 3b9f 573d 6c85 53bd d15d 543d
00000320: f811 b2bd f892 be3d 3b9b edbd 3e76 cebb
00000330: 5476 10be b76f 4f3d cffb a4bd f1b1 bd3c
00000340: 66e3 93bc dd44 1ebd d6a9 593d 5dd9 283d
00000350: 4250 123e e2f9 233d 27c0 91bd a865 213d
00000360: 3695 093c 2198 08be b3a5 6a3d 6e3e 16be
00000370: ef3d bebd 2a28 5f3d 6777 eb3d c4a6 59bd
00000380: 2fb0 27be 653a 313d 18a2 44be 8dc0 08bd
00000390: b520 6d3c 7efa 5dbd 7229 c43c 2de1 2a3e
000003a0: cca6 023d 24e3 2d3e 31d6 263d 44da bbbd
000003b0: bdc1 393d 2895 be3c cbcf 00bd a346 5c3d
000003c0: 1a6c d33d 5626 403e 74fc 50bd 76dc b8bd
000003d0: ff10 173e 14ef 4bbe e20e 513e 1706 48bd
000003e0: 9fdb c4ba 64e1 cc3c b844 56bd f4bd 4dbd
000003f0: fbc5 473c 87ac c2bc d892 84bd 6cef 51bd

gru.weight_hh_l0 f4 [180, 60]
-0.024083732 -0.11431971 0.10686033 0.028192105 0.04843309 -0.110675275 0.0048669735 0.07323982
0.074092306 0.073095575 0.015501062 -0.16206123 -0.15836173 0.053524926 -0.26215345 -0.09907113
-0.071065366 -0.07331856 -0.11815976 -0.116337664 0.03523987 0.19891171 -0.0059089353 0.058677856
-0.0021670484 -0.08654515 0.010395923 -0.033768263 -0.18673278 0.060140938 0.025495863 -0.078431666
0.18653052 0.07055132 -0.14232412 -0.15421897 -0.007200413 -0.20454201 0.28387123 0.05600464
-0.15474218 -0.1136548 -0.060036663 -0.107970685 0.018762138 -0.09453107 0.02297519 0.003916533
-0.028932862 0.03239762 -0.03948092 0.06400008 0.037715245 -0.032828536 -0.048079334 0.14336473
-0.0775694 0.031547546 -0.09778242 0.04237983 0.15141058 -0.10447001 0.008117269 0.006518038
0.10895923 0.0035938288 0.09744088 0.038536318 0.058066845 0.04362202 -0.122144155 0.013930208
-0.059346493 -0.020992208 -0.19389357 -0.0019339134 0.1574032 0.056287535 0.013142833 0.10822887
-0.16033177 0.121676296 -0.022343952 0.010017837 0.04531772 0.0035554562 -0.06798327 0.15981925
-0.08932514 0.05166957 0.06500716 -0.053380433 -0.043047253 -0.20200966 -0.008294063 0.18597738
0.013479593 0.029618133 0.112564534 -0.021317681 -0.054093234 -0.17881224 0.09044409 -0.0053668376
-0.07519314 0.009509597 0.09737891 -0.123639956 -0.06873598 0.0055394312 0.066892266 0.061283253
-0.062474415 0.20808369 -0.06600001 -0.08978105 -0.16744727 -0.1095288 -0.024205422 -0.045506127
-0.110803805 0.07855834 -0.009801289 0.16366705 0.11733297 -0.069583654 -0.081158064 -0.02013557
-0.117906585 -0.1533563 0.0074980883 -0.039222732 -0.05867858 0.12578781 0.01430465 0.039206497
-0.004090842 -0.0029074869 -0.111516245 -0.064813666 0.043321125 -0.06639066 -0.18643464 -0.056789227
-0.16950677 -0.052478265 -0.06937315 0.19927996 -0.16832446 -0.11283722 -0.014967181 0.05373243
0.025458757 0.08711061 -0.010387233 0.13522138 -0.0019946406 -0.07906782 0.07658094 0.092640184
-0.02645766 0.05754245 -0.09317531 -0.0033085814 0.0015707961 0.008577583 -0.046198674 -0.052388784
-0.20947865 -0.023114193 -0.12721819 -0.16683732 -0.058450274 -0.0005979887 -0.11723729 -0.017157683
-0.0015189593 -0.08656677 -0.03188279 -0.15422551 -0.06797407 0.03156427 0.017766865 0.100223616
0.15808545 0.13769114 -0.017450606 0.039920583 0.150925 -0.10322654 0.04664227 0.017521637
-0.1018808 0.035093304 -0.068155594 0.07795486 0.06723842 -0.105150305 0.062845536 0.034221042
0.09966293 0.07840807 0.09924517 0.04924364 0.043664925 -0.049558133 0.057175774 -0.074447945
-0.028754404 -0.02282361 0.03043086 -0.10823586 0.12623791 -0.11396176 0.0797704 0.107267424
0.019805701 0.071436174 -0.025025878 0.0038641414 0.02041349 -0.12772533 0.14225182 -0.10994165
-0.13775727 -0.08794671 -0.028450053 0.10421609 0.025586473 -0.004364749 0.012818668 -0.09995548
0.10085114 -0.006030908 -0.056254264 -0.115855716 0.07786479 0.026694167 0.052610885 0.023708224
-0.037790485 0.08230096 -0.06124005 0.1347535 0.018210208 -0.070271656 0.0733319 -0.012542201
-0.027069734 0.047328904 -0.06349098 -0.062289685 0.04696032 -0.15203416 0.018053787 0.058926687
00000000: 3f4b c5bc 7420 eabd 97d9 da3d 21f3 e63c
00000010: c761 463d b8a9 e2bd 227b 9f3b c2fe 953d
00000020: b5bd 973d 22b3 953d 2bf8 7d3c 61f3 25be
00000030: 9429 22be f43c 5b3d fa38 86be cee5 cabd
00000040: b88a 91bd 0b28 96bd bffd f1bd 7142 eebd
00000050: af57 103d 83af 4b3e be9f c1bb 3158 703d
00000060: 0a05 0ebb 953e b1bd a953 2a3c 9750 0abd
00000070: e136 3fbe 5856 763d b3dc d03c c8a0 a0bd
00000080: db01 3f3e 367d 903d 6abd 11be 94eb 1dbe
00000090: 71f1 ebbb 7673 51be 9257 913e 1f65 653d
000000a0: bc74 1ebe d9c3 e8bd 01e9 75bd bc1f ddbd
000000b0: 0eb3 993c 8199 c1bd 7736 bc3c 4356 803b
000000c0: 9c04 edbc 5eb3 043d bfb6 21bd 7912 833d
000000d0: 4d7b 1a3d 3777 06bd d6ee 44bd 34ce 123e
000000e0: b5dc 9ebd 0038 013d 2642 c8bd 7996 2d3d
000000f0: 600b 1b3e 5ff4 d5bd 4bfe 043c 4495 d53b
00000100: 0426 df3d 7186 6b3b 168f c73d 42d8 1d3d
00000110: 80d7 6d3d 01ad 323d b726 fabd 873b 643c
00000120: 4f15 73bd daf7 abbc 098c 46be 5e7b fdba
00000130: 4e2e 213e c28d 663d 0955 573c 19a7 dd3d
00000140: 032e 24be 6c31 f93d aa0a b7bc db21 243c
00000150: 139f 393d a802 693b d03a 8bbd a8a7 233e
00000160: 19f0 b6bd 79a3 533d 7922 853d 71a5 5abd
00000170: 5152 30bd 9fdb 4ebe d2e3 07bc db70 3e3e
00000180: 83d9 5c3c baa1 f23c 3c88 e63d 6ba2 aebc
00000190: de90 5dbd 8e1a 37be c03a b93d 4cdc afbb
000001a0: dcfe 99bd 24ce 1b3c 986e c73d f236 fdbd
000001b0: 73c5 8cbd 1e84 b53b d0fe 883d 2604 7b3d
000001c0: 2ce5 7fbd e413 553e 032b 87bd 21df b7bd
000001d0: 4c77 2bbe a350 e0bd 734a c6bc a264 3abd
000001e0: 1bed e2bd 32e3 a03d 9695 20bc 5698 273e
000001f0: 454c f03d e081 8ebd 3336 a6bd 5af3 a4bc
00000200: 0279 f1bd 6f09 1dbe 86b2 f53b 04a8 20bd
00000210: f358 70bd 85ce 003e 0d5e 6a3c fe96 203d
00000220: 780c 86bb 898b 3ebb a162 e4bd 07bd 84bd
00000230: 7e71 313d d4f7 87bd b9e8 3ebe d29b 68bd
00000240: 2f93 2dbe 73f3 56bd 8313 8ebd 0c10 4c3e
00000250: 3f5d 2cbe 3317 e7bd e838 75bc 8916 5c3d
00000260: e28e d03c 0c67 b23d 372f 2abc 7977 0a3e
00000270: 84b8 02bb 4fee a1bd 78d6 9c3d 23ba bd3d
00000280: bcbd d8bc a2b1 6b3d b2d2 bebd c9d4 58bb
00000290: 2ce3 cd3a fe88 0c3c d23a 3dbd 9f95 56bd
000002a0: 9281 56be fa59 bdbc 7c45 02be 67d7 2abe
000002b0: 8e69 6fbd 58c2 1cba 1b1a f0bd 458e 8cbc
000002c0: d117 c7ba eb49 b1bd 8797 02bd 4bed 1dbe
000002d0: fd35 8bbd 8949 013d d18b 913c 0a42 cd3d
000002e0: 27e1 213e e8fe 0c3e 93f4 8ebc c483 233d
000002f0: 158c 1a3e 7068 d3bd f70b 3f3d 8989 8f3c
00000300: e2a6 d0bd ffbd 0f3d 2995 8bbd cca6 9f3d
00000310: 4cb4 893d 0b59 d7bd 29b5 803d 5d2b 0c3d
00000320: 141c cc3d 6994 a03d 0d41 cb3d b3b3 493d
00000330: fed9 323d 78fd 4abd 2531 6a3d 2a78 98bd
00000340: 5b8e ebbc 94f8 babc 244a f93c c3aa ddbd
00000350: 8344 013e c964 e9bd aa5e a33d 06af db3d
00000360: 913f a23c 214d 923d 1203 cdbc 893d 7d3b
00000370: 313a a73c 6eca 02be 76aa 113e 1629 e1bd
00000380: 3e10 0dbe 681d b4bd 1610 e9bc 3f6f d53d
00000390: b99a d13c 2b06 8fbb 6405 523c 75b5 ccbd
000003a0: 0b8b ce3d ec9e c5bb df6a 66bd c345 edbd
000003b0: 9377 9f3d baad da3c 837e 573d c037 c23c
000003c0: 32ca 1abd 688d a83d d9d6 7abd d2fc 093e
000003d0: 932d 953c 96ea 8fbd 092f 963d ce7d 4dbc
000003e0: 59c1 ddbc f4db 413d 8f07 82bd 7823 7fbd
000003f0: 7759 403d d8ae 1bbe 89e5 933c 1c5d 713d

gru.bias_ih_l0 f4 [180]
0.06456288 -0.02389755 0.13789004 -0.0033276838 -0.05585609 0.006420314 -0.0679942 0.11523285
0.14583442 0.02157193 0.2030494 0.0026427608 0.021534009 0.03280818 -0.008437843 -0.08080401
0.07116146 -0.010972542 0.0894369 0.11309783 0.12561657 0.068413705 0.032141738 -0.0046664067
0.19493116 -0.08907582 -0.11146637 0.011025741 0.14906926 0.08462858 -0.084413856 0.084691204
-0.08929249 0.1479003 -0.090707734 0.06989826 0.0665656 -0.046806574 0.061619364 0.13535216
0.111853056 -0.019918814 0.1610786 0.14110489 -0.12743922 0.14775339 0.15455237 0.034754846
0.07113884 -0.016506033 -0.008315864 0.04158234 -0.03249823 0.08605593 0.023113938 0.1127412
-0.08094522 -0.035802264 -0.06326385 0.010188241 -0.115624495 -0.13552874 -0.15946513 0.038105834
-0.03123222 -0.118003696 -0.028450875 -0.23032065 -0.05988793 0.07505844 0.2187943 0.015808742
0.08399582 -0.10812407 0.106435716 0.058240417 -0.031344064 -0.13159192 0.16335222 0.006513203
-0.08204969 0.024872275 -0.02105835 -0.25107622 0.1568444 -0.08871644 -0.039680637 -0.061220624
-0.031343702 0.021323891 0.18812834 -0.15879343 -0.025281759 0.062494684 0.11240649 0.012851013
-0.09691133 -0.0504682 -0.034160543 -0.229314 -0.089115135 0.09546905 0.13147435 -0.07103645
-0.11277116 -0.19420277 0.036540862 0.028774852 0.13132678 -0.0558392 0.12672466 0.1292506
-0.09305324 -0.22096422 0.080149405 0.04985755 -0.16878745 0.08406355 -0.19365291 0.115464844
0.06542833 -0.07167419 0.108998336 0.14238201 0.08765523 0.01488925 -0.11405635 -0.08599274
0.070528045 -0.017311484 -0.078988 0.10738863 -0.018242337 -0.08893811 -0.08049667 -0.08948335
-0.06428096 0.0006426302 -0.029152576 -0.034689005 0.008176492 0.10450645 0.053908035 -0.13367632
0.0138922315 -0.057839535 -0.047162075 -0.059884254 -0.09605953 -0.14736733 -0.12821567 -0.010042503
-0.016018683 -0.13033381 0.022537852 -0.083460145 -0.025456337 0.04469633 0.15658756 -0.011777807
-0.117071144 0.092605695 -0.045414373 0.019629037 -0.045405388 0.09796153 -0.079116896 0.084663056
0.1066831 0.017354105 0.094065614 0.07015227 -0.021983905 -0.05032546 0.0008640105 -0.030792363
-0.08799451 0.10323018 -0.08627195 0.083709404
00000000: 8b39 843d cbc4 c3bc 0c33 0d3e 4515 5abb
00000010: 5bc9 64bd 7f61 d23b 8b40 8bbd 33ff eb3d
00000020: 9e55 153e 9eb7 b03c 2fec 4f3e 2b32 2d3b
00000030: 1768 b03c df61 063d e13e 0abc 937c a5bd
00000040: 19bd 913d 2dc6 33bc b22a b73d d69f e73d
00000050: a1a1 003e 7c1c 8c3d 0ea7 033d a8e8 98bb
00000060: 099c 473e 626d b6bd 7b48 e4bd 4fa5 343c
00000070: 9da5 183e c051 ad3d 2ce1 acbd 9572 ad3d
00000080: fbde b6bd 2d73 173e fac4 b9bd d226 8f3d
00000090: 8c53 883d 40b8 3fbd 9664 7c3d c299 0a3e
000000a0: 3713 e53d c82c a3bc caf1 243e cd7d 103e
000000b0: 6d7f 02be aa4c 173e fa42 1e3e 195b 0e3d
000000c0: 3db1 913d a937 87bc 433f 08bc 3e52 2a3d
000000d0: dd1c 05bd 173e b03d 7159 bd3c dce4 e63d
000000e0: 9cc6 a5bd 65a5 12bd 7a90 81bd 94ec 263c
000000f0: 89cc ecbd 0cc8 0abe d44a 23be dd14 1c3d
00000100: b6da ffbc ecab f1bd cf11 e9bc 2dd9 6bbe
00000110: 0c4d 75bd 3db8 993d 9d0b 603e 5681 813c
00000120: 0006 ac3d 2770 ddbd f8fa d93d 818d 6e3d
00000130: a262 00bd 08c0 06be ce45 273e b56c d53b
00000140: ab09 a8bd f1c0 cb3c 9082 acbc 108d 80be
00000150: d29b 203e f7b0 b5bd 2a88 22bd 7ac2 7abd
00000160: 4162 00bd 71af ae3c b7a4 403e bf9a 22be
00000170: b11b cfbc 6dfa 7f3d 6035 e63d 0e8d 523c
00000180: 7379 c6bd beb7 4ebd edeb 0bbd 4ad1 6abe
00000190: ff81 b6bd 4785 c33d 36a1 063e 8f7b 91bd
000001a0: 91f4 e6bd 17dd 46be dfab 153d 3db9 eb3c
000001b0: 877a 063e a5b7 64bd 1cc4 013e 455a 043e
000001c0: b292 bebd 7244 62be 5f25 a43d 6e37 4c3d
000001d0: 9ed6 2cbe 8329 ac3d f34c 46be d578 ec3d
000001e0: 4aff 853d ebc9 92bd 853a df3d 97cc 113e
000001f0: 9684 b33d 0af2 733c 6096 e9bd f61c b0bd
00000200: 0271 903d d0d0 8dbc 76c4 a1bd 92ee db3d
00000210: f470 95bc 2f25 b6bd 70db a4bd 0c43 b7bd
00000220: bca5 83bd 2f76 283a 62d1 eebc 0f16 0ebd
00000230: b1f6 053c 7a07 d63d acce 5c3d 72e2 08be
00000240: 3e9c 633c 26e9 6cbd 052d 41bd 3149 75bd
00000250: dcba c4bd 76e7 16be f84a 03be 4f89 24bc
00000260: 9d39 83bc 3a76 05be 4da1 b83c 27ed aabd
00000270: cf89 d0bc 8013 373d 7d58 203e b4f7 40bc
00000280: ffc2 efbd 0ea8 bd3d 6c04 3abd 13cd a03c
00000290: 00fb 39bd 0ea0 c83d 0a08 a2bd d363 ad3d
000002a0: ab7c da3d 322a 8e3c 79a5 c03d feab 8f3d
000002b0: 9717 b4bc 1222 4ebd c37e 623a 4440 fcbc
000002c0: 7736 b4bd 586a d33d 59af b0bd d66f ab3d

gru.bias_hh_l0 f4 [180]
0.0018220543 0.07186417 -0.010708148 -0.053749103 -0.029092818 -0.073778704 -0.106607854 0.05387065
0.15788272 -0.10163802 0.049221855 0.014963997 -0.065477364 0.03339398 -0.010811754 0.038224977
-0.039004024 -0.112182714 0.02497299 0.12963393 0.14441526 0.13640767 0.032490935 0.14824729
0.02132934 0.11908898 -0.023938822 -0.10294008 0.044762105 0.12467767 -0.017787328 -0.08776536
0.14276904 0.09664574 0.047617666 -0.010120794 0.16214249 0.08690758 -0.10138634 0.102983445
0.18524066 -0.1450027 0.071925946 -0.03575637 0.053213812 0.12016408 0.10811629 0.00012996068
0.13265067 0.004789559 0.1276102 0.08133871 -0.08121716 -0.0290292 -0.041893516 -0.06880822
-0.022188667 0.09951936 0.0759905 -0.051683802 -0.09450968 -0.17185557 -0.08982682 0.01254709
0.018561274 -0.19478594 -0.054934267 -0.19053562 -0.008886477 0.06624946 -0.0023934024 -0.056726456
0.11164317 -0.28344053 0.08268854 0.0011355138 -0.107542455 -0.01607879 0.092711724 0.07694555
0.013662253 -0.19646311 -0.06648555 -0.16879705 0.04363225 0.016938426 0.14544041 -0.13675012
0.054960784 0.053289488 -0.030058468 -0.008143079 0.17433366 0.040670067 0.15226309 0.0067539476
0.01836814 0.0138762845 0.081569865 -0.03352908 0.04557177 -0.085223034 0.05854704 -0.08582808
-0.17581937 -0.10856155 -0.13520841 -0.026621211 0.25362238 -0.27969494 0.01879907 0.1405485
0.05752425 -0.19384351 0.045329414 0.053605657 -0.12601951 0.03758218 -0.10653815 -0.07852772
-0.14296512 -0.0957821 0.056225844 0.111297965 -0.0603539 -0.17257763 -0.10864124 0.010034312
-0.11559119 -0.093655676 -0.062458877 0.050037183 -0.070572935 -0.068864964 0.011217062 0.012296007
0.057294384 0.018474586 0.03940964 0.0256596 -0.04891496 0.100358374 -0.009909466 -0.03329927
0.012307087 0.13230099 0.07785429 0.10262326 -0.095165916 -0.10085896 0.027519912 0.015272181
-0.0140392715 0.089463174 -0.086632535 -0.07260262 0.034522675 -0.05572571 -0.044586055 -0.16817677
0.06638717 -0.05849602 -0.046808746 0.06117722 -0.08756803 -0.032502003 -0.06269287 -0.08887818
0.008075936 0.04833028 0.071946785 0.11691262 0.03818642 -0.07134417 -0.075082056 -0.041593313
-0.09121016 -0.089896575 -0.054700274 0.11855917
00000000: ffd1 ee3a 862d 933d 3a71 2fbc 0528 5cbd
00000010: 1054 eebc 4a19 97bd 3855 dabd 78a7 5c3d
00000020: 02ac 213e 9827 d0bd db9c 493d 8d2b 753c
00000030: ff18 86bd 20c8 083d c823 31bc cb91 1c3d
00000040: afc2 1fbd 0dc0 e5bd 2894 cc3c c2be 043e
00000050: 98e1 133e 74ae 0b3e 3715 053d 23ce 173e
00000060: deba ae3c ece4 f33d 591b c4bc 40d2 d2bd
00000070: 7858 373d 0257 ff3d bbb6 91bc 53be b3bd
00000080: 0c32 123e 34ee c53d be0a 433d b0d1 25bc
00000090: ae08 263e 9afc b13d a4a3 cfbd fce8 d23d
000000a0: baaf 3d3e 967b 14be e94d 933d 4575 12bd
000000b0: baf6 593d 9618 f63d 136c dd3d 0e46 0839
000000c0: 94d5 073e bcf1 9c3b 40ac 023e e994 a63d
000000d0: 2f55 a6bd a5ce edbc 8998 2bbd 53eb 8cbd
000000e0: 02c5 b5bc ced0 cb3d e8a0 9b3d 65b2 53bd
000000f0: 4b8e c1bd e8fa 2fbe 20f7 b7bd 4f92 4d3c
00000100: d00d 983c f775 47be c102 61bd c51b 43be
00000110: 9698 11bc ccad 873d a1da 1cbb 005a 68bd
00000120: 2da5 e43d 1e1f 91be 9c58 a93d 85d5 943a
00000130: 383f dcbd abb7 83bc a5df bd3d a195 9d3d
00000140: a4d7 5f3c a02d 49be 9329 88bd 22d9 2cbe
00000150: bbb7 323d 74c2 8a3c 55ee 143e 3908 0cbe
00000160: 8f1e 613d 1446 5a3d 2d3d f6bc 8c6a 05bc
00000170: 8684 323e a895 263d dbea 1b3e 3850 dd3b
00000180: c878 963c 5b59 633c 1a0e a73d ca55 09bd
00000190: 77a9 3a3d 6a89 aebd 05cf 6f3d a2c6 afbd
000001a0: fe09 34be 8555 debd 1374 0abe ba14 dabc
000001b0: cbda 813e 2d34 8fbe 8200 9a3c f2eb 0f3e
000001c0: 8c9e 6b3d ea7e 46be 56ab 393d 9b91 5b3d
000001d0: 420b 01be c6ef 193d ac30 dabd 24d3 a0bd
000001e0: 7365 12be 6829 c4bd 124d 663d 30f0 e33d
000001f0: a735 77bd 31b8 30be 4c7f debd f466 243c
00000200: 13bb ecbd 8cce bfbd e1d4 7fbd caf3 4c3d
00000210: 8b88 90bd 1309 8dbd c5c7 373c 3175 493c
00000220: 84ad 6a3d 0458 973c 016c 213d 1534 d23c
00000230: 0e5b 48bd b188 cd3d 505b 22bc d164 08bd
00000240: aaa3 493c e979 073e 1272 9f3d 252c d23d
00000250: 59e6 c2bd 248f cebd 7071 e13c 2b38 7a3c
00000260: f904 66bc 7838 b73d 666c b1bd afb0 94bd
00000270: a667 0d3d a440 64bd de9f 36bd 8836 2cbe
00000280: fff5 873d 8699 6fbd 87ba 3fbd f794 7a3d
00000290: de56 b3bd d220 05bd 1f65 80bd c305 b6bd
000002a0: ee50 043c f9f5 453d d658 933d e26f ef3d
000002b0: 5d69 1c3d e41c 92bd 9fc4 99bd c05d 2abd
000002c0: 64cc babd b21b b8bd 650d 60bd 26cf f23d
