mort_models/mort_deploy_week_43_3/feat_enc.pt (torch, 56491 bytes, 4 tensors)

gru.weight_ih_l0 f4 [180, 15]
0	0xbd817b7e	-0.063223824
1	0x3d27cbe5	0.040965933
2	0xbdd1182a	-0.10209687
3	0xbd799e10	-0.060941756
4	0x3dc2a0bf	0.09503316
5	0xbd2f2017	-0.042755213
6	0x3bb19e3a	0.0054204734
7	0x3e46cf34	0.19414979
8	0x3e3a8b8b	0.18217294
9	0x3bc731e6	0.0060789464
10	0x3e0e0013	0.13867216
11	0x3c28b842	0.010297837
12	0xbd3822c5	-0.044955034
13	0xbc541512	-0.012944477
14	0x3ce584a9	0.028017359
15	0xbdb318b4	-0.08744946
16	0x3dcf0161	0.10107685
17	0x3dba5a28	0.09099227
18	0xbe54829e	-0.20752952
19	0xbd9e2a91	-0.07722963
20	0x3e111c54	0.14170963
21	0x3e4f8dae	0.2026889
22	0x3de5935e	0.11209749
23	0x3def07b1	0.11671389
24	0x3d8416e7	0.06449681
25	0x3e066181	0.13123132
26	0x3d2992d1	0.04139978
27	0xbe40310c	-0.1876871
28	0xbdd66de1	-0.104701765
29	0xbd9dd70e	-0.07707034
30	0xbe01b37d	-0.12666126
31	0x3e227871	0.15866257
32	0xbde46870	-0.11152732
33	0xbe341b6e	-0.17588589
34	0xbdfeb206	-0.12436299
35	0xbd8c3467	-0.068459325
36	0xbeb099e8	-0.3449242
37	0x3ebeb88c	0.37250173
38	0x3eb1542c	0.3463453
39	0x39328f83	0.00017028865
40	0x3e49a6a7	0.19692479
41	0x3a22c921	0.000620978
42	0x3d9f063f	0.07764863
43	0xbe9261ac	-0.28590143
44	0xbe6b06b0	-0.2295177
45	0xbda5028b	-0.08057126
46	0x3db2b4b8	0.087258756
47	0x3d8060d5	0.06268469
48	0xbdbd231c	-0.09235212
49	0xbd87a051	-0.06622375
50	0x3de36ed3	0.111051224
51	0x3e89c882	0.26910788
52	0x3db8242e	0.08991276
53	0x3de3f104	0.111299545
54	0x3dd084d4	0.10181585
55	0xbe163ab5	-0.14670832
56	0xbd7f3e33	-0.062315177
57	0xbdabcfc2	-0.08389236
58	0xbdb32711	-0.08747686
59	0xbda2824b	-0.07935008
60	0x3d24e4fa	0.04025743
61	0x3dafec42	0.085899845
62	0xbdcd8719	-0.100355335
63	0x3e27f077	0.16400324
64	0x3ca39936	0.019970518
65	0x3d969f51	0.07354606
66	0x3d31444a	0.043278016
67	0x3e1d43a1	0.1535783
68	0x3e22382a	0.15841737
69	0x3da442d0	0.08020556
70	0xbd904e3c	-0.07046172
71	0xbda26a6e	-0.07930456
72	0x3e1d480c	0.15359515
73	0x3e1461c6	0.14490423
74	0x3e07de1b	0.1326832
75	0x3da70e54	0.0815703
76	0x3c10d657	0.008840165
77	0xbdaf9dbc	-0.08575007
78	0xbd0c6949	-0.034280095
79	0xbe0ebb4b	-0.13938634
80	0xbd895d3a	-0.06707235
81	0x3e6c1c60	0.23057699
82	0x3e805ee2	0.2507239
83	0xbe8399d7	-0.25703308
84	0x3d644019	0.05572519
85	0x3de5ed8d	0.1122695
86	0xbded2939	-0.11580128
87	0xbdc9ba31	-0.09849966
88	0x3d8cdcfd	0.06878088
89	0xbd96ae7c	-0.07357499
90	0x3e5f75c2	0.21822265
91	0x3e29a351	0.16566207
92	0x3e5597dd	0.20858712
93	0x3e1b1fdd	0.15148874
94	0xbe949309	-0.2901843
95	0xbe3b48c1	-0.18289472
96	0xbe52c432	-0.20582655
97	0xbdbb3757	-0.091414146
98	0xbdf48382	-0.119391456
99	0xbe5ddbe1	-0.21665908
100	0xbd30817f	-0.043092247
101	0x3de99cb2	0.114068404
102	0x3e3cc53f	0.18434618
103	0xbdd580a6	-0.10424928
104	0xbdf4e6c2	-0.11958076
105	0x3d8a06fa	0.06739612
106	0xbd8715b8	-0.065959394
107	0xbdaa9962	-0.08330037
108	0x3c94a5a8	0.018145397
109	0x3d142d2e	0.0361759
110	0xbcf40edb	-0.02979224
111	0x3e09f476	0.1347216
112	0xbd455e8c	-0.04818587
113	0x3e479aa1	0.1949258
114	0x3ec7873e	0.3897037
115	0xbdedeb41	-0.11617137
116	0xbddadec2	-0.10687019
117	0x3db83ed9	0.08996362
118	0x3e43182d	0.19052191
119	0x3e8fbeee	0.28075355
120	0x3d936aef	0.0719813
121	0x3d0dd858	0.03463015
122	0xbd2ce4fd	-0.042210568
123	0x3db78831	0.08961523
124	0xbdeb0d54	-0.114771515
125	0xbdde38a4	-0.10850647
126	0x3e29fc9d	0.1660027
127	0xbc6baeba	-0.01438492
128	0x3e1f2a5c	0.15543503
129	0xbdc88206	-0.09790425
130	0x3d9ef721	0.0776198
131	0xbcf6e402	-0.03013802
132	0xbd16b848	-0.036796838
133	0x3c9aa20c	0.018876098
134	0x3d8fa452	0.070137635
135	0xbde78323	-0.11304309
136	0x3c1a28d2	0.009409146
137	0x3e2ae657	0.1668943
138	0xb7b9c0fe	-2.2143588e-05
139	0x3dc3bc82	0.095574394
140	0x3e3b38b8	0.18283355
141	0xbe465996	-0.19370112
142	0x3e620f0c	0.22076052
143	0x3e25d465	0.16194303
144	0xbe68f2b2	-0.22748831
145	0xbe5cd662	-0.21566156
146	0xbcb74683	-0.02237249
147	0x3d00b535	0.031422812
148	0xbdc64764	-0.096815854
149	0xbdbe1247	-0.0928083
150	0xbe066cbd	-0.13127418
151	0xbe68d7e2	-0.22738603
152	0xbb66f5f3	-0.0035241812
153	0x3dabcafc	0.083883256
154	0xbcd92465	-0.026506612
155	0xbc09f2d6	-0.008419713
156	0x3dcfc6d3	0.101453446
157	0x3bbfffac	0.005859336
158	0x3e5fe61a	0.2186512
159	0xbe1f04a8	-0.1552912
160	0x3df8221a	0.12115879
161	0xbdddec47	-0.10836082
162	0xbd4c87a0	-0.04993403
163	0xbdc25b17	-0.0949003
164	0xbc67bfab	-0.014144818
165	0xbcba2bae	-0.022725906
166	0xbc9d1b66	-0.019178104
167	0xbd996039	-0.07489056
168	0xbe22c540	-0.15895557
169	0x3de95a33	0.11394157
170	0x3cf0aed3	0.029380238
171	0xbe15695a	-0.1459097
172	0x3e139823	0.14413504
173	0x3e939701	0.28826144
174	0xbe15c0c6	-0.14624318
175	0x3d1d684e	0.03842955
176	0x3e3041bf	0.1721258
177	0xbecb8fc6	-0.39758128
178	0xbd896aa3	-0.067097925
179	0xbe991587	-0.29899237
180	0x3d827124	0.06369236
181	0xbc872b9d	-0.016500289
182	0x3e007f72	0.12548617
183	0x3d382a20	0.04496205
184	0x3c89affc	0.016807549
185	0x3e1f92ba	0.15583315
186	0x3c44cd93	0.012011903
187	0xbd5ab344	-0.053393617
188	0xbd53e0a2	-0.0517279
189	0xbd0f3c36	-0.03496953
190	0x3dfaf464	0.12253645
191	0x3d8e4b37	0.0694794
192	0xbbb5d252	-0.005548754
193	0xbca1b331	-0.019738765
194	0xbe0d88fd	-0.13821788
195	0xbdfeff47	-0.12451034
196	0xbe63349f	-0.22188042
197	0x3d281356	0.041034065
198	0xbe03a735	-0.12856753
199	0x3d82df5c	0.06390259
200	0x3da4ccb6	0.08046858
201	0x3df74ffb	0.12075802
202	0xbe589112	-0.2114909
203	0xbe254728	-0.16140425
204	0xbe8de1d9	-0.2771137
205	0x3d91e4da	0.07123728
206	0x3c1fb910	0.009748712
207	0x3cbd4ed6	0.023108881
208	0x3e48cccd	0.19609375
209	0x3e87b646	0.2650625
210	0x3d86487c	0.06556794
211	0x3cae0131	0.021240802
212	0x3e0bee41	0.13665105
213	0x3c96718d	0.018364692
214	0x390c5515	0.00013383136
215	0x3d678d3c	0.056531176
216	0xbd6ade65	-0.057341
217	0xbc810962	-0.015751544
218	0x3e515af4	0.20444852
219	0xbe7a2bfb	-0.2443084
220	0xbcbe4b05	-0.023229131
221	0x3da80f7e	0.0820608
222	0x3e46ef7c	0.19427294
223	0xbc93f7ee	-0.018062558
224	0xbe1cfcf7	-0.15330873
225	0x3e3b6316	0.18299517
226	0x3d1379c5	0.0360048
227	0x3ddd09f9	0.10792918
228	0xbd9fe85c	-0.07807991
229	0x3e2d81ef	0.16944097
230	0xbdfcef15	-0.12350289
231	0x3ecb1cf4	0.39670527
232	0x3d171fa1	0.036895398
233	0xbda44937	-0.08021777
234	0x3dfde3c9	0.12396962
235	0xbe95c0d6	-0.29248685
236	0x3d306884	0.043068424
237	0x3db3c04f	0.08776914
238	0xbc225495	-0.009907861
239	0x3c8ef013	0.01744846
240	0xbd3982de	-0.04529082
241	0x3db8fbd6	0.09032409
242	0xbe7612c3	-0.24030595
243	0xbddddcc5	-0.10833124
244	0x3e029a9b	0.1275429
245	0xbe4bbd4f	-0.19896434
246	0xbd383313	-0.044970583
247	0xbe22d783	-0.15902524
248	0xbe0c2f5f	-0.13689946
249	0x3ddd14db	0.107949935
250	0x3e1eb8b1	0.15500142
251	0xbdb35f53	-0.08758416
252	0xbba4a17f	-0.0050241346
253	0x3b539117	0.0032282525
254	0xbca0f9f5	-0.019650439
255	0xbdd191d0	-0.1023289

gru.weight_hh_l0 f4 [180, 60]
0	0xbda19daa	-0.078914
1	0xbd81eb40	-0.063436985
2	0x3df45d53	0.11931863
3	0xbce11b26	-0.027478766
4	0xbd54f3a0	-0.05199015
5	0xbe9cf1a9	-0.30653122
6	0x3e50e496	0.20399699
7	0x3dfa829e	0.122319445
8	0xbe76cd1f	-0.24101685
9	0x3e357f05	0.17724235
10	0x3d1d1d71	0.038358156
11	0xbd51b98c	-0.051202342
12	0xbd12f1ff	-0.035875317
13	0x3d2634e2	0.040577777
14	0xbcd02dd9	-0.025412487
15	0xbe0cb926	-0.13742504
16	0xbcb61ec0	-0.02223146
17	0xbbeca736	-0.0072220815
18	0xbdb2e49a	-0.087350085
19	0xbe93c36b	-0.2886003
20	0x3d89544d	0.06705532
21	0x3d96ff18	0.07372874
22	0x3e2052ea	0.15656629
23	0x3b2c5d5d	0.0026300766
24	0xbe1c6b4c	-0.15275306
25	0xbdeae5fd	-0.11469648
26	0x3d953318	0.07285136
27	0xbe59cd4f	-0.21269725
28	0x3c9ece25	0.019385407
29	0x3dfb56a2	0.12272383
30	0x3e136d86	0.14397249
31	0xbdbd3804	-0.092392
32	0x3dd42b78	0.103598535
33	0x3e21a30c	0.15784854
34	0x3c0296c3	0.007970515
35	0xbdc89b1f	-0.09795212
36	0xbdfff36a	-0.124975994
37	0xbd287b63	-0.041133296
38	0x3e6dbc77	0.23216425
39	0x3dc428c1	0.09578086
40	0xbde3f550	-0.11130774
41	0xbe08bcbb	-0.13353245
42	0x3ab8095a	0.0014040873
43	0xbe81d7ba	-0.253599
44	0x3deab396	0.114600345
45	0x3c9b44d0	0.01895371
46	0xbd240645	-0.04004504
47	0x3cb3b28f	0.02193573
48	0x3ce8da78	0.028424487
49	0x3cadb478	0.021204218
50	0xbd9c1ed9	-0.07623071
51	0x3da489d8	0.08034104
52	0x3dcdcfab	0.10049375
53	0xbc421a89	-0.011847147
54	0x3dd69339	0.10477299
55	0x3e5ed8de	0.21762416
56	0x3e82c9db	0.25544629
57	0x3e1a6a45	0.15079601
58	0xbe251587	-0.16121493
59	0xbd927f5f	-0.071532
60	0xbd8e041b	-0.06934377
61	0xbd966e43	-0.073452495
62	0x3d87a65b	0.06623527
63	0x3cca9ce4	0.024733014
64	0x3db25901	0.087083824
65	0xbdd712d6	-0.105016395
66	0x3dfc5903	0.12321665
67	0x3d76fcda	0.06029973
68	0xbe71349f	-0.2355523
69	0x3d2cd26c	0.04219286
70	0x3d186087	0.03720143
71	0x3c715a05	0.014730935
72	0xbd9aa8ca	-0.07551725
73	0xbbd74d1f	-0.006570473
74	0x3c0e62b4	0.008690525
75	0x3dffd485	0.12491707
76	0x3e50c31f	0.20386933
77	0x3e52406b	0.20532386
78	0xbe36e50f	-0.17860816
79	0xbc8f88f6	-0.017521363
80	0xbe19f7a2	-0.1503587
81	0x3e318cb9	0.17338838
82	0x3db2e602	0.08735277
83	0x3d9b0a45	0.07570318
84	0xbdf8aadc	-0.12141964
85	0xbaf14906	-0.0018408604
86	0xbc0488f8	-0.0080892965
87	0x3e2d1990	0.16904283
88	0xbe58c942	-0.21170524
89	0xbd3c57e9	-0.045982275
90	0x3dfdec65	0.12398604
91	0x3d01cd67	0.031690028
92	0xbe7f41e3	-0.24927478
93	0xbde10ef4	-0.1098918
94	0xbe32c2e9	-0.17457165
95	0x3e0f0c7e	0.13969609
96	0xbe08c6a0	-0.1335702
97	0x3e133b8f	0.14378189
98	0x3e51cd9d	0.20488591
99	0xbd917996	-0.07103269
100	0xbdebd9c6	-0.11516146
101	0xbe1d0a64	-0.15335995
102	0x3dca50d8	0.09878701
103	0xbe1ebead	-0.15502425
104	0x3d254f1d	0.04035865
105	0x3d98c063	0.0745857
106	0x3de86a12	0.11348356
107	0xbb15ac7a	-0.00228384
108	0xbdacf9ce	-0.08446084
109	0xbce23595	-0.02761344
110	0xbc8f2d73	-0.017477727
111	0xbd5bd581	-0.05367041
112	0x3d94da2a	0.07268174
113	0x3e520af7	0.20511995
114	0xbd19981e	-0.037498586
115	0xbd7f4f39	-0.062331412
116	0xbd16a612	-0.03677947
117	0xbcefe764	-0.02928514
118	0xbd8e0473	-0.06934442
119	0xbdab67ec	-0.08369431
120	0xbd762ee5	-0.060103316
121	0x3e069382	0.13142207
122	0x3d4b10cd	0.04957657
123	0x3ea1eb1c	0.31624687
124	0x3e53933a	0.20661631
125	0x3d34889a	0.044075586
126	0x3ca9769f	0.020686446
127	0xbd6aa86d	-0.05728953
128	0xbc8df4fc	-0.017328732
129	0xbd678604	-0.05652429
130	0x3b706d52	0.0036686254
131	0xbdd59e0a	-0.10430534
132	0xbc91af9c	-0.017783932
133	0x3d159371	0.036517564
134	0x3d8558ee	0.065111026
135	0xbdcd905d	-0.10037301
136	0x3defaebb	0.11703249
137	0x3d8bdb66	0.06828956
138	0xbe342780	-0.17593193
139	0x3dcfa0e1	0.10138107
140	0xbd30d60c	-0.04317288
141	0xbd0b85b4	-0.034063056
142	0xbde069f4	-0.10957709
143	0x3e20d781	0.15707208
144	0xbe1cd09f	-0.15313958
145	0x3c2191fe	0.009861467
146	0xbe6d7881	-0.231905
147	0x3efa4bed	0.48886052
148	0xbe8678ff	-0.26264188
149	0xbe573134	-0.21014863
150	0xbddb744d	-0.10715542
151	0x3d856c29	0.065147705
152	0xbceb90ad	-0.02875551
153	0x3e098cd0	0.13432622
154	0xbdee30b8	-0.11630386
155	0x3a87b41d	0.001035336
156	0x3e43e12e	0.19128868
157	0xbe1d583d	-0.15365691
158	0x3eb02889	0.34405926
159	0x3dd4b3fc	0.10385892
160	0xbd87051a	-0.0659277
161	0xbd80c7e6	-0.062881276
162	0xbe38de04	-0.18053442
163	0xbe28f9eb	-0.16501586
164	0xbe5339da	-0.20627537
165	0xbe049113	-0.12945966
166	0x3dcc229d	0.099675395
167	0xbea2a6bb	-0.3176783
168	0xbe93a124	-0.28833878
169	0xbe16b723	-0.14718299
170	0xbe15be63	-0.14623408
171	0x3d454933	0.04816551
172	0x3d84c26d	0.06482396
173	0xbd04d632	-0.032430835
174	0xbda1b839	-0.07896466
175	0xbe50c02b	-0.20385806
176	0x3e02da05	0.1277848
177	0xbd8770b6	-0.06613295
178	0x3d34dcba	0.044155814
179	0xbe10eae6	-0.14152107
180	0xbd9f3a09	-0.07774741
181	0x3d8b6189	0.06805713
182	0x3d4cac82	0.049969204
183	0x3db03f3c	0.08605811
184	0x3de08137	0.10962146
185	0x3d92eea1	0.07174421
186	0xbcbaa97a	-0.02278589
187	0x3d48db3c	0.049037203
188	0x3d5d059d	0.05396043
189	0xbdca0303	-0.09863856
190	0xbcc5b186	-0.024132501
191	0xbcb62ffb	-0.022239676
192	0xbcdf0c82	-0.027227644
193	0x3d765f70	0.06014961
194	0xbb6fa84f	-0.0036568826
195	0x3e63bb14	0.22239333
196	0x3d4cec84	0.050030246
197	0xbd82af02	-0.06381036
198	0x3e08b704	0.13351065
199	0xbe15a390	-0.14613175
200	0x3debd501	0.11515237
201	0xbda5f8f4	-0.08104125
202	0x3d1244d9	0.03571019
203	0x3cca8595	0.0247219
204	0x3cd991b4	0.026558734
205	0xbd8cbdf2	-0.06872167
206	0x3ba2e3d0	0.004971005
207	0xbe06e41f	-0.13172959
208	0xbc30374e	-0.010755373
209	0xbcfb2cb2	-0.03066096
210	0x3c8d1b0e	0.017224815
211	0xbe2b8c0c	-0.16752642
212	0x3dbedfd9	0.09320039
213	0xbe58c06e	-0.21167156
214	0x3ddcbfb7	0.10778754
215	0x3d9b978e	0.07597266
216	0xbe844a6d	-0.25838032
217	0x3da0f9c2	0.078601375
218	0xbdee7017	-0.11642473
219	0xbd1ad719	-0.03780279
220	0x3d6b1f38	0.05740282
221	0xbde9818d	-0.11401663
222	0x3e0c8d81	0.13725854
223	0xbd66715e	-0.05626046
224	0xbdd59f0d	-0.10430727
225	0xbd86e6da	-0.06587
226	0x3d19b747	0.037528303
227	0x3e4416d3	0.19149332
228	0x3e31e4c1	0.17372419
229	0xbd3bb0ba	-0.045822836
230	0xbc47ee73	-0.012202847
231	0xbd847633	-0.06467857
232	0x3ddd8cb1	0.108178504
233	0xbbc20196	-0.005920599
234	0x3c977057	0.018486185
235	0xbe38473d	-0.17995925
236	0x3e19f49f	0.15034722
237	0x3db5505c	0.08853218
238	0x3d9399ef	0.07207095
239	0x3d35e29b	0.04440556
240	0x3a8cba52	0.001073668
241	0x3dd1f89b	0.10252496
242	0x3d9b194e	0.07573186
243	0x3e8da61e	0.276658
244	0xbd8d95f5	-0.06913368
245	0xbe32011f	-0.1738324
246	0x3da67865	0.08128432
247	0x3d98f9db	0.07469531
248	0x3cbad637	0.022807224
249	0xbe43acdc	-0.1910891
250	0xbd3be9f9	-0.04587743
251	0xbe054824	-0.130158
252	0xbdf7eac4	-0.12105325
253	0xbd96fc8e	-0.0737239
254	0x3e57b489	0.21064962
255	0x3cd7d0e1	0.026344718

gru.bias_ih_l0 f4 [180]
0	0x3c6071b9	0.013698989
1	0xbd681cdb	-0.056668144
2	0x3dd330ba	0.10312028
3	0x3c7d23cb	0.015450428
4	0x3b8e8401	0.004349232
5	0x3cef077d	0.029178375
6	0x3bef9e55	0.007312576
7	0x3e04e95f	0.12979649
8	0x3e0c3451	0.13691832
9	0xbd417b2f	-0.047236618
10	0x3db30c19	0.08742542
11	0x3dd7c63b	0.10535856
12	0x3c7c94b4	0.015416313
13	0xbd56f6a8	-0.052481323
14	0x3cd28e75	0.025702694
15	0xbc9f0956	-0.019413631
16	0x3d7d59e5	0.06185331
17	0xbd92a749	-0.07160813
18	0x3dfa1063	0.12210157
19	0x3dccda63	0.100025915
20	0x3d9fb68a	0.077984884
21	0x3d1ef37b	0.03880642
22	0x3dbd2096	0.09234731
23	0xbb09dd21	-0.0021036344
24	0x3d9bd917	0.07609766
25	0xbdd5812d	-0.10425029
26	0xbb4f04e4	-0.0031588608
27	0x3d39e10b	0.045380633
28	0x3e4a08ab	0.19729869
29	0x3de21309	0.11038787
30	0xbe1481d4	-0.1450265
31	0x3deb3779	0.1148519
32	0xbe02d642	-0.12777045
33	0x3e2261d0	0.15857625
34	0xbd96b2d4	-0.073583275
35	0x3d3e33c3	0.046436083
36	0x3d8f56de	0.069989905
37	0xbdbe0090	-0.09277451
38	0x3d8a2888	0.06746012
39	0x3d9ec566	0.077524945
40	0x3d903898	0.070420444
41	0xbce5acea	-0.028036553
42	0x3e00aae4	0.1256519
43	0x3e22cb25	0.15897806
44	0xbdde2c1b	-0.10848256
45	0x3e2b3f9f	0.16723488
46	0x3e2bd86f	0.16781782
47	0x3d383070	0.04496807
48	0x3dfda1dd	0.123843886
49	0x3bcd3d48	0.006263409
50	0xbd5c2f5b	-0.0537561
51	0x3cedfa57	0.029050035
52	0xbd921d54	-0.071345
53	0x3d7706d8	0.06030926
54	0x3d836f40	0.06417704
55	0x3dc23594	0.094828755
56	0xbad84769	-0.0016500774
57	0xbd7af639	-0.061269972
58	0xbc8f93dd	-0.017526561
59	0x3d065421	0.032795075
60	0xbda6ebb2	-0.08150424
61	0xbdf234c4	-0.118264705
62	0xbe5946f2	-0.2121847
63	0x3bcdbaa8	0.0062783547
64	0x3dd79041	0.10525561
65	0xbd868280	-0.0656786
66	0xbe86f533	-0.26358947
67	0xbe1fd9a2	-0.15610364
68	0xbe42a85d	-0.19009538
69	0x3de65c3c	0.11248061
70	0x3ec15ad5	0.37764612
71	0x3d832dd7	0.06405228
72	0xbccd4167	-0.0250556
73	0x3cf0ac8a	0.029379148
74	0x3d853ee0	0.06506133
75	0x3dafc892	0.085831776
76	0x3d989572	0.074503794
77	0xbdddc477	-0.10828488
78	0x3c77e709	0.015130767
79	0xbe1c9d02	-0.15294269
80	0xbd0f6c9c	-0.035015687
81	0x3d830eb1	0.063992865
82	0xbd908442	-0.07056476
83	0xbd456fa9	-0.04820219
84	0x3e09b7c5	0.13449009
85	0xbe1c6a21	-0.1527486
86	0x3e13c2cc	0.14429778
87	0xbe551681	-0.20809366
88	0xbe322088	-0.17395222
89	0x3df2533d	0.11832283
90	0x3e2823d9	0.16419925
91	0xbda27485	-0.079323806
92	0xbd3fda19	-0.046838854
93	0x3e224c98	0.1584953
94	0x3e07e673	0.13271503
95	0x3e1c85dc	0.15285438
96	0xbd17e867	-0.03708687
97	0x3d592680	0.053015232
98	0xbd53ccfe	-0.051709168
99	0xbda59a2d	-0.08086047
100	0xbe0a9c78	-0.1353625
101	0x3e409142	0.18805411
102	0x3e94d852	0.2907129
103	0x3dc24b5d	0.09487031
104	0x3d8c37d7	0.06846588
105	0xbcab76ba	-0.020930637
106	0x3dc93b41	0.09825755
107	0xbdf52408	-0.11969763
108	0x3e48eab9	0.1962079
109	0x3bec8a07	0.0072186026
110	0xbd692c23	-0.056926858
111	0x3dc4f558	0.09617108
112	0xbe73ef5b	-0.23821776
113	0xbd820a31	-0.063496
114	0x3e898fce	0.26867527
115	0x3d79cca9	0.060986195
116	0xbe88c935	-0.2671601
117	0xba9aba72	-0.0011804833
118	0xbe951ab8	-0.29121947
119	0x3ea28176	0.31739396
120	0x3d5d64fa	0.054051377
121	0xbd388f5f	-0.045058604
122	0x3dfd8a9f	0.123799555
123	0x3dc0aabc	0.09407565
124	0x3dc01a10	0.09379971
125	0xbb4a3326	-0.003085324
126	0xbdc15892	-0.094407216
127	0xbc8f3519	-0.017481374
128	0x3d984cc2	0.074365154
129	0x3d2161d5	0.03939994
130	0xbe00a55d	-0.12563081
131	0x3e2b7492	0.16743687
132	0x3d16fa46	0.036859773
133	0xbd8c4aa5	-0.06850175
134	0xbdca2f6d	-0.09872327
135	0xbdecd744	-0.11564496
136	0xbe302212	-0.17200497
137	0x3d1ff107	0.03904822
138	0xbd22eeed	-0.03977864
139	0xbd57e8f1	-0.052712385
140	0xbb6e2031	-0.0036335106
141	0x3e040379	0.1289195
142	0x3dc93e78	0.09826368
143	0xbe0b2db7	-0.13591658
144	0x3c8c21bf	0.017105935
145	0xbd0d718f	-0.034532126
146	0xbcabc65e	-0.020968612
147	0xbd5c4c93	-0.053783964
148	0xbdd71ce3	-0.105035566
149	0xbe34adb7	-0.17644392
150	0xbe1f5777	-0.15560709
151	0xbd062ac6	-0.032755636
152	0xbd124794	-0.035712793
153	0xbdfefe25	-0.12450818
154	0xbcf34d8d	-0.029700065
155	0xbdb6d935	-0.08928148
156	0xbbe626ff	-0.0070236917
157	0x3d4b47d4	0.049629048
158	0x3e257433	0.16157608
159	0x3cad9d36	0.021193128
160	0xbdfa3f73	-0.12219133
161	0x3de1d715	0.11027352
162	0xbd6f47b9	-0.05841801
163	0x3d63e7cc	0.05564098
164	0xbd71dd12	-0.05904872
165	0x3d732f18	0.059371084
166	0xbd860330	-0.06543577
167	0x3d8e52cb	0.06949385
168	0x3de47ecb	0.11156996
169	0x3c7cca27	0.015429056
170	0x3d419235	0.047258575
171	0x3d8f713e	0.07004021
172	0xbd29193a	-0.041283824
173	0xbd884583	-0.06653883
174	0x3d37c6b4	0.044867232
175	0x3c1ddc5f	0.00963506
176	0xbdc462f0	-0.09589183
177	0x3e05b2dd	0.13056512
178	0xbdfaceb7	-0.12246459
179	0x3d808042	0.06274463

gru.bias_hh_l0 f4 [180]
0	0xbd48e02c	-0.049041912
1	0x3d2020c7	0.03909376
2	0xbd3a470d	-0.045477916
3	0xbd0f3db8	-0.03497097
4	0x3cfedfd0	0.031112581
5	0xbd50fb02	-0.05102063
6	0xbd0035ac	-0.031301185
7	0x3d8c26f9	0.06843371
8	0x3e188aab	0.14896648
9	0xbe2e8999	-0.17044677
10	0xbd87fde7	-0.06640225
11	0x3df1021c	0.117679805
12	0xbd92a074	-0.0715951
13	0xbd549069	-0.051895533
14	0x3cbf1c00	0.023328781
15	0x3dcc030d	0.099615194
16	0xbd45e2ed	-0.048312116
17	0xbe30f758	-0.17281854
18	0x3d6c1520	0.057637334
19	0x3deeb7fc	0.11656186
20	0x3dc636a2	0.09678389
21	0x3ddaba27	0.10680037
22	0x3dbdd7aa	0.0926965
23	0x3e1a6dcb	0.15080945
24	0xbdc7b070	-0.0975045
25	0x3dd4d121	0.10391451
26	0x3dacc970	0.08436859
27	0xbd8c7679	-0.06858534
28	0x3dbe726f	0.0929917
29	0x3e1a0c1e	0.15043685
30	0xbda0904d	-0.07840023
31	0xbd6bf2ed	-0.05760472
32	0x3dd596ad	0.1042913
33	0x3ddbcb8f	0.10732185
34	0x3d84978b	0.06474217
35	0xbd098e65	-0.033583064
36	0x3e298a44	0.1655665
37	0x3d27b058	0.04093966
38	0xbdc3ad71	-0.09554566
39	0x3d38f5d9	0.045156334
40	0x3e13427c	0.1438083
41	0xbe1ccb82	-0.15312007
42	0x3d157fc7	0.03649881
43	0xbc927f4e	-0.01788297
44	0x3d93ce38	0.072170675
45	0x3e0eff3f	0.13964556
46	0x3df896f4	0.12138167
47	0x3c29769c	0.01034322
48	0x3e3dcdf5	0.18535598
49	0x3ce1c33d	0.027558917
50	0x3da848d8	0.08217019
51	0x3d8cea69	0.06880648
52	0xbdf5e401	-0.12006379
53	0xbd605ca4	-0.05477585
54	0xba59a5f2	-0.0008302621
55	0xbdb19a8c	-0.086720556
56	0x3d69e863	0.057106387
57	0x3d97a864	0.07405165
58	0x3df94c72	0.12172784
59	0xbcee32cf	-0.029076962
60	0xbd775b1f	-0.060389634
61	0xbe1e4d45	-0.15459163
62	0xbe11f7d1	-0.1425469
63	0xbc9df1f7	-0.019280417
64	0x3e1ec52a	0.155049
65	0xbe11e14e	-0.14246103
66	0xbe94846b	-0.29007277
67	0xbdee3878	-0.11631864
68	0xbe0e6e8f	-0.13909362
69	0x3dd451cc	0.10367164
70	0x3e2036a4	0.15645844
71	0xbc0afba8	-0.008482851
72	0x3b29dba0	0.002591826
73	0xbe15709b	-0.14593737
74	0x3d293915	0.041314203
75	0x3ceb550f	0.028727083
76	0xbade1c63	-0.0016945716
77	0x3becdb01	0.0072282557
78	0xbd635e00	-0.055509567
79	0xbda8fb12	-0.08251013
80	0x3d789c79	0.0606961
81	0xbe211e70	-0.15734267
82	0xbded8d0d	-0.11599169
83	0x3d0b943c	0.034076914
84	0x3cae4ec2	0.021277789
85	0xbd40e5c1	-0.04709411
86	0x3ea8a973	0.3294178
87	0xbe913712	-0.28362328
88	0xbdb380ae	-0.08764778
89	0x3e19e52a	0.15028825
90	0xbd5d2225	-0.05398764
91	0x3d921388	0.071326315
92	0x3e1c717a	0.15277663
93	0x3e0bf369	0.13667072
94	0x3e30b690	0.17257142
95	0x3e164792	0.1467574
96	0x3da02374	0.07819262
97	0x3df05a4d	0.117359735
98	0x3d831d94	0.06402126
99	0x3deb5d73	0.114924334
100	0xba312336	-0.0006757261
101	0x3bf13cb1	0.0073619713
102	0x3e5f0377	0.21778665
103	0x3da40045	0.08007864
104	0x3bb188b8	0.0054179095
105	0x3d8486f5	0.064710535
106	0xbd9682c2	-0.07349159
107	0xbe334bc6	-0.17509374
108	0x3ea312d6	0.31850308
109	0xbe5dd656	-0.21663794
110	0xbe28cf04	-0.1648522
111	0x3ddc18a4	0.10746887
112	0xbdb37cc5	-0.08764032
113	0xbd14fe45	-0.036375303
114	0x3e6f77df	0.23385571
115	0x3d849361	0.06473423
116	0xbe65c6ff	-0.22439192
117	0xbd4338fe	-0.047661774
118	0xbe5100f4	-0.2041052
119	0x3dfcb9f6	0.12340157
120	0xbe0e8091	-0.13916232
121	0xbd879f6f	-0.066222064
122	0x3d8e1627	0.06937819
123	0x3da525a4	0.0806382
124	0xbd670341	-0.056399588
125	0xbe40171c	-0.18758816
126	0xbdbc0143	-0.09179928
127	0x3d9c2bb4	0.07625523
128	0xbde283cf	-0.11060297
129	0xbd6e5616	-0.058187567
130	0xbdd03171	-0.1016568
131	0x3dc99f89	0.09844882
132	0xbcc0a4f8	-0.023516163
133	0xbd9e3e25	-0.07726697
134	0xbb20a5bf	-0.0024512855
135	0xbbbc93f9	-0.0057549444
136	0xbd201e89	-0.03909162
137	0x3d505216	0.050859533
138	0x3d42a695	0.047522146
139	0x3c63986c	0.013891321
140	0xbd7c594a	-0.06160859
141	0x3e183213	0.14862852
142	0x3cebdef7	0.028792841
143	0xbd3212b1	-0.043474857
144	0x3c8585b2	0.016299102
145	0x3e19c7d5	0.15017636
146	0x3dcd1237	0.1001324
147	0x3dc1dd98	0.09466094
148	0xbdd6500b	-0.10464486
149	0xbe0ebcfa	-0.13939276
150	0x3bffebf5	0.0078101107
151	0xbc8b8213	-0.017029798
152	0xbd1e0f0c	-0.03858857
153	0x3dd7429a	0.1051075
154	0xbe085932	-0.13315275
155	0xbd9cf9b7	-0.07664817
156	0x3d80cdb2	0.06289233
157	0xbd353c47	-0.044246938
158	0xbd0a3884	-0.033745304
159	0xbe011a94	-0.12607795
160	0x3d94ab91	0.07259286
161	0xbd34fc88	-0.044186145
162	0xbd7a97bb	-0.061179858
163	0x3dc97834	0.0983738
164	0xbdcb9cf1	-0.099420436
165	0xbd8ffefd	-0.07031057
166	0xbd37935c	-0.044818267
167	0xbdd33532	-0.103128806
168	0x3c75c036	0.01499944
169	0x3d1dde1c	0.038541898
170	0x3c3ca4ba	0.011513883
171	0x3e072122	0.13196233
172	0x3c112d8a	0.008860955
173	0xbd99c6de	-0.07508634
174	0xbd1276d2	-0.035757847
175	0xba9e7acc	-0.001209104
176	0xbdde432e	-0.10852657
177	0xbd3560ce	-0.044281773
178	0xbdce1b35	-0.10063783
179	0x3ddddbbe	0.10832928
