hosp_models/deploy_week_49_27/feat_enc.pt (torch, 56491 bytes, 4 tensors)

gru.weight_ih_l0 f4 [180, 15]
-0.09908849 0.1995487 0.1058417 -0.15852082 -0.3687693 -0.18597832 -0.03567856 0.01516307
-0.17732255 0.057434663 0.21118245 -0.025376482 -0.1266096 -0.23825905 -0.1836785 -0.030843604
0.024203632 0.35429183 -0.12244931 -0.25209948 0.024922963 0.14799441 0.2109637 -0.061358556
0.24997772 0.06728921 0.11689647 -0.11105894 -0.14238456 -0.042205963 -0.06771103 0.31561503
-0.2673898 -0.21244109 -0.46355808 0.21271978 0.045685332 0.09114485 0.17207658 -0.010301282
-0.18979411 -0.06618716 -0.10825758 -0.37477002 -0.3649707 -0.1305871 0.50485176 0.32631496
0.015537717 -0.10594091 0.22634317 0.3241894 0.61797917 0.1562263 0.32127324 0.07954455
0.02405691 0.07177415 -0.027404526 0.025182074 0.10986335 0.013498209 0.07925198 0.3157644
0.080641285 -0.28507647 -0.13229483 0.14962506 -0.03151268 0.3084651 -0.028983215 -0.047311038
0.22224662 0.06290986 0.11284112 0.4050353 0.0535804 0.3007796 0.30091962 -0.12425522
-0.42967498 0.069233686 0.04394146 -0.06459178 0.13999957 -0.08753395 -0.021244753 0.0951103
0.12565893 0.05865118 -0.43430632 -0.29129878 -0.26014867 -0.6330191 -0.27479634 0.28716394
0.35841396 0.14465179 -0.054691963 -0.027822731 0.40000314 0.086989515 -0.14620617 0.16276908
0.023263333 -0.30487648 -0.153419 -0.09265631 0.16993357 -0.095708705 -0.11380598 0.2829643
0.016785823 0.22347496 0.29021662 -0.11048936 -0.032130826 0.0296168 0.004752976 0.049292207
0.038090974 -0.186842 -0.09233078 0.07597482 0.07791907 -0.275823 -0.061650183 -0.47319865
0.05860907 -0.45137563 -0.35848 0.027595839 -0.2873165 -0.05856169 -0.02326425 0.21892636
-0.12312401 0.23293875 0.016674165 0.2827065 -0.4052756 0.037732214 0.29922977 -0.1844866
-0.07275932 -0.080776736 0.08790448 0.010565346 -0.080199085 -0.020655297 -0.24008696 -0.626683
-0.14960314 -0.10417345 0.04779024 0.023155255 0.2903745 0.20843701 0.0146837365 0.12529996
-0.009698701 -0.025347734 -0.20082486 -0.16080011 -0.052797142 0.09556389 -0.020112015 0.115602076
-0.23749395 -0.085246384 0.11819406 0.026746837 0.9886441 0.13689955 0.07441898 0.14138925
-0.014897362 0.093358465 0.2772686 0.039585877 -0.68174213 -0.17804046 -0.031267487 0.008088542
0.07380946 0.1941136 0.1182488 0.056379117 -0.100979574 -0.14856997 0.23502207 0.08833305
-0.13197733 -0.23986815 -0.32063723 0.17987037 0.07032074 0.26909268 0.29875636 -0.41349667
0.043416683 0.16474693 -0.3510148 0.025563346 -0.15217653 0.39232925 -0.04640673 0.042296823
0.4274981 0.45066437 -0.020341262 -0.10384997 0.06624514 -0.07097033 -0.022918925 0.1593452
-0.039181672 0.06355486 -0.04931564 -0.0036001427 -0.11194834 0.12771016 0.26809198 0.20353295
0.11106207 0.061043464 -0.26490647 -0.29965246 -0.2613333 -0.17610805 0.23301081 0.09615374
0.09821951 -0.027289655 -0.0059571536 -0.031458355 0.05790163 -0.31093332 0.0608774 0.17909378
0.05695679 0.0424146 -0.16030596 0.18031934 0.11397185 -0.15545748 -0.23267023 -0.5112102
-0.10415167 -0.5054947 -0.21422149 0.017063208 0.15373856 -0.5501182 -0.6024879 0.16437392
00000000: e8ee cabd 7f56 4c3e 89c3 d83d 4853 22be
00000010: 54cf bcbe 1a71 3ebe af23 12bd 866e 783c
00000020: 0b94 35be 9c40 6b3d 3640 583e 57e2 cfbc
00000030: f2a5 01be 2efa 73be 3716 3cbe baab fcbc
00000040: b246 c63c bd65 b53e b4c6 fabd 2f13 81be
00000050: 3e2b cc3c d98b 173e de06 583e 1c53 7bbd
00000060: 29fa 7f3e edce 893d 6b67 ef3d df72 e3bd
00000070: 42cd 11be 29e0 2cbd 15ac 8abd 4b98 a13e
00000080: 51e7 88be 288a 59be 7c57 edbe 37d3 593e
00000090: 8b20 3b3d 27aa ba3d d834 303e b5c6 28bc
000000a0: 6359 42be 228d 87bd 26b6 ddbd dbe1 bfbe
000000b0: 71dd babe a0b8 05be f73d 013f c112 a73e
000000c0: e991 7e3c 8cf7 d8bd 81c6 673e 27fc a53e
000000d0: e233 1e3f caf9 1f3e ed7d a43e 41e8 a23d
000000e0: ff12 c53c 53fe 923d 757f e0bc a34a ce3c
000000f0: 0900 e13d 9827 5d3c dd4e a23d dfab a13e
00000100: 4227 a53d 8bf5 91be 4c78 07be 5037 193e
00000110: 7113 01bd 23ef 9d3e 356e edbc 38c9 41bd
00000120: 9e94 633e e2d6 803d 3f19 e73d c960 cf3e
00000130: 1f77 5b3d c9ff 993e 2312 9a3e 8579 febd
00000140: 5cfe dbbe 64ca 8d3d f6fb 333d b248 84bd
00000150: 0c5c 0f3e 0045 b3bd 7a09 aebc 30c9 c23d
00000160: bcac 003e 383c 703d 665d debe 1d25 95be
00000170: 3532 85be 8a0d 22bf 1bb2 8cbe 2707 933e
00000180: 0982 b73e 991f 143e ae04 60bd 7fec e3bc
00000190: 36cd cc3e 8f27 b23d 12b7 15be f0ac 263e
000001a0: bf92 be3c c518 9cbe df19 1dbe 97c2 bdbd
000001b0: 1103 2e3e ed02 c4bd 1c13 e9bd b2e0 903e
000001c0: 6c82 893c 9fd6 643e 4697 943e 3f48 e2bd
000001d0: 9d9b 03bd ee9e f23c dabe 9b3b a0e6 493d
000001e0: 4805 1c3d 8253 3fbe ec17 bdbd b098 9b3d
000001f0: 0994 9f3d ac38 8dbe e784 7cbd 1847 f2be
00000200: 1010 703d b51a e7be b18a b7be ab10 e23c
00000210: 261b 93be 62de 6fbd ab94 bebc 3b2e 603e
00000220: 7128 fcbd 7f87 6e3e 4298 883c e8be 903e
00000230: 4980 cfbe 188d 1a3d a534 993e 0eea 3cbe
00000240: d702 95bd 466e a5bd 4407 b43d 461a 2d3c
00000250: 6b3f a4bd 4c35 a9bc 5bd9 75be 4c6e 20bf
00000260: 9131 19be e458 d5bd b3bf 433d 17b0 bd3c
00000270: f7ab 943e 8370 553e 0e94 703c a24e 003e
00000280: 4de7 1ebc 0da6 cfbc 08a5 4dbe c9a8 24be
00000290: d141 58bd 00b7 c33d f4c1 a4bc c8c0 ec3d
000002a0: 9d31 73be a895 aebd ba0f f23d 2f1c db3c
000002b0: c817 7d3f 652f 0c3e fa68 983d 58c8 103e
000002c0: 1114 74bc b932 bf3d 26f6 8d3e cd24 223d
000002d0: a786 2ebf 3d50 36be 5612 00bd ce85 043c
000002e0: 6a29 973d b7c5 463e 6d2c f23d caed 663d
000002f0: 61ce cebd ba22 18be a0a9 703e f5e7 b43d
00000300: 1125 07be ff9f 75be 902a a4be f02f 383e
00000310: 5204 903d 84c6 893e 98f6 983e d6b5 d3be
00000320: b1d5 313d 6bb3 283e 36b8 b3be 396a d13c
00000330: 2ad4 1bbe 61df c83e fc14 3ebd 6f3f 2d3d
00000340: 08e1 da3e 7bbd e63e b8a2 a6bc 4baf d4bd
00000350: 88ab 873d e458 91bd 78c0 bbbc 632b 233e
00000360: f67c 20bd 0d29 823d 32ff 49bd 5ff0 6bbb
00000370: 2c45 e5bd 74c6 023e 5a43 893e f16a 503e
00000380: 8374 e33d b608 7a3d d2a1 87be 0c6c 99be
00000390: 7acd 85be ab55 34be 639a 6e3e 41ec c43d
000003a0: 4f27 c93d 8e8e dfbc 3a34 c3bb 7ada 00bd
000003b0: 422a 6d3d a732 9fbe 955a 793d 5c64 373e
000003c0: 864b 693d eeba 2d3d 3f27 24be a2a5 383e
000003d0: 136a e93d 3f30 1fbe 1b41 6ebe acde 02bf
000003e0: 794d d5bd 1a68 01bf e15c 5bbe 24c8 8b3c
000003f0: a46d 1d3e 8cd4 0cbf a63c 1abf a351 283e

gru.weight_hh_l0 f4 [180, 60]
0.24776678 0.11484121 -0.028456356 -0.134917 -0.020904535 -0.025298297 -0.25617164 0.30541047
0.045983367 0.14538191 -0.02880209 0.11972598 -0.24661519 -0.026029635 0.044956833 -0.4123195
0.0033342435 -0.2194951 -0.033874862 -0.0011652955 -0.20798865 0.14951383 -0.030068427 0.06783043
-0.03246305 0.09043648 -0.009725023 -0.28972605 -0.07692792 0.12546721 0.060130507 -0.13399687
-0.009144884 -0.13050975 -0.018857354 0.09085554 -0.075082846 0.008803324 0.05872986 0.24221931
0.13645236 -0.22040102 -0.07520816 -0.095652565 0.11179994 0.0015329085 0.26341283 -0.13902257
0.13665766 0.07543867 0.07675798 -0.053362045 0.042992815 0.13817644 -0.12934755 0.18737131
-0.10847684 0.16835488 -0.11014624 0.025555154 0.0009479117 -0.24052535 0.17198879 0.23391151
0.14342827 -0.07810322 0.111329585 0.14085062 0.15842548 0.26021525 0.21908844 0.1786919
-0.0355377 0.18092433 -0.29925868 -0.023910498 0.1466548 0.21399322 -0.19216257 0.25216925
-0.13118654 0.07688704 -0.14324869 -0.009417421 0.097320035 -0.13444895 0.026289336 -0.055760253
-0.6021641 0.058454696 0.04591535 -0.06207441 -0.37549636 -0.49059364 -0.13928574 0.43430734
-0.16564572 0.10557313 0.09631281 -0.46933782 -0.14098005 -0.065412596 -0.105604075 0.09482742
0.32521483 0.031637914 -0.027898319 -0.058527265 0.04749103 -0.08222299 0.30923903 0.017113237
-0.11716011 -0.045644995 -0.06824936 -0.42376763 -0.18448348 -0.082636155 0.03537057 -0.15841112
-0.21332264 -0.04337697 -0.19236904 -0.06984116 0.23716362 -0.11914886 -0.29352853 -0.12366135
-0.030072048 -0.029769456 0.114216655 -0.10982801 0.18019602 0.13452116 0.04027262 0.3278343
0.007825504 0.12495439 -0.026308276 -0.2087929 0.08651775 -0.033739477 -0.113175064 -0.3389777
-0.024209887 -0.21095525 -0.10805936 0.118395194 -0.10286052 -0.033152457 -0.22584848 0.06292955
-0.34268558 -0.010884078 -0.058525532 -0.13619088 -0.11078755 -0.0034278687 0.10380649 -0.06473702
-0.13060206 0.11666567 -0.09422666 -0.21449944 0.48573846 -0.03535301 0.15885915 0.022051886
0.06108717 -0.025931988 -0.1177348 -0.0080631 -0.15847223 -0.14744008 -0.17936312 -0.10073127
0.09709094 0.14858873 -0.07974785 -0.18984696 0.059638526 0.18085268 0.0926504 0.27466664
0.07967919 0.18480791 0.04245453 0.18783961 0.41115525 -0.11681246 0.0904639 0.021297745
-0.212911 0.2929698 0.080051176 -0.06693292 -0.1597402 -0.07611707 0.2242873 0.1741772
0.2088195 0.054378632 0.09297317 0.12009462 -0.047373865 0.087224476 -0.0053570922 -0.11652811
-0.21887718 -0.102122396 0.31925437 -0.051020272 -0.09269465 -0.4474754 0.18124719 0.11813056
-0.04819546 0.13668606 -0.17830926 0.06378218 0.16436404 -0.2032701 -0.15506148 -0.040966745
-0.07564854 -0.050002154 0.19764659 0.06335513 -0.046901822 -0.28536624 0.022124318 -0.18446086
0.19939838 0.07590892 0.08015979 -0.18559335 0.036689434 0.31287405 0.16613704 0.07990378
-0.07743314 0.12785861 0.059217975 0.18878847 -0.013427523 0.01882819 0.2474933 0.115931235
-0.06883806 0.025546852 -0.018876348 0.035231467 -0.04690713 0.0076077655 0.09511184 -0.057617623
00000000: 93b6 7d3e de31 eb3d 4e1d e9bc af27 0abe
00000010: fd3f abbc 603e cfbc ee28 83be c35e 9c3e
00000020: 0e59 3c3d ffde 143e 5cf2 ebbc e532 f53d
00000030: b188 7cbe 1a3c d5bc a824 383d 8b1b d3be
00000040: 5383 5a3b 53c3 60be 5ec0 0abd d4bc 98ba
00000050: fafa 54be 271a 193e 1052 f6bc aeea 8a3d
00000060: faf7 04bd c336 b93d b455 1fbc f956 94be
00000070: 638c 9dbd 7a7a 003e 684b 763d 7a36 09be
00000080: 6cd4 15bc 59a4 05be bd7a 9abc 7812 ba3d
00000090: 09c5 99bd d13b 103c b98e 703d 5708 783e
000000a0: 2bba 0b3e ceb0 61be bc06 9abd 7ee5 c3bd
000000b0: 5ef7 e43d e0eb c83a 0cde 863e ef5b 0ebe
000000c0: fcef 0b3e 977f 9a3d 4a33 9d3d 2992 5abd
000000d0: 3c19 303d 207e 0d3e af73 04be 44de 3f3e
000000e0: 1b29 debd 3965 2c3e 5a94 e1bd 0b59 d13c
000000f0: 477d 783a 474c 76be d41d 303e 8086 6f3e
00000100: dcde 123e 95f4 9fbd c400 e43d 253b 103e
00000110: 4a3a 223e ef3a 853e b858 603e 02fb 363e
00000120: fb8f 11bd 3a44 393e 6f38 99be f3df c3bc
00000130: ad2c 163e 0a21 5b3e 44c6 44be 541c 813e
00000140: c455 06be f476 9d3d c9af 12be 874b 1abc
00000150: ba4f c73d fcac 09be bc5c d73c dd64 64bd
00000160: 6d27 1abf 316e 6f3d bc11 3c3d bd41 7ebd
00000170: 0f41 c0be 172f fbbe eca0 0ebe 885d de3e
00000180: 089f 29be ba36 d83d a73f c53d 0c4d f0be
00000190: 135d 10be 0af7 85bd f346 d8bd e134 c23d
000001a0: 8f82 a63e c296 013d 048b e4bc 49ba 6fbd
000001b0: f485 423d 8764 a8bd 9454 9e3e 0f31 8c3c
000001c0: a4f1 efbd 3ff6 3abd 52c6 8bbd 12f8 d8be
000001d0: 3de9 3cbe 253d a9bd bbe0 103d 8636 22be
000001e0: 4071 5abe 0dac 31bd 64fc 44be e208 8fbd
000001f0: 05db 723e 5104 f4bd 5f49 96be 2942 fdbd
00000200: a859 f6bc 13df f3bc 6cea e93d 82ed e0bd
00000210: 4e85 383e eabf 093e e7f4 243d e6d9 a73e
00000220: 8b36 003c 16e8 ff3d 7484 d7bc cecd 55be
00000230: 3830 b13d 6832 0abd 54c8 e7bd 7c8e adbe
00000240: d053 c6bc a704 58be 3a4e ddbd 2e79 f23d
00000250: 89a8 d2bd dfca 07bd d344 67be 35e1 803d
00000260: 7c74 afbe 2253 32bc 78b8 6fbd 9f75 0bbe
00000270: 95e4 e2bd 18a6 60bb 7f98 d43d d894 84bd
00000280: 8cbc 05be 69ee ee3d e8f9 c0bd bea5 5bbe
00000290: b6b2 f83e 51ce 10bd f9ab 223e 28a6 b43c
000002a0: 8a36 7a3d 526f d4bc f11e f1bd 181b 04bc
000002b0: 8b46 22be 88fa 16be f7aa 37be 324c cebd
000002c0: 9dd7 c63d a527 183e d752 a3bd 3e67 42be
000002d0: 8747 743d 7231 393e 7ebf bd3d 1ba1 8c3e
000002e0: d82e a33d 493e 3d3e cde4 2d3d 0759 403e
000002f0: f182 d23e 5f3b efbd 2345 b93d 9c78 ae3c
00000300: 5705 5abe 2300 963e dff1 a33d 2014 89bd
00000310: ef92 23be 44e3 9bbd 92ab 653e 825b 323e
00000320: c7d4 553e 21bc 5e3d b868 be3d 2bf4 f53d
00000330: 190b 42bd bfa2 b23d 8c8a afbb 4aa6 eebd
00000340: 5721 60be 8c25 d1bd 4f75 a33e a2fa 50bd
00000350: b1d6 bdbd 7f1b e5be dd98 393e 6fee f13d
00000360: 9a68 45bd 6ef7 0b3e b496 36be 3ba0 823d
00000370: 0c4f 283e 0926 50be 70c8 1ebe bfcc 27bd
00000380: 9fed 9abd 0fcf 4cbd de63 4a3e 56c0 813d
00000390: 201c 40bd 861b 92be 0f3e b53c 4fe3 3cbe
000003a0: 172f 4c3e 2376 9b3d d12a a43d 2f0c 3ebe
000003b0: a947 163d 0731 a03e d41f 2a3e 98a4 a33d
000003c0: 4495 9ebd 5eed 023e 8c8e 723d c451 413e
000003d0: 1dff 5bbc 943d 9a3c e26e 7d3e 5b6d ed3d
000003e0: f8fa 8cbd a247 d13c 92a2 9abc df4e 103d
000003f0: b121 40bd 904a f93b ffc9 c23d 7500 6cbd

gru.bias_ih_l0 f4 [180]
-0.051135343 -0.07139782 0.18327549 -0.13520108 -0.17871867 -0.0032171488 0.017927673 -0.02617613
0.20665003 -0.0414716 0.0554602 -0.034602094 0.02878378 -0.06736606 -0.1416584 -0.110114016
0.00702446 0.013323489 -0.030691583 -0.04400861 0.09813671 -0.061038643 -0.023783538 -0.14093469
0.14170338 -0.18142918 -0.08111826 -0.009242436 -0.01838744 0.20918277 -0.04906717 0.17417476
-0.2269422 0.09661362 0.028716292 0.10798807 0.02451322 -0.17136016 0.015586645 0.12893148
0.08616239 0.044939663 0.18803142 0.07900569 -0.13702032 0.18633816 0.14349581 0.080706984
0.028580021 -0.016850648 -0.047879048 0.020739159 -0.0334078 -0.011925695 0.1527551 0.119624056
-0.10887556 -4.100871e-05 -0.127923 0.055062853 0.1250881 -0.09562843 0.16216859 0.28835592
0.23693441 0.18648253 0.2626128 0.058925744 0.108416155 0.29925472 0.3429854 -0.119437516
0.11645431 0.2694602 0.3266463 0.07271134 0.18299368 0.16627811 0.007024334 0.14688636
0.096244924 0.0800243 0.13141926 -0.010753784 0.32809523 0.19576278 -0.033514656 0.19828199
0.16652404 0.18098642 0.38801232 -0.041630074 0.38245735 0.34152213 0.17534848 0.20488073
-0.03206831 0.038005687 0.053384934 -0.31372443 0.14444137 0.17862864 0.27348483 0.12195477
0.37928486 0.2250818 0.52119315 -0.1169153 -0.11671106 0.35012624 -0.010106706 0.36016485
0.09414434 0.22164536 0.29586726 -0.0313021 0.02586419 0.16510347 0.12488017 0.26123682
0.11100971 -0.08542769 0.15773031 0.095306 0.116715476 0.037752822 -0.10126812 -0.04655368
0.059059333 0.048292916 -0.13948205 0.18674907 0.02031803 -0.05685285 -0.011725119 -0.154803
-0.04925366 0.0062073073 -0.07939606 -0.005189847 0.0297021 0.13690102 0.06876111 -0.15424354
0.13744493 -0.093405485 -0.08023123 -0.024314305 -0.06068067 0.0038309905 -0.09684724 -0.096546456
-0.012812013 -0.14708212 -0.061722394 -0.018675115 -0.107184075 0.045953605 0.13859767 0.037239067
-0.11578367 0.083523184 -0.025110465 0.04621939 -0.06789515 0.084641345 -0.069233 0.06063232
0.12302622 -0.045382507 0.015483347 0.027834563 -0.12092438 0.022969628 0.07689214 -0.034293912
-0.122692786 0.07870612 -0.056967776 0.008049116
00000000: 4b73 51bd 0539 92bd 92ac 3b3e 2772 0abe
00000010: 0702 37be cdd6 52bb 0edd 923c 536f d6bc
00000020: 119c 533e 20de 29bd 3c2a 633d edba 0dbd
00000030: f6cb eb3c 38f7 89bd e60e 11be 7583 e1bd
00000040: 712d e63b c34a 5a3c ea6c fbbc 5f42 34bd
00000050: e6fb c83d a803 7abd b2d5 c2bc 2f51 10be
00000060: b11a 113e 92c8 39be 5521 a6bd 966d 17bc
00000070: 42a1 96bc 0234 563e a8fa 48bd de5a 323e
00000080: 8963 68be 5ddd c53d 6e3e eb3c d928 dd3d
00000090: f3cf c83c 0a79 2fbe 215f 7f3c 9d06 043e
000000a0: e875 b03d a712 383d 4f8b 403e bccd a13d
000000b0: 0e4f 0cbe 6ecf 3e3e 91f0 123e b449 a53d
000000c0: a620 ea3c 5f0a 8abc d21c 44bd 2be5 a93c
000000d0: 9ed6 08bd fe63 43bc d56b 1c3e 75fd f43d
000000e0: 26fa debd c400 2cb8 3ffe 02be 9689 613d
000000f0: 1817 003e d7d8 c3bd 860f 263e 63a3 933e
00000100: ef9e 723e 47f5 3e3e 2f75 863e 1f5c 713d
00000110: 4a09 de3d ea37 993e c89b af3e a89b f4bd
00000120: 997f ee3d b0f6 893e 2f3e a73e afe9 943d
00000130: b262 3b3e cf44 2a3e 622c e63b 6169 163e
00000140: 0f1c c53d c8e3 a33d c592 063e a430 30bc
00000150: 19fc a73e 0a76 483e aa46 09bd 6f0a 4b3e
00000160: 4785 2a3e 8154 393e 8da9 c63e 4c84 2abd
00000170: 73d1 c33e fddb ae3e 8d8e 333e 41cc 513e
00000180: 0f5a 03bd daab 1b3d 29aa 5a3d 7da0 a0be
00000190: 70e8 133e 6dea 363e 3406 8c3e 6cc3 f93d
000001a0: a031 c23e d87b 663e ea6c 053f 4a71 efbd
000001b0: 3506 efbd bf43 b33e 9996 25bc 8767 b83e
000001c0: bfce c03d 00f7 623e ea7b 973e a136 00bd
000001d0: 23e1 d33c e210 293e 2dc1 ff3d d5c0 853e
000001e0: 0f59 e33d b6f4 aebd 0e84 213e cb2f c33d
000001f0: 8608 ef3d b4a2 1a3d a965 cfbd 12af 3ebd
00000200: 33e8 713d cbce 453d 62d4 0ebe 263b 3f3e
00000210: ff71 a63c 89de 68bd b71a 40bc ad84 1ebe
00000220: 35be 49bd ab66 cb3b 679a a2bd 980f aabb
00000230: d251 f33c c82f 0c3e a0d2 8c3d 05f2 1dbe
00000240: 5dbe 0c3e 604b bfbd 4550 a4bd cb2e c7bc
00000250: 4b8c 78bd 5b11 7b3b d957 c6bd 26ba c5bd
00000260: 7ae9 51bc b29c 16be 9fd0 7cbd 8efc 98bc
00000270: 5383 dbbd d939 3c3d 8cec 0d3e fe87 183d
00000280: fd1f edbd 340e ab3d 76b4 cdbc 8b50 3d3d
00000290: 9d0c 8bbd 7158 ad3d 08ca 8dbd 9859 783d
000002a0: 2cf5 fb3d 02e3 39bd ddad 7d3c 4f05 e43c
000002b0: 34a7 f7bd cd2a bc3c a079 9d3d c677 0cbd
000002c0: 5b46 fbbd ad30 a13d 0b57 69bd 70e0 033c

gru.bias_hh_l0 f4 [180]
-0.113876216 0.024363916 0.034677785 -0.18562354 -0.15195517 -0.08341613 -0.020686137 -0.087538175
0.21869823 -0.16468182 -0.09836749 -0.02228099 -0.058227435 -0.06678029 -0.14403228 0.00891538
-0.10314099 -0.08788703 -0.09515578 -0.027472587 0.11693503 0.0069553987 -0.023434343 0.011978967
-0.031899076 0.026735818 0.006409277 -0.12320786 -0.12269399 0.24923176 0.017559377 0.0017183578
0.005119297 0.04535943 0.16704178 0.027969135 0.12008888 -0.037646145 -0.14741927 0.09656301
0.1595497 -0.08014371 0.098879226 -0.09785538 0.04363267 0.15874872 0.097058624 0.04608253
0.09009197 0.004444987 0.08804714 0.060495604 -0.082126655 -0.12701105 0.08774843 -0.06192537
-0.050118778 0.13528027 0.011331571 -0.0068091303 0.14620358 -0.13195525 0.2318072 0.26279756
0.28672662 0.1096999 0.23612912 0.09871077 0.15941755 0.29044592 0.12179797 -0.19197288
0.14410171 0.094142795 0.30289957 0.015606596 0.10679564 0.2817908 -0.06361595 0.21731886
0.19195512 -0.14131 0.08599234 0.07152512 0.21488273 0.30141905 0.1516063 0.12275282
0.2528284 0.2129523 0.16982357 0.10902047 0.58207035 0.31969765 0.21520509 0.19878368
0.08321103 0.102350146 0.16911404 -0.11794044 0.27912772 -0.002063005 0.2005574 0.10716298
0.31623748 0.31072176 0.34944603 -0.17231213 0.005584441 0.12626918 -0.11803221 0.37146264
0.24472174 0.24876565 0.26104715 -0.02755396 0.068631805 0.11862104 0.21199477 0.06724554
-0.12680823 -0.11233926 0.1132977 0.109190896 -0.026950508 -0.14020577 -0.10609269 0.024613407
-0.116257235 -0.02015558 -0.12124276 0.1394338 -0.016488662 -0.10984566 0.061228056 -0.050339546
0.11989895 0.04940739 -0.008452891 0.094776735 -0.034812223 0.18578807 -0.05709466 -0.08641527
0.097384974 0.075276315 0.059862822 0.16209242 -0.16303775 0.04783113 0.07799718 -0.06020079
-0.017804509 0.08773684 -0.17677037 -0.0075225984 -0.04695497 -0.015697455 -0.044967167 -0.1171875
0.069774814 -0.09712398 -0.0155283855 0.08766692 -0.10042551 -0.040021684 -0.048731282 -0.094537124
0.0634823 0.002003433 0.05952242 0.100763455 -0.0515727 0.004937667 -0.046047922 -0.051833313
-0.1402716 -0.14701399 -0.035231832 0.082371205
00000000: ef37 e9bd d696 c73c 4b0a 0e3d 1914 3ebe
00000010: 239a 1bbe 13d6 aabd f975 a9bc 3747 b3bd
00000020: 6ef2 5f3e 5aa2 28be e574 c9bd 9f86 b6bc
00000030: e47f 6ebd 1bc4 88bd 337d 13be d011 123c
00000040: 953b d3bd 1dfe b3bd 09e1 c2bd 310e e1bc
00000050: a27b ef3d 1dea e33b 61f9 bfbc 6e43 443c
00000060: 9ba8 02bd 1305 db3c ea04 d23b 6754 fcbd
00000070: fd46 fbbd 9c36 7f3e afd8 8f3c 853a e13a
00000080: c7bf a73b cfca 393d 000d 2b3e 871f e53c
00000090: 29f1 f53d d832 1abd 14f5 16be d4c2 c53d
000000a0: ff60 233e 6322 a4bd 3181 ca3d 6768 c8bd
000000b0: 2cb8 323d 068f 223e acc6 c63d 09c1 3c3d
000000c0: 2482 b83d 41a7 913b 0f52 b43d 3dca 773d
000000d0: 0532 a8bd 2f0f 02be 73b5 b33d 75a5 7dbd
000000e0: 5949 4dbd e986 0a3e 0ea8 393c 201f dfbb
000000f0: 64b6 153e 471f 07be de5e 6d3e 678d 863e
00000100: d5cd 923e 57aa e03d d5cb 713e df28 ca3d
00000110: 5b3e 233e 54b5 943e 3771 f93d 8a94 44be
00000120: 668f 133e f0cd c03d a715 9b3e cfb2 7f3c
00000130: acb7 da3d e246 903e 1449 82bd d688 5e3e
00000140: e28f 443e 92b3 10be c11c b03d c37b 923d
00000150: 380a 5c3e 9953 9a3e af3e 1b3e d565 fb3d
00000160: b972 813e 2b10 5a3e 3be6 2d3e 2046 df3d
00000170: 9002 153f 69af a33e b95e 5c3e f38d 4b3e
00000180: 8b6a aa3d f49c d13d 3b2c 2d3e c28a f1bd
00000190: d4e9 8e3e 7b33 07bb eb5e 4d3e 4478 db3d
000001a0: e1e9 a13e ec16 9f3e 97ea b23e 9772 30be
000001b0: b0fd b63b b54c 013e dfba f1bd 5a30 be3e
000001c0: 5698 7a3e 6cbc 7e3e f9a7 853e d8b8 e1bc
000001d0: d58e 8c3d 96ef f23d 2815 593e 08b8 893d
000001e0: 04da 01be 2012 e6bd a008 e83d 7a9f df3d
000001f0: 50c7 dcbc 1a92 0fbe 2047 d9bd 0ea2 c93c
00000200: 4618 eebd 511d a5bc 204e f8bd bcc7 0e3e
00000210: 3b13 87bc c3f6 e0bd 45ca 7a3d d730 4ebd
00000220: 958d f53d 675f 4a3d ff7d 0abc 4e1a c23d
00000230: 4397 0ebd 3a3f 3e3e 17dc 69bd 7dfa b0bd
00000240: c671 c73d 782a 9a3d b832 753d 8efb 253e
00000250: 5ef3 26be 93ea 433d fcbc 9f3d 1b95 76bd
00000260: c3da 91bc 5faf b33d 4b03 35be 2180 f6bb
00000270: db53 40bd f397 80bc 7e2f 38bd 0000 f0bd
00000280: 19e6 8e3d f0e8 c6bd c56a 7ebc b78a b33d
00000290: e4ab cdbd c7ed 23bd 749a 47bd ae9c c1bd
000002a0: 0203 823d 074c 033b c8cd 733d 125d ce3d
000002b0: e53d 53bd 27cc a13b bf9c 3cbd 2b4f 54bd
000002c0: 5ca3 0fbe d68a 16be 414f 10bd 3cb2 a83d
